Lecture8_Image restoration (HuStar_4)/outputs/x3/epoch_49.pth (torch, 231589 bytes, 5 tensors)

conv1.weight f4 [64, 1, 9, 9]
0.011635826 0.036466803 -0.036858648 0.06716221 -0.070216306 0.0961441 -0.064920515 -0.06955419
-0.024696628 0.06827788 -0.045611456 0.029937545 -0.1055322 -0.080088325 -0.05829803 -0.038609028
-0.10937598 0.06695037 -0.014393016 0.027004924 0.0702438 0.021757852 0.043461256 0.11575203
-0.054263506 0.009356565 -0.07377023 0.051623262 0.041441433 -0.13137542 0.11094826 0.10450326
0.093166225 0.064415485 0.074647725 -0.04595841 -0.12555471 -0.07388324 -0.08610809 0.06626901
0.06414985 -0.004696385 0.005151811 0.088387415 -0.036520302 -0.009862625 -0.04337465 0.02089489
0.1504751 0.11939557 0.052980214 0.013550175 0.009899622 0.022276675 -0.0010227623 -0.13203256
-0.08578772 0.09829567 0.0015316657 -0.12073285 -0.0060542393 0.09418041 -0.101474784 -0.016856499
-0.06322564 -0.031901415 -0.059553333 -0.046672124 -0.15112488 0.04309027 0.12678295 0.08830221
0.043618616 -0.07367777 0.008390173 -0.039352544 0.022874802 -0.12646429 0.0024455755 0.10887151
0.052230112 0.017931214 0.029648477 0.013321309 -0.072141685 -0.07670654 -0.11468692 0.070496604
0.0313741 0.0061874418 -0.08591096 0.084306754 0.050871506 0.063194476 -0.077212155 -0.012990134
0.114723824 0.08603341 0.09419463 -0.038439788 0.068437405 -0.078676105 0.0041408376 -0.080743276
-0.04716793 -0.010599751 0.027994264 0.10310469 0.027277876 -0.023907382 0.09086849 -0.047141504
0.052730877 -0.03751677 -0.013114798 0.018090855 -0.10355348 -0.008772816 0.021734755 0.12013295
-0.009537302 0.042907797 0.07934339 -0.050504822 0.108173065 -0.07310234 0.027066343 0.019985242
0.047873903 0.09815106 -0.059735592 -0.020374728 -0.013826229 -0.07815284 -0.03673525 -0.100523986
0.013013815 0.012649406 0.0045511653 -0.06648725 -0.062443834 -0.051677875 0.045373607 0.1050436
0.014569183 -0.06554039 -0.054054048 0.011535431 -0.101937585 -0.12638555 -0.07373461 -0.010810543
0.0104514165 0.0958777 0.046760853 0.11844316 -0.04200396 0.024150152 -0.096810915 0.10280236
0.07907456 0.13025275 -0.062034335 0.11736176 0.13376653 0.15550756 0.109015666 0.18340166
0.123281725 0.083429016 -0.041720457 -0.103972256 -0.032234255 -0.030656615 -0.13176374 -0.09583324
-0.13101803 -0.06587198 0.043031048 -0.057878237 0.001283233 0.0013913116 0.045253146 -0.13101579
-0.09928122 -0.047449492 -0.07407129 0.035187673 0.04875755 -0.07235853 -0.05899888 -0.07949422
0.06843408 0.1333222 -0.04964229 -0.022706134 0.061716884 -0.041094273 0.11371576 0.048253063
-0.0026652804 0.045295414 0.08142442 -0.013881546 -0.07505831 0.016116783 0.025887785 0.016926015
-0.0064371782 0.089309245 -0.0037929825 0.022419702 0.062880345 -0.06746688 0.04218474 -0.008083675
0.06146953 -0.07587404 -0.008810933 -0.0015114291 -0.09935737 -0.09624678 0.027536545 -0.029519618
0.07013708 -0.05782062 -0.035443712 -0.079593435 0.04961073 0.016164811 -0.0032768776 -0.0043615554
-0.06885264 0.04717816 0.048412003 -0.057851624 0.05491212 0.0033194406 -0.07781809 0.08217688
0.06891801 -0.021958862 -0.0768441 0.008554295 0.07923708 0.08854248 -0.09505317 -0.05903217
0.081785455 0.050138 0.058247477 -0.06597177 0.09817429 -0.09493194 -0.013661619 -0.003668894
00000000: 31a4 3e3c 375e 153d 18f9 16bd 578c 893d
00000010: 91cd 8fbd 33e7 c43d 0cf5 84bd 6d72 8ebd
00000020: 9550 cabc 46d5 8b3d 14d3 3abd 953f f53c
00000030: 4421 d8bd 5905 a4bd eac9 6ebd 8024 1ebd
00000040: 8400 e0bd 471d 893d afd0 6bbc 6e39 dd3c
00000050: fbdb 8f3d 863d b23c 6e04 323d 660f ed3d
00000060: 6943 5ebd 474c 193c d914 97bd ea72 533d
00000070: 7ebe 293d 4787 06be d738 e33d ce05 d63d
00000080: efcd be3d 44ec 833d e8e0 983d e33e 3cbd
00000090: 6a91 00be 1950 97bd 7059 b0bd 0cb8 873d
000000a0: ff60 833d 22e4 99bb 86d0 a83b 7604 b53d
000000b0: 5096 15bd d996 21bc 9ea9 31bd c32b ab3c
000000c0: 2516 1a3e aa85 f43d c801 593d 8e01 5e3c
000000d0: 0632 223c 937d b63c 350e 86ba 8b33 07be
000000e0: 79b1 afbd 3d4f c93d 2cc2 c83a c942 f7bd
000000f0: a462 c6bb a9e1 c03d 03d2 cfbd a416 8abc
00000100: 727c 81bd 0fab 02bd 32ee 73bd 452b 3fbd
00000110: 7bc0 1abe 6c7f 303d 64d3 013e cad7 b43d
00000120: 6fa9 323d 5fe4 96bd f076 093c 2230 21bd
00000130: f063 bb3c db7f 01be f345 203b 07f8 de3d
00000140: 3eef 553d 7be4 923c 5de1 f23c 9f41 5a3c
00000150: 05bf 93bd 5218 9dbd fae0 eabd 8660 903d
00000160: 2182 003d 06c0 ca3b 16f2 afbd 05a9 ac3d
00000170: a45e 503d 1b6c 813d 6821 9ebd 92d4 54bc
00000180: 53f4 ea3d 4932 b03d 1de9 c03d 0a73 1dbd
00000190: e928 8c3d f020 a1bd ddaf 873b bb5c a5bd
000001a0: 2933 41bd 94aa 2dbc 3a54 e53c 8d28 d33d
000001b0: da75 df3c 6ad9 c3bc 4219 ba3d 7317 41bd
000001c0: 55fc 573d 2fab 19bd 73df 56bc 4633 943c
000001d0: d913 d4bd dbbb 0fbc 160d b23c 4408 f63d
000001e0: 5842 1cbc 16c0 2f3d ca7e a23d 25de 4ebd
000001f0: d789 dd3d aeb6 95bd 3cba dd3c 17b8 a33c
00000200: 6d17 443d 6c03 c93d 4fad 74bd e7e8 a6bc
00000210: 6887 62bc 990e a0bd b477 16bd 85df cdbd
00000220: e537 553c 743f 4f3c f121 953b 782a 88bd
00000230: 1bc5 7fbd 2eac 53bd add9 393d 1921 d73d
00000240: 95b3 6e3c 0a3a 86bd c767 5dbd 1bff 3c3c
00000250: a7c4 d0bd 376b 01be 2c02 97bd b41e 31bc
00000260: 6b3c 2b3c 875b c43d 4f88 3f3d 5492 f23d
00000270: 580c 2cbd 8ad6 c53c cd44 c6bd 0b8a d23d
00000280: d8f1 a13d fa60 053e b717 7ebd 5d5b f03d
00000290: 18fa 083e 603d 1f3e 9b43 df3d a5cd 3b3e
000002a0: 217b fc3d d5dc aa3d 12e3 2abd 68ef d4bd
000002b0: 1108 04bd 9523 fbbc 13ed 06be 3844 c4bd
000002c0: 9729 06be e3e7 86bd 5341 303d bb11 6dbd
000002d0: 2832 a83a ac5c b63a 5d5b 393d 0129 06be
000002e0: f453 cbbd 665a 42bd b0b2 97bd f320 103d
000002f0: ffb5 473d b530 94bd cfa8 71bd decd a2bd
00000300: 2b27 8c3d 9d85 083e b755 4bbd 3702 babc
00000310: d8ca 7c3d 7852 28bd cfe3 e83d 01a5 453d
00000320: fcab 2ebb af87 393d d9c1 a63d 6d6f 63bc
00000330: 2cb8 99bd 5807 843c 9f12 d43c 6da8 8a3c
00000340: f7ee d2bb c4e7 b63d b093 78bb 86a9 b73c
00000350: 69c7 803d 132c 8abd e8c9 2c3d 6471 04bc
00000360: 79c7 7b3d d963 9bbd bb5b 10bc 251b c6ba
00000370: e07b cbbd 081d c5bd 5294 e13c 20d3 f1bc
00000380: 08a4 8f3d 50d5 6cbd 6d2d 11bd e201 a3bd
00000390: 9f34 4b3d 116c 843c e2c0 56bb 61eb 8ebb
000003a0: 9d02 8dbd e33d 413d aa4b 463d d3f5 6cbd
000003b0: 88eb 603d f98a 593b 175f 9fbd 5a4c a83d
000003c0: e324 8d3d 12e3 b3bc 7160 9dbd 5027 0c3c
000003d0: 0d47 a23d c255 b53d 3dab c2bd b7cb 71bd
000003e0: 227f a73d 815d 4d3d e894 6e3d 351c 87bd
000003f0: 9a0f c93d ad6b c2bd fcd4 5fbc d471 70bb

conv1.bias f4 [64]
0.016090754 -0.106138855 0.02311019 -0.0493015 0.06457278 0.010615226 0.052367788 -0.022268774
0.117931396 -0.039970793 0.0048416797 0.026256144 -0.12643942 0.15944746 0.063960694 0.018569278
-0.02923419 -0.06112698 0.060518954 0.032611072 0.02071342 -0.009942621 -0.059522614 0.073472865
-0.08787753 0.049443115 -0.008658387 0.009430687 0.02229048 0.0415227 0.09337403 -0.0064486032
0.037810415 0.07230915 -0.0017450083 -0.07197252 -0.0033913937 0.07781757 -0.041606963 0.041790772
0.016343478 -0.02808102 0.09741633 -0.021255096 0.03432936 -0.015777081 -0.014053686 -0.020881724
0.009603357 -0.049942616 -0.016594186 0.07684633 0.015205025 0.009742736 0.008418073 0.017183192
0.09139298 -0.03235015 -0.013700942 0.0703974 0.032444466 -0.014383163 -0.055346314 -0.08582567
00000000: c2d0 833c 545f d9bd 9551 bd3c 5ff0 49bd
00000010: bc3e 843d 7ceb 2d3c 9b7f 563d 016d b6bc
00000020: 0486 f13d 6ab8 23bd f4a6 9e3b 2017 d73c
00000030: 5679 01be 3246 233e d3fd 823d 991e 983c
00000040: 8a7c efbc 4960 7abd b9e2 773d 3093 053d
00000050: 31af a93c 60e6 22bc fccd 73bd f178 963d
00000060: 22f9 b3bd dd84 4a3d e8db 0dbc 2b83 1a3c
00000070: 869a b63c b513 2a3d e23a bf3d ce4e d3bb
00000080: 18df 1a3d d216 943d c3b8 e4ba 5466 93bd
00000090: 2542 5ebb d15e 9f3d 106c 2abd cd2c 2b3d
000000a0: c2e2 853c 2b0a e6bc 3682 c73d 2b1f aebc
000000b0: f19c 0c3d f03e 81bc 6e41 66bc 2610 abbc
000000c0: 6657 1d3c a190 4cbd 88f0 87bc 9c61 9d3d
000000d0: 7f1e 793c ff9f 1f3c f5eb 093c c4c3 8c3c
000000e0: 3e2c bb3d 9781 04bd ea79 60bc 832c 903d
000000f0: 7de4 043d 5ca7 6bbc d1b2 62bd 5ec5 afbd

conv2.weight f4 [32, 64, 5, 5]
0.0042121615 0.00013616549 0.049492996 0.073907085 -0.101962745 0.025574073 -0.035452463 -0.014827672
0.040747494 -0.017293293 0.03367873 -0.009358661 -0.011892503 0.004722962 0.044290047 -0.011801529
0.019339632 0.016830258 0.022715649 0.04955654 -0.019643156 -0.012155384 -0.04252358 0.029306415
-0.003577274 0.0033536972 0.027666362 -0.018368118 -0.030565435 -0.031625587 0.005844796 0.022706067
0.0025203116 0.012447024 0.004996387 0.07075202 0.020208267 0.012574448 0.035881862 0.091437794
0.020874768 0.009370267 -0.045693524 -0.013212127 0.029353876 -0.08148464 -0.011576042 -0.016352357
-0.024961645 0.005701553 -0.14603692 -0.15922856 -0.20370248 -0.16398302 -0.24782403 -0.084552534
-0.09635846 -0.066985175 -0.016198337 -0.07957428 0.02838024 0.0075108088 -0.022072157 0.04172406
0.011603813 0.020720746 0.06919657 0.039301857 0.054834396 0.04236953 -0.011548973 0.002118321
-0.0240774 -0.011397232 0.018362492 0.030014182 0.0018415145 0.007221222 -0.0073284577 -0.03276254
0.020891523 0.029604897 -0.00767917 0.008404376 0.010162747 0.01049903 -0.013989643 -0.037767462
0.036728736 0.0046033836 -0.0006001888 0.008139146 -0.01536054 0.025719998 0.005186762 0.028210098
-0.006799756 -0.0065817395 -0.01893342 0.005746454 -0.03718139 -0.06771034 -0.0292423 -0.015564192
-0.022964638 0.0027954224 -0.012080055 -0.0027827863 0.0041582924 0.016561018 0.012345362 0.004513753
0.057211712 0.03447779 -0.0011514222 -0.016669646 0.0065750154 -0.021713542 0.00029034 -0.0003971679
-0.035619743 -0.035040338 -0.050555695 -0.06349372 -0.039675336 0.077425934 -0.025402779 0.077984296
0.028491838 0.108521804 -0.05130233 -0.030401895 -0.02997368 -0.015155255 0.0074974624 -0.012073586
0.0060204677 0.030339018 0.0037841508 0.0009805008 0.024064405 0.03859716 0.037040062 0.012861694
0.0072225686 -0.04811074 -0.047708824 -0.015694795 -0.05685672 -0.08804777 0.008032662 0.014985564
-0.007505085 0.010448833 -0.03758751 0.005288712 -0.012290308 -0.030524459 -0.027935544 0.0045963386
-0.02890354 -0.04154143 0.0034384753 0.00041474725 -0.026797798 0.011395191 -0.0049706544 0.01263242
0.0073984615 0.012720297 0.0064222147 0.009697287 0.031685665 0.02611125 0.0035997648 0.040794972
0.06701241 0.041041363 -0.0062213303 0.047186185 0.00763028 -0.031640176 0.054393325 0.018274099
-0.0134000685 0.008785484 -0.022455325 -0.023313006 0.0350746 0.045625687 0.0123078525 -0.0054622027
-0.08411129 -0.013282729 0.060788427 0.027457371 0.11375607 -0.0045432597 -0.064555824 0.035544883
-0.06600721 0.0150585575 0.009909503 0.002525717 -0.009621932 0.050520055 0.039120615 0.0124445055
-0.03329543 -0.034822088 0.09115935 0.0010337707 -0.015576159 3.385507e-05 -0.054862082 0.042446066
0.022438793 0.011962857 0.013638367 -0.03372094 -0.043677893 0.029261485 0.01002809 -0.004619109
-0.0025493228 -0.0044308323 0.0041787126 -0.0034559509 0.003865264 0.00808689 0.01788306 0.0030511245
0.03375599 0.033410553 -0.004172244 -0.02253634 -0.019929267 -0.007873144 0.0015754391 -0.017477479
-0.053030025 -0.03305004 -0.021850247 -0.026216371 -0.023384724 -0.033435695 -0.03483652 -0.03945804
-0.024556192 -0.01162165 -0.025237171 -0.032198202 -0.01614997 0.017064303 0.01432352 -0.03255413
00000000: 2c06 8a3b a5c7 0e39 2bb9 4a3d 995c 973d
00000010: d8d1 d0bd b880 d13c 9a36 11bd c4ef 72bc
00000020: d8e6 263d aaaa 8dbc b5f2 093d 1255 19bc
00000030: c6d8 42bc 14c3 9a3b 7b69 353d 335b 41bc
00000040: 266e 9e3c 9cdf 893c 2b16 ba3c ccfb 4a3d
00000050: afea a0bc 6027 47bc 352d 2ebd 0214 f03c
00000060: b370 6abb b4c9 5b3b 91a4 e23c bc78 96bc
00000070: 5d64 fabc d589 01bd b485 bf3b 1302 ba3c
00000080: d02b 253b 9aee 4b3c bbb8 a33b 6fe6 903d
00000090: cf8b a53c 0f05 4e3c dcf8 123d bd43 bb3d
000000a0: 9001 ab3c c085 193c 2229 3bbd ad77 58bc
000000b0: 8a77 f03c 6be1 a6bd 70a9 3dbc 61f5 85bc
000000c0: 5d7c ccbc 18d4 ba3b b48a 15be d00c 23be
000000d0: 6297 50be 2aeb 27be 95c5 7dbe e129 adbd
000000e0: 9657 c5bd 862f 89bd 60b2 84bc d7f7 a2bd
000000f0: ad7d e83c 3b1d f63b abd0 b4bc d9e6 2a3d
00000100: eb1d 3e3c 8ebe a93c eeb6 8d3d fcfa 203d
00000110: 089a 603d ac8b 2d3d e737 3dbc 87d3 0a3b
00000120: f83d c5bc 75bb 3abc f06c 963c 4de0 f53c
00000130: f95e f13a 00a0 ec3b 8f23 f0bb 0332 06bd
00000140: b324 ab3c f885 f23c 8ca1 fbbb 82b2 093c
00000150: a781 263c 2004 2c3c d134 65bc 0eb2 1abd
00000160: df70 163d fbd7 963b fd55 1dba 0d5a 053c
00000170: c6aa 7bbc bfb2 d23c b7f5 a93b dd18 e73c
00000180: 7dd0 debb a2ab d7bb 421a 9bbc c04c bc3b
00000190: 834b 18bd b8ab 8abd 8c8d efbc f400 7fbc
000001a0: 5620 bcbc 6833 373b 6ceb 45bc 685f 36bb
000001b0: 4942 883b f9aa 873c 3444 4a3c 1be8 933b
000001c0: d456 6a3d 9538 0d3d 51eb 96ba c88e 88bc
000001d0: 3a73 d73b 99e0 b1bc c638 9839 f93a d0b9
000001e0: 02e6 11bd 7586 0fbd 7d13 4fbd ff08 82bd
000001f0: 9b82 22bd 7d91 9e3d 7d19 d0bc 3bb6 9f3d
00000200: b767 e93c ae40 de3d 6422 52bd 650d f9bc
00000210: 5d8b f5bc bf4d 78bc 46ad f53b 4ad0 45bc
00000220: 5847 c53b 8889 f83c 84ff 773b 2684 803a
00000230: b722 c53c 0e18 1e3d 52b7 173d dbb9 523c
00000240: 4cab ec3b c40f 45bd 546a 43bd 5f92 80bc
00000250: 98e2 68bd 6452 b4bd 6d9b 033c 0386 753c
00000260: 37ed f5bb 9531 2b3c 5cf5 19bd ef4c ad3b
00000270: 4a5d 49bc 6e0e fabc 15d9 e4bc e29c 963b
00000280: 1ec7 ecbc 5927 2abd 0b58 613b 6f72 d939
00000290: 0e87 dbbc e5b2 3a3c dfe0 a2bb 36f8 4e3c
000002a0: cb6e f23b cb68 503c 7171 d23b 5fe1 1e3c
000002b0: d4c8 013d 43e7 d53c 08ea 6b3b a118 273d
000002c0: cd3d 893d fd1a 283d 4ddc cbbb 4d46 413d
000002d0: 6e07 fa3b 2199 01bd 89cb 5e3d 90b3 953c
000002e0: f68b 5bbc fef0 0f3c 3bf4 b7bc ebfa bebc
000002f0: 62aa 0f3d 00e2 3a3d e0a6 493c 47fc b2bb
00000300: 8a42 acbd ce9f 59bc 49fd 783d 48ee e03c
00000310: f1f8 e83d a0df 94bb d835 84bd 8397 113d
00000320: ca2e 87bd 2bb8 763c 785b 223c 8086 253b
00000330: 4fa5 1dbc 1eee 4e3d f03c 203d 0ae4 4b3c
00000340: ca60 08bd 9ba1 0ebd c1b1 ba3d 977f 873a
00000350: 2533 7fbc 9bff 0d38 10b7 60bd eddb 2d3d
00000360: 8fd1 b73c dcff 433c 7573 5f3c f81e 0abd
00000370: 97e7 32bd c8b5 ef3c dc4c 243c e55b 97bb
00000380: 8a12 27bb 8430 91bb 95ed 883b 3c7d 62bb
00000390: 5e50 7d3b e07e 043c 7f7f 923c 60f5 473b
000003a0: b943 0a3d 81d9 083d 52b7 88bb 219e b8bc
000003b0: b442 a3bc 5cfe 00bc f77e ce3a ee2c 8fbc
000003c0: 0336 59bd 7b5f 07bd 4aff b2bc b7c3 d6bc
000003d0: 5291 bfbc def3 08bd bdb0 0ebd c19e 21bd
000003e0: 112a c9bc bc68 3ebc 2fbe cebc 43e2 03bd
000003f0: f14c 84bc 70ca 8b3c 32ad 6a3c 7b57 05bd

conv2.bias f4 [32]
-0.015896492 -0.017890364 -0.0030025952 -0.009621379 0.02534851 0.015343557 -0.0070163836 0.008754486
0.021746868 -0.00981208 0.0003183427 -0.0064184363 0.028027259 0.01225296 0.035306532 -0.006955734
-0.0145216845 -0.017994521 0.0076828655 0.023027536 0.02447185 0.012928782 -0.014819981 -0.0035159204
-0.00711068 0.03424039 0.023356242 0.020642176 0.008875429 -0.002929589 -0.017463094 0.0002778915
00000000: 5c39 82bc d08e 92bc 30c7 44bb fda2 1dbc
00000010: aea7 cf3c 8b63 7b3c b1e9 e5bb fa6e 0f3c
00000020: 7d26 b23c d9c2 20bc 3ce7 a639 bf51 d2bb
00000030: 6c99 e53c a4c0 483c 959d 103d edec e3bb
00000040: 5cec 6dbc 3f69 93bc 8cc0 fb3b 3ea4 bc3c
00000050: 3079 c83c 3ed3 533c 81cf 72bc 5b6b 66bb
00000060: b500 e9bb a73f 0c3d 9755 bf3c c819 a93c
00000070: 3f6a 113c 59fe 3fbb c30e 8fbc f7b1 9139

conv3.weight f4 [1, 32, 5, 5]
0.0172261 0.017580573 -6.588219e-05 0.026937198 0.03213557 -0.03058172 -0.000549624 -0.03807257
0.00033921225 0.010377797 -0.0054255174 0.025815932 0.005949787 -0.03725844 -0.0070176036 -0.019163372
-0.03009451 -0.0022127447 -0.034696072 0.019152226 0.0026070126 0.013844428 0.023233913 0.031284187
-0.016050765 0.0015858819 -0.033867545 0.008101285 0.026261076 -0.02268715 0.020033589 -0.016657079
0.010213532 -0.015724968 0.0064831944 -0.033790477 0.026349157 -0.008012142 0.032479696 -0.012716717
0.015106414 -0.017278604 -0.015528794 -0.009708532 0.016877554 0.014249054 0.020443998 -0.0061688577
0.0037783678 0.021667084 -0.013818718 -0.01103846 0.027106043 -0.029996548 -0.01714004 -0.019251041
-0.0068968413 -0.025834698 0.008299999 -0.02439194 -0.015244027 -0.03403906 0.023344064 -0.022047883
-0.004441951 -0.020721605 -0.0043843403 -0.007163225 -0.011715759 -0.0006999935 0.015136737 0.029306004
0.025809411 -0.02614736 -0.0041768216 -0.057692617 0.0154617755 0.020377623 -0.004148523 0.0053379694
0.040369682 0.0447892 -0.00010612601 -0.013911411 0.0036588304 0.045824442 0.034573667 0.010675174
-0.018280081 -0.0059797387 0.005562307 -0.019214151 -0.06800926 -0.03718983 -0.0010720992 -0.006393984
-0.025225777 -0.027162109 0.0035072174 0.039889187 0.005851574 0.0075253216 0.014235686 -0.0030039863
0.0037536528 -0.007953082 0.031555943 -0.00032952387 0.025094438 -0.020570172 -0.02798368 0.0042962623
-0.03212675 0.0203458 0.02033472 0.028433966 0.031528655 0.011070812 0.013031623 -0.0058206264
0.032015435 0.0145427715 -0.008942409 -0.03345586 0.0034661181 0.0050698468 0.03448912 0.029372029
0.032418173 0.002424842 0.011016402 -0.02416492 0.008181797 0.011085788 -0.01575047 -0.019654088
0.010314836 -0.026094686 -0.014310251 0.028999878 0.023295386 -0.03524774 -0.03546422 0.023340307
-0.004873451 0.0065396675 -0.021844763 -0.013160742 0.028267106 -0.021777244 0.0123715475 0.001256163
0.011374387 0.0017264211 -0.0069335736 0.012664544 0.009632725 -0.0030632063 0.024273887 0.032367177
0.018653035 -0.010292829 -0.026162997 -0.024329588 -0.01729211 -0.003241056 0.01795328 0.009619972
0.031452924 -0.03508529 -0.020588858 0.032198012 -0.025009079 0.02298988 0.0008821241 -0.004043966
0.025099514 0.027451362 -0.014326167 -0.0019712057 0.033135958 0.029533273 0.01437863 -0.021167219
-0.02367358 0.02541508 0.02040022 -0.0037109032 0.034409735 0.024980264 -0.0077862334 0.01537659
0.034429904 0.020621696 -0.017032268 -0.03344046 0.010692196 0.013202409 -0.03478217 0.005251619
-0.011757631 -0.0017776068 -0.027215803 -0.018177316 0.034878198 0.012092768 -0.016694192 -0.049893126
-0.0024629182 0.0032758315 -0.012259427 0.037198614 0.057818294 -0.027836256 -0.0018971454 -0.049575094
0.06988109 0.07296168 -0.032046083 -0.031144848 -0.020448674 -0.02053101 0.03543249 -0.0029271583
-0.0247661 0.03433269 -0.013464269 0.014495605 0.021668753 0.011036345 0.033194434 -0.02521189
0.0032560583 -0.001427247 0.016340347 -0.01538675 -0.021415237 -0.027669745 0.024213517 0.010564926
-0.033790004 -0.0025248146 -0.030082928 -0.03038254 0.022027893 -0.018542273 0.020609733 0.032510024
0.004618179 0.014940895 -0.030883787 -0.0150895035 -0.0019466875 0.0075541097 0.01429293 0.019060327
00000000: c01d 8d3c 2205 903c 3b2a 8ab8 66ab dc3c
00000010: 96a0 033d 8486 fabc a414 10ba fcf1 1bbd
00000020: 4cd8 b139 a307 2a3c 8ac8 b1bb ef7b d33c
00000030: 6ef6 c23b 4e9c 18bd edf3 e5bb 81fc 9cbc
00000040: c388 f6bc b203 11bb 781d 0ebd 21e5 9c3c
00000050: 6ada 2a3b bdd3 623c 0c55 be3c d923 003d
00000060: e57c 83bc 5edd cf3a b2b8 0abd 41bb 043c
00000070: 7821 d73c 67da b9bc 7b1d a43c 6d74 88bc
00000080: a856 273c a6d1 80bc fa70 d43b e267 0abd
00000090: 30da d73c 5c45 03bc 6e09 053d c759 50bc
000000a0: e580 773c dc8b 8dbc 7c6c 7ebc 8910 1fbc
000000b0: cc42 8a3c dd74 693c 2c7a a73c 2124 cabb
000000c0: 7e9e 773b 2b7f b13c e767 62bc a8da 34bc
000000d0: 7e0d de3c 52bb f5bc 4569 8cbc 5cb4 9dbc
000000e0: e6fe e1bb 4aa3 d3bc b8fc 073c 9bd1 c7bc
000000f0: 15c2 79bc 8b6c 0bbd 0d3c bf3c c39d b4bc
00000100: c98d 91bb 5bc0 a9bc 83aa 8fbb 7db9 eabb
00000110: 74f3 3fbc c57f 37ba 1400 783c 2513 f03c
00000120: 426e d33c fd32 d6bc b8dd 88bb 184f 6cbd
00000130: 6353 7d3c f9ee a63c 55f0 87bb 22ea ae3b
00000140: ae5a 253d e174 373d f88f deb8 b0ec 63bc
00000150: fdc8 6f3b 69b2 3b3d 1e9d 0d3d ede6 2e3c
00000160: 1cc0 95bc aff1 c3bb 0344 b63b ff66 9dbc
00000170: 7048 8bbd 5d54 18bd ae85 8cba a084 d1bb
00000180: 4aa6 cebc 1283 debc 58d9 653b d862 233d
00000190: 8fbe bf3b f996 f63b cb3c 693c 87de 44bb
000001a0: d8ff 753b a54d 02bc ce40 013d f2c3 acb9
000001b0: da92 cd3c c782 a8bc 083e e5bc a9c7 8c3b
000001c0: 5797 03bd 3cac a63c 0095 a63c 59ee e83c
000001d0: 3124 013d 5a62 353c 9782 553c f4ba bebb
000001e0: 9e22 033d ce44 6e3c 2f83 12bc 0309 09bd
000001f0: d027 633b f520 a63b 7744 0d3d 9c9d f03c
00000200: ebc8 043d 19ea 1e3b 247e 343c 83f5 c5bc
00000210: f20c 063c 2aa1 353c 2107 81bc 9c01 a1bc
00000220: 8fff 283c 86c4 d5bc 8b75 6abc 2791 ed3c
00000230: f7d5 be3c ef5f 10bd ee42 11bd 2c34 bf3c
00000240: 78b1 9fbb b54a d63b caf3 b2bc 27a0 57bc
00000250: 6b90 e73c 3166 b2bc 08b2 4a3c d6a5 a43a
00000260: a35b 3a3c 1449 e23a 0833 e3bb f37e 4f3c
00000270: 94d2 1d3c 13c0 48bb 08da c63c 7293 043d
00000280: 40ce 983c 41a3 28bc c853 d6bc d84e c7bc
00000290: 2fa8 8dbc e667 54bb c212 933c 169d 1d3c
000002a0: c8d4 003d 98b5 0fbd f7a9 a8bc 10e2 033d
000002b0: d7df ccbc 4655 bc3c 593e 673a 3f83 84bb
000002c0: 7f9d cd3c aee1 e03c 4db8 6abc 582f 01bb
000002d0: 92b9 073d c3ef f13c 5894 6b3c e066 adbc
000002e0: 18ef c1bc 4933 d03c 5d1e a73c a032 73bb
000002f0: 39f1 0c3d 69a3 cc3c a923 ffbb 18ee 7b3c
00000300: 5f06 0d3d d5ee a83c 4187 8bbc ddf8 08bd
00000310: 522e 2f3c eb4e 583c c077 0ebd c615 ac3b
00000320: 14a3 40bc 96fe e8ba adf3 debc 98e8 94bc
00000330: 71dc 0e3d bf20 463c 42c2 88bc bc5c 4cbd
00000340: e968 21bb 55af 563b c4db 48bc 935d 183d
00000350: e0d2 6c3d dc08 e4bc a3a9 f8ba 410f 4bbd
00000360: d11d 8f3d ef6c 953d c142 03bd 7b23 ffbc
00000370: fa83 a7bc a630 a8bc a921 113d 91d5 3fbb
00000380: 47e2 cabc 6fa0 0c3d 3d99 5cbc f97e 6d3c
00000390: ab82 b13c c9d1 343c e3f6 073d 2a89 cebc
000003a0: 9863 553b 7612 bbba 31dc 853c b518 7cbc
000003b0: 026f afbc a9ab e2bc 6d5b c63c 8318 2d3c
000003c0: 6367 0abd 5c77 25bb 7970 f6bc cee4 f8bc
000003d0: d773 b43c f7e5 97bc bed5 a83c 3b29 053d
000003e0: 1854 973b a8ca 743c ffff fcbc f739 77bc
000003f0: fe27 ffba 7788 f73b e52c 6a3c 6724 9c3c
