Lecture8_Image restoration (HuStar_4)/outputs/x3/epoch_35.pth (torch, 231589 bytes, 5 tensors)

conv1.weight f4 [64, 1, 9, 9]
0	0x3c012853	0.007883149
1	0x3cca0883	0.024662262
2	0xbd356528	-0.044285923
3	0x3d79bc20	0.060970426
4	0xbd9f5931	-0.07780684
5	0x3dc41c4a	0.09575708
6	0xbd8aea48	-0.06782967
7	0xbd9be908	-0.076128066
8	0xbd32c024	-0.04364027
9	0x3d8da01b	0.06915303
10	0xbd4890ba	-0.048966147
11	0x3d02e35b	0.031955104
12	0xbdcd2b4c	-0.10018024
13	0xbd9ab981	-0.07554913
14	0xbd457296	-0.04820498
15	0xbcff3fc0	-0.031158328
16	0xbdce8c07	-0.10085302
17	0x3d84629d	0.064641215
18	0xbc76d052	-0.015064316
19	0x3ccf2057	0.025283976
20	0x3d946c98	0.07247275
21	0x3cc970b1	0.024589868
22	0x3d2d34fa	0.04228685
23	0x3df4bf44	0.119505435
24	0xbd4c0aa8	-0.04981485
25	0x3c9b441e	0.01895338
26	0xbd8f3571	-0.06992615
27	0x3d7a47a1	0.061103467
28	0x3d54abbd	0.051921595
29	0xbdfba426	-0.12287168
30	0x3de1c0a4	0.110230714
31	0x3dc019c7	0.09379917
32	0x3db3c3d4	0.087775856
33	0x3d7ff38c	0.062488124
34	0x3da644ab	0.08118566
35	0xbd2597f7	-0.040428128
36	0xbdef15d9	-0.11674089
37	0xbd89a4c6	-0.06720881
38	0xbdaf6b8f	-0.08565437
39	0x3d59eeef	0.05320638
40	0x3d3ab6b4	0.045584396
41	0xbc19ba05	-0.009382729
42	0x3bfc0ba0	0.0076918155
43	0x3dc63aed	0.09679208
44	0xbcf546e8	-0.029941037
45	0xbc225b18	-0.009909414
46	0xbd399ac3	-0.045313608
47	0x3c801ee6	0.015639734
48	0x3e0ac386	0.13551149
49	0x3dd52d9b	0.10409089
50	0x3d5f7e95	0.054564077
51	0x3ca0f4ae	0.019647922
52	0x3c8249de	0.015904363
53	0x3cd28920	0.025700152
54	0xbb29617a	-0.0025845454
55	0xbe042cb4	-0.12907678
56	0xbda704ec	-0.08155236
57	0x3dc69c37	0.09697764
58	0xba6b2c97	-0.0008971183
59	0xbde16ff0	-0.110076785
60	0x3ad928a2	0.0016567896
61	0x3dc33c26	0.09532957
62	0xbdd33753	-0.10313287
63	0xbcdb88f5	-0.026798705
64	0xbd76cba4	-0.0602528
65	0xbca6ace5	-0.020346114
66	0xbd550b25	-0.05201258
67	0xbd38e955	-0.045144398
68	0xbe0ffa4c	-0.14060324
69	0x3d4036b4	0.04692717
70	0x3dfea79d	0.124343134
71	0x3db10956	0.08644359
72	0x3c70cc5d	0.0146971615
73	0xbdafd33f	-0.08585214
74	0x3c65e9e3	0.014032814
75	0xbd0f362b	-0.034963768
76	0x3c90284c	0.01759734
77	0xbe002390	-0.12513566
78	0x3b3919fd	0.002824425
79	0x3de538e8	0.11192495
80	0x3d78f4e5	0.060780425
81	0x3c4952dc	0.012287822
82	0x3cb55d21	0.022139134
83	0xbb14b2e1	-0.0022689628
84	0xbda2696d	-0.079302646
85	0xbd923d49	-0.071405955
86	0xbdce9adf	-0.10088133
87	0x3d9e4019	0.077270694
88	0x3d1ef15f	0.03880441
89	0x3c72d2ad	0.014820737
90	0xbdb18073	-0.08667078
91	0x3da69225	0.081333436
92	0x3d2b228e	0.041781
93	0x3d7d4f2d	0.061843086
94	0xbd890a3d	-0.06691406
95	0x3ac274c9	0.001483583
96	0x3dec34b6	0.11533491
97	0x3da830ab	0.08212408
98	0x3dba406e	0.0909432
99	0xbd1192da	-0.03554044
100	0x3d8fb765	0.070174016
101	0xbda9904f	-0.08279478
102	0x3bbecfc7	0.005823109
103	0xbd8d1f9d	-0.068907954
104	0xbd0bdd8a	-0.034146823
105	0xbc6b3e94	-0.0143581815
106	0x3c8ee559	0.017443346
107	0x3dc2b19d	0.09506533
108	0x3cdf8f48	0.027290002
109	0xbcc1ce6d	-0.023658002
110	0x3dad7aab	0.08470663
111	0xbd481af7	-0.04885384
112	0x3d7bfdac	0.061521217
113	0xbcc9ce3f	-0.024634479
114	0xbc8a154e	-0.016855862
115	0x3bfd7fe7	0.0077361944
116	0xbde0ec16	-0.1098253
117	0xbc0ddc3a	-0.008658463
118	0x3cbeabd4	0.023275293
119	0x3de85ed9	0.11346216
120	0xbc5e68c8	-0.0135747865
121	0x3d4bdd56	0.04977163
122	0x3dbe2a08	0.092853606
123	0xbd5318bd	-0.051537264
124	0x3dceb801	0.1009369
125	0xbd9c908e	-0.07644759
126	0x3cdb8c6e	0.02680036
127	0x3cc4cc69	0.024023252
128	0x3d2a857f	0.041631218
129	0x3dbcce6d	0.0921906
130	0xbd67ce3c	-0.056593165
131	0xbc1304e5	-0.008973335
132	0xbc6f1712	-0.014592903
133	0xbdb125da	-0.08649798
134	0xbd31aa10	-0.043375075
135	0xbdccaf84	-0.099944144
136	0x3ca9f7b5	0.020747999
137	0x3c25e436	0.0101252105
138	0x3adfa07d	0.0017061379
139	0xbd7df274	-0.0619988
140	0xbd4a45b8	-0.049382895
141	0xbd4f6848	-0.05063656
142	0x3d1bf97f	0.038079735
143	0x3dca60d3	0.09881749
144	0x3c5cb3f7	0.013470641
145	0xbd6fd1fd	-0.05854987
146	0xbd6440e4	-0.055725947
147	0x3c2b830d	0.010468257
148	0xbdc6c0a3	-0.09704711
149	0xbde94d67	-0.113917165
150	0xbd940b32	-0.07228698
151	0xbc8d4110	-0.017242938
152	0x3bb3b80c	0.0054845866
153	0x3db59cd2	0.08867802
154	0x3d4967b6	0.049171172
155	0x3dece643	0.115673564
156	0xbd300d5e	-0.042981498
157	0x3cdefdd4	0.027220644
158	0xbdb74bfc	-0.0895004
159	0x3dc96b16	0.09834878
160	0x3d8b4ca7	0.0680173
161	0x3df8ed8e	0.12154685
162	0xbd6ce9e5	-0.057840247
163	0x3df71a3b	0.1206555
164	0x3e0b08c1	0.13577558
165	0x3e192932	0.14957121
166	0x3dc3fc07	0.09569555
167	0x3e3009bb	0.17191212
168	0x3df2fc9e	0.11864589
169	0x3dc229c7	0.09480625
170	0xbcd38706	-0.02582122
171	0xbdc43057	-0.095795326
172	0xbc8d561b	-0.017252972
173	0xbbf9f596	-0.007628153
174	0xbddd6e7b	-0.10812088
175	0xbda01460	-0.07816386
176	0xbdf01e41	-0.117245205
177	0xbd60d31e	-0.054888837
178	0x3d829398	0.063758075
179	0xbd156a8f	-0.036478575
180	0xbbb7b984	-0.005606832
181	0x3b764096	0.0037575117
182	0x3d6897e6	0.056785487
183	0xbdf35d28	-0.118830025
184	0xbdbe2e72	-0.092862025
185	0xbd334ae9	-0.04377261
186	0xbd963136	-0.07333605
187	0x3d2d0fd0	0.042251408
188	0x3d584a31	0.05280513
189	0xbdb30127	-0.08740454
190	0xbd87f945	-0.06639341
191	0xbda3b45a	-0.07993384
192	0x3d8898ac	0.06669745
193	0x3e01fcc5	0.1269408
194	0xbd65167b	-0.055929642
195	0xbcee9b93	-0.029126918
196	0x3d710145	0.0588391
197	0xbd4b9f02	-0.04971219
198	0x3dd7a75d	0.10529969
199	0x3d374e9f	0.044752713
200	0xbb913b4a	-0.0044321166
201	0x3d21e5be	0.03952574
202	0x3d97f576	0.07419865
203	0xbc8c6342	-0.017137174
204	0xbd9c3952	-0.076281205
205	0x3c832db5	0.016013006
206	0x3ca532fc	0.020165913
207	0x3c0d1157	0.008610091
208	0xbc26aed3	-0.010173517
209	0x3db26ba6	0.087119386
210	0xbc1f99b3	-0.009741235
211	0x3c8baad7	0.017049236
212	0x3d75fb75	0.06005426
213	0xbd8ef307	-0.069799475
214	0x3d21e46c	0.03952448
215	0xbc705038	-0.014667563
216	0x3d72d3fd	0.0592842
217	0xbd954e25	-0.072902955
218	0xbb56c5d3	-0.003277172
219	0x3b274e38	0.00255288
220	0xbdbe9c84	-0.09307197
221	0xbdba5f71	-0.09100235
222	0x3ce687b1	0.028140875
223	0xbd000597	-0.03125533
224	0x3d8876c0	0.06663275
225	0xbd8e354a	-0.06943758
226	0xbd2e05e7	-0.042486098
227	0xbdab4148	-0.08362061
228	0x3d38554b	0.045003217
229	0x3c499311	0.01230313
230	0xbc174af9	-0.0092341835
231	0xbc5f6b43	-0.013636413
232	0xbd9d0f8c	-0.07668981
233	0x3d204473	0.03912778
234	0x3d37e79b	0.04489861
235	0xbd6f43d5	-0.0584143
236	0x3d67f9e3	0.056634795
237	0x3bafa302	0.005360008
238	0xbd9c75b2	-0.07639636
239	0x3dad098f	0.08449089
240	0x3d936f66	0.07198982
241	0xbc6552bb	-0.013996775
242	0xbd93b9b3	-0.07213154
243	0x3bafb5ef	0.0053622643
244	0x3da54bec	0.080711216
245	0x3dc23ecf	0.09484636
246	0xbdb82adf	-0.08992552
247	0xbd5f8881	-0.05457354
248	0x3daba137	0.08380359
249	0x3d4f2225	0.050569672
250	0x3d781048	0.060562402
251	0xbd829d62	-0.06377675
252	0x3dc4302b	0.095795
253	0xbdc08028	-0.09399444
254	0xbc20972f	-0.00980167
255	0xbb048183	-0.0020218797

conv1.bias f4 [64]
0	0x3bbd9c01	0.0057864194
1	0xbde1fd0e	-0.110345945
2	0x3c794521	0.0152142355
3	0xbd6c0bed	-0.05762856
4	0x3d65436c	0.0559725
5	0x3bbe7c06	0.0058131246
6	0x3d5d73c1	0.05406547
7	0xbcab5165	-0.020912835
8	0x3dfd838a	0.12378605
9	0xbd30919f	-0.043107625
10	0x3bcece80	0.006311238
11	0x3d11af1b	0.035567384
12	0xbdecf1d0	-0.115695596
13	0x3e095ed0	0.13415074
14	0x3d88780d	0.06663523
15	0x3c9b18ae	0.018932667
16	0xbd00141f	-0.03126919
17	0xbd9297a6	-0.07157831
18	0x3d6a1d4f	0.057156857
19	0x3d15826e	0.03650134
20	0x3c93aa24	0.018025465
21	0x3a26e08f	0.00063658593
22	0xbd8212c0	-0.063512325
23	0x3d960342	0.0732484
24	0xbd991882	-0.074753776
25	0x3d679e0f	0.05654722
26	0xbb922b0d	-0.0044606985
27	0x3b05d52e	0.0020421254
28	0x3cca0fbb	0.024665704
29	0x3d2c7d83	0.042111885
30	0x3db516cf	0.08842241
31	0xbbf0b4c4	-0.0073457677
32	0x3d2717bc	0.04079412
33	0x3d98fdf9	0.074703164
34	0x3a6cc58e	0.00090321235
35	0xbda3cb06	-0.07997708
36	0xbbd742dd	-0.00656925
37	0x3daa1bc2	0.08306076
38	0xbcfff847	-0.031246318
39	0x3d4315e4	0.0476283
40	0x3c581565	0.013188695
41	0xbcc8d46d	-0.024515355
42	0x3dc8d777	0.09806722
43	0xbce1ebc2	-0.027578238
44	0x3d0e8e1b	0.03480349
45	0xbc3b07f6	-0.011415472
46	0xbc8673d1	-0.016412647
47	0xbcab61d6	-0.020920675
48	0x3b30d630	0.0026983134
49	0xbd37295f	-0.04471719
50	0xbc986401	-0.018602373
51	0x3d9968ce	0.07490693
52	0x3c956b2d	0.018239582
53	0x3b5f8d1a	0.0034111203
54	0x3b7c0760	0.0038456544
55	0x3c23c74b	0.009996246
56	0x3dc24db3	0.09487476
57	0xbd296508	-0.041356117
58	0xbc6236ca	-0.013807008
59	0x3d8b12e4	0.067907125
60	0x3d3c7dfa	0.046018578
61	0xbcc49304	-0.023995884
62	0xbd7d3eb4	-0.061827376
63	0xbd9fbc9c	-0.07799646

conv2.weight f4 [32, 64, 5, 5]
0	0x3b995e78	0.004680451
1	0xbb9c68ff	-0.0047732587
2	0x3d277dfa	0.040891625
3	0x3d7a4aa2	0.06110633
4	0xbdac55e2	-0.08414818
5	0x3ca12cc0	0.019674659
6	0xbd03f3e9	-0.032215033
7	0xbca757c2	-0.020427588
8	0x3cb2a5d8	0.021807596
9	0xbcbd035d	-0.023072893
10	0x3d079b48	0.033107072
11	0xbbe49daf	-0.006976805
12	0xbc188e23	-0.009311232
13	0xbba3acad	-0.00499495
14	0x3d0d35d3	0.03447516
15	0xbc48d8e6	-0.012258744
16	0x3c6fe172	0.014641153
17	0x3c194a48	0.009356089
18	0x3c356c17	0.011073134
19	0x3d254b85	0.040355224
20	0xbc69f5c1	-0.014279784
21	0xbc296ba6	-0.010340607
22	0xbd36cf51	-0.044631306
23	0x3c77ad43	0.015116992
24	0xbc24ad38	-0.010051064
25	0x3b33b429	0.0027420616
26	0x3cc0bd6a	0.02352782
27	0x3994a82d	0.0002835406
28	0xbcd91a68	-0.02650185
29	0xbcfd9fdc	-0.030960016
30	0x3c8d9645	0.017283568
31	0x3d223e4a	0.039610185
32	0x3cc3d986	0.023907434
33	0x3c984d5b	0.018591573
34	0x3c2c63f2	0.010521876
35	0x3d5897fb	0.052879315
36	0x3c79040d	0.01519872
37	0x3cc94f32	0.024573896
38	0x3d183192	0.03715665
39	0x3dac450f	0.084116094
40	0x3b2a4e32	0.002598655
41	0xb9d3d285	-0.00040401905
42	0xbd14f726	-0.03636851
43	0xbc20dda1	-0.009818465
44	0x3c8c8eda	0.01715796
45	0xbd8a7081	-0.0675974
46	0xbbbb4446	-0.005714926
47	0xbb98ffb5	-0.0046691545
48	0xbc4c0331	-0.012451933
49	0x3c12d945	0.008962934
50	0xbdf211c8	-0.11819798
51	0xbe089ca8	-0.1334101
52	0xbe35b05b	-0.17743056
53	0xbe0cf72f	-0.13766168
54	0xbe5bb706	-0.21456537
55	0xbd59fec1	-0.053221468
56	0xbd80afe6	-0.0628355
57	0xbd5a21ce	-0.053254895
58	0xbbb831b2	-0.0056211585
59	0xbd6c015d	-0.057618488
60	0x3ca4e212	0.02012733
61	0xba9e983d	-0.0012099814
62	0xbd0c5981	-0.034265045
63	0x3cde4db1	0.027136656
64	0x3c5c8eaf	0.013461753
65	0xbb491425	-0.0030682173
66	0x3d2d90fe	0.042374603
67	0x3cb10f0a	0.021613616
68	0x3cfdcb32	0.03098068
69	0x3cdb7a11	0.026791604
70	0xbc093baa	-0.008376041
71	0x3bf6787f	0.0075216885
72	0xbc2bc44f	-0.010483815
73	0xbbbc8407	-0.0057530436
74	0x3c827305	0.015923986
75	0x3ccd5357	0.025064154
76	0xbb48c6bd	-0.0030636035
77	0xbae8d333	-0.0017763138
78	0xbc43311b	-0.011913563
79	0xbcbacc47	-0.022802485
80	0x3c5d256d	0.0134976925
81	0x3cd467f8	0.025928482
82	0xbc3f147b	-0.011662598
83	0x3b6fb69c	0.003657735
84	0x3c99fcb5	0.018797258
85	0x3c0b3f94	0.008499045
86	0xbc067537	-0.008206657
87	0xbd0d015d	-0.03442513
88	0x3d0e8960	0.03479898
89	0x3c35bab7	0.01109188
90	0xb9b5e976	-0.00034696952
91	0x3c5ead05	0.013591056
92	0xbc23062b	-0.009950201
93	0x3cc9215f	0.024552045
94	0x3c1385ba	0.009004051
95	0x3cdbb261	0.026818456
96	0xbb42313c	-0.0029631397
97	0xbb17e6cb	-0.0023178335
98	0xbc978389	-0.018495338
99	0x3b83fbae	0.0040278053
100	0xbd0f7545	-0.035023946
101	0xbd61f27c	-0.05516289
102	0xbc67207c	-0.014106866
103	0xbbea3b51	-0.0071481843
104	0xbc81db9e	-0.015851792
105	0x3ab5de0e	0.0013875382
106	0xbc29e647	-0.010369844
107	0x3bc039a8	0.005866248
108	0x3c6ca4be	0.0144435745
109	0x3c91afc1	0.017784001
110	0xbaeae2aa	-0.0017920334
111	0xbbc83fc7	-0.0061111185
112	0x3d4515a9	0.04811636
113	0x3cfbd778	0.030742392
114	0xbc312ee1	-0.010814399
115	0xbcb916b9	-0.022593843
116	0x3adc12a3	0.0016790222
117	0xbcc9ddeb	-0.024641952
118	0x3b6452f6	0.0034839488
119	0x3a84a3b2	0.0010119586
120	0xbce58ddf	-0.028021751
121	0xbcc8c18d	-0.024506355
122	0xbd283085	-0.041061897
123	0xbd55adfd	-0.05216788
124	0xbcefa624	-0.029254027
125	0x3d568795	0.052375395
126	0xbd054c4a	-0.032543458
127	0x3d90a9b8	0.07063621
128	0x3d31fead	0.04345577
129	0x3e05ed89	0.13078894
130	0xbd463230	-0.048387706
131	0xbcdfb824	-0.027309485
132	0xbcc25b82	-0.023725275
133	0xbc179d45	-0.009253805
134	0x3c7fd079	0.015613669
135	0xbc5a0d40	-0.013308823
136	0x3ac33074	0.001489176
137	0x3cd68830	0.026187986
138	0xb93f8d26	-0.00018267761
139	0xb9fc9db1	-0.00048182675
140	0x3ccea53e	0.025225278
141	0x3d13b7d2	0.036063977
142	0x3d0931f7	0.033494916
143	0x3c58875b	0.013215865
144	0x3c27980c	0.010229122
145	0xbd0eea26	-0.03489127
146	0xbd07a51f	-0.033116456
147	0x3b627034	0.0034551742
148	0xbd192cbe	-0.037396185
149	0xbd8a059b	-0.067393504
150	0x3bac16ab	0.0052517257
151	0x3bfd6f7c	0.0077342372
152	0xbbe8d8a0	-0.007105902
153	0x3c8fa22e	0.017533388
154	0xbd086900	-0.03330326
155	0x3c76c048	0.015060492
156	0xbb9736be	-0.00461468
157	0xbcd6bbbb	-0.026212564
158	0xbcb87ade	-0.022519525
159	0x3c4b6a1d	0.012415436
160	0xbc93ef30	-0.01805839
161	0xbd0df908	-0.034661323
162	0x3b119151	0.002221186
163	0xbb2caba7	-0.002634743
164	0xbc835b56	-0.016034763
165	0x3c710737	0.014711193
166	0xbc1e70b7	-0.009670428
167	0x3aa9a747	0.0012943529
168	0x3a82ea05	0.0009987956
169	0x3c6c6c90	0.01443018
170	0x3ba041a4	0.0048906375
171	0x3c03e736	0.00805073
172	0x3ceaf71f	0.02868229
173	0x3cd07ed5	0.025451103
174	0x3c2175e6	0.009854769
175	0x3cf35b71	0.029706689
176	0x3d71d6c4	0.059042707
177	0x3d01ccf4	0.0316896
178	0xbacd6b5f	-0.0015672258
179	0x3d5572d1	0.05211145
180	0xbb375e95	-0.002797996
181	0xbd0cdccf	-0.034390267
182	0x3d40ad52	0.04704029
183	0x3c5ec3d9	0.013596498
184	0xbbda9ad3	-0.0066712885
185	0xbbbe5bf1	-0.0058093
186	0xbced00a3	-0.028930968
187	0xbd0bf470	-0.03416866
188	0x3c6d74c6	0.014493173
189	0x3cfb1e55	0.030654112
190	0xbb80551f	-0.003916397
191	0xbc18accc	-0.009318542
192	0xbda9920d	-0.0827981
193	0xbcea5f73	-0.028609967
194	0x3d2cf187	0.042222526
195	0x3b74440e	0.003727201
196	0x3dd3ecf5	0.1034793
197	0x3c038426	0.008027112
198	0xbd8a3314	-0.06748024
199	0x3c04c5f8	0.00810384
200	0xbd8e709f	-0.069550745
201	0x3c2f6318	0.010704778
202	0x3b890237	0.0041811722
203	0xbb291e22	-0.0025805314
204	0xbc05bab3	-0.008162188
205	0x3d4528df	0.04813468
206	0x3d42e062	0.04757727
207	0x3c910ead	0.017707193
208	0xbccefed7	-0.025268001
209	0xbd09c81d	-0.03363811
210	0x3da7add2	0.081874505
211	0x3c6d14d8	0.014470302
212	0xbb07110d	-0.0020609528
213	0x3b72dff8	0.0037059765
214	0xbd58e229	-0.052950058
215	0x3d3e2eed	0.04643147
216	0x3d1b4cec	0.037915155
217	0x3ce5ca33	0.028050518
218	0x3cd1dd0a	0.025618095
219	0xbc805e0d	-0.015669847
220	0xbd319328	-0.04335323
221	0x3cec56c0	0.02884996
222	0x3bd0dc64	0.006373929
223	0xbbd00d84	-0.0063492674
224	0x3bd62212	0.006534823
225	0xbc31e387	-0.010857469
226	0xbab6a447	-0.0013934457
227	0xbc6b0f6b	-0.014346938
228	0xbc29167a	-0.0103203
229	0xba70cfa2	-0.0009186213
230	0x3c3f2af6	0.0116679575
231	0x3a015b8f	0.0004934603
232	0x3cdfe8ae	0.02733263
233	0x3ce2987d	0.027660603
234	0xbb843e34	-0.0040357355
235	0xbca5d2ea	-0.020242173
236	0xbc438573	-0.011933672
237	0xbb34ae63	-0.0027569763
238	0xba7939f9	-0.0009507235
239	0xbcb68bb6	-0.022283416
240	0xbd3eebd7	-0.046611633
241	0xbcba1f78	-0.022720084
242	0xbc2dc342	-0.010605635
243	0xbcc1f454	-0.023676075
244	0xbcab33d8	-0.020898744
245	0xbc79e1b1	-0.015251563
246	0xbcaaa669	-0.020831304
247	0xbcc6f085	-0.02428461
248	0xbc70a4fa	-0.014687771
249	0xbbda2af5	-0.006657953
250	0xbce8ef5e	-0.028434452
251	0xbcf17130	-0.029472917
252	0xbc48e053	-0.012260514
253	0x3c6d16dd	0.014470783
254	0x3c50b00d	0.012737286
255	0xbd0e314b	-0.03471498

conv2.bias f4 [32]
0	0xbc80135f	-0.015634237
1	0xbca38a39	-0.01996337
2	0xbb44c730	-0.0030025952
3	0xbb7190c2	-0.0036859964
4	0x3ccbdc12	0.024885211
5	0x3c817d8f	0.015806941
6	0xbc0ba16b	-0.008522372
7	0x3c0c1c56	0.008551678
8	0x3ca70186	0.020386469
9	0xbc194fad	-0.009357375
10	0x39a6e73c	0.0003183427
11	0xbae59d85	-0.0017518258
12	0x3cdf34fc	0.027246945
13	0x3c870c57	0.016485376
14	0x388f36ae	6.828956e-05
15	0xbc45b706	-0.012067562
16	0xbc731dc9	-0.014838644
17	0xbc9a74e4	-0.018854566
18	0x3c273d62	0.010207506
19	0x3cba5d22	0.022749487
20	0x3cd5be23	0.02609164
21	0x3c40b26d	0.01176129
22	0xbc41b070	-0.011821851
23	0xba895712	-0.001047822
24	0xbba03c3a	-0.004889992
25	0x3cfc4815	0.03079609
26	0x3caed500	0.0213418
27	0x3ca4eaea	0.020131547
28	0x3c089ddb	0.008338417
29	0xbc0515b4	-0.00812285
30	0xbc3dfb95	-0.011595626
31	0xba803f11	-0.000978442

conv3.weight f4 [1, 32, 5, 5]
0	0x3c8d8faa	0.017280418
1	0x3c923b9e	0.017850693
2	0xba0c34e4	-0.00053484575
3	0x3cd54352	0.026033077
4	0x3d00d85f	0.031456348
5	0xbcfdc13c	-0.03097593
6	0x37ed0503	2.8254935e-05
7	0xbd161d6e	-0.03664916
8	0x3adbfcbb	0.0016783694
9	0x3c23a5c4	0.009988252
10	0xbb9d7dc0	-0.0048062503
11	0x3cdbf638	0.026850805
12	0x3c10050e	0.008790268
13	0xbd0c793b	-0.034295302
14	0xbbbd92ca	-0.005785321
15	0xbc99fa3d	-0.01879608
16	0xbcf4c2f5	-0.029878119
17	0xba8cc7ce	-0.0010740699
18	0xbd09e9bd	-0.033670176
19	0x3ca7a982	0.02046657
20	0x3afe212d	0.0019388549
21	0x3c4d7d18	0.012542032
22	0x3cb5ba15	0.022183457
23	0x3cf634f8	0.030054554
24	0xbc8d53dc	-0.017251901
25	0x3af3b339	0.0018592841
26	0xbd09e058	-0.033661216
27	0x3c045b86	0.0080784615
28	0x3cd777e3	0.026302284
29	0xbcb823a8	-0.02247794
30	0x3ca62231	0.020279976
31	0xbc8870f3	-0.01665542
32	0x3c262f34	0.01014309
33	0xbc7f64f1	-0.015588031
34	0x3bd9ac5b	0.006642861
35	0xbd096ee6	-0.033553027
36	0x3cd7a2a6	0.026322674
37	0xbc03d42e	-0.008046193
38	0x3d05d040	0.032669306
39	0xbc4e0ff0	-0.012577042
40	0x3c7b47b0	0.015336916
41	0xbc8bfc56	-0.017088097
42	0xbc7a0bf6	-0.015261641
43	0xbc189865	-0.009313677
44	0x3c8b8759	0.017032312
45	0x3c6a5f0a	0.014304886
46	0x3ca87d51	0.020567568
47	0xbbc35248	-0.0059607364
48	0x3b85d74f	0.0040845047
49	0x3cb24454	0.021761097
50	0xbc6267e7	-0.013818718
51	0xbc34daa8	-0.01103846
52	0x3cde0d7e	0.027106043
53	0xbcf5bb52	-0.029996548
54	0xbc8c6945	-0.01714004
55	0xbc9db45c	-0.019251041
56	0xbbe1fee6	-0.0068968413
57	0xbcd3a34a	-0.025834698
58	0x3c07fcb8	0.008299999
59	0xbcc7d19b	-0.02439194
60	0xbc79c215	-0.015244027
61	0xbd0b6c8b	-0.03403906
62	0x3cbf3c0d	0.023344064
63	0xbcb49dc3	-0.022047883
64	0xbb918dc9	-0.004441951
65	0xbca9c05b	-0.020721605
66	0xbb8faa83	-0.0043843403
67	0xbbeab97d	-0.007163225
68	0xbc3ff374	-0.011715759
69	0xba377fc5	-0.0006999935
70	0x3c780014	0.015136737
71	0x3cf01325	0.029306004
72	0x3cd36e42	0.025809411
73	0xbcd632fd	-0.02614736
74	0xbb88ddb8	-0.0041768216
75	0xbd600ce8	-0.05469981
76	0x3c825f97	0.015914721
77	0x3cd2b625	0.025721619
78	0x3a1b4b34	0.0005923987
79	0x3becd93b	0.0072280443
80	0x3d31db51	0.043422047
81	0x3d13033c	0.035891756
82	0xbbd64a32	-0.0065396065
83	0xbc8dc152	-0.017304096
84	0xba23d9e2	-0.00062504236
85	0x3d2f32f0	0.042773187
86	0x3cde1d50	0.027113587
87	0x3c77780a	0.015104303
88	0xbc3cd5dc	-0.011525597
89	0xbc1c23c6	-0.009530013
90	0x3ae55f53	0.0017499722
91	0xbcb13034	-0.02162943
92	0xbd808d8a	-0.062769964
93	0xbcf53e4e	-0.029936936
94	0xbb0ad971	-0.0021186734
95	0xbbeba100	-0.0071908236
96	0xbcc848be	-0.024448749
97	0xbcc65f61	-0.024215402
98	0x3b6c7fac	0.003608684
99	0x3d1608b8	0.03662941
100	0x3bc7d98d	0.006098932
101	0x3bfb120b	0.007662063
102	0x3c6a2fcc	0.014293622
103	0xbb43aa5e	-0.0029856185
104	0x3b751994	0.003739928
105	0xbbf9fcfe	-0.007629036
106	0x3d02212e	0.031769924
107	0xb94188d1	-0.00018456882
108	0x3cce6cbd	0.025198335
109	0xbca8d5c7	-0.02060975
110	0xbce3930d	-0.02778008
111	0x3b91549d	0.0044351355
112	0xbd02f012	-0.03196723
113	0x3ca7bbec	0.02047535
114	0x3ca65fca	0.020309348
115	0x3cead5e5	0.028666446
116	0x3d022c99	0.031780813
117	0x3c37fa76	0.011229148
118	0x3c57ad8d	0.013163936
119	0xbbba4a94	-0.00568516
120	0x3d03aedf	0.032149192
121	0x3c72140e	0.014775289
122	0xbc0fe95d	-0.0087836655
123	0xbd08496f	-0.033273157
124	0x3b7463be	0.0037290896
125	0x3b9e7c45	0.0048365914
126	0x3d05459a	0.03253708
127	0x3cde74c5	0.02715529
128	0x3d02ff44	0.03198172
129	0x3b46c205	0.0030328047
130	0x3c2e5acf	0.010641768
131	0xbcd14123	-0.025543755
132	0x3bea7faa	0.007156332
133	0x3c20a2cf	0.009804442
134	0xbc93710e	-0.017998245
135	0xbc998d09	-0.018744009
136	0x3c506bc5	0.012721007
137	0xbcbdeb05	-0.023183355
138	0xbc57dc5a	-0.0131750945
139	0x3ce6e5c9	0.028185742
140	0x3cd230f0	0.0256581
141	0xbd043427	-0.0322763
142	0xbd074f8c	-0.033034846
143	0x3cc55006	0.02408601
144	0xbbe3b584	-0.0069491286
145	0x3bd76cfe	0.006574272
146	0xbcb0543a	-0.021524537
147	0xbc57e433	-0.0131769655
148	0x3ce55389	0.027993934
149	0xbcbe18f7	-0.023205264
150	0x3c4f0bad	0.012637061
151	0x3ab74184	0.0013981317
152	0x3c3bb59d	0.011456874
153	0x3af5f2e8	0.0018764408
154	0xbbe1cea6	-0.0068910895
155	0x3c525cda	0.01283952
156	0x3c2099de	0.00980231
157	0xbb44c0b5	-0.003002209
158	0x3cc61578	0.024180159
159	0x3d03de63	0.032194506
160	0x3c990a80	0.018681765
161	0xbc269df1	-0.010169492
162	0xbcd55906	-0.026043426
163	0xbcc768bd	-0.024341935
164	0xbc8e13f2	-0.017343495
165	0xbb4c0355	-0.0031129916
166	0x3c941af8	0.018079266
167	0x3c1e7e89	0.009673723
168	0x3d00dbf3	0.03145976
169	0xbd0ea021	-0.03482068
170	0xbca6ba1a	-0.020352412
171	0x3d049aba	0.03237412
172	0xbccc6f60	-0.024955451
173	0x3cbc2b6a	0.02296992
174	0x3a876b6d	0.0010331698
175	0xbb8188a2	-0.0039530555
176	0x3cce134f	0.025155691
177	0x3ce0b2dc	0.027429037
178	0xbc6ade2b	-0.0143351955
179	0xbb0091b1	-0.001961809
180	0x3d0819e4	0.033227816
181	0x3cf2b140	0.029625535
182	0x3c6bbda3	0.014388475
183	0xbcad8f26	-0.021186423
184	0xbcc1f201	-0.023674967
185	0x3cd144c7	0.02554549
186	0x3ca824e8	0.02052541
187	0xbb721f12	-0.003694479
188	0x3d0cebe0	0.034404635
189	0x3ccc89b1	0.024968
190	0xbbfb321f	-0.007665887
191	0x3c7deb76	0.015498033
192	0x3d0d39b2	0.03447885
193	0x3ca908a5	0.020634005
194	0xbc8ba88f	-0.017048148
195	0xbd088b19	-0.03333578
196	0x3c30c4f4	0.010789145
197	0x3c593260	0.013256639
198	0xbd0e68a6	-0.03476777
199	0x3bad25fd	0.0052840696
200	0xbc551da1	-0.013007552
201	0x3b93cc62	0.0045104483
202	0xbcdcc8b5	-0.026951173
203	0xbc7555aa	-0.014974037
204	0x3d2ca864	0.042152777
205	0x3c6e3e75	0.014541258
206	0xbc847d05	-0.016172895
207	0xbd486ca9	-0.04893175
208	0x3a9c3caa	0.0011919935
209	0x3ad31048	0.0016102875
210	0xbc45cd5b	-0.012072886
211	0x3cc4bf76	0.024017077
212	0x3d4ba52a	0.04971806
213	0xbcc8cc4e	-0.024511483
214	0x3b6d85d1	0.003624309
215	0xbd1ca720	-0.03824532
216	0x3d8055a5	0.062663354
217	0x3d78c61d	0.06073581
218	0xbd029e7f	-0.031889435
219	0xbcead254	-0.028664745
220	0xbc0a4b28	-0.00844077
221	0xbc8c8c34	-0.017156698
222	0x3d07b562	0.033131965
223	0xba5aee26	-0.0008351527
224	0xbc9764a6	-0.01848061
225	0x3d0d0f2d	0.0344383
226	0xbc545535	-0.012959768
227	0x3c7722c4	0.015083972
228	0x3cb579f7	0.022152884
229	0x3c39a8a8	0.011331715
230	0x3d0961fc	0.03354071
231	0xbcca78bd	-0.024715776
232	0x3b6a66f7	0.0035766938
233	0xba845289	-0.0010095398
234	0x3c89f2b1	0.016839357
235	0xbc78b3a2	-0.015179547
236	0xbcada70a	-0.021197814
237	0xbce25298	-0.027627274
238	0x3cc62ea6	0.024192166
239	0x3c2a8fcc	0.01041026
240	0xbd092491	-0.033482138
241	0xbb1b3d38	-0.0023687612
242	0xbcf4a2a8	-0.029862717
243	0xbcf671ff	-0.030083654
244	0x3cb4172b	0.021983704
245	0xbc9606d3	-0.0183138
246	0x3caa9924	0.020824976
247	0x3d060c56	0.03272661
248	0x3ba09663	0.00490074
249	0x3c76c703	0.0150620965
250	0xbcfcffff	-0.030883787
251	0xbc7739f7	-0.0150895035
252	0xbaff27fe	-0.0019466875
253	0x3bf78877	0.0075541097
254	0x3c6a2ce5	0.01429293
255	0x3c9c2467	0.019060327
