Lecture8_Image restoration (HuStar_4)/outputs/x3/epoch_6.pth (torch, 231589 bytes, 5 tensors)

conv1.weight f4 [64, 1, 9, 9]
-0.042923298 0.0048882347 -0.053807907 0.044033833 -0.091385566 0.08609853 -0.07595595 -0.08246193
-0.06794147 0.04863142 -0.0416981 0.042764284 -0.091523886 -0.06342044 -0.036715128 -0.017968457
-0.078247994 0.07643781 -0.028870244 0.03577807 0.08146954 0.026830217 0.038428888 0.11403971
-0.045263857 0.042304054 -0.044462055 0.075907335 0.08765015 -0.09994986 0.10412068 0.0656711
0.058144197 0.050330963 0.09664485 -0.012825861 -0.09652423 -0.033016443 -0.0746328 0.020101646
-0.004336876 -0.046381664 -0.0037455212 0.10917142 -0.008606313 0.0011107709 -0.018766688 0.02012748
0.107398674 0.07659604 0.045210514 0.025721364 0.027759138 0.041189216 -0.014195116 -0.10392017
-0.06578073 0.10084674 0.01089956 -0.08821262 0.017280344 0.094414786 -0.10467492 -0.070848994
-0.04261101 0.007599484 -0.021863053 -0.010786061 -0.10857906 0.051204044 0.101768285 0.07012966
-0.06988836 -0.08533828 0.048513666 0.0040811 0.046452753 -0.10767466 -0.005081828 0.08505785
0.055051282 -0.0045030224 0.013798493 -0.016363109 -0.063481316 -0.042579256 -0.06831307 0.091925904
0.05718185 0.03355687 -0.092522845 0.07950478 0.030621147 0.075888194 -0.043561906 0.023401912
0.10967628 0.07335682 0.08543389 -0.032394107 0.07680266 -0.092684686 0.007894304 -0.06369462
-0.029292928 -0.030288192 0.0052867 0.09679375 0.044943612 -0.008258177 0.07541599 -0.054456666
0.060040034 -0.012725449 -0.021355504 0.009619546 -0.089126624 0.0026727542 0.029639738 0.092272386
-0.03059075 0.044118464 0.10895084 -0.050484832 0.101139255 -0.060112815 0.04056214 0.03642018
0.027068598 0.08868742 -0.042781882 0.027320843 -0.0020271814 -0.08862348 -0.032908894 -0.082561195
0.0408079 0.0032185386 0.007203461 -0.035709787 -0.003407794 -0.03795623 0.02650672 0.1017885
0.0107644545 -0.05605563 -0.07410928 0.003942075 -0.08576305 -0.08735661 -0.074684694 -0.04005109
0.0063662557 0.073357776 0.039444767 0.08362597 -0.068989836 0.011172304 -0.09848634 0.06409231
0.022467636 0.10633401 -0.07643802 0.0968856 0.111596785 0.11267827 0.040162295 0.12355031
0.09567262 0.10070394 0.004684227 -0.08333341 0.0059224213 0.036635164 -0.056683872 -0.04422225
-0.08760766 -0.018322203 0.11669122 0.03388199 -0.0024355955 0.014711221 0.08521349 -0.081047185
-0.0699904 -0.021945925 -0.04513909 0.07910307 0.097111195 -0.100843966 -0.08050993 -0.0892332
0.060182285 0.10429502 -0.073617585 -0.034265786 0.058467016 -0.05069074 0.1020355 0.040813647
-0.010727068 0.027613016 0.049920276 -0.028486485 -0.07120486 0.023067629 0.024461921 0.0010763711
-0.0116147585 0.086839914 -0.013790732 0.0018809943 0.053328097 -0.060601212 0.044367503 -0.010556958
0.04204395 -0.07415333 0.0049502077 0.016755389 -0.08672742 -0.08219136 0.041396618 -0.031209351
0.06668511 -0.113215625 -0.064382195 -0.08858319 0.050828043 0.004476721 -0.01579431 -0.015418201
-0.08293999 0.03439038 0.0075061335 -0.078415334 0.050205182 0.008497261 -0.092885844 0.071997754
0.06924717 -0.011519013 -0.06879113 0.005220423 0.08450792 0.10233772 -0.08379157 -0.05012008
0.08637996 0.05404291 0.068326205 -0.05535984 0.0967356 -0.09041475 -0.0044942116 0.0024115443
00000000: 57d0 2fbd 7c2d a03b ae65 5cbd d25c 343d
00000010: 5b28 bbbd 6d54 b03d cb8e 9bbd cde1 a8bd
00000020: e624 8bbd bd31 473d a0cb 2abd 9a29 2f3d
00000030: e070 bbbd 93e2 81bd 9a62 16bd 9632 93bc
00000040: 7c40 a0bd 6d8b 9c3d 4a81 ecbc 078c 123d
00000050: 81d9 a63d 0bcb db3c 9c67 1d3d a78d e93d
00000060: 9866 39bd 0447 2d3d d81d 36bd 4e75 9b3d
00000070: ec81 b33d 83b2 ccbd 393d d53d 927e 863d
00000080: 9c28 6e3d d727 4e3d bced c53d 8f23 52bc
00000090: 7fae c5bd 403c 07bd 15d9 98bd 35ac a43c
000000a0: 5a1c 8ebb b3fa 3dbd 6b77 75bb 4495 df3d
000000b0: 7e01 0dbc 4997 913a 99bc 99bc 63e2 a43c
000000c0: d6f3 db3d 62de 9c3d a92e 393d 9cb5 d23c
000000d0: 2267 e33c 06b6 283d a292 68bc 19d4 d4bd
000000e0: 0cb8 86bd bc88 ce3d 1194 323c d1a8 b4bd
000000f0: 828f 8d3c 8a5c c13d ce5f d6bd 4719 91bd
00000100: e288 2ebd 1805 f93b 251a b3bc 05b8 30bc
00000110: b35e debd 55bb 513d e46b d03d 24a0 8f3d
00000120: a121 8fbd d6c5 aebd 44b6 463d c0ba 853b
00000130: 3e45 3e3d 8884 dcbd 7785 a6bb cf32 ae3d
00000140: 747d 613d 178e 93bb 1313 623c ed0b 86bc
00000150: 7e02 82bd 9667 2ebd b9e7 8bbd a643 bc3d
00000160: 8437 6a3d ee72 093d 9e7c bdbd 67d3 a23d
00000170: 33d9 fa3c 456b 9b3d f86d 32bd 5eb5 bf3c
00000180: f59d e03d 1a3c 963d f7f7 ae3d afaf 04bd
00000190: b74a 9d3d 78d1 bdbd 1c57 013c 5372 82bd
000001a0: b9f7 efbc f11e f8bc 0e3c ad3b cd3b c63d
000001b0: cb16 383d 4e4d 07bc b373 9a3d f40d 5fbd
000001c0: 8aec 753d 677e 50bc bdf1 aebc 4d9b 1d3c
000001d0: 0588 b6bd 6029 2f3b 09cf f23c 4ef9 bc3d
000001e0: 7499 fabc 90b5 343d 9e21 df3d 2fc9 4ebd
000001f0: 1922 cf3d db38 76bd 7d24 263d 542d 153d
00000200: f7be dd3c c0a1 b53d 0e3c 2fbd f6cf df3c
00000210: 76da 04bb 3a80 b5bd 7acb 06bd d815 a9bd
00000220: 2f26 273d 1eee 523b 030b ec3b 6d44 12bd
00000230: 4c55 5fbb fe77 1bbd 9f24 d93c 7d76 d03d
00000240: 655d 303c 979a 65bd 9bc6 97bd 862c 813b
00000250: 8aa4 afbd 06e8 b2bd 4af4 98bd 9d0c 24bd
00000260: 069c d03b 9a3c 963d d690 213d 1844 ab3d
00000270: 8b4a 8dbd 0a0c 373c 35b3 c9bd d442 833d
00000280: 0c0e b83c a5c5 d93d 898b 9cbd f56b c63d
00000290: db8c e43d ddc3 e63d 3881 243d f207 fd3d
000002a0: 02f0 c33d de3d ce3d 257e 993b b5aa aabd
000002b0: df10 c23b c10e 163d 592d 68bd 6422 35bd
000002c0: a56b b3bd 7218 96bc cefb ee3d d7c7 0a3d
000002d0: 839e 1fbb 5507 713c 6984 ae3d 11fc a5bd
000002e0: 2057 8fbd f1c7 b3bc c4e3 38bd ca00 a23d
000002f0: 3ce2 c63d 4887 cebd 64e2 a4bd e5bf b6bd
00000300: b381 763d a198 d53d d1c4 96bd 485a 0cbd
00000310: 1c7b 6f3d 18a1 4fbd fdf7 d03d 362c 273d
00000320: 96c0 2fbc b134 e23c 3479 4c3d 7d5c e9bc
00000330: dbd3 91bd 53f8 bc3c 5e64 c83c 0515 8d3a
00000340: d44b 3ebc 20d9 b13d 86f2 61bc b28b f63a
00000350: 906e 5a3d fa38 78bd b3ba 353d 17f7 2cbc
00000360: 4736 2c3d b3dd 97bd 5a35 a23b 9942 893c
00000370: 259e b1bd f253 a8bd 808f 293d c1aa ffbc
00000380: 3492 883d 98dd e7bd d0da 83bd 1b6b b5bd
00000390: 1131 503d 75b1 923b 1263 81bc 9f9c 7cbc
000003a0: 71dc a9bd eddc 0c3d 03f6 f53b 3898 a0bd
000003b0: f3a3 4d3d 1938 0b3c ef3a bebd 8f73 933d
000003c0: 76d1 8d3d 3eba 3cbc 5de2 8cbd 1510 ab3b
000003d0: 7d12 ad3d 7096 d13d ea9a abbd b74a 4dbd
000003e0: fae7 b03d 195c 5d3d 9cee 8b3d 00c1 62bd
000003f0: 501d c63d 5e2b b9bd 2e44 93bb 000b 1e3b

conv1.bias f4 [64]
-0.024516845 -0.07937603 0.014290761 -0.06528617 0.04003442 -0.008682859 0.06051391 0.029612629
0.11439522 -0.052469023 0.008338905 0.012213009 -0.09445904 0.09557509 0.07268729 0.06391707
-0.03503775 -0.05435973 0.05604408 0.03484553 0.01542615 0.003739205 -0.076018624 0.0726751
-0.061989892 0.07493317 -0.008598177 -0.028958466 0.032399055 0.0560034 0.09521797 -0.013130876
0.049418777 0.04839742 0.005798159 -0.099977046 -0.020838326 0.08899172 0.0020186799 0.048333157
-0.037489362 0.0068068453 0.09475765 -0.009516834 0.04062144 0.022578096 -0.028765095 -0.0258533
-0.05023406 -0.027896086 -0.013137651 0.035012543 0.044080134 -0.002001077 0.006431168 -0.007006066
0.07899588 -0.04904424 -0.0020220608 0.063775614 0.086931914 -0.034777895 -0.08147617 -0.08331562
00000000: 8dd7 c8bc e68f a2bd cc23 6a3c c1b4 85bd
00000010: 22fb 233d 8d42 0ebc 6fdd 773d 2f96 f23c
00000020: 0b48 ea3d c2e9 56bd e79f 083c 1319 483c
00000030: be73 c1bd dfbc c33d 13dd 943d f4e6 823d
00000040: be83 0fbd 4fa8 5ebd 7a8e 653d 30ba 0e3d
00000050: f6bd 7c3c 730d 753b a7af 9bbd afd6 943d
00000060: 1de9 7dbd 9076 993d 5edf 0cbc 4e3a edbc
00000070: dfb4 043d d263 653d a401 c33d e322 57bc
00000080: 586b 4a3d 603c 463d 7cfe bd3b c4c0 ccbd
00000090: 23b5 aabc 4a41 b63d d44b 043b fdf8 453d
000000a0: 728e 19bd f50b df3b 4c10 c23d 7fec 1bbc
000000b0: ab62 263d b3f5 b83c c7a4 ebbc 4dca d3bc
000000c0: 3bc2 4dbd 5586 e4bc 4d3f 57bc 5069 0f3d
000000d0: 5f8d 343d 8024 03bb 8cbc d23b 2493 e5bb
000000e0: 98c8 a13d 9de2 48bd 8d84 04bb ca9c 823d
000000f0: 5c09 b23d 4473 0ebd fadc a6bd 61a1 aabd

conv2.weight f4 [32, 64, 5, 5]
0.002219022 0.012102022 -0.005833897 -0.019829137 -0.03857312 -0.0026731747 -0.0063427133 -0.015503754
-0.018609656 -0.020491024 0.0071260813 -0.02041891 -0.0035200708 -0.019716533 0.0021195165 -0.0012762621
0.012090354 0.008300695 0.0040966147 0.018962903 0.02247998 0.021811256 -0.016068794 0.02029412
-0.0124211395 -0.017881516 0.01547 0.010937027 -0.014840038 -0.018292654 -0.011101579 0.02140699
0.013840976 0.0054581095 -0.014716011 0.009511265 -0.0060129664 0.017964618 0.0097824875 0.013858594
-0.011467265 -0.003897779 -0.0131769385 0.00844929 0.0006742695 -0.023876155 0.011348172 0.009165479
0.015861817 0.010752694 -0.04131516 -0.020062607 -0.06581377 -0.06753137 -0.07649305 -0.03216557
0.0022015343 0.0015864205 0.0011448761 -0.020328537 -0.002382583 -0.009639656 -0.016635498 0.00483459
-0.008051927 -0.009964514 0.019160535 0.03558457 0.031011175 0.0023828503 0.012219472 0.01288358
0.005264369 0.00072786515 -0.010858285 0.011076704 -0.010516695 -0.0117428405 -0.016620824 -0.015171184
-0.001144957 0.020540953 -0.01296311 -0.019008975 0.018361812 0.014430763 0.009560746 -0.014349172
0.021832539 0.009844389 0.0043264795 0.021146482 0.010188579 0.018179595 -0.0074259923 0.01804892
-0.009290737 0.009335662 -0.013452856 -0.02085803 -0.019327702 -0.01581557 0.016684245 0.024968585
0.01259903 -0.0010476428 0.00046253184 0.0064147627 0.026060482 0.011463969 -0.013923671 -0.012590107
0.024547055 0.020586628 -0.024876788 -0.018345147 0.013365302 -0.011140408 0.025156923 0.018617425
-0.014808685 0.0064970423 -0.006006386 -0.023005363 0.008844775 0.0014569792 -0.0055805445 0.0093078045
-0.03973828 -0.022300377 -0.050151356 -0.005540761 -0.01194381 0.00090234645 -6.669661e-05 -0.010159932
0.006441013 0.026623024 0.015548517 0.008118519 0.027105229 0.032703027 0.021939475 0.023233151
0.03887904 -0.014474963 0.0019145616 0.031053038 -0.0028241456 -0.02063543 -0.014850253 -0.00023056514
-0.013492818 0.027107775 -0.021472488 0.021064827 0.01776382 -0.01790933 -0.011259667 0.024459198
-0.004929603 -0.01688305 0.0039228513 -0.0021644253 0.0033754222 0.008259916 -0.02179327 -0.012779359
0.00040297917 0.02301402 -0.018947111 -0.011762451 0.015030638 0.024091966 0.0023487613 0.009674801
0.02941302 0.009857938 0.017548276 0.0333683 0.011157668 -0.013899065 0.038918126 0.030016402
0.0077959993 -0.01359022 -0.0037415596 -0.011887525 0.0056716967 0.018519 0.001215737 -0.0024561053
-0.01261177 0.0020997843 0.011133136 -0.004294469 -0.015922979 -0.0045175874 -0.017438896 -0.011356345
-0.061579883 -0.028403237 -0.01191475 0.008492429 0.0013382903 -0.00080353685 -0.024152866 -0.013961072
0.007867347 -0.0068427525 -0.019324517 -0.017828878 -0.010013221 0.002551817 -0.03308653 0.022082794
0.023929583 0.018033713 0.0059624845 -0.008725189 -0.04829058 0.013817405 0.007482789 -0.021871362
0.0043918495 -0.0026394303 0.009954806 -0.0028731346 -0.0071628084 0.0014246046 0.015280328 0.009985379
0.030553026 0.02610647 -0.0066976063 -0.008116589 -0.0010799248 0.0010879658 -0.0063389605 -0.02819968
-0.029734433 -0.009869401 -0.0028037152 -0.022746144 -0.012285427 0.0037239336 -0.009971191 -0.011160149
-0.0045378576 0.0067001777 -0.02388521 -0.012544447 -0.0005207798 0.008622123 0.008713958 -0.03888589
00000000: 036d 113b 8f47 463c 462a bfbb b770 a2bc
00000010: d9fe 1dbd 6e30 2fbb 89d6 cfbb 7503 7ebc
00000020: 4773 98bc cbdc a7bc e781 e93b 8f45 a7bc
00000030: fdb0 66bb 9184 a1bc 96e7 0a3b 4048 a7ba
00000040: 9f16 463c a3ff 073c e53c 863b 1758 9b3c
00000050: ef27 b83c 85ad b23c b4a2 83bc db3f a63c
00000060: 0982 4bbc 427c 92bc e275 7d3c 3731 333c
00000070: a123 73bc 7ada 95bc 66e3 35bc b65d af3c
00000080: 43c5 623c f1d9 b23b 6c1b 71bc 23d5 1b3c
00000090: 6b08 c5bb 892a 933c ba46 203c 280f 633c
000000a0: 32e1 3bbc e171 7fbb 16e4 57bc e46e 0a3c
000000b0: 76c1 303a ed97 c3bc afed 393c ce2a 163c
000000c0: a4f0 813c 112c 303c 163a 29bd 565a a4bc
000000d0: 5fc9 86bd e34d 8abd 63a8 9cbd 0bc0 03bd
000000e0: 9e47 103b 70ef cf3a ab0f 963a 0888 a6bc
000000f0: 1c25 1cbb a6ef 1dbc 2b47 88bc 7b6b 9e3b
00000100: 3bec 03bc 3342 23bc 8ef6 9c3c 20c1 113d
00000110: 260b fe3c 9829 1c3b 2e34 483c a715 533c
00000120: ba80 ac3b 34ce 3e3a f3e6 31bc 107b 353c
00000130: 374e 2cbc 0b65 40bc 6528 88bc 8f90 78bc
00000140: 6212 96ba 8045 a83c 3963 54bc b6b8 9bbc
00000150: 836b 963c 026f 6c3c ada4 1c3c ca18 6bbc
00000160: 27da b23c 5c4a 213c 24c5 8d3b 633b ad3c
00000170: ffed 263c 60ed 943c bd55 f3bb 54db 933c
00000180: 2d38 18bc 9bf4 183c 5e69 5cbc 76de aabc
00000190: 2155 9ebc a78f 81bc 66ad 883c eb8a cc3c
000001a0: 296c 4e3c 0f51 89ba f97f f239 ee32 d23b
000001b0: cb7c d53c 5fd3 3b3c 1c20 64bc bc46 4ebc
000001c0: e816 c93c 4aa5 a83c 68ca cbbc 9048 96bc
000001d0: 24fa 5a3c 4286 36bc e415 ce3c 9283 983c
000001e0: 20a0 72bc 24e5 d43b 38d1 c4bb be75 bcbc
000001f0: ade9 103c 1cf8 be3a 00dd b6bb c37f 183c
00000200: 9bc4 22bd 48af b6bc 826b 4dbd 468f b5bb
00000210: f8af 43bc 728b 6c3a 78df 8bb8 d875 26bc
00000220: 220f d33b 8718 da3c 35bf 7e3c 8903 053c
00000230: c90b de3c 9cf3 053d 6aba b33c 7353 be3c
00000240: a13f 1f3d 6528 6dbc 07f2 fa3a f162 fe3c
00000250: 4d15 39bb a20b a9bc 7a4e 73bc dcc3 71b9
00000260: fb10 5dbc 2011 de3c 12e7 afbc 2590 ac3c
00000270: 6e85 913c 96b6 92bc 777a 38bc a85e c83c
00000280: 8288 a1bb 524e 8abc 438b 803b 08d9 0dbb
00000290: 3036 5d3b 9954 073c cd87 b2bc 8460 51bc
000002a0: f346 d339 e687 bc3c f936 9bbc 4cb7 40bc
000002b0: 1143 763c 845c c53c aded 193b 0e83 1e3c
000002c0: 93f3 f03c 3083 213c 67c1 8f3c 33ad 083d
000002d0: a7ce 363c e7b8 63bc 9d68 1f3d f5e4 f53c
000002e0: 9575 ff3b 84a9 5ebc f434 75bb e5c3 42bc
000002f0: a4d9 b93b 28b5 973c 5d59 9f3a 9cf6 20bb
00000300: 99a1 4ebc 899c 093b c267 363c 9eb8 8cbb
00000310: e870 82bc 4508 94bb 04dc 8ebc f70f 3abc
00000320: 303b 7cbd e8ad e8bc 1536 43bc d423 0b3c
00000330: 9269 af3a 72a4 52ba 3bdc c5bc fbbc 64bc
00000340: 0ce6 003c 2b39 e0bb 734e 9ebc de0d 92bc
00000350: 7e0e 24bc 633c 273b be85 07bd fae6 b43c
00000360: f907 c43c 70bb 933c f260 c33b 18f4 0ebc
00000370: 58cc 45bd 6662 623c 2f32 f53b 922b b3bc
00000380: 81e9 8f3b 4bfa 2cbb 7c19 233c 334b 3cbb
00000390: feb5 eabb ccb9 ba3a 575a 7a3c b799 233c
000003a0: 574a fa3c 3cdd d53c 9877 dbbb 71fb 04bc
000003b0: 438c 8dba 139a 8e3a 0eb7 cfbb 0403 e7bc
000003c0: a095 f3bc 45b3 21bc 89be 37bb 1f56 babc
000003d0: d148 49bc 3d0d 743b 355e 23bc 0fd9 36bc
000003e0: 4fb2 94bb 2a8d db3b eaaa c3bc 3987 4dbc
000003f0: f184 08ba ce43 0d3c fdc4 0e3c d046 1fbd

conv2.bias f4 [32]
-0.008262809 -0.02170553 -0.00091041095 0.011538428 0.026243579 0.021504685 -0.011471107 0.005873321
0.0072179004 -0.010340761 0.0003230425 0.009314068 0.025718238 0.011357516 -0.00592705 -0.0060916753
-0.014383071 -0.017860724 0.014454471 0.02228089 0.019612923 0.0024053939 -0.00677558 3.4078676e-05
0.015921095 0.018210864 0.015589138 0.01882809 0.008819424 -0.016989175 0.0003442231 -0.0022173182
00000000: bc60 07bc cccf b1bc a5a8 6eba ad0b 3d3c
00000010: c6fc d63c 982a b03c 4ff1 3bbc fd74 c03b
00000020: 2384 ec3b 4c6c 29bc 085e a939 089a 183c
00000030: 0eaf d23c e014 3a3c b337 c2bb ad9c c7bb
00000040: f9a6 6bbc a750 92bc 72d2 6c3c 6a86 b63c
00000050: 48ab a03c d0a3 1d3b af05 debb b3ef 0e38
00000060: f56c 823c f32e 953c 9569 7f3c 5e3d 9a3c
00000070: 587f 103c e22c 8bbc d878 b439 6d50 11bb

conv3.weight f4 [1, 32, 5, 5]
0.01898249 0.018267097 -0.0016445994 0.024709355 0.030665511 -0.029436091 0.0015044044 -0.03409859
0.0040373923 0.010455887 -0.0023672876 0.02815431 0.0122986855 -0.029890116 -0.0029039022 -0.015755014
-0.028401103 0.00011073837 -0.031888846 0.023326328 0.0042917663 0.012782471 0.02008433 0.027884346
-0.017391423 0.0023945374 -0.033119142 0.008232519 0.026541552 -0.022146678 0.020728748 -0.016298007
0.010212995 -0.015286743 0.006899061 -0.033203695 0.026518086 -0.007994326 0.032925714 -0.0124776475
0.015674725 -0.016639229 -0.014603912 -0.008637073 0.017142639 0.014406732 0.020709842 -0.0055092745
0.0046933787 0.021998249 -0.013825248 -0.011626976 0.026906084 -0.029826956 -0.01711337 -0.019610016
-0.007440907 -0.025988871 0.008231416 -0.024691664 -0.015551574 -0.03440937 0.02357893 -0.021670675
-0.00424241 -0.021084847 -0.004890098 -0.006778046 -0.011514409 -0.00051225483 0.01504169 0.02910719
0.02621241 -0.026246566 -0.004100258 -0.031905748 0.015725058 0.022762338 0.0062266462 0.010419514
0.035188228 -0.0029756872 -0.031748563 -0.019765891 -0.011632419 0.01914379 0.0022410185 0.027257262
0.01674895 -0.012061766 -0.011930413 -0.015304397 -0.036065504 -0.011671392 -0.016115298 -0.007875992
-0.008633313 -0.014941415 -0.015570566 0.006603513 0.0064750346 0.007818392 0.014461489 -0.0027284138
0.003893658 -0.0069658905 0.032037158 3.731461e-05 0.025396496 -0.020677602 -0.027318185 0.0046658474
-0.031730052 0.020769488 0.020438164 0.029081194 0.032218285 0.011581766 0.013660793 -0.0051639536
0.032499462 0.015240576 -0.008312332 -0.032488424 0.004523607 0.004168028 0.02808718 0.021840267
0.031516407 0.004052271 0.01143256 -0.026404912 0.006607699 0.010472389 -0.01824072 -0.016168686
0.018433873 -0.016762864 -0.009678212 0.02820325 0.029798573 -0.025774596 -0.028242612 0.025765557
-0.008154817 0.0048644994 -0.021254124 -0.013597594 0.028555935 -0.021427259 0.013045166 0.00160927
0.011381383 0.0019547336 -0.007100772 0.013121579 0.010166234 -0.0028531488 0.024077246 0.03172355
0.018728826 -0.009830072 -0.025602933 -0.024078634 -0.017512547 -0.0027424695 0.018318059 0.009875076
0.03176805 -0.034186885 -0.019645441 0.032624375 -0.02496207 0.022944689 0.0014249289 -0.0036097725
0.025333216 0.027487854 -0.014203187 -0.0016568338 0.033394367 0.029692257 0.014317838 -0.021253014
-0.023636691 0.025708579 0.020540884 -0.0039642835 0.034228977 0.024915306 -0.007426237 0.015710149
0.03445915 0.020624436 -0.016957415 -0.03305946 0.0110554695 0.013381319 -0.0346654 0.0054940926
-0.021805085 0.014174163 -0.017276779 -0.026921362 0.033991408 0.021142181 -0.014304486 -0.025514474
0.023893353 -0.022088049 -0.010487465 -0.015765622 0.010527624 -0.002266565 0.013131117 -0.019798355
0.026089948 0.0040799957 -0.024427213 -0.025837969 0.02147834 -0.015274959 0.0098911235 0.0008987552
-0.016428852 0.034768075 -0.012535987 0.0151648875 0.022595562 0.011941306 0.03413078 -0.023722116
0.0040407637 -0.0004449295 0.017568013 -0.014608799 -0.020527609 -0.026869923 0.024724524 0.010347105
-0.03263358 -0.0018259377 -0.028792541 -0.02895909 0.022350296 -0.017415043 0.021320766 0.033139158
0.005419265 0.01575169 -0.030883787 -0.0150895035 -0.0019466875 0.0075541097 0.01429293 0.019060327
00000000: 2b81 9b3c e1a4 953c 998f d7ba 466b ca3c
00000010: 3d36 fb3c f523 f1bc 6f2f c53a f7aa 0bbd
00000020: 1a4c 843b 2b4f 2b3c 7f24 1bbb dea3 e63c
00000030: 6d80 493c 1edc f4bc 654f 3ebb a910 81bc
00000040: 6ea9 e8bc 363c e838 e19d 02bd db16 bf3c
00000050: f2a1 8c3b 926d 513c e587 a43c b66d e43c
00000060: 7578 8ebc aced 1c3b f0a7 07bd b0e1 063c
00000070: ab6d d93c f36c b5bc 56cf a93c 6683 85bc
00000080: 6854 273c 3f75 7abc 8511 e23b 9900 08bd
00000090: 753c d93c a2fa 02bc 1ddd 063d 0c6f 4cbc
000000a0: 4868 803c fe4e 88bc 3f45 6fbc 8382 0dbc
000000b0: b86e 8c3c 370a 6c3c b0a7 a93c 2587 b4bb
000000c0: eaca 993b ac35 b43c 4b83 62bc 127f 3ebc
000000d0: 266a dc3c a957 f4bc 5731 8cbc 2fa5 a0bc
000000e0: dad2 f3bb 9de6 d4bc 10dd 063c 2c46 cabc
000000f0: 07cc 7ebc d7f0 0cbd 9a28 c13c b386 b1bc
00000100: ea03 8bbb 21ba acbc 1d3d a0bb 5f1a debb
00000110: efa6 3cbc d748 06ba 6c71 763c 3472 ee3c
00000120: 68bb d63c 0a03 d7bc 755b 86bb 9aaf 02bd
00000130: d6d1 803c 1578 ba3c e508 cc3b 9cb6 2a3c
00000140: 8821 103d bf03 43bb c80a 02bd 14ec a1bc
00000150: e795 3ebc 70d3 9c3c 0dde 123b 9f4a df3c
00000160: 1835 893c b79e 45bc c777 43bc 4bbf 7abc
00000170: 6cb9 13bd 5e39 3fbc 3b04 84bc 4e0a 01bc
00000180: bd72 0dbc d6cc 74bc b01b 7fbc 4862 d83b
00000190: 872c d43b b618 003c e2ef 6c3c 30cf 32bb
000001a0: be2c 7f3b 2042 e4bb 6539 033d 4282 1c38
000001b0: 500c d03c 1364 a9bc 63ca dfbc f7e3 983b
000001c0: 5ff7 01bd c624 aa3c f06d a73c af3b ee3c
000001d0: 52f7 033d 73c1 3d3c 85d1 5f3c 6236 a9bb
000001e0: 281e 053d 9cb3 793c 7330 08bc 9512 05bd
000001f0: c43a 943b f493 883b 1617 e63c 5cea b23c
00000200: 5917 013d eac8 843b a24f 3b3c 1d4f d8bc
00000210: 6685 d83b 6294 2b3c 906d 95bc 3174 84bc
00000220: a202 973c 4652 89bc 5d91 1ebc 810a e73c
00000230: 231c f43c 3f25 d3bc 0d5d e7bc 4a12 d33c
00000240: c89b 05bc 6166 9f3b 211d aebc 71c8 5ebc
00000250: 23ee e93c 3888 afbc 64bb 553c 24ee d23a
00000260: fb78 3a3c fd1a 003b 98ad e8bb e4fb 563c
00000270: 4790 263c e5fb 3abb a53d c53c 8ef0 013d
00000280: 326d 993c 4f0e 21bc 3ebd d1bc 8e40 c5bc
00000290: 7976 8fbc 01bb 33bb c10f 963c 12cb 213c
000002a0: 371f 023d 8c07 0cbd 7aef a0bc 23a1 053d
000002b0: 417d ccbc 80f6 bb3c aec4 ba3a ef91 6cbb
000002c0: 9b87 cf3c 352e e13c 7cb4 68bc 1e2a d9ba
000002d0: 88c8 083d 2d3d f33c 5d95 6a3c cd1a aebc
000002e0: bca1 c1bc cc9a d23c 5b45 a83c d2e6 81bb
000002f0: af33 0c3d 2f1b cc3c cb57 f3bb 92b2 803c
00000300: 0a25 0d3d 94f4 a83c 47ea 8abc 5b69 07bd
00000310: 0022 353c 523d 5b3c 4efd 0dbd ca07 b43b
00000320: 94a0 b2bc c03a 683c 0888 8dbc 308a dcbc
00000330: 933a 0b3d 5e32 ad3c 5d5d 6abc bb03 d1bc
00000340: febb c33c fff1 b4bc 9ed3 2bbc e826 81bc
00000350: 0e7c 2c3c a78a 14bb e623 573c 2930 a2bc
00000360: 96ba d53c 7cb1 853b 941b c8bc 26aa d3bc
00000370: 58f3 af3c d243 7abc 610e 223c 719a 6b3a
00000380: cd95 86bc f868 0e3d be63 4dbc 2676 783c
00000390: 541a b93c 78a5 433c b7cc 0b3d e254 c2bc
000003a0: 6268 843b 6d45 e9b9 cbea 8f3c be59 6fbc
000003b0: 8429 a8bc 501e dcbc 168b ca3c e786 293c
000003c0: caaa 05bd 4d54 efba 56de ebbc 9d3b edbc
000003d0: f817 b73c fea9 8ebc e3a8 ae3c edbc 073d
000003e0: 1794 b13b b009 813c ffff fcbc f739 77bc
000003f0: fe27 ffba 7788 f73b e52c 6a3c 6724 9c3c
