Lecture8_Image restoration (HuStar_4)/outputs/x3/epoch_57.pth (torch, 231589 bytes, 5 tensors)

conv1.weight f4 [64, 1, 9, 9]
00000000: cc6d 0f3c 534a 253d 0f58 0dbd b160 903d
00000010: 3a29 87bd d2e8 c53d 7f63 7ebd e72c 88bd
00000020: 91c9 5cbc ca28 893d bfa7 2dbd 19bc f23c
00000030: 459a dabd 3681 a6bd 8194 81bd 5e7a 28bd
00000040: d903 eabd 0a75 8e3d 4ce2 67bc 10f9 f23c
00000050: f57c 8d3d 762b a83c 1a54 333d 5c9b e73d
00000060: 47b2 61bd ffea 933b 6fd1 96bd 5998 3d3d
00000070: 5af1 153d bb47 0cbe 301f e23d c53d de3d
00000080: 4466 c13d 0d05 893d e587 943d 618d 37bd
00000090: f206 04be bf4d 9abd 2e21 b0bd 1e00 973d
000000a0: 3cc4 963d bbb6 2ebb 4665 d43b cf04 b23d
000000b0: f572 0ebd da94 31bc 7a81 2bbd 7be8 bd3c
000000c0: d9dc 213e 1fc3 003e f35a 4d3d b34b 373c
000000d0: 2707 f83b 8ab4 b43c e97f 3ebb fad0 08be
000000e0: e5a3 b4bd 5592 cb3d 7f2f 923a df4e 03be
000000f0: 58ff 1ebc a83b bf3d 4260 cfbd e653 85bc
00000100: f2f1 84bd 781b 1abd c4e2 7fbd 71c1 46bd
00000110: b10d 21be 2468 2a3d b622 023e c85f b23d
00000120: 1135 5b3d 5134 88bd c4e6 f83b b99d 21bd
00000130: e1d9 d13c 2eeb 01be d8f4 6a3b a309 db3d
00000140: f49e 3f3d cff4 9d3c e112 fe3c e300 a73c
00000150: bf50 8abd 9931 9dbd 528b f3bd 01ae 8e3d
00000160: c852 fc3c 21a9 e53b 01d8 afbd 08c2 aa3d
00000170: ac46 5a3d 852e 803d ff22 a9bd 8869 a8bc
00000180: 2700 e93d 8e3a b43d a312 ca3d 38c9 1dbd
00000190: 1106 883d ed33 a0bd 6a1b e33a 657f b3bd
000001a0: 12c7 62bd 9b24 31bc d896 023d bdcd df3d
000001b0: c516 dd3c ce96 dabc 7dd5 b93d 92b1 4bbd
000001c0: 5aed 393d ce65 42bd 8dac 77bc bd05 a33c
000001d0: e6c3 ccbd 3b4a f2bb eb56 ae3c fac2 fd3d
000001e0: 5e89 eebb 0636 243d 21b7 943d bd46 4fbd
000001f0: 492e e33d 9a3a 8dbd da04 e03c b711 993c
00000200: f289 583d e58f d23d e5e1 71bd 44fc c9bc
00000210: f16e 53bc 0cba 97bd 1c79 00bd 7038 d0bd
00000220: 39fc 263c c595 883c ca0a 0d3c aaef 85bd
00000230: bb7f 88bd d70d 4fbd 99a0 4d3d d8f5 e23d
00000240: 27cf 213c b4c0 93bd 443a 5ebd 409f 3e3c
00000250: 4473 d3bd 1343 07be a6d5 98bd 6bc3 0bbc
00000260: 9901 643c 2ba1 bd3d cd6e 263d 3331 f03d
00000270: 653c 2ebd 56c9 c33c f93e ccbd 26de d53d
00000280: 0945 a83d 3c2e 083e aba0 61bd cc5e f83d
00000290: 3303 0a3e 529f 203e fbaa e73d 67d5 3d3e
000002a0: 6d9d f93d a85b a03d d9b0 2ebd 9fb3 d4bd
000002b0: bc94 1bbd 74c9 2ebd efc3 15be 150e dcbd
000002c0: eabf 10be 94d0 98bd 1b35 083d dffe 7bbd
000002d0: 8acc a23b b25a 98b9 7665 193d e914 10be
000002e0: 7977 d8bd 522c 56bd 944e 9ebd 7bad 003d
000002f0: 226f 503d 1049 87bd 726a 5fbd 2ac9 a1bd
00000300: 1ebb 8b3d 354f 0a3e 9e20 45bd 1bb1 b1bc
00000310: edb5 7d3d 7820 15bd caf4 ee3d 226e 523d
00000320: 4d3a 4aba 4194 453d dcd9 af3d f383 31bc
00000330: 75e0 96bd b986 863c 9dc7 f13c 4ff5 a03c
00000340: ad6e 57bb 7181 bb3d 787e 14b9 f392 de3c
00000350: 2818 883d ed90 86bd 356c 2e3d 0e1f afbb
00000360: 8d39 7c3d b986 9cbd 01ac 32bc 0f23 2bbb
00000370: 1ec7 cbbd d484 c5bd 3bb1 da3c a2c5 02bd
00000380: 74d6 8d3d 13e1 52bd 3218 fabc f325 9dbd
00000390: af9e 5a3d 06c3 af3c c6dc 1e3b 14fd 5a39
000003a0: 557c 88bd dc3f 503d cc4f 463d c294 72bd
000003b0: 90f8 513d 23c1 7637 3216 a2bd 8b6a a33d
000003c0: bf89 863d df7c e1bc 278e 9fbd 60f3 343c
000003d0: 253b a03d 00d7 ac3d 5558 c7bd 7bee 7abd
000003e0: 8f31 a53d 6a29 493d 8be8 643d 81b8 8bbd
000003f0: 9a6c cd3d b1ca c2bd f2d9 80bc d154 5dbb
0.008754205 0.040354084 -0.034507807 0.070496924 -0.0659966 0.096635476 -0.062106606 -0.066491894
-0.013475792 0.06697233 -0.042396303 0.029630708 -0.10673956 -0.08130114 -0.06327153 -0.041132323
-0.11426515 0.06955917 -0.0141530745 0.029659778 0.06908599 0.020528536 0.043781377 0.11308929
-0.05510166 0.0045140977 -0.07364165 0.04628787 0.036607124 -0.13699238 0.11041105 0.10851625
0.09443334 0.066904165 0.07252482 -0.044812564 -0.12893274 -0.0753436 -0.086000785 0.07373069
0.073616475 -0.0026659209 0.0064817993 0.086923234 -0.0347776 -0.010838712 -0.041871525 0.023182144
0.15806903 0.12574433 0.050135564 0.011187482 0.007569212 0.022058744 -0.002906794 -0.13360968
-0.08820323 0.0994002 0.0011153071 -0.12823056 -0.009704433 0.093375504 -0.101257816 -0.016275357
-0.0649146 -0.037623852 -0.06247212 -0.048524324 -0.15727879 0.041603222 0.12708554 0.08709675
0.053517405 -0.066506036 0.007595869 -0.039457057 0.025616588 -0.1268737 0.0035851505 0.106951974
0.04678245 0.019281773 0.031014862 0.020386165 -0.06753682 -0.076754756 -0.118918076 0.06966782
0.030801192 0.007008687 -0.08586121 0.0833779 0.053290054 0.06258873 -0.08258628 -0.020558134
0.11376982 0.08800231 0.09866836 -0.038521975 0.06641782 -0.07822404 0.0017326896 -0.08764533
-0.05536563 -0.01081195 0.031882137 0.10927913 0.026988396 -0.026683237 0.09073923 -0.04972989
0.04539237 -0.04746037 -0.015116823 0.019900197 -0.09998302 -0.007394103 0.02128168 0.123907045
-0.007279559 0.040090583 0.072614916 -0.05060457 0.110928126 -0.06895943 0.027346063 0.018685205
0.05286593 0.10281352 -0.05905332 -0.024656422 -0.012904868 -0.074085325 -0.0313655 -0.101670146
0.0101919705 0.016672978 0.008608529 -0.06539853 -0.06664988 -0.050550308 0.050201986 0.11082047
0.009876049 -0.072144896 -0.054254785 0.011634648 -0.103247195 -0.1320918 -0.07462625 -0.008530478
0.013916397 0.09259256 0.04063301 0.11728134 -0.042538065 0.023899715 -0.099729486 0.10442762
0.082162924 0.13298887 -0.055084866 0.12127456 0.13477783 0.15685776 0.11311909 0.18538438
0.1218823 0.07829982 -0.042649124 -0.103858225 -0.03798364 -0.04267259 -0.14625524 -0.107448734
-0.1413571 -0.07461658 0.03325377 -0.06152236 0.0049682306 -0.00029059272 0.037450276 -0.14070477
-0.105696626 -0.05228836 -0.07729831 0.031415444 0.050887235 -0.066057324 -0.054544874 -0.07899697
0.06822799 0.13506778 -0.04812681 -0.021690896 0.061941076 -0.036407918 0.116677836 0.051374562
-0.0007714376 0.04823709 0.08586475 -0.010834682 -0.073670305 0.016421663 0.029514128 0.019648222
-0.0032872364 0.09155548 -0.00014161493 0.02716968 0.066452324 -0.06570611 0.042583663 -0.005344278
0.061578322 -0.07642884 -0.010905267 -0.0026113426 -0.09950088 -0.096444756 0.026695838 -0.03192676
0.06925669 -0.05148418 -0.030529115 -0.07673254 0.05337399 0.0214553 0.0024240478 0.00020884379
-0.066643395 0.05084215 0.048415944 -0.059223898 0.05126244 1.4707711e-05 -0.0791439 0.07979306
0.06569242 -0.027525363 -0.07790785 0.011044353 0.07823781 0.084394455 -0.09733645 -0.06126259
0.08066093 0.04911176 0.055885833 -0.06822301 0.1003048 -0.095113166 -0.015728924 -0.0033772478

conv1.bias f4 [64]
00000000: 8aef 853c 28dd d6bd e389 ca3c 7c2e 39bd
00000010: 3906 8b3d 2fe6 613c f49e 563d af24 acbc
00000020: 1024 ec3d 7499 1dbd 1939 8c3b 3588 b53c
00000030: 3462 07be 7427 343e e84f 803d 7bd0 8f3c
00000040: 0ae5 e1bc 2eee 68bd 5fac 843d 51ff ea3c
00000050: 1b62 b53c ab1b 4fbc f5b1 69bd 2ea0 953d
00000060: 75a0 bbbd 8a18 3b3d 5fbb 1cbc f4ab 493c
00000070: f663 b13c 3161 2b3d cbd4 c93d dc02 edbb
00000080: 389a 183d 4432 8f3d 5591 a7ba 687b 8bbd
00000090: 3a8b ccbb a23b 943d 7f0d 37bd ab54 263d
000000a0: f48b 993c c398 e4bc 8bbe c53d 4d87 96bc
000000b0: 1a39 0c3d 0fb5 88bc 3c3a 71bc c515 97bc
000000c0: 4a88 103c 680d 61bd 6163 84bc 2d2f a13d
000000d0: 5fb5 643c 9139 2d3c c890 533c a0ac ac3c
000000e0: c445 b43d 4086 afbc 6538 47bc e4ea 8a3d
000000f0: a59d d33c 7b2f 26bc 09f3 4bbd 865c b8bd
0.016349573 -0.10491401 0.024723953 -0.045210347 0.06788296 0.01378779 0.052397683 -0.021013586
0.11530316 -0.038476422 0.0042792675 0.022159675 -0.13221055 0.17593175 0.06265241 0.017555466
-0.027575035 -0.05686777 0.0647819 0.028686197 0.022141507 -0.012640874 -0.05705448 0.073059425
-0.09161464 0.0456777 -0.009566157 0.012309063 0.02165411 0.041840736 0.0985504 -0.007233007
0.03725645 0.06992009 -0.0012784401 -0.06810647 -0.006242183 0.072379366 -0.044690605 0.04060809
0.018743493 -0.027904874 0.09655484 -0.018375063 0.034234144 -0.016687898 -0.014723357 -0.018442998
0.008821556 -0.054944426 -0.016160669 0.07870326 0.013959258 0.010572807 0.0129129365 0.021078408
0.08802369 -0.02142632 -0.012159442 0.06783083 0.025832007 -0.010143156 -0.049792323 -0.090020224

conv2.weight f4 [32, 64, 5, 5]
00000000: cd42 963b 0f92 e73a 16d9 423d 13d7 993d
00000010: 4eab ddbd af9c fd3c 1da7 09bd fee8 71bc
00000020: 5455 353d b155 7dbc 6a9b 033d b2cb 21bc
00000030: 22d4 60bc 4917 bd3b 3075 393d 4458 5cbc
00000040: e2e1 a93c 2e07 a73c dd35 dc3c 4020 4e3d
00000050: 10dc aebc a3b1 6cbc 7b96 26bd 8951 143d
00000060: f5f4 28bb 195c a63b 161a fa3c 5bc9 c6bc
00000070: e889 e6bc 761a f1bc 3841 44ba 6692 463c
00000080: c1dc f5bb 9b60 0d3c 10b7 4fbb a2fd 953d
00000090: dce9 573c 9879 81ba 8785 003d 8126 b23d
000000a0: 398b 0e3d 0bce 5b3c cd68 5bbd 1878 62bc
000000b0: c194 133d d816 aebd 8c61 61bc 2b00 dbbc
000000c0: 0c15 f9bc cfc5 c23b c534 26be 4034 32be
000000d0: ed42 63be 56f9 38be 81df 84be 5426 d9bd
000000e0: a0a1 e4bd 228f 96bd 0705 bcbc 38c3 b1bd
000000f0: 93bf 133d 3af7 8a3c fa8f c7bb 814a 653d
00000100: 4545 933c 0c8f 1c3d e9b6 af3d 2a74 5f3d
00000110: c6f2 943d dd50 5f3d 5c1b aabb 8e67 153b
00000120: 2371 f9bc 77dd 2cbc 16e4 b63c 07bd cc3c
00000130: 6f60 9aba 977b ce3b 063b 16bc 19c9 2abd
00000140: 4f81 ba3c dbc5 fe3c 45a9 bdbb 5241 4b3c
00000150: d4d9 0e3c e89f 123c 29c3 80bc 89f5 22bd
00000160: f0f0 143d 9e13 aa39 33e8 03bb a343 e13b
00000170: 88e9 93bc 8934 c23c 4714 a739 572c df3c
00000180: 92ff 00bc 5913 ffbb 7e02 aabc 111b 353b
00000190: 79e7 f7bc 8885 87bd c9ab 03bd 14ba 46bc
000001a0: 724a a6bc 3c11 6f3b c8bd 31bc 01e5 d7bb
000001b0: f142 9b3a 7133 843c 3ea4 813c 9d35 f53b
000001c0: 3a24 6c3d 2ed2 0b3d f3aa 7839 54ba 6dbc
000001d0: 2a1f f63b 74a9 afbc 1d08 e939 4a87 a138
000001e0: 0a9a 1abd e4b3 20bd 7f78 5cbd 1dab 88bd
000001f0: 0e81 2dbd 9665 ab3d d1ee b3bc 6e21 9c3d
00000200: b1d6 7f3c 5795 c23d 8d0c 4abd 8915 f9bc
00000210: c041 0abd 9beb 9fbc 59fd 373b 4dd8 3cbc
00000220: f0e6 d33b 2149 f23c fedd 8d3b 96a6 a93a
00000230: ade8 ac3c b748 173d 4aaf 163d ebd0 4b3c
00000240: f7cc b83b d204 65bd 3d94 66bd 5d86 c6bc
00000250: 2522 83bd daa5 c5bd 1b0c 193c 2c96 7f3c
00000260: 50d0 dbbb cf98 1e3c cf45 1dbd 6ff9 4e3a
00000270: 1e5b a1bc 76e2 0abd 78b2 01bd 8379 b7ba
00000280: f670 0cbd 86ab 47bd ea0a 0f3b 7067 33b9
00000290: 59c5 0abd f281 dd3b 1844 e8bb 4c8d 8a3c
000002a0: 5b14 373c cfb4 4d3c 4ca5 bc3a 4548 803b
000002b0: 438e f93c b599 cf3c 400f 153a 03b0 3a3d
000002c0: cd52 903d e49d 363d 4dea bdbb 8534 3a3d
000002d0: 5d40 413c 2830 eebc 58e1 693d b3f3 ad3c
000002e0: 5dc3 82bc b7da 563c 8bb9 9fbc c3d3 96bc
000002f0: da04 2e3d 9432 563d e115 a13c 7990 9bbb
00000300: d9c3 a3bd 46a0 7ebb 8a11 8b3d 574f 263d
00000310: 9f87 e33d 42f2 19bc a790 6abd aa2b 373d
00000320: 751d 7ebd 5098 793c b265 1b3c 4b40 a7ba
00000330: 3956 83bc 92b1 613d 75d4 2c3d 84ae 563c
00000340: 993e 08bd 4d4e e0bc 4744 c03d 524e 1cbb
00000350: 7fa3 b2bc dee3 06bb 8c05 55bd f38f 1f3d
00000360: 7949 953c e96c ff3b fce4 163c ecab 24bd
00000370: 1b4e 43bd 9507 f43c cc8b 443c ff98 23bb
00000380: ed81 8cbb b540 103b 0aa6 263c e79b be3b
00000390: c90a 593c fe22 633c 9fec a83c 78af 9e3b
000003a0: 17cd 193d 8098 173d 2fd8 69bb 9a4b c3bc
000003b0: 81e6 bfbc c806 36bc 22d4 193b ef05 79bc
000003c0: c7be 5ebd ef58 15bd c2d1 d4bc e2ee d2bc
000003d0: e3fe a2bc 5395 2abd aa33 26bd 6e30 33bd
000003e0: 61af e1bc 6d9e 34bc 831b c0bc 8da5 06bd
000003f0: edad 92bc 65fc 8b3c 4695 763c 92d0 04bd
0.0045856 0.001766743 0.04757031 0.07511725 -0.108236894 0.030958502 -0.033606637 -0.014765022
0.04427083 -0.015462325 0.032130636 -0.009875225 -0.013722451 0.005770598 0.045277774 -0.013448779
0.020737592 0.020389166 0.026881153 0.050323725 -0.021345168 -0.014446649 -0.040670853 0.03621057
-0.0025780771 0.005076897 0.030530017 -0.024265936 -0.02814193 -0.029431563 -0.0007486525 0.012119865
-0.0075031226 0.00862899 -0.0031694807 0.07323767 0.013178315 -0.0009878157 0.03137734 0.0869875
0.03480074 0.013415824 -0.053566743 -0.013822578 0.036030535 -0.08500451 -0.013756167 -0.026733479
-0.030405544 0.005943991 -0.16231067 -0.17402744 -0.22193499 -0.18063864 -0.2595177 -0.10603014
-0.1116364 -0.07351519 -0.022951616 -0.08679813 0.03607137 0.01696359 -0.0060901614 0.055979256
0.017977366 0.038222358 0.08579809 0.054554142 0.07272868 0.054520477 -0.00519125 0.002279732
-0.030449456 -0.010550848 0.022325557 0.024992479 -0.0011778007 0.006301354 -0.009169346 -0.041695688
0.022766737 0.031100204 -0.0057880008 0.01240571 0.008718926 0.008949257 -0.01571806 -0.03978494
0.03636259 0.00032439543 -0.0020127415 0.006874518 -0.018055692 0.023706691 0.0003186783 0.027242823
-0.007873433 -0.007784289 -0.020753141 0.002763454 -0.030261742 -0.06617266 -0.03214625 -0.012129325
-0.02029917 0.0036478778 -0.01084847 -0.0065885787 0.0011845512 0.01613781 0.015825387 0.007483198
0.057651736 0.03413599 0.00023714807 -0.014509756 0.0075110393 -0.021443106 0.00044447268 7.702278e-05
-0.03774456 -0.039234057 -0.05382585 -0.06673262 -0.042359404 0.08368985 -0.021964462 0.07623564
0.015615151 0.095011406 -0.049328376 -0.030405777 -0.03375411 -0.019521525 0.002807459 -0.0115261795
0.006466739 0.029575886 0.004329442 0.0012943323 0.021107042 0.03693458 0.036788262 0.012439947
0.005639668 -0.0559128 -0.056293715 -0.024233991 -0.06402997 -0.09650774 0.009341265 0.015599769
-0.0067081824 0.009679987 -0.038396653 0.0007895445 -0.019696768 -0.033907376 -0.03166434 -0.0013998005
-0.034287415 -0.048747562 0.0021826574 -0.00017109304 -0.03387961 0.0067598755 -0.0070881955 0.016913079
0.011174287 0.012555315 0.0014392524 0.003914865 0.030463343 0.025341848 0.00056861714 0.045578014
0.07047043 0.04458417 -0.005795753 0.045460243 0.011795131 -0.029075697 0.05709967 0.021234369
-0.015962297 0.013113669 -0.019497653 -0.018411523 0.042485096 0.05229433 0.019663753 -0.004747447
-0.07996339 -0.0038852855 0.06790455 0.040603008 0.11109852 -0.009396138 -0.057266857 0.044719376
-0.06203981 0.015234068 0.009484695 -0.001276025 -0.016032325 0.055100985 0.042194802 0.013103131
-0.033262823 -0.027381087 0.09388023 -0.0023850393 -0.021806477 -0.0020582597 -0.052007243 0.03895564
0.018223511 0.0077949655 0.009209868 -0.04020302 -0.04768191 0.029788772 0.011996221 -0.002496302
-0.0042879493 0.0022011225 0.010171423 0.005816925 0.0132472 0.013863323 0.020620642 0.004842695
0.037549105 0.03701067 -0.0035681834 -0.02383976 -0.023425343 -0.011110015 0.0023472388 -0.015199169
-0.05438116 -0.036461767 -0.025978927 -0.025748674 -0.01989693 -0.041646313 -0.040576614 -0.043747358
-0.027549447 -0.0110241 -0.023450619 -0.032872725 -0.0179052 0.017088125 0.015050238 -0.03242547

conv2.bias f4 [32]
00000000: ea30 9abc f171 8dbc 30c7 44bb 1262 4dbc
00000010: 8477 d53c cf20 823c 3be4 d0bb 9990 163c
00000020: 0359 a13c c591 29bc e4d4 8cba 7f4d 27bc
00000030: bca7 e73c 9575 233c da5f 323d aac3 74bb
00000040: 1386 6abc c629 8dbc 6d2d cc3b e450 c13c
00000050: 99af b83c 1c58 4d3c 5419 89bc 65ca 15bb
00000060: 4b21 0bbc 1490 0b3d 60cc c73c 92b7 a83c
00000070: e359 183c de19 82ba ac9d a2bc ea3d a43a
-0.018822152 -0.017266246 -0.0030025952 -0.012535589 0.026057966 0.015884785 -0.0063748634 0.009189748
0.019695764 -0.010349696 -0.0010744599 -0.010211348 0.028278224 0.009976764 0.043548442 -0.003734807
-0.014314192 -0.017231833 0.006231001 0.023598142 0.022544669 0.012533214 -0.01673571 -0.0022856232
-0.008491824 0.03407295 0.024389446 0.020595346 0.009298774 -0.0009925922 -0.019850574 0.0012530659

conv3.weight f4 [1, 32, 5, 5]
00000000: 8c0d 903c 22d9 8f3c 7390 2d38 4af9 de3c
00000010: 9451 043d 659f fabc 672a 8fba 4517 1fbd
00000020: b923 edb9 aeea 283c df1c cbbb 1f1b cb3c
00000030: 7e54 8b3b 3f7e 1ebd a8e6 fbbb a3ec 9abc
00000040: 4d09 f5bc 5087 38bb 6cf7 0ebd 3ef7 993c
00000050: d578 683b 0293 763c 62d0 c33c a115 033d
00000060: ce24 78bc f021 c33a 6afe 0abd 4108 053c
00000070: d7e9 d63c d3eb babc 324d a33c 6fd4 87bc
00000080: 253c 283c e2ab 81bc 24fd d03b 7620 0bbd
00000090: 670a d83c b2af 02bc b575 043d f55c 52bc
000000a0: c371 753c 3d6a 8ebc cb4e 80bc 6f86 22bc
000000b0: aa7a 893c b189 693c e2bf a63c 913a cebb
000000c0: 223f 6e3b 7d4e b13c e767 62bc a8da 34bc
000000d0: 7e0d de3c 52bb f5bc 4569 8cbc 5cb4 9dbc
000000e0: e6fe e1bb 4aa3 d3bc b8fc 073c 9bd1 c7bc
000000f0: 15c2 79bc 8b6c 0bbd 0d3c bf3c c39d b4bc
00000100: c98d 91bb 5bc0 a9bc 83aa 8fbb 7db9 eabb
00000110: 74f3 3fbc c57f 37ba 1400 783c 2513 f03c
00000120: 426e d33c fd32 d6bc b8dd 88bb fb9c 6cbd
00000130: 9168 763c 514b 8c3c 35ee c1bb 0498 ab3b
00000140: 3f92 203d 7caf 443d c26a 1c3b 8e51 4cbc
00000150: e56d ba3b 402e 443d f952 1a3d 16b6 113c
00000160: b3d2 abbc f694 75bb d602 d53b 5ca2 96bc
00000170: bddf 8fbd 8d53 26bd 58c9 09ba 441a ddbb
00000180: a6bf ccbc f883 ebbc 81c7 2c3b 62c0 2a3d
00000190: 7da2 b93b 66d4 f13b 5d11 683c c3a8 47bb
000001a0: 84a7 753b aaa9 05bc 198a 003d 3934 eab9
000001b0: e3d8 cc3c 7662 a8bc c745 e6bc ce6e 893b
000001c0: 65ff 03bd aa12 a63c 1bd3 a63c 24b6 e73c
000001d0: f87b 003d 5f06 343c 4397 543c 7c62 c0bb
000001e0: b9df 023d 5b16 6c3c 4bde 13bc b749 09bd
000001f0: 0db7 5b3b 5c1c aa3b f745 103d 0ddf f63c
00000200: 2177 043d 22e2 033b 6043 3b3c d7bb bfbc
00000210: 4cc4 0b3c 5471 3b3c 1323 70bc c1d1 a4bc
00000220: 84cc 153c 405f e1bc 994a 77bc 6a76 ee3c
00000230: 3aa6 b53c 0ec7 14bd b9b3 14bd 1b9a bd3c
00000240: 7211 70bb 8883 de3b 138a b0bc 03c7 54bc
00000250: f085 ea3c 59a2 a7bc cf3c 473c e90b 923a
00000260: 434a 383c e481 d03a b612 e5bb fe36 4d3c
00000270: ce30 1b3c 3337 4fbb a8cd c63c aca7 043d
00000280: 72a1 983c a899 2abc e941 d7bc 4b79 c7bc
00000290: 32d8 8dbc f7d7 57bb d36b 923c f34a 1d3c
000002a0: 7af7 003d 572a 10bd c5b3 a9bc 848d 033d
000002b0: d3cc ccbc 2790 bc3c bbae 593a 9483 86bb
000002c0: dc59 cd3c 4b0a e13c ff9c 6abc 18d8 00bb
000002d0: 1866 073d 8349 f13c 4c42 6b3c a36b adbc
000002e0: 2efd c1bc fa8d cf3c 7b3d a63c a3cb 75bb
000002f0: fde8 0c3d 5ba7 cc3c 25c1 00bc 727c 7a3c
00000300: cfda 0c3d 10e6 a83c b160 8bbc a842 09bd
00000310: b935 2e3c d5c8 573c a57e 0ebd 51ef ab3b
00000320: 00f6 3bbc db99 9cbb 4edf ddbc 8ee8 a8bc
00000330: a088 fe3c 8507 1d3c 092b 7abc 3179 41bd
00000340: 971e 56ba f0ff d93a 6973 73bc 5967 373d
00000350: 98d0 763d 6c86 ccbc a8f0 81bb 5d9a 74bd
00000360: 0cfb 8f3d b549 9d3d c6f5 ebbc 67cd f3bc
00000370: 9549 f6bc eba6 e4bc 126e 133d db71 0139
00000380: ae63 dabc 317a 0c3d 3c80 60bc 2187 663c
00000390: 5aa4 ae3c 3711 333c 6525 073d cafa cfbc
000003a0: e2f5 453b 231f e7ba 7e46 833c cbce 7ebc
000003b0: 479e b0bc ebf0 e2bc eada c53c 9ca7 2b3c
000003c0: ae15 0bbd 60b5 2bbb efb0 f6bc d068 f9bc
000003d0: b096 b43c cfbc 97bc e2bb a83c fb24 053d
000003e0: 7e09 973b 498a 763c f0ff fcbc 063a 77bc
000003f0: af27 ffba 5688 f73b f32c 6a3c 82f9 9b3c
0.017584585 0.017559592 4.1380943e-05 0.02721848 0.03230436 -0.030593583 -0.0010922671 -0.03884055
-0.00045230778 0.010309858 -0.00619851 0.024793206 0.0042520156 -0.038694616 -0.0076874085 -0.018911665
-0.029911662 -0.0028156824 -0.03490393 0.018794652 0.0035472412 0.015049698 0.023903076 0.03200305
-0.015145494 0.0014887433 -0.033934034 0.008119644 0.02623455 -0.022817528 0.01993427 -0.016580788
0.010268246 -0.01582903 0.006377833 -0.033966504 0.026372148 -0.007976459 0.032338817 -0.0128395455
0.014980736 -0.017384643 -0.015662571 -0.009919747 0.016782124 0.01425402 0.020355169 -0.0062936028
0.0036353548 0.021643871 -0.013818718 -0.01103846 0.027106043 -0.029996548 -0.01714004 -0.019251041
-0.0068968413 -0.025834698 0.008299999 -0.02439194 -0.015244027 -0.03403906 0.023344064 -0.022047883
-0.004441951 -0.020721605 -0.0043843403 -0.007163225 -0.011715759 -0.0006999935 0.015136737 0.029306004
0.025809411 -0.02614736 -0.0041768216 -0.057766896 0.015039579 0.017125757 -0.005918289 0.0052366275
0.03920197 0.048018917 0.0023867344 -0.012470616 0.00568937 0.04789567 0.037676785 0.00889351
-0.020974493 -0.003747282 0.006500582 -0.018387966 -0.070250966 -0.040607024 -0.0005256138 -0.006747516
-0.024993729 -0.028749451 0.002636403 0.041687377 0.005665122 0.007380056 0.014164296 -0.003046558
0.003748388 -0.008158127 0.0313817 -0.00044670867 0.025005763 -0.020554762 -0.028109444 0.004194117
-0.032225985 0.020272572 0.020364335 0.028285094 0.031368226 0.010987847 0.012975517 -0.0058711153
0.03195164 0.014409627 -0.009025167 -0.033517566 0.0033525855 0.005191369 0.035222974 0.030135656
0.032340173 0.00201238 0.011429638 -0.023404999 0.008530688 0.011440594 -0.0146568 -0.02011955
0.009142999 -0.027511239 -0.015093469 0.029109199 0.02217399 -0.036322646 -0.03630421 0.023144772
-0.0036631492 0.006790582 -0.021550214 -0.012986901 0.02862832 -0.020463156 0.012160494 0.0011142466
0.011248174 0.0015907851 -0.006990756 0.012525318 0.009472085 -0.0031618595 0.024267986 0.032386467
0.01863167 -0.010412611 -0.026276546 -0.02434983 -0.017315004 -0.0032935122 0.01787368 0.009600389
0.031486012 -0.03519663 -0.020715604 0.03211738 -0.025000012 0.023017956 0.000830393 -0.004105041
0.025067262 0.027470728 -0.014319657 -0.0019660052 0.03305635 0.029453998 0.014359068 -0.02116949
-0.023680296 0.025336254 0.020292988 -0.003750541 0.034401882 0.024982145 -0.007858549 0.015288459
0.03438836 0.020617515 -0.01701388 -0.033510834 0.010632926 0.013170441 -0.034788746 0.0052470346
-0.011472225 -0.004779083 -0.027084019 -0.020618703 0.031071007 0.009584312 -0.015269049 -0.047234718
-0.00081680104 0.0016632061 -0.014859059 0.044776294 0.060257524 -0.024966441 -0.003965456 -0.059717525
0.07030305 0.07680074 -0.028803717 -0.02976103 -0.030064384 -0.027911624 0.035993643 0.00012344813
-0.02665886 0.03429622 -0.013702448 0.014070303 0.021318603 0.010929397 0.032994647 -0.02538814
0.0030206372 -0.0017633181 0.016024824 -0.015552233 -0.021559848 -0.02770277 0.024152238 0.010476973
-0.033956222 -0.0026200637 -0.030113665 -0.030445486 0.02204451 -0.018522648 0.020597402 0.03250597
0.004609286 0.015047618 -0.03088376 -0.015089517 -0.0019466783 0.0075540943 0.014292943 0.019039873
