Lecture8_Image restoration (HuStar_4)/outputs/x3/epoch_4.pth (torch, 231589 bytes, 5 tensors)

conv1.weight f4 [64, 1, 9, 9]
-0.043032203 0.0056811213 -0.05264605 0.04503841 -0.090705805 0.08578862 -0.07642159 -0.0829762
-0.067497835 0.05006497 -0.040071458 0.044276044 -0.09028342 -0.06256777 -0.03665282 -0.018047016
-0.07879106 0.077051 -0.027189054 0.037057795 0.08261922 0.027606245 0.038658082 0.11372618
-0.04545881 0.04154725 -0.04416809 0.0775688 0.088993326 -0.09875034 0.10404888 0.06477702
0.057289287 0.05054962 0.0969278 -0.011659653 -0.09509357 -0.031640086 -0.07385351 0.018759731
-0.006408747 -0.048061356 -0.003636898 0.10999598 -0.0066307243 0.0030214628 -0.01698266 0.021108145
0.10686891 0.07658282 0.045755774 0.027394308 0.029253872 0.04383653 -0.013009187 -0.102310546
-0.0650065 0.100682184 0.011728758 -0.08690991 0.01902544 0.09510294 -0.10295717 -0.0718299
-0.042332064 0.008163273 -0.021530004 -0.009451587 -0.10705101 0.0524926 0.10108297 0.07060367
-0.07396967 -0.08710251 0.048791245 0.0050838673 0.047867276 -0.106663406 -0.0048762104 0.08310913
0.054744244 -0.0021066405 0.016243523 -0.0148582375 -0.06271592 -0.041972734 -0.0674253 0.09289203
0.05951442 0.035860404 -0.09000914 0.08158488 0.03155356 0.07604532 -0.043440167 0.023884851
0.1101106 0.074882746 0.087172784 -0.029078428 0.079832956 -0.09061686 0.008897056 -0.062866844
-0.02774968 -0.028644856 0.007849206 0.09948209 0.048127133 -0.0054776557 0.07694513 -0.054513127
0.059654277 -0.011770666 -0.020090822 0.011997705 -0.08648684 0.0056599737 0.03223121 0.09369979
-0.030729856 0.043778002 0.11011023 -0.04889555 0.10385055 -0.056988724 0.04294806 0.03864236
0.028744934 0.089731455 -0.04188863 0.029273381 1.3160609e-05 -0.08548424 -0.029325742 -0.080075786
0.043344032 0.005417892 0.009197417 -0.033642165 -0.0005539188 -0.035455465 0.029688282 0.10514754
0.012712729 -0.053950593 -0.07231645 0.005695191 -0.08385599 -0.084966056 -0.072914064 -0.038303483
0.007971935 0.07396027 0.04011886 0.083390996 -0.06968859 0.010491873 -0.09847935 0.06410929
0.023113031 0.10733994 -0.07851277 0.09501108 0.109745085 0.11069182 0.038161173 0.12196408
0.09453321 0.10021915 0.0052486965 -0.083806895 0.00607569 0.03710012 -0.05616719 -0.043940134
-0.087180085 -0.017999059 0.11708301 0.035068203 -0.0025306998 0.015281628 0.08630124 -0.07990096
-0.069139235 -0.02080592 -0.044279087 0.07956073 0.09803742 -0.10116067 -0.08048311 -0.08895507
0.06052412 0.10444396 -0.072683826 -0.03339126 0.058719862 -0.050165508 0.101746 0.04055548
-0.011101143 0.027056985 0.049476337 -0.027577324 -0.06999101 0.023589961 0.025181098 0.00047253064
-0.011965836 0.08650071 -0.014097285 0.0019851339 0.054750122 -0.058717985 0.045660347 -0.008971574
0.040466473 -0.074822344 0.0046892287 0.016873002 -0.0860765 -0.08051493 0.043413714 -0.029790215
0.068294175 -0.11618313 -0.06580552 -0.08914609 0.05068769 0.004385182 -0.015047891 -0.014085326
-0.08183818 0.035884965 0.0030179136 -0.08107598 0.04860248 0.007442323 -0.094199836 0.07140085
0.06939808 -0.011164746 -0.06788832 0.0054156044 0.0849017 0.10284463 -0.08311571 -0.049503703
0.086850695 0.054493587 0.06879363 -0.055031296 0.09692372 -0.090073235 -0.004042415 0.0031127764
00000000: 8942 30bd b328 ba3b 62a3 57bd 327a 383d
00000010: f7c3 b9bd f2b1 af3d ec82 9cbd 6def a9bd
00000020: 4e3c 8abd ed10 4d3d f821 24bd cc5a 353d
00000030: 84e6 b8bd 8823 80bd 4421 16bd 56d7 93bc
00000040: 355d a1bd eacc 9d3d 94bb debc eac9 173d
00000050: 4434 a93d 7e26 e23c f057 1e3d 45e9 e83d
00000060: 0433 3abd 732d 2a3d 99e9 34bd 64dc 9e3d
00000070: 2242 b63d 9e3d cabd 9417 d53d d0a9 843d
00000080: 2ca8 6a3d 1e0d 4f3d 1582 c63d 2108 3fbc
00000090: 6bc0 c2bd 0999 01bd 8240 97bd 02ae 993c
000000a0: 7700 d2bb fcdb 44bd 0659 6ebb 9345 e13d
000000b0: 8c46 d9bb bc03 463b 381f 8bbc fdea ac3c
000000c0: 16de da3d 74d7 9c3d 686a 3b3d 076a e03c
000000d0: d1a5 ef3c ef8d 333d 7c24 55bc 3188 d1bd
000000e0: 2122 85bd 7632 ce3d fa29 403c d3fd b1bd
000000f0: 3ddb 9b3c 55c5 c23d 35db d2bd 8e1b 93bd
00000100: 6364 2dbd 40bf 053c b15f b0bc d4da 1abc
00000110: 8f3d dbbd 7b02 573d 9704 cf3d a898 903d
00000120: 697d 97bd cd62 b2bd 54d9 473d 9296 a63b
00000130: 7a10 443d 5872 dabd 9ec8 9fbb 1f35 aa3d
00000140: 803b 603d 900f 0abb 2311 853c f76f 73bc
00000150: 3471 80bd 9aeb 2bbd 4716 8abd 2d3e be3d
00000160: 64c5 733d 5ce2 123d b656 b8bd f915 a73d
00000170: 4e3e 013d a6bd 9b3d 51ee 31bd 2aaa c33c
00000180: ab81 e13d 205c 993d a587 b23d e235 eebc
00000190: 767f a33d 5595 b9bd f5c4 113c 55c0 80bd
000001a0: 4c53 e3bc 9ea8 eabc f599 003c 44bd cb3d
000001b0: f520 453d e87d b3bb 6995 9d3d 2849 5fbd
000001c0: 0b58 743d c0d9 40bc 8295 a4bc 0692 443c
000001d0: 0320 b1bd 4d77 b93b e004 043d ade5 bf3d
000001e0: 2ebd fbbc 9050 333d 7981 e13d b346 48bd
000001f0: 99af d43d 026d 69bd 4eea 2f3d 7447 1e3d
00000200: 7f7a eb3c 20c5 b73d 6993 2bbd bbce ef3c
00000210: 63cc 5c37 5c12 afbd 8a3c f0bc c6fe a3bd
00000220: 8389 313d 9288 b13b c3b0 163c 5ecc 09bd
00000230: dd34 11ba c039 11bd d734 f33c 9857 d73d
00000240: 0d49 503c 4cfb 5cbd a61a 94bd ba9e ba3b
00000250: b0bc abbd af02 aebd f853 95bd 1de4 1cbd
00000260: b89c 023c 7b78 973d ac53 243d e6c8 aa3d
00000270: e4b8 8ebd 1be6 2b3c 8baf c9bd bb4b 833d
00000280: 8a57 bd3c 0bd5 db3d 4ecb a0bd 2b95 c23d
00000290: 08c2 e03d 65b2 e23d e44e 1c3d 4ec8 f93d
000002a0: a19a c13d b33f cd3d 42fd ab3b f3a2 abbd
000002b0: 9516 c73b 4cf6 173d 910f 66bd 92fa 33bd
000002c0: 798b b2bd c372 93bc 38c9 ef3d ada3 0f3d
000002d0: 19da 25bb cb5f 7a3c b4be b03d 1da3 a3bd
000002e0: df98 8dbd 2d71 aabc fd5d 35bd bcf0 a23d
000002f0: d8c7 c83d 532d cfbd 54d4 a4bd 132e b6bd
00000300: 24e8 773d b7e6 d53d 42db 94bd 46c5 08bd
00000310: 3d84 703d 597a 4dbd 3560 d03d 811d 263d
00000320: 92e1 35bc 9ca6 dd3c b3a7 4a3d d7e9 e1bc
00000330: 7257 8fbd bc3f c13c 9748 ce3c fdbd f739
00000340: 5b0c 44bc 4927 b13d 4df8 66bc 0519 023b
00000350: aa41 603d 4582 70bd 5806 3b3d 82fd 12bc
00000360: 2cc0 253d 753c 99bd 1aa8 993b 4039 8a3c
00000370: e048 b0bd 03e5 a4bd 94d2 313d 9c0a f4bc
00000380: d1dd 8b3d 6cf1 edbd 0bc5 86bd 3a92 b6bd
00000390: e59d 4f3d 93b1 8f3b 6e8b 76bc 24c6 66bc
000003a0: c79a a7bd 1dfc 123d 30c8 453b 2a0b a6bd
000003b0: 6513 473d bbde f33b d8eb c0bd 9c3a 923d
000003c0: 9520 8e3d 57ec 36bc 0809 8bbd 6275 b13b
000003d0: f1e0 ad3d 35a0 d23d 9238 aabd 65c4 4abd
000003e0: c7de b13d ab34 5f3d ade3 8c3d 7f68 61bd
000003f0: f17f c63d 5178 b8bd 3c76 84bb b9ff 4b3b

conv1.bias f4 [64]
-0.023274804 -0.075337775 0.014443534 -0.06514593 0.040072735 -0.0139142815 0.06166539 0.039334133
0.106796004 -0.052961275 0.008315389 0.010924338 -0.09331015 0.09165433 0.07328527 0.06676685
-0.0352775 -0.055177603 0.0574064 0.0401574 0.015888428 -0.00055324537 -0.07714409 0.07297562
-0.05946077 0.07871639 -0.010977845 -0.030288419 0.03295748 0.049360614 0.09627075 -0.013425485
0.049492676 0.049422424 0.005514521 -0.09891664 -0.018692631 0.08990671 -0.008490772 0.04717891
-0.045685098 0.010909192 0.09448405 -0.008664208 0.041027784 0.025577271 -0.031938214 -0.033736438
-0.050130717 -0.027576493 -0.0145034455 0.025554307 0.04727177 -0.0021735227 0.00838227 -0.013789839
0.07546265 -0.049250126 -0.0022338103 0.06449451 0.094132625 -0.038450193 -0.08351652 -0.085782446
00000000: cdaa bebc b14a 9abd 93a4 6c3c 3b6b 85bd
00000010: 4f23 243d baf8 63bc d994 7c3d d41c 213d
00000020: ddb7 da3d eced 58bd 453d 083c fffb 323c
00000030: 6419 bfbd 44b5 bb3d 9616 963d 0fbd 883d
00000040: 247f 10bd e901 62bd f922 6b3d 167c 243d
00000050: 7328 823c ab07 11ba b8fd 9dbd 3e74 953d
00000060: 238d 73bd 0f36 a13d 6bdc 33bc 6b1f f8bc
00000070: 6cfe 063d 5b2e 4a3d 9929 c53d 91f6 5bbc
00000080: d5b8 4a3d 2b6f 4a3d 28b3 b43b cf94 cabd
00000090: 4a21 99bc 0221 b83d e11c 0bbc ac3e 413d
000000a0: 4c20 3bbd 78bc 323c db80 c13d 53f4 0dbc
000000b0: c00c 283d 6d87 d13c a5d1 02bd 382f 0abd
000000c0: de55 4dbd 19e8 e1bc dc9f 6dbc 4457 d13c
000000d0: 0ba0 413d a971 0ebb ca55 093c c7ee 61bc
000000e0: 298c 9a3d 80ba 49bd 1e65 12bb b315 843d
000000f0: 9bc8 c03d f37d 1dbd b60a abbd b5ae afbd

conv2.weight f4 [32, 64, 5, 5]
0.0033673067 0.0149642015 -0.0059442483 -0.022906484 -0.035846833 -0.005454656 -0.0078056166 -0.015881252
-0.019938111 -0.0215268 0.00676363 -0.021274753 -0.0044217 -0.020888828 -0.0007816808 -5.868464e-05
0.013832313 0.008892629 0.0040070442 0.01714069 0.022761488 0.023521384 -0.015429227 0.020279748
-0.014565134 -0.016945357 0.0170824 0.011876353 -0.013296368 -0.01572659 -0.012458532 0.019742422
0.01126763 0.0037686103 -0.015397005 0.009325336 -0.005766027 0.017034726 0.008774614 0.013411226
-0.009381943 -0.0020120712 -0.0121413125 0.009076927 0.001085051 -0.022000516 0.0124836955 0.010276597
0.016607985 0.011529333 -0.04007682 -0.012958526 -0.05831755 -0.059943568 -0.064672686 -0.032852042
0.0035041845 0.0015466715 -0.00016367459 -0.018146662 -0.0038732467 -0.010015664 -0.018344032 0.0017986492
-0.008699197 -0.011108682 0.018407114 0.03458367 0.03078512 0.003566745 0.0114496555 0.012595013
0.0035193304 -0.0018281594 -0.010629633 0.010426449 -0.011055422 -0.013127436 -0.017435368 -0.014773055
-0.0015950055 0.020175891 -0.013050113 -0.019614026 0.019379107 0.015447837 0.010115591 -0.01387241
0.021324337 0.010524302 0.0049527045 0.02089322 0.010074973 0.018027935 -0.007367098 0.017498227
-0.009878387 0.009028189 -0.013264629 -0.021390231 -0.018335614 -0.015765863 0.016374843 0.0257564
0.0138067715 0.0002743639 0.0011174339 0.0057016546 0.025478952 0.011362081 -0.013064358 -0.011803485
0.023519905 0.01836783 -0.025366837 -0.018398752 0.014276334 -0.010480782 0.024106506 0.018216979
-0.016076624 0.0073764916 -0.004545699 -0.022295708 0.009273492 -0.006331817 -0.01733722 -0.010726226
-0.035445374 -0.029993225 -0.04716182 -0.0065738503 -0.015939452 -0.00086513 -0.008837716 -0.009934119
0.006629182 0.025605243 0.019880585 0.0075147003 0.028761012 0.03220518 0.017904729 0.022726186
0.03710905 -0.009975205 0.007541307 0.030122185 -0.0022056086 -0.020109538 -0.014258981 0.00069566874
-0.013376389 0.02745464 -0.020335807 0.021686044 0.018758247 -0.01795142 -0.011234737 0.02495038
-0.003856148 -0.015891284 0.0041053165 -0.0020908217 0.0043363995 0.009160687 -0.021037513 -0.012095059
0.0010439062 0.023866596 -0.018516365 -0.011913506 0.015096648 0.024453344 0.0029098443 0.008853848
0.024822287 0.0063763796 0.020264797 0.030932292 0.018857516 -0.013302675 0.03540718 0.032814033
0.011974369 -0.009165261 -0.0016738877 -0.012320615 0.0039948616 0.018815944 0.00046314616 -0.002987154
-0.0086792465 0.0028728854 0.009563941 -0.0041809194 -0.020607766 -0.005229549 -0.011736366 -0.0062594335
-0.048771877 -0.028032107 -0.011293169 0.008944255 0.003445879 0.0052892207 -0.023108862 -0.013810675
0.008394036 -0.0049606087 -0.019761007 -0.016592884 -0.009842987 0.0018686126 -0.03059878 0.022908425
0.018119043 0.0132819135 0.0003120123 -0.011670154 -0.04158973 0.014698845 0.009116417 -0.021215267
0.006001191 -0.0023085761 0.010884071 -0.0019367991 -0.006107228 0.0032074219 0.01600944 0.011166218
0.031384654 0.026766181 -0.0059443177 -0.008593542 -0.001271626 0.0003148895 -0.006813039 -0.027871512
-0.029925331 -0.009832945 -0.0032151346 -0.022085007 -0.010565608 0.0035081217 -0.010395876 -0.011638433
-0.004330631 0.007847236 -0.021983521 -0.0112817865 -0.00033520942 0.008020142 0.007962863 -0.039669186
00000000: 08ae 5c3b 692c 753c f8c7 c2bb 61a6 bbbc
00000010: 21d4 12bd f9bc b2bb 42c6 ffbb 6619 82bc
00000020: 4055 a3bc f958 b0bc 71a1 dd3b 6448 aebc
00000030: e8e3 90bb 0c1f abbc b6e9 4cba 2724 76b8
00000040: eda0 623c 64b2 113c 864d 833b a26a 8c3c
00000050: 4d76 ba3c ebaf c03c deca 7cbc b721 a63c
00000060: 9aa2 6ebc fdd0 8abc 64f0 8b3c 0995 423c
00000070: 02d9 59bc 0dd5 80bc df1e 4cbc dcba a13c
00000080: de9b 383c cafa 763b b843 7cbc 4bc9 183c
00000090: f1f0 bcbb 698c 8b3c 66c3 0f3c c2ba 5b3c
000000a0: b9b6 19bc f4dc 03bb 5bec 46bc 64b7 143c
000000b0: 4538 8e3a 6d3a b4bc 6a88 4c3c 2c5f 283c
000000c0: 780d 883c 87e5 3c3c 9727 24bd ff4f 54bc
000000d0: 62de 6ebd 6387 75bd 1d73 84bd dd8f 06bd
000000e0: 76a6 653b afb9 ca3a 10a0 2bb9 4fa8 94bc
000000f0: 4cd6 7dbb bd18 24bc 3946 96bc a7c0 eb3a
00000100: 1487 0ebc 3001 36bc 84ca 963c 9ba7 0d3d
00000110: 1331 fc3c 0dc0 693b 5697 3b3c 505b 4e3c
00000120: 91a4 663b da9e efba ea27 2ebc b2d3 2a3c
00000130: cd21 35bc 7514 57bc 9ed4 8ebc af0a 72bc
00000140: 810f d1ba e947 a53c 24d0 55bc 98ad a0bc
00000150: efc0 9e3c ed18 7d3c ddbb 253c 1b49 63bc
00000160: 60b0 ae3c 1f6e 2c3c 4c4a a23b 4228 ab3c
00000170: 8011 253c 52af 933c b267 f1bb 7158 8f3c
00000180: f5d8 21bc f8ea 133c e353 59bc 913a afbc
00000190: 9234 96bc 6927 81bc 8924 863c 16ff d23c
000001a0: cc35 623c 80d8 8f39 dc76 923a f2d4 ba3b
000001b0: 3cb9 d03c 0628 3a3c e40b 56bc 6863 41bc
000001c0: d1ac c03c 2278 963c 1dce cfbc fbb8 96bc
000001d0: 49e7 693c 96b7 2bbc 027b c53c c63b 953c
000001e0: 20b3 83bc 7fb6 f13b 16f4 94bb 7da5 b6bc
000001f0: d8ef 173c 217b cfbb c906 8ebc 0dbd 2fbc
00000200: 2b2f 11bd 5ab4 f5bc c12c 41bd 7469 d7bb
00000210: 7493 82bc e4c9 62ba 11cc 10bc b7c2 22bc
00000220: 9c39 d93b 16c2 d13c 9cdc a23c e03d f63b
00000230: 379c eb3c 94e9 033d f0ac 923c 442c ba3c
00000240: a9ff 173d 0b6f 23bc 111d f73b cdc2 f63c
00000250: f98b 10bb c2bc a4bc 809e 69bc 8a5d 363a
00000260: a428 5bbc 8ee8 e03c 4797 a6bc eea6 b13c
00000270: e5aa 993c db0e 93bc e711 38bc bd64 cc3c
00000280: 6eb7 7cbb 702e 82bc e485 863b 2b06 09bb
00000290: 5b18 8e3b b516 163c dd56 acbc 5b2a 46bc
000002a0: aed3 883a e183 c33c a2af 97bc de30 43bc
000002b0: ee57 773c 6152 c83c 16b3 3e3b bb0f 113c
000002c0: 1c58 cb3c f3f0 d03b 5c02 a63c b865 fd3c
000002d0: 147b 9a3c 77f3 59bc 1f07 113d 0268 063d
000002e0: 2530 443c e429 16bc 5a66 dbba 68dc 49bc
000002f0: 54e7 823b e523 9a3c 6dd2 f239 21c4 43bb
00000300: 6633 0ebc 0547 3c3b 13b2 1c3c 1800 89bb
00000310: 9ed1 a8bc a35c abbb e349 40bc ef1b cdbb
00000320: 05c5 47bd 97a3 e5bc fc06 39bc ed8a 123c
00000330: 42d4 613b 3351 ad3b cc4e bdbc 2b46 62bc
00000340: 2487 093c 9a8c a2bb d6e1 a1bc cded 87bc
00000350: 7b44 21bc 3cec f43a 4baa fabc 73aa bb3c
00000360: 636e 943c 629c 593c 9595 a339 2c34 3fbc
00000370: fe59 2abd 6dd3 703c 065d 153c a4cb adbc
00000380: a4a5 c43b 7b4b 17bb 1a53 323c 32dc fdba
00000390: 241f c8bb 9c33 523b 3b26 833c 83f2 363c
000003a0: 328d 003d c044 db3c 8dc8 c2bb edcb 0cbc
000003b0: b0ac a6ba c117 a539 ea3f dfbb cc52 e4bc
000003c0: f825 f5bc 5c1a 21bc 02b5 52bb 9eeb b4bc
000003d0: 5f1b 2dbc 84e8 653b 7753 2abc 20af 3ebc
000003e0: f7e7 8dbb b191 003c c916 b4bc 3ed7 38bc
000003f0: 0cbf afb9 ea66 033c ab76 023c 287c 22bd

conv2.bias f4 [32]
-0.007859231 -0.020976136 -0.00089026743 0.013017755 0.026557973 0.02271804 -0.011541618 0.005697771
0.0072135553 -0.010411688 0.00032395453 0.009055552 0.025838206 0.0100729205 -0.0042900736 -0.0054903124
-0.014608256 -0.017510714 0.014607628 0.02246897 0.017122105 0.00055889855 -0.0066492176 5.771157e-05
0.01780188 0.016332217 0.015542902 0.018590651 0.0091289375 -0.015271819 -0.00031890097 -0.0018911306
00000000: 01c4 00bc 25d6 abbc d660 69ba 6c48 553c
00000010: 1b90 d93c 2f1b ba3c 0e19 3dbc 5eb4 ba3b
00000020: b05f ec3b c995 2abc 71d8 a939 bd5d 143c
00000030: a5aa d33c e408 253c bf93 8cbb 14e8 b3bb
00000040: 7757 6fbc a172 8fbc d554 6f3c d810 b83c
00000050: a843 8c3c 0c83 123a aee1 d9bb 540f 7238
00000060: 40d5 913c 24cb 853c a8a7 7e3c 6c4b 983c
00000070: 8a91 153c a736 7abc 2a32 a7b9 d0df f7ba

conv3.weight f4 [1, 32, 5, 5]
0.019099105 0.018302396 -0.0016451668 0.024678346 0.030634768 -0.029311659 0.0015678626 -0.034005754
0.0041038813 0.010441804 -0.002225341 0.028197479 0.0123939775 -0.029773585 -0.002880693 -0.015588567
-0.028307319 0.00018976096 -0.03175527 0.02341863 0.0044347206 0.012851885 0.020068534 0.027899943
-0.017332677 0.0024332146 -0.03306351 0.008253081 0.026581641 -0.022089345 0.020754168 -0.016262546
0.010213235 -0.015261588 0.0069472874 -0.033173688 0.026542563 -0.007992449 0.03293865 -0.012462626
0.015681537 -0.016614292 -0.014561583 -0.008595408 0.017146198 0.014390073 0.020717634 -0.00548387
0.004731402 0.022010082 -0.013823985 -0.011625186 0.026905242 -0.029830256 -0.01711337 -0.019608973
-0.007441799 -0.025990494 0.008229497 -0.024691664 -0.015550866 -0.0344047 0.023587225 -0.021673117
-0.00424241 -0.021093218 -0.004891644 -0.0067699905 -0.011514409 -0.00051225483 0.0150339715 0.02910215
0.026214803 -0.026246566 -0.004100258 -0.030957654 0.015736736 0.02221258 0.006060273 0.009894473
0.034422226 -0.0041182446 -0.0321194 -0.019307656 -0.011741532 0.017729726 0.0012557374 0.027393837
0.017656844 -0.011764804 -0.012127826 -0.014984249 -0.035362065 -0.011952823 -0.016793191 -0.008101077
-0.008698253 -0.014947464 -0.016345864 0.0057203835 0.006520307 0.007842328 0.01448102 -0.0026753547
0.003952873 -0.0069073867 0.03205575 5.1107534e-05 0.025418697 -0.020662252 -0.027263891 0.004685378
-0.031719245 0.020778533 0.020443765 0.029119475 0.03224286 0.011606718 0.013711979 -0.0051259645
0.03252758 0.015272176 -0.008267703 -0.032412853 0.0045809373 0.004252618 0.027975434 0.021691114
0.03157926 0.0040640375 0.011597811 -0.026270052 0.0067423405 0.010661415 -0.018118668 -0.016055863
0.018600814 -0.016607698 -0.009627502 0.028214024 0.02986132 -0.025652621 -0.028158389 0.025709461
-0.008158799 0.004871559 -0.021194141 -0.013558103 0.028566064 -0.021351762 0.013129879 0.0016673898
0.011370061 0.0019557714 -0.0070943213 0.013146117 0.010200219 -0.0028402505 0.02407982 0.03172934
0.018761111 -0.009757689 -0.025523918 -0.024012564 -0.017465392 -0.002685747 0.018356714 0.00990307
0.031805918 -0.034104656 -0.019556172 0.032646213 -0.024986051 0.022915797 0.0014696184 -0.0035757807
0.025351426 0.027496161 -0.014191672 -0.0016397561 0.033412024 0.029699856 0.0143098505 -0.021251852
-0.023629615 0.025720162 0.020537758 -0.003995657 0.034221042 0.024916599 -0.007401305 0.015727961
0.03445454 0.020628825 -0.016948672 -0.033021495 0.011084966 0.013390425 -0.034657657 0.0055055013
-0.021805085 0.014174163 -0.01727658 -0.026921365 0.033991378 0.021142181 -0.014304486 -0.025514571
0.023893427 -0.022088137 -0.010487465 -0.015765622 0.010527077 -0.002266579 0.013131343 -0.019798355
0.026089948 0.0040799957 -0.024427213 -0.025837969 0.02147834 -0.015274959 0.0098911235 0.0008987552
-0.016428852 0.034790553 -0.012500935 0.015177897 0.022623353 0.011975531 0.03409719 -0.023682458
0.0040697376 -0.00042450233 0.017579876 -0.0146062 -0.02045707 -0.02678441 0.024775092 0.01034482
-0.03258014 -0.001761801 -0.02870112 -0.02885987 0.022376465 -0.017354975 0.021353504 0.03317173
0.0054926365 0.015783079 -0.030883787 -0.0150895035 -0.0019466875 0.0075541097 0.01429293 0.019060327
00000000: ba75 9c3c e8ee 953c a3a2 d7ba 3e2a ca3c
00000010: c4f5 fa3c 011f f0bc bd80 cd3a 9e49 0bbd
00000020: da79 863b 1a14 2b3c 07d7 11bb 66fe e63c
00000030: 1c10 4b3c bce7 f3bc 02ca 3cbb 3067 7fbc
00000040: c0e4 e7bc 92fa 4639 d011 02bd 6dd8 bf3c
00000050: 2251 913b b690 523c c466 a43c 6c8e e43c
00000060: 42fd 8dbc 9176 1f3b 9a6d 07bd ee37 073c
00000070: bec1 d93c b7f4 b4bc a504 aa3c 0839 85bc
00000080: 6a55 273c bd0b 7abc 12a6 e33b 22e1 07bd
00000090: ca6f d93c c3f2 02bc aeea 063d 0b30 4cbc
000000a0: 9176 803c b21a 88bc b593 6ebc c1d3 0cbc
000000b0: 2f76 8c3c 57c4 6b3c 07b8 a93c 09b2 b3bb
000000c0: e009 9b3b 7d4e b43c ff7d 62bc 9077 3ebc
000000d0: 6268 dc3c 955e f4bc 5731 8cbc ffa2 a0bc
000000e0: 56da f3bb 04ea d4bc 03d5 063c 2c46 cabc
000000f0: 0fc9 7ebc f1eb 0cbd ff39 c13c d28b b1bc
00000100: ea03 8bbb afcb acbc 164a a0bb ccd6 ddbb
00000110: efa6 3cbc d748 06ba 0c51 763c a267 ee3c
00000120: 6dc0 d63c 0a03 d7bc 755b 86bb e89a fdbc
00000130: 54ea 803c 28f7 b53c 4195 c63b 6d1c 223c
00000140: 52fe 0c3d 57f2 86bb a28f 03bd 172b 9ebc
00000150: 8e5f 40bc ee3d 913c 8e97 a43a 0a69 e03c
00000160: 16a5 903c 2ac1 40bc cab3 46bc 7f80 75bc
00000170: d0d7 10bd c6d5 43bc e091 89bc 61ba 04bc
00000180: 1e83 0ebc 35e6 74bc c3e7 85bc 0e72 bb3b
00000190: 4da8 d53b 1c7d 003c cd41 6d3c 0155 2fbb
000001a0: 1a87 813b 5c57 e2bb e44c 033d 4c5c 5638
000001b0: df3a d03c e243 a9bc 8658 dfbc cd87 993b
000001c0: 0aec 01bd be37 aa3c af79 a73c f78b ee3c
000001d0: 1711 043d 1b2a 3e3c 35a8 603c b5f7 a7bb
000001e0: a43b 053d 2638 7a3c 4275 07bc 57c3 04bd
000001f0: b01b 963b 8c59 8b3b bd2c e53c 90b1 b13c
00000200: 4159 013d 9e2b 853b bf04 3e3c 4b34 d7bc
00000210: daee dc3b 37ad 2e3c 9a6d 94bc 9687 83bc
00000220: bc60 983c de0c 88bc acbc 1dbc 1921 e73c
00000230: ba9f f43c 7225 d2bc 6cac e6bc a69c d23c
00000240: 7cac 05bc 99a1 9f3b 569f adbc ce22 5ebc
00000250: 6103 ea3c e4e9 aebc b41e 573c 518c da3a
00000260: 7e49 3a3c 662c 003b 7b77 e8bb d062 573c
00000270: d21e 273c 7f23 3abb 0b43 c53c a0f6 013d
00000280: e7b0 993c b7de 1fbc 8917 d1bc ffb5 c4bc
00000290: 9513 8fbc 5c03 30bb d260 963c 7c40 223c
000002a0: ec46 023d 53b1 0bbd 4434 a0bc 09b8 053d
000002b0: 8caf ccbc e9b9 bb3c 36a0 c03a a557 6abb
000002c0: cbad cf3c a13f e13c 3084 68bc 16ed d6ba
000002d0: 0cdb 083d 1d4d f33c dd73 6a3c 5d18 aebc
000002e0: e592 c1bc 17b3 d23c cd3e a83c 00ee 82bb
000002f0: 5d2b 0c3d e51d cc3c a586 f2bb edd7 803c
00000300: 3420 0d3d c8fd a83c f1d7 8abc 8c41 07bd
00000310: b89d 353c 8363 5b3c 30f5 0dbd 7e67 b43b
00000320: 94a0 b2bc c03a 683c 9d87 8dbc 328a dcbc
00000330: 8b3a 0b3d 5e32 ad3c 5d5d 6abc ef03 d1bc
00000340: 26bc c33c 2ef2 b4bc 9ed3 2bbc e826 81bc
00000350: c379 2c3c e38a 14bb d824 573c 2930 a2bc
00000360: 96ba d53c 7cb1 853b 941b c8bc 26aa d3bc
00000370: 58f3 af3c d243 7abc 610e 223c 719a 6b3a
00000380: cd95 86bc 8a80 0e3d b9d0 4cbc b7ac 783c
00000390: 9c54 b93c 0435 443c 7fa9 0b3d b701 c2bc
000003a0: 6f5b 853b bd8f deb9 ac03 903c d84e 6fbc
000003b0: 9695 a7bc fb6a dbbc 22f5 ca3c 527d 293c
000003c0: c172 05bd 3bec e6ba 9c1e ebbc 896b ecbc
000003d0: d94e b73c 052c 8ebc 8bed ae3c 14df 073d
000003e0: 93fb b33b 844b 813c ffff fcbc f739 77bc
000003f0: fe27 ffba 7788 f73b e52c 6a3c 6724 9c3c
