Lecture8_Image restoration (HuStar_4)/outputs/x3/epoch_24.pth (torch, 231589 bytes, 5 tensors)

conv1.weight f4 [64, 1, 9, 9]
-0.00862403 0.014365552 -0.051413383 0.052534487 -0.08517492 0.09259434 -0.07152005 -0.08262667
-0.05825092 0.06353782 -0.047165148 0.035338532 -0.09575067 -0.06938645 -0.04007576 -0.023942882
-0.09262585 0.067860425 -0.018269047 0.029926065 0.07646077 0.027790142 0.044045936 0.12235779
-0.04511845 0.028573884 -0.060083818 0.066736065 0.06540009 -0.11428218 0.110605694 0.08674261
0.08102553 0.05953533 0.086496525 -0.029941075 -0.11070197 -0.05599743 -0.08220924 0.04492993
0.03237618 -0.016672105 0.006536527 0.101737596 -0.020711562 -0.011624756 -0.04032624 0.015410256
0.12698649 0.09500219 0.053192627 0.021761458 0.01858434 0.030508295 -0.009738837 -0.12176563
-0.07557687 0.10003267 0.002214878 -0.102079034 0.0060729072 0.093513235 -0.10477582 -0.045439523
-0.05400438 -0.008840531 -0.040835988 -0.036661826 -0.13075803 0.047739305 0.11744237 0.08122977
-0.018691203 -0.08678501 0.02669117 -0.022628887 0.022241067 -0.122003265 0.00038271924 0.10717038
0.062147386 0.0055195615 0.014872148 -0.013822603 -0.080033734 -0.06225443 -0.08577741 0.0848128
0.0472222 0.027179696 -0.08951564 0.077086136 0.03367985 0.06301209 -0.057438657 0.013852509
0.11502109 0.07897647 0.09234155 -0.035220385 0.06961236 -0.08810207 0.00659556 -0.06176673
-0.026011584 -0.019963965 0.008612618 0.094055295 0.030021409 -0.022143764 0.07986806 -0.049966928
0.066790506 -0.015580733 -0.021823945 -5.867412e-05 -0.10764212 -0.006405959 0.024446668 0.10673452
-0.018015873 0.052662693 0.10201869 -0.05568694 0.0925107 -0.075962186 0.029927805 0.028618338
0.037534177 0.089922525 -0.05105798 0.0040418403 -0.015084918 -0.094552435 -0.045178443 -0.09492661
0.02973065 0.011533901 0.004706204 -0.05152346 -0.03157813 -0.047515396 0.03132024 0.097477034
0.010507612 -0.056369904 -0.05881554 0.009662725 -0.09096432 -0.10101866 -0.07269769 -0.02701246
0.0034397435 0.081343465 0.047637623 0.11009899 -0.046051428 0.02943302 -0.0832919 0.09090074
0.052136283 0.11337741 -0.058731932 0.11587671 0.1297227 0.13511975 0.07073717 0.14827739
0.109024055 0.10037037 -0.012442955 -0.08950158 -0.006238592 0.013424281 -0.08443516 -0.06339792
-0.10693543 -0.04012741 0.08800611 -0.0074355206 -0.008576099 0.0060533024 0.0678021 -0.10469101
-0.087152444 -0.041763555 -0.06642473 0.05552099 0.06682955 -0.097882226 -0.07380869 -0.08327258
0.063644186 0.11390597 -0.07172374 -0.037747055 0.05427981 -0.05730051 0.10487595 0.046699997
-0.003089799 0.037855618 0.0655961 -0.024858639 -0.076464854 0.016772611 0.017393848 0.0071499846
-0.0076257773 0.089675225 -0.009095706 0.01225822 0.054191474 -0.069451556 0.03794645 -0.019050483
0.05760901 -0.06825118 0.004133677 0.012520607 -0.086212255 -0.08781102 0.031638335 -0.033509176
0.06235276 -0.0810764 -0.04737741 -0.08386341 0.049068205 0.011467853 -0.013558233 -0.01670975
-0.08032907 0.03497367 0.038697258 -0.06052081 0.057269838 0.009587159 -0.07951059 0.08067736
0.07413527 -0.007187357 -0.06590762 0.0032691523 0.08165314 0.09843084 -0.08745865 -0.0525215
0.08481979 0.051217366 0.06296151 -0.062126555 0.0941546 -0.09336382 -0.0076410947 -0.0011794067
00000000: ce4b 0dbc 7e5d 6b3c d796 52bd 672e 573d
00000010: 3070 aebd 1aa2 bd3d 1b79 92bd 2c38 a9bd
00000020: 8498 6ebd 1e20 823d 3e30 41bd 23bf 103d
00000030: ed18 c4bd 7c1a 8ebd 7b26 24bd dd23 c4bc
00000040: 9fb2 bdbd 68fa 8a3d f8a8 95bc 8227 f53c
00000050: 7797 9c3d 27a8 e33c 8369 343d b996 fa3d
00000060: 20ce 38bd c713 ea3c 731a 76bd ebac 883d
00000070: 7bf0 853d c70c eabd 3d85 e23d 1ca6 b13d
00000080: b7f0 a53d 51db 733d 1725 b13d fc46 f5bc
00000090: b7b7 e2bd 905d 65bd 515d a8bd 7208 383d
000000a0: e39c 043d f093 88bc 5d30 d63b cd5b d03d
000000b0: 4bab a9bc c375 3ebc 212d 25bd 4c7b 7c3c
000000c0: bf08 023e 8290 c23d 83e0 593d 1645 b23c
000000d0: 303e 983c 88ec f93c a58f 1fbc 4260 f9bd
000000e0: 0cc8 9abd eedd cc3d 7d27 113b d00e d1bd
000000f0: 3dff c63b de83 bf3d b594 d6bd cb1e 3abd
00000100: b233 5dbd e0d7 10bc a343 27bd b62a 16bd
00000110: 6fe5 05be 4a8a 433d a085 f03d cb5b a63d
00000120: 4b1e 99bc 57bc b1bd 71a7 da3c 3760 b9bc
00000130: e632 b63c d9dc f9bd b5a7 c839 257c db3d
00000140: 428e 7e3d 70dd b43b 4faa 733c 3378 62bc
00000150: bae8 a3bd 80fe 7ebd 11ac afbd 55b2 ad3d
00000160: 116c 413d f4a7 de3c fa53 b7bd 56df 9d3d
00000170: e2f3 093d 7c0c 813d cc44 6bbd a2f5 623c
00000180: 2d90 eb3d 6abe a13d 911d bd3d 4043 10bd
00000190: ed90 8e3d dc6e b4bd 911f d83b 1cff 7cbd
000001a0: 3f16 d5bc 788b a3bc f01b 0d3c 10a0 c03d
000001b0: 75ef f53c d766 b5bc de91 a33d 1faa 4cbd
000001c0: 76c9 883d 5546 7fbc 21c8 b2bc db18 76b8
000001d0: 7973 dcbd 14e9 d1bb 6144 c83c a197 da3d
000001e0: 0696 93bc d6b4 573d 2def d03d fd17 64bd
000001f0: 4076 bd3d 1092 9bbd 282b f53c 0171 ea3c
00000200: 70bd 193d 4d29 b83d 2c22 51bd 6a71 843b
00000210: bb26 77bc b5a4 c1bd 080d 39bd e268 c2bd
00000220: b18d f33c b0f8 3c3c 8036 9a3b 430a 53bd
00000230: 1258 01bd 819f 42bd a749 003d 0aa2 c73d
00000240: 1e28 2c3c 21e4 66bd 90e8 70bd 6850 1e3c
00000250: 804b babd dfe2 cebd 87e2 94bd 3c49 ddbc
00000260: 526d 613b 6797 a63d ab1f 433d 947b e13d
00000270: 6ca0 3cbd 841d f13c f294 aabd 2b2a ba3d
00000280: db8c 553d 6a32 e83d e590 70bd c550 ed3d
00000290: 07d6 043e d55c 0a3e a6de 903d 07d6 173e
000002a0: 0148 df3d fb8e cd3d 89dd 4bbc 9b4c b7bd
000002b0: 1a6d ccbb 84f1 5b3c 57ec acbd c5d6 81bd
000002c0: f600 dbbd a45c 24bd 8c3c b43d aba5 f3bb
000002d0: c482 0cbc c85a c63b d4db 8a3d 3e68 d6bd
000002e0: fb7c b2bd 4310 2bbd b009 88bd fa69 633d
000002f0: eedd 883d 7a76 c8bd 0329 97bd d08a aabd
00000300: e257 823d 8847 e93d e5e3 92bd a89c 1abd
00000310: 8254 5e3d f1b3 6abd 34c9 d63d 7f48 3f3d
00000320: 3a7e 4abb 7e0e 1b3d 4057 863d 58a4 cbbc
00000330: 9b99 9cbd b766 893c 8b7d 8e3c 6b4a ea3b
00000340: a8e1 f9bb a5a7 b73d 2806 15bc b4d6 483c
00000350: e1f7 5d3d 9e3c 8ebd bd6d 1b3d c20f 9cbc
00000360: 6df7 6b3d 46c7 8bbd cc73 873b 3b23 4d3c
00000370: 0d90 b0bd 44d6 b3bd 3397 013d eb40 09bd
00000380: 9c65 7f3d 620b a6bd d10e 42bd 94c0 abbd
00000390: befb 483d a9e3 3b3c 5a23 5ebc e3e2 88bc
000003a0: 9183 a4bd 8d40 0f3d 0481 1e3d abe4 77bd
000003b0: c793 6a3d 7613 1d3c 73d6 a2bd 2c3a a53d
000003c0: 3cd4 973d ec83 ebbb 93fa 86bd 463f 563b
000003d0: c339 a73d 1c96 c93d 851d b3bd c920 57bd
000003e0: 00b6 ad3d 4dc9 513d f7f1 803d 6a78 7ebd
000003f0: 20d4 c03d 8835 bfbd 2662 fabb 5296 9aba

conv1.bias f4 [64]
-0.0075263535 -0.10706227 0.010275918 -0.063701116 0.04002521 0.0027826857 0.055537194 -0.015024487
0.12783223 -0.045407757 0.0074715936 0.04036823 -0.10757841 0.11046352 0.06902971 0.027269335
-0.033554696 -0.074889556 0.053523477 0.03876584 0.016596166 0.005931248 -0.06798892 0.07252225
-0.06692398 0.06417747 0.00056729733 -0.0024059957 0.02727182 0.048161525 0.088284664 -0.008345837
0.044019464 0.07464195 0.0039006877 -0.08924791 -0.012246205 0.08188554 -0.014384836 0.052750744
0.004879984 -0.019190945 0.09772833 -0.030583253 0.035650454 -0.0054010693 -0.018071389 -0.016796913
-0.01171789 -0.03787223 -0.021292586 0.06707609 0.024129244 -0.00075525476 0.001109586 0.0052101063
0.09467906 -0.045767166 -0.012027922 0.066783 0.056813113 -0.029033484 -0.06518394 -0.078863904
00000000: a19f f6bb 7743 dbbd 535c 283c bb75 82bd
00000010: 79f1 233d b85d 363b f87a 633d 4429 76bc
00000020: 74e6 023e 7cfd 39bd 45d4 f43b 2859 253d
00000030: 1252 dcbd b33a e23d 735f 8d3d f163 df3c
00000040: a670 09bd b25f 99bd 6f3b 5b3d eec8 1e3d
00000050: aff4 873c ea5a c23b c63d 8bbd 8c86 943d
00000060: 710f 89bd 7a6f 833d aeb6 143a e9ad 1dbb
00000070: 2769 df3c 0545 453d 97ce b43d fabc 08bc
00000080: c14d 343d e1dd 983d aea2 7f3b 9cc7 b6bd
00000090: 4ea4 48bc 9bb3 a73d 60ae 6bbc 2a11 583d
000000a0: 46e8 9f3b 5436 9dbc ca25 c83d bb89 fabc
000000b0: 3606 123d 74fb b0bb 730a 94bc ae99 89bc
000000c0: 65fc 3fbc e91f 1bbd ca6d aebc 305f 893d
000000d0: b1aa c53c 4afc 45ba 876f 913a 8ab9 aa3b
000000e0: 18e7 c13d 5a76 3bbd c310 45bc 87c5 883d
000000f0: deb4 683d a1d7 edbc 287f 85bd 6683 a1bd

conv2.weight f4 [32, 64, 5, 5]
-0.0024867211 -0.011623194 0.018291205 0.029333591 -0.07202355 0.013412253 -0.025794748 -0.028386014
-0.0056995265 -0.030305788 0.025939832 -0.0077498322 -0.008490481 -0.017975785 0.02075419 -0.013795588
0.0104235485 0.0039120284 -0.0014939454 0.027650809 -0.0034115391 0.00097613723 -0.035433486 0.0067934957
-0.017007366 -0.00708291 0.01958234 0.0168051 -0.012274558 -0.020096518 0.012706259 0.045454122
0.041674137 0.03062131 0.012395498 0.023819642 -0.0008376445 0.024926182 0.030333295 0.058744296
-0.009595858 -0.009178009 -0.0297822 -0.002353159 0.008167648 -0.051034424 0.001309719 0.0039266995
0.0031281658 0.014464673 -0.09343151 -0.102593616 -0.14572844 -0.113479905 -0.15985309 -0.033470716
-0.029422777 -0.029208062 0.008157518 -0.027116427 0.01803053 -0.0010866256 -0.027244562 0.02213415
0.013226933 -0.0068867686 0.034737695 0.027081976 0.025637828 0.017784936 -0.001255111 0.0153758135
0.005539845 0.002368023 0.010302113 0.019267347 -0.0074383677 -0.0063420334 -0.01658064 -0.014619448
0.0066740834 0.02571458 -0.011531309 -0.0070071607 0.023731563 0.0073246467 0.0016621725 -0.025721092
0.027612995 0.012383768 -0.0028797316 0.019653603 2.0537747e-05 0.018037636 0.001777836 0.021633485
-0.002209961 0.005885702 -0.01941401 -0.005491643 -0.0261513 -0.031102248 0.007204323 0.010812757
0.0013356702 -0.0015972349 -0.0036445765 0.012300594 0.024295917 0.0149019025 -0.015076515 -0.014989256
0.03245583 0.025099894 -0.02458863 -0.02313248 0.003886654 -0.02508313 0.01347702 0.007265482
-0.016554656 -0.0077795424 -0.027350489 -0.038986333 -0.012386217 0.021877 -0.05162739 0.06148736
0.04235987 0.120823406 -0.044583894 -0.021469928 -0.015921896 -0.0008613486 0.021525374 -0.0134577975
-0.0023690695 0.023024866 -0.0001920656 0.002673181 0.025899945 0.033371598 0.02903985 0.013678344
0.017585024 -0.022357732 -0.019171154 0.020360582 -0.019858858 -0.045887794 -0.0025620086 0.0005319288
-0.010498359 0.023658546 -0.029542206 0.021403998 0.004809524 -0.02207841 -0.01615687 0.019017939
-0.009471865 -0.027409803 0.0003485599 -0.0053757457 -0.008106199 0.015534246 -0.014344102 -0.008282094
-0.0027748335 0.016566204 -0.0054311976 -0.0011630729 0.01958133 0.021695629 0.0058717206 0.021316918
0.052891083 0.026211219 0.008645219 0.05686947 -0.008980536 -0.032397382 0.04116468 0.015048261
0.0023232922 -0.0143434685 -0.027425477 -0.035300292 0.0037661714 0.025063282 -0.016412707 -0.015890721
-0.07299239 -0.031300705 0.029774144 -0.015774414 0.07340678 0.0069349743 -0.060058076 -0.0063560954
-0.07646843 0.002001419 0.0026893856 -0.007496331 -0.005891414 0.033156555 0.038042765 0.020736707
-0.017292751 -0.027316183 0.0661095 0.025422527 0.015671847 0.0067063603 -0.045191392 0.03846273
0.047201376 0.04448888 0.025217362 -0.009790547 -0.055365212 0.02256435 0.010352972 -0.011304763
0.012291169 -0.007325428 0.0028363278 -0.011344636 -0.01252629 -0.0025269487 0.010681229 0.0015410404
0.024577955 0.023824297 -0.005329778 -0.013529621 -0.005588875 -0.0020389105 -0.005680354 -0.026277678
-0.03723173 -0.013518051 -0.004912373 -0.024213009 -0.016890474 -0.0011561053 -0.009240294 -0.013139269
-0.009029581 -0.000755132 -0.03126502 -0.02472227 -0.007403619 0.010178533 0.011297023 -0.03650741
00000000: 42f8 22bb 366f 3ebc 70d7 953c 004d f03c
00000010: 1581 93bd 11bf 5b3c 824f d3bc c989 e8bc
00000020: 18c3 babb d843 f8bc c57f d43c 4ef2 fdbb
00000030: a91b 0bbc f441 93bc b104 aa3c e406 62bc
00000040: 88c7 2a3c 7930 803b 7dd0 c3ba f383 e23c
00000050: 2194 5fbb 76e3 7f3a b422 11bd f99b de3b
00000060: 0853 8bbc c117 e8bb 256b a03c d9aa 893c
00000070: 3a1b 49bc 74a1 a4bc ea2d 503c 1a2e 3a3d
00000080: 80b2 2a3d 8bd9 fa3c 7d16 4b3c 6921 c33c
00000090: 5f95 5bba fe31 cc3c 887d f83c dc9d 703d
000000a0: f237 1dbc 5c5f 16bc cdf9 f3bc 7537 1abb
000000b0: 99d1 053c 7909 51bd e1aa ab3a 8bab 803b
000000c0: ea01 4d3b 3cfd 6c3c 0559 bfbd 9a1c d2bd
000000d0: d639 15be 2768 e8bd 87b0 23be 9718 09bd
000000e0: 0908 f1bc bf45 efbc 1ca7 053c 4523 debc
000000f0: c3b4 933c 1b6d 8eba fd2f dfbc ad52 b53c
00000100: c7b5 583c 67aa e1bb 1d49 0e3d 05db dd3c
00000110: 6c06 d23c b7b1 913c 8982 a4ba d6ea 7b3c
00000120: 9787 b53b d530 1b3b 32ca 283c 8ed6 9d3c
00000130: 8dbd f3bb d5d0 cfbb 1fd4 87bc 6986 6fbc
00000140: 45b2 da3b 62a7 d23c d1ed 3cbc 539c e5bb
00000150: b268 c23c 9703 f03b 41dd d93a 0ab5 d2bc
00000160: a634 e23c 4ae5 4a3c e1b9 3cbb 9800 a13c
00000170: 7a48 ac37 aac3 933c 4706 e93a b538 b13c
00000180: fed4 10bb d9dc c03b 210a 9fbc 3ef3 b3bb
00000190: 403b d6bc 24ca febc 3e12 ec3b fd27 313c
000001a0: a811 af3a 4f5a d1ba d9d9 6ebb 6e88 493c
000001b0: 3b08 c73c 1c27 743c 7d03 77bc 7f95 75bc
000001c0: 68f0 043d 4b9e cd3c 186e c9bc 5480 bdbc
000001d0: 3cb7 7e3b 237b cdbc b8ce 5c3c 4813 ee3b
000001e0: a19d 87bc 88eb febb 220e e0bc 22b0 1fbd
000001f0: 8fef 4abc 6537 b33c 3e77 53bd 2cda 7b3d
00000200: 8b81 2d3d 4372 f73d 9a9d 36bd b4e1 afbc
00000210: a36e 82bc 20cc 61ba fb55 b03c 187e 5cbc
00000220: 6442 1bbb a59e bc3c 3865 49b9 8930 2f3b
00000230: 1f2c d43c a8b0 083d fbe4 ed3c 221b 603c
00000240: 780e 903c 9027 b7bc d30c 9dbc 3ccb a63c
00000250: 0baf a2bc d7f4 3bbd 5fe7 27bb 2371 0b3a
00000260: 4f01 2cbc 91cf c13c 7f02 f2bc 7057 af3c
00000270: 3699 9d3b c8dd b4bc 6a5b 84bc 82cb 9b3c
00000280: e22f 1bbc 868a e0bc ebbe b639 0627 b0bb
00000290: ddcf 04bc 5a83 7e3c 8603 6bbc 9fb1 07bc
000002a0: fbd9 35bb d9b5 873c 30f8 b1bb 4072 98ba
000002b0: 0669 a03c 08bb b13c 9067 c03b d1a0 ae3c
000002c0: 52a4 583d e9b8 d63c ada4 0d3c f6ef 683d
000002d0: 1923 13bc 1eb3 04bd 4c9c 283d fb8c 763c
000002e0: 6042 183b de00 6bbc 65ab e0bc 0a97 10bd
000002f0: dfd1 763b 8351 cd3c f173 86bc 422d 82bc
00000300: 097d 95bd 2b35 00bd e8e8 f33c 5839 81bc
00000310: 4b56 963d c83e e33b 75ff 75bd cb46 d0bb
00000320: 7b9b 9cbd 3d2a 033b 6740 303b c8a3 f5bb
00000330: c30c c1bb 2bcf 073d bbd2 1b3d 07e0 a93c
00000340: 87a9 8dbc 30c6 dfbc 6b64 873d e742 d03c
00000350: 3f62 803c 07c1 db3b 9c1a 39bd 188b 1d3d
00000360: 3b56 413d f939 363d a494 ce3c 8868 20bc
00000370: a2c6 62bd dfd8 b83c 839f 293c 9d37 39bc
00000380: e660 493c 250a f0bb afe1 393b dade 39bc
00000390: 113b 4dbc 2a9b 25bb 5200 2f3c bcfc c93a
000003a0: b557 c93c 2c2b c33c 6ba5 aebb 58ab 5dbc
000003b0: e222 b7bb 3e9f 05bb 4322 babb 4944 d7bc
000003c0: 4c80 18bd d17a 5dbc f9f7 a0bb 5c5a c6bc
000003d0: e45d 8abc 7588 97ba 9a64 17bc 1746 57bc
000003e0: cff0 13bc 0df4 45ba c00f 00bd 5c86 cabc
000003f0: 0f9a f2bb ddc3 263c 2617 393c cb88 15bd

conv2.bias f4 [32]
-0.013301912 -0.022127481 -0.0030025952 0.0046763904 0.02522497 0.018344793 -0.010815718 0.008145854
0.01607929 -0.00989038 0.0003183427 0.003645235 0.026248656 0.017160898 -0.004099692 -0.012202022
-0.014762869 -0.018950628 0.012551355 0.02242577 0.0288008 0.008717362 -0.0093570845 0.0016138171
0.00070666394 0.025900558 0.018303102 0.019693157 0.008205472 -0.012881421 -0.006948913 -0.002248538
00000000: 43f0 59bc b144 b5bc 30c7 44bb 683c 993b
00000010: 99a4 ce3c d247 963c 6934 31bc 3076 053c
00000020: b7b8 833c 430b 22bc 3ce7 a639 e5e4 6e3b
00000030: 6c07 d73c 0395 8c3c b656 86bb fdea 47bc
00000040: f6df 71bc 593e 9bbc 33a4 4d3c 40b6 b73c
00000050: a8ef eb3c 44d3 0e3c 754e 19bc b786 d33a
00000060: 6a3f 393a 682d d43c 63f0 953c 8b53 a13c
00000070: 3e70 063c 980c 53bc b5b3 e3bb 355c 13bb

conv3.weight f4 [1, 32, 5, 5]
0.017509114 0.017769326 -0.0013471855 0.02512042 0.03080989 -0.030904805 0.00042337817 -0.035611812
0.0027174728 0.009894565 -0.00405841 0.027403114 0.010693676 -0.031918935 -0.0043149707 -0.01775383
-0.029469786 -0.00056222116 -0.032852206 0.021927945 0.002632881 0.012234447 0.021029009 0.028885359
-0.017660554 0.0020925407 -0.033481553 0.008093778 0.026346117 -0.022344582 0.020493038 -0.016580313
0.010133054 -0.015476656 0.0067322184 -0.03343061 0.026341127 -0.008017215 0.03280538 -0.012523919
0.015450833 -0.01693814 -0.015008747 -0.009019436 0.017111126 0.014332565 0.020622557 -0.0057817926
0.0043397928 0.021861844 -0.013818718 -0.01103846 0.027106043 -0.029996548 -0.01714004 -0.019251041
-0.0068968413 -0.025834698 0.008299999 -0.02439194 -0.015244027 -0.03403906 0.023344064 -0.022047883
-0.004441951 -0.020721605 -0.0043843403 -0.007163225 -0.011715759 -0.0006999935 0.015136737 0.029306004
0.025809411 -0.02614736 -0.0041768216 -0.048115905 0.016790165 0.027769733 0.0043439586 0.008531513
0.044275634 0.024501828 -0.01390638 -0.018817311 -0.006011416 0.03895623 0.02091433 0.021147825
-0.0028658607 -0.012761871 -0.0018788603 -0.01976413 -0.055186257 -0.023684539 -0.005384534 -0.007292639
-0.019890564 -0.021615963 0.00057459885 0.03205428 0.0062251156 0.0076843724 0.014307935 -0.002966711
0.003769275 -0.00739205 0.03187494 -0.00011737627 0.025247542 -0.0206444 -0.027644914 0.0045090914
-0.03188354 0.02057942 0.020338006 0.028808752 0.03192333 0.011342156 0.013306637 -0.005518285
0.032262594 0.014913655 -0.0086651435 -0.033040024 0.004009913 0.004580978 0.030404093 0.02471362
0.0314078 0.0034189294 0.010590232 -0.026633438 0.006481208 0.009315446 -0.018996987 -0.017951125
0.015190405 -0.020140974 -0.011493856 0.027920706 0.027717937 -0.029122911 -0.030588662 0.025259577
-0.007936991 0.0064126444 -0.02106943 -0.013324869 0.028228663 -0.023088627 0.012754862 0.0014319568
0.011447933 0.0019220026 -0.006959244 0.012949755 0.009876002 -0.0029961828 0.024059223 0.031954765
0.018701853 -0.010119372 -0.025964664 -0.024320718 -0.017422173 -0.0030286144 0.01813541 0.009714891
0.031505164 -0.03460849 -0.020157024 0.03246735 -0.02492576 0.022937661 0.0011323192 -0.0038642178
0.025198089 0.027414937 -0.014350082 -0.0019123654 0.033278286 0.029657762 0.0143654905 -0.02123633
-0.023677852 0.02563387 0.02057993 -0.0037412557 0.034354925 0.024959793 -0.007571326 0.015589075
0.034500167 0.02063739 -0.017014517 -0.033254046 0.010872179 0.013309959 -0.034736235 0.005363206
-0.011640598 0.009223922 -0.02497914 -0.015192645 0.0452401 0.017693045 -0.015904553 -0.042681724
0.009036165 -0.0033096434 -0.013968308 0.0112838745 0.04117548 -0.01730792 0.008016099 -0.030613923
0.055562623 0.047496025 -0.03028653 -0.027408475 0.003335915 -0.016273107 0.029860137 0.003067477
-0.01358585 0.03455482 -0.012696843 0.015279055 0.022368181 0.0115583 0.033865053 -0.02424509
0.003807952 -0.0007370048 0.017198125 -0.014946844 -0.021006413 -0.027480451 0.024273517 0.010308706
-0.03318809 -0.002246029 -0.029582186 -0.029783498 0.02203481 -0.01794651 0.02108301 0.032913897
0.0050578574 0.015283631 -0.030883787 -0.0150895035 -0.0019466875 0.0075541097 0.01429293 0.019060327
00000000: 466f 8f3c fa90 913c 0b94 b0ba 57c9 cd3c
00000010: 0665 fc3c 132c fdbc dbf8 dd39 b1dd 11bd
00000020: a117 323b d01c 223c 69fc 84bb 7f7c e03c
00000030: 8734 2f3c 6ebd 02bd 9964 8dbb 7b70 91bc
00000040: 9f6a f1bc 0662 13ba 0990 06bd 3ca2 b33c
00000050: 6a8c 2c3b fd72 483c 0745 ac3c fda0 ec3c
00000060: deac 90bc 0223 093b f423 09bd c49b 043c
00000070: d0d3 d73c fc0b b7bc 04e1 a73c 70d3 87bc
00000080: 1c05 263c cd91 7dbc f199 dc3b 89ee 08bd
00000090: 59c9 d73c a35a 03bc ef5e 063d 2031 4dbc
000000a0: 7e25 7d3c dbc1 8abc 3fe7 75bc 42c6 13bc
000000b0: a22c 8c3c 22d3 6a3c a3f0 a83c 3175 bdbb
000000c0: d234 8e3b 9c17 b33c e767 62bc a8da 34bc
000000d0: 7e0d de3c 52bb f5bc 4569 8cbc 5cb4 9dbc
000000e0: e6fe e1bb 4aa3 d3bc b8fc 073c 9bd1 c7bc
000000f0: 15c2 79bc 8b6c 0bbd 0d3c bf3c c39d b4bc
00000100: c98d 91bb 5bc0 a9bc 83aa 8fbb 7db9 eabb
00000110: 74f3 3fbc c57f 37ba 1400 783c 2513 f03c
00000120: 426e d33c fd32 d6bc b8dd 88bb 2f15 45bd
00000130: 878b 893c 5a7d e33c c457 8e3b c2c7 0b3c
00000140: 5e5a 353d 0fb8 c83c 96d7 63bc c326 9abc
00000150: 6afb c4bb 9190 1f3d 8754 ab3c 343e ad3c
00000160: 2ad1 3bbb 2b17 51bc 1744 f6ba 62e8 a1bc
00000170: fc0a 62bd 1406 c2bc bf70 b0bb 17f7 eebb
00000180: 89f1 a2bc f613 b1bc ada0 163a 594b 033d
00000190: 0efc cb3b 30cd fb3b d46b 6a3c 276d 42bb
000001a0: f105 773b 0339 f2bb 4c8f 023d e827 f6b8
000001b0: efd3 ce3c 721e a9bc 9677 e2bc 00c1 933b
000001c0: 5198 02bd 2c96 a83c e49b a63c 5500 ec3c
000001d0: 0ac2 023d 73d4 393c 1504 5a3c bbd2 b4bb
000001e0: c825 043d 6758 743c 3ff8 0dbc fa54 07bd
000001f0: 9765 833b 071c 963b 0112 f93c 3874 ca3c
00000200: 77a5 003d 1e10 603b a782 2d3c 5e2e dabc
00000210: 5060 d43b d09f 183c 929f 9bbc 3d0e 93bc
00000220: 2de1 783c affe a4bc ba50 3cbc f7b9 e43c
00000230: ba10 e33c 2c93 eebc 1395 fabc 2ced ce3c
00000240: 270a 02bc 2921 d23b cc99 acbc 8d50 5abc
00000250: cc3f e73c 5c24 bdbc c5f9 503c 7fb0 bb3a
00000260: 1c90 3b3c b5eb fb3a 5f0a e4bb 362b 543c
00000270: f4ce 213c 9b5b 44bb d917 c53c 00e3 023d
00000280: a134 993c b9cb 25bc d9b3 d4bc 3e3c c7bc
00000290: f2b8 8ebc b87b 46bb b690 943c 352b 1f3c
000002a0: 8f0b 013d a2c1 0dbd 5820 a5bc 7cfc 043d
000002b0: 1c31 ccbc c3e7 bb3c 546a 943a d13e 7dbb
000002c0: 396c ce3c 4a95 e03c 9b1c 6bbc 56a8 faba
000002d0: d04e 083d d6f4 f23c 3c5d 6b3c d0f7 adbc
000002e0: 0ef8 c1bc 1ffe d13c 3e97 a83c db2f 75bb
000002f0: c0b7 0c3d 7b78 cc3c e318 f8bb 5269 7f3c
00000300: 0c50 0d3d be0f a93c 0762 8bbc 6535 08bd
00000310: 3921 323c 0412 5a3c 9547 0ebd d5bd af3b
00000320: 35b8 3ebc ef1f 173c 0ea1 ccbc 92ea 78bc
00000330: af4d 393d 01f1 903c 444a 82bc 08d3 2ebd
00000340: 6c0c 143c 9ae6 58bb 55db 64bc 00e0 383c
00000350: 9fa7 283d 57c9 8dbc f555 033c 0dca fabc
00000360: a295 633d 318b 423d 751b f8bc bd87 e0bc
00000370: 5e9f 5a3b 2e4f 85bc 3f9d f43c b907 493b
00000380: 2f97 5ebc 5b89 0d3d 6b06 50bc 0055 7a3c
00000390: 7a3d b73c 065f 3d3c 15b6 0a3d a49d c6bc
000003a0: d58e 793b 8e33 41ba 15e3 8c3c 9ce3 74bc
000003b0: a415 acbc af1e e1bc 41d9 c63c d9e5 283c
000003c0: 3cf0 07bd 1d32 13bb 5756 f2bc 86fc f3bc
000003d0: 5982 b43c 8f04 93bc 47b6 ac3c b9d0 063d
000003e0: 62bc a53b 3268 7a3c ffff fcbc f739 77bc
000003f0: fe27 ffba 7788 f73b e52c 6a3c 6724 9c3c
