Lecture8_Image restoration (HuStar_4)/outputs/x3/epoch_22.pth (torch, 231589 bytes, 5 tensors)

conv1.weight f4 [64, 1, 9, 9]
000000 c9 8c 5d bc f1 08 4f 3c d6 c9 54 bd 7f 0d 54 3d
       -0.013522335 0.012636409 -0.0519503 0.051770683
000010 ae 1f af bd 44 d6 bd 3d 9f c2 92 bd 60 62 aa bd
       -0.08550964 0.092693835 -0.07166027 -0.08319545
000020 d5 27 7a bd 7a 1f 79 3d 6d 7f 40 bd 8b d1 13 3d
       -0.061073143 0.060821034 -0.046996523 0.036088508
000030 3d e0 c1 bd 60 7b 8a bd a5 97 1c bd 6b da b6 bc
       -0.09466598 -0.06761813 -0.038230557 -0.022320947
000040 88 a9 b9 bd 9f 90 8b 3d 64 16 a7 bc a5 c2 f8 3c
       -0.09065539 0.06814694 -0.020396419 0.030366251
000050 6d a7 9d 3d 7b 1b e7 3c 79 cb 35 3d 95 54 fb 3d
       0.076979496 0.028211346 0.0443835 0.12271992
000060 00 a3 35 bd 01 1e fa 3c f4 05 70 bd d6 46 89 3d
       -0.044344902 0.030531885 -0.058599427 0.06702964
000070 3a f2 8a 3d 2e bd e6 bd a7 aa e2 3d 1b cd ae 3d
       0.06784482 -0.11266552 0.110677056 0.085352145
000080 13 a0 a2 3d f1 43 70 3d 44 40 b3 3d ff 34 e7 bc
       0.07940688 0.058658544 0.08752492 -0.028223513
000090 8b 8b e1 bd 0c 80 5c bd 6f ea a6 bd a7 64 31 3d
       -0.11012944 -0.053833053 -0.081501834 0.04330888
0000a0 7d 26 f2 3c bc 98 99 bc 8b 95 b9 3b d8 ed d1 3d
       0.029559368 -0.018749587 0.005663579 0.10250443
0000b0 b5 1a 9e bc 7d 5c 47 bc e9 ec 1f bd aa f5 7c 3c
       -0.019299844 -0.012168047 -0.039044295 0.01543943
0000c0 0f 7c 00 3e 09 d2 be 3d ce 3e 56 3d cb 55 b1 3c
       0.12547325 0.09317405 0.05230599 0.021647355
0000d0 35 63 9d 3c b0 89 00 3d 24 5e 41 bc 6e 74 f6 bd
       0.019212345 0.03138131 -0.01180223 -0.12033926
0000e0 06 b3 98 bd 22 87 ce 3d a8 0d 43 3b 27 ae ce bd
       -0.07456021 0.10084368 0.0029762778 -0.10091811
0000f0 0b af d9 3b 2f 80 bf 3d 97 10 d7 bd 6a 45 4c bd
       0.006643181 0.09350621 -0.10501211 -0.049870886
000100 89 1b 58 bd 93 de dc bb 5e 68 1c bd d6 40 0d bd
       -0.052760635 -0.0067404 -0.03818547 -0.03448566
000110 1a 1c 04 be d5 b6 42 3d b4 fa ed 3d a5 cf a3 3d
       -0.12901345 0.047537643 0.116200835 0.079985894
000120 42 2a ce bc f5 d5 af bd 71 d6 f4 3c 62 dc 9c bc
       -0.025166634 -0.08585731 0.02988741 -0.019148055
000130 80 51 c5 3c d2 2d f8 bd 95 79 bf b9 81 12 d9 3d
       0.024086714 -0.121181145 -0.00036520945 0.105992325
000140 29 69 7d 3d 25 1d 98 3b d3 a5 63 3c 76 9e 79 bc
       0.061867867 0.004642146 0.013894516 -0.015235534
000150 ff 3b a2 bd 57 59 76 bd 06 e0 a9 bd f4 f0 b0 3d
       -0.079215996 -0.060143795 -0.08294682 0.08639708
000160 50 57 48 3d a0 a6 ef 3c 0d d0 b7 bd be 46 9d 3d
       0.048911393 0.029254258 -0.089752294 0.076795086
000170 f0 2c 07 3d e0 9e 83 3d e3 e9 61 bd ee c2 86 3c
       0.03300184 0.064267874 -0.055154692 0.016450372
000180 2c e3 ec 3d f2 25 a2 3d 9d 8a be 3d 77 9b 10 bd
       0.11566767 0.07917394 0.09303782 -0.035304513
000190 25 92 8e 3d 43 ed b5 bd 37 7a e7 3b 67 5d 78 bd
       0.069614686 -0.08883145 0.0070641297 -0.06063595
0001a0 7f a8 ca bc b8 a5 a7 bc 49 3c 01 3c 23 96 c1 3d
       -0.024738548 -0.020464763 0.007887908 0.094524644
0001b0 d3 c0 ff 3c ed 86 ac bc 63 64 a3 3d 3e 42 4a bd
       0.031219875 -0.021060431 0.079781316 -0.04937958
0001c0 80 58 8b 3d 32 b6 5d bc ea 7b b0 bc 08 45 e6 38
       0.068039894 -0.013532208 -0.021543462 0.00010980113
0001d0 61 e2 d8 bd bb 2f bd bb 51 d4 c9 3c e8 ec d7 3d
       -0.10590053 -0.005773512 0.024637373 0.10543233
0001e0 e7 15 9a bc be 5b 58 3d 78 f4 d3 3d 9f 3b 65 bd
       -0.018809272 0.052821867 0.10349363 -0.055965062
0001f0 4e e2 bb 3d c6 4a 9a bd 09 89 fc 3c 2d 8e ef 3c
       0.091740236 -0.07533793 0.030827062 0.0292426
000200 1b c8 15 3d 87 8a b7 3d 9e 68 4d bd 4d 5c d2 3b
       0.03656779 0.08961969 -0.0501486 0.0064196945
000210 51 d3 72 bc 8f a9 c3 bd 07 a4 38 bd 1f 0f c0 bd
       -0.01482089 -0.09553825 -0.045078304 -0.09377884
000220 fc ae fc 3c 0e 03 37 3c 41 73 a4 3b 3d 51 4c bd
       0.030845158 0.011170162 0.005018622 -0.049882162
000230 f0 ed e9 bc 79 ba 40 bd a2 52 f6 3c 8c 60 c7 3d
       -0.02855584 -0.047052834 0.0300687 0.09735212
000240 d1 6b 2a 3c 18 eb 66 bd ba 35 75 bd ef 80 18 3c
       0.010401682 -0.056376547 -0.05986569 0.009308084
000250 b7 7f b8 bd d6 90 ca bd d3 3a 95 bd 2e 68 eb bc
       -0.09008735 -0.098909065 -0.072866105 -0.0287362
000260 88 06 59 3b a2 84 a5 3d 77 48 41 3d 7f 34 de 3d
       0.0033115465 0.08081938 0.04718825 0.108498566
000270 62 96 41 bd 85 a6 ed 3c 03 d4 a9 bd 38 97 b6 3d
       -0.047262557 0.029010067 -0.08292391 0.089155614
000280 72 6e 49 3d 3e 8f e5 3d 26 a6 77 bd cc 6b e8 3d
       0.049177594 0.11208962 -0.060461186 0.113486856
000290 99 43 02 3e 57 85 06 3e fd 6c 84 3d e1 a5 12 3e
       0.12721099 0.13136803 0.064661 0.1432109
0002a0 fb 62 dc 3d 3c 9f cf 3d d1 de 16 bc 21 8e b4 bd
       0.107610665 0.101377934 -0.009208397 -0.088161714
0002b0 b0 f3 88 bb f8 75 8f 3c a3 8f a2 bd c5 ba 77 bd
       -0.0041794404 0.017512307 -0.07937553 -0.06048085
0002c0 94 a0 d5 bd 36 ec 11 bd db 49 c0 3d bc 11 62 38
       -0.104310185 -0.03562566 0.09389087 5.3899115e-05
0002d0 9f 32 06 bc 47 c8 d7 3b 15 d3 8e 3d 8b e8 cf bd
       -0.00819078 0.006585154 0.069738545 -0.10151776
0002e0 a6 c5 af bd c5 e5 25 bd de 91 81 bd 79 f0 73 3d
       -0.0858262 -0.04050233 -0.0632665 0.059555504
0002f0 0b c8 92 3d d8 43 cb bd 34 66 9b bd 8b fa ae bd
       0.071670614 -0.099250495 -0.07587853 -0.08543881
000300 7f f0 7c 3d ca fa e0 3d e5 a7 9a bd 44 8d 1f bd
       0.061752792 0.10985334 -0.075515546 -0.03895308
000310 41 f0 5b 3d a5 5e 6c bd d1 21 d7 3d 9b 32 3f 3d
       0.05369592 -0.057707448 0.10504497 0.04667912
000320 b7 50 6f bb 86 9a 16 3d 9e ff 7f 3d f5 b6 de bc
       -0.0036516616 0.03676846 0.062499635 -0.02718685
000330 5a 23 9c bd a2 e8 8d 3c 26 e0 91 3c 81 79 e4 3b
       -0.0762393 0.017322842 0.017807078 0.006972492
000340 a1 cb eb bb f9 3d b8 3d 53 94 14 bc 33 d3 27 3c
       -0.0071959053 0.08996195 -0.009068566 0.010243225
000350 86 c1 56 3d 63 ff 8c bd b0 5a 1b 3d 14 40 9c bc
       0.052430652 -0.06884649 0.037928283 -0.019073524
000360 44 e3 67 3d c1 a7 8a bd 85 8a af 3b 27 43 6e 3c
       0.05661322 -0.06770278 0.005357089 0.014542378
000370 a8 1f b0 bd 54 f4 b3 bd 93 53 05 3d b5 ae 0c bd
       -0.08599788 -0.08786836 0.032550406 -0.0343463
000380 8e ce 7b 3d 54 7a ac bd f8 8a 46 bd ad 7d ab bd
       0.061476283 -0.0842177 -0.048472375 -0.0837358
000390 5b 59 4e 3d 8a da 2c 3c 5a 57 6f bc 91 f5 89 bc
       0.050378185 0.010550151 -0.014608229 -0.016840728
0003a0 00 d5 a6 bd fd 4f 0a 3d 83 27 18 3d 90 81 78 bd
       -0.08146095 0.03376769 0.037147056 -0.060670435
0003b0 4b bf 6c 3d eb 9c 33 3c b6 91 a5 bd 9c 46 a3 3d
       0.05779962 0.010962705 -0.08084433 0.07972452
0003c0 a4 5d 98 3d 80 f0 e5 bb a5 03 87 bd 79 42 44 3b
       0.074397355 -0.007017195 -0.06592492 0.0029946847
0003d0 3e 49 a7 3d 48 19 ca 3d 20 d6 b2 bd 2f b0 56 bd
       0.08168267 0.09868103 -0.08732247 -0.052414116
0003e0 02 d3 ad 3d 7e dd 52 3d 3f 4f 82 3d 8f 7b 7b bd
       0.08487512 0.051480763 0.06362771 -0.06139713
0003f0 bc 59 c0 3d 24 45 bf bd ae f2 f9 bb 22 e8 a5 ba
       0.093921155 -0.093393594 -0.0076278066 -0.0012657682

conv1.bias f4 [64]
000000 a0 de 37 bc 01 c2 d8 bd 45 46 2c 3c 99 45 84 bd
       -0.0112225115 -0.10583878 0.0105148 -0.06458587
000010 13 1a 1b 3d ee c0 55 3b 48 fa 63 3d 0e 01 5a bc
       0.037866663 0.0032616216 0.05565861 -0.0133059155
000020 58 5d 02 3e f5 16 3c bd a0 db fc 3b 73 93 19 3d
       0.1273092 -0.04592033 0.007716611 0.037494134
000030 ee 3f d9 bd 53 cf da 3d 88 4b 8e 3d 56 b9 fe 3c
       -0.10607897 0.10684075 0.06948 0.031094234
000040 6e 7f 0a bd ab c4 98 bd cc ba 57 3d 2b 51 1e 3d
       -0.033812933 -0.074593864 0.052668378 0.038651627
000050 f3 aa 87 3c 74 18 b1 3b 3f e3 8c bd fc 09 94 3d
       0.016561007 0.0054045264 -0.06879281 0.07228467
000060 bc f9 89 bd e4 56 88 3d ba 17 ce 3a 29 96 89 bb
       -0.06737086 0.06657198 0.0015723624 -0.0041988087
000070 82 60 e3 3c b9 ec 50 3d a4 e5 b5 3d 5e 79 0c bc
       0.02775598 0.051007006 0.08881691 -0.008573858
000080 aa 50 38 3d 22 4c 95 3d 0e 67 8d 3b c5 ad ba bd
       0.044998802 0.07289912 0.0043152636 -0.09115175
000090 99 a2 5b bc 84 52 a9 3d 7f e4 23 bc 16 69 58 3d
       -0.0134054655 0.08267692 -0.010003208 0.052834593
0000a0 c9 57 22 3b e8 de 89 bc 18 ba c8 3d c1 cd ee bc
       0.0024771562 -0.016829923 0.098011196 -0.029150845
0000b0 75 59 13 3d e1 2c 7d bb d4 94 97 bc de b6 8a bc
       0.035973985 -0.0038631486 -0.018503584 -0.016932901
0000c0 56 e5 73 bc 21 f5 12 bd 14 f1 b2 bc 8a 71 86 3d
       -0.014886221 -0.035878304 -0.02184347 0.065646246
0000d0 a8 fe d4 3c 66 e0 be ba 28 07 2d 3a a4 da a9 3b
       0.026000336 -0.0014562726 0.00066004926 0.0051835347
0000e0 54 a2 c1 3d 02 25 3f bd e8 03 25 bc 2b b5 89 3d
       0.0945479 -0.046666153 -0.010071732 0.06724008
0000f0 50 62 71 3d e2 6b f1 bc 52 5e 86 bd 46 b6 a1 bd
       0.05893165 -0.029470388 -0.06560959 -0.07896094

conv2.weight f4 [32, 64, 5, 5]
000000 59 99 44 bb 80 cf 2b bc ed 68 66 3c ba 1f be 3c
       -0.002999863 -0.010486484 0.014063102 0.023208488
000010 13 59 8b bd 75 89 4c 3c 87 90 ba bc 3a 3d ec bc
       -0.06804099 0.012483944 -0.022773994 -0.028837789
000020 b8 59 23 bc 60 ce f6 bc be 24 c3 3c dc cd 05 bc
       -0.009970121 -0.030127704 0.023821231 -0.0081667565
000030 5e 11 0b bc df 78 a7 bc b3 de 93 3c 13 b3 62 bc
       -0.008488027 -0.020443378 0.018050527 -0.01383664
000040 02 cd 1d 3c db 02 6a 3b 81 ec 45 bb 83 3d d2 3c
       0.009631397 0.0035707268 -0.0030200782 0.025664097
000050 0c 6b 06 ba db da 83 3b 6e fe 02 bd 78 5d f9 3b
       -0.00051276456 0.0040238923 -0.031980924 0.0076100193
000060 3e 98 89 bc b4 6e 12 bc d5 d4 9f 3c ab c5 99 3c
       -0.016796228 -0.0089375265 0.019510666 0.018771013
000070 54 21 10 bc 40 cb 8e bc 6c 75 30 3c 8b d5 38 3d
       -0.008797009 -0.017430902 0.010770183 0.045125525
000080 d3 89 30 3d 6a df 04 3d 62 29 4f 3c 16 be aa 3c
       0.04310019 0.032439627 0.012644144 0.020842593
000090 b4 30 03 bb bc f4 cd 3c 98 9f f5 3c 3a 1d 60 3d
       -0.0020018043 0.025141113 0.029983327 0.054715373
0000a0 11 45 26 bc 3a 2b 14 bc 00 86 e0 bc 35 d0 f7 39
       -0.010148303 -0.009043509 -0.027407646 0.00047266638
0000b0 b8 fd fd 3b 0c 0e 40 bd f7 aa 67 3b cd e9 c5 3b
       0.007751193 -0.046888396 0.0035349706 0.006039834
0000c0 58 11 dd 3b 2d 7d 75 3c 27 6d b0 bd b3 d9 be bd
       0.0067464523 0.0149834575 -0.08614569 -0.093188666
0000d0 f5 4d 0b be 4a 99 db bd 40 ba 16 be 4f 0a f2 bc
       -0.13603957 -0.10722597 -0.14719486 -0.029545931
0000e0 dc fa b2 bc 89 69 b5 bc 58 d9 33 3c 52 cf af bc
       -0.021848135 -0.02214505 0.010977112 -0.021461163
0000f0 a8 5b 90 3c 2a b0 f7 b9 84 ab bf bc 71 28 b5 3c
       0.01762183 -0.00047242764 -0.023397215 0.02211401
000100 19 71 53 3c 56 ca ce bb eb f7 0a 3d 0f 50 f8 3c
       0.012905383 -0.0063107414 0.03392784 0.030311612
000110 ca 09 df 3c 21 59 86 3c 05 eb 1f 3a 00 a6 82 3c
       0.027226347 0.016399922 0.00061003893 0.015948296
000120 9c d5 ff 3b b3 57 8f 3b 61 db 04 3c 87 16 9b 3c
       0.0078074466 0.0043744682 0.008108945 0.01893164
000130 4a 04 e6 bb cd 62 c6 bb f3 5b 89 bc 3e 6c 5a bc
       -0.0070195543 -0.0060542584 -0.016767478 -0.013331471
000140 00 4c b5 3b 86 3c d2 3c 33 ad 3a bc f9 7f 1d bc
       0.0055327415 0.025663625 -0.011393833 -0.009613031
000150 42 51 bf 3c f2 b7 f9 3b 12 b0 73 3b ef 91 c0 bc
       0.023354176 0.007620805 0.0037183804 -0.023507087
000160 51 6a da 3c 16 6e 4c 3c d7 52 1d bb fe 2b ad 3c
       0.026662024 0.012477418 -0.0024005675 0.021139141
000170 66 b1 1e 3b 87 4b 8f 3c 60 66 0d 3a 03 82 aa 3c
       0.0024214624 0.017492069 0.0005393978 0.020813948
000180 d5 92 1a bb c7 bd f2 3b 00 11 9b bc 0d ff e7 bb
       -0.0023586054 0.007407877 -0.018929005 -0.007079965
000190 c8 3c cb bc d7 b4 d3 bc f0 6c 2f 3c e3 92 68 3c
       -0.024809256 -0.025843067 0.010707125 0.014195177
0001a0 99 6b 95 3b 05 06 2a bb dd f9 eb ba 10 a8 50 3c
       0.004559946 -0.002594353 -0.0018003542 0.012735382
0001b0 0d fe d1 3c 1b 3b 71 3c 33 71 88 bc d4 ee 7d bc
       0.025633836 0.0147235645 -0.01665554 -0.015498836
0001c0 30 ce f7 3c 64 1b c9 3c 51 8f d5 bc 9b f9 bd bc
       0.030249685 0.024549194 -0.026069315 -0.02319031
0001d0 61 ca 90 3b 33 86 cb bc bb e2 77 3c 11 f8 0b 3c
       0.0044186567 -0.024844265 0.01512974 0.00854303
0001e0 91 30 71 bc 71 80 a6 bb 0c 6d c8 bc 2d fc 16 bd
       -0.014721052 -0.0050812294 -0.02446606 -0.036861587
0001f0 b6 de 10 bc 25 a2 9c 3c 32 d9 40 bd a8 ca 71 3d
       -0.008842161 0.019120285 -0.047082134 0.05903116
000200 3f d3 0b 3d 52 22 eb 3d a6 32 36 bd 4b f3 98 bc
       0.034137007 0.114811555 -0.044481896 -0.018670699
000210 44 b6 63 bc 82 5a 83 39 26 fe b2 3c 13 1b 5e bc
       -0.013898436 0.000250537 0.021849703 -0.01355626
000220 09 08 17 bb 85 64 c0 3c b0 03 26 3a 71 c4 8b 3b
       -0.002304556 0.023485431 0.0006332947 0.004265361
000230 9d dc da 3c 63 96 0a 3d bf 05 f1 3c 79 31 6e 3c
       0.026716525 0.033834826 0.029421685 0.014538162
000240 2e 0a a6 3c 1d 45 a8 bc 0f 67 86 bc 59 90 bd 3c
       0.020268526 -0.020540768 -0.016406564 0.02314012
000250 32 dc 8c bc d1 f3 2b bd 3d b3 a1 bb 8c be 6d ba
       -0.017194841 -0.04198057 -0.004934697 -0.0009069226
000260 78 d5 42 bc 7f 61 c5 3c 1d f6 ee bc c2 5c b6 3c
       -0.011891715 0.024094341 -0.02917009 0.022261027
000270 03 94 e8 3b a1 37 af bc 9b 77 72 bc 5d 6b a6 3c
       0.0070977225 -0.02138883 -0.014799024 0.020314867
000280 4e 9f 03 bc db 4d cf bc a9 88 f3 39 b3 3d a4 bb
       -0.008033587 -0.025305679 0.00046450392 -0.005012238
000290 77 66 db bb 0b 93 7a 3c 9f 6b 73 bc 77 7c 1e bc
       -0.0066955644 0.015293847 -0.014857202 -0.009673229
0002a0 56 a7 23 bb 19 5c 8b 3c 83 fa 03 bc 33 ab 38 bb
       -0.0024971566 0.017011689 -0.008055332 -0.0028178215
0002b0 16 1b 92 3c d7 44 b2 3c 82 fc 9a 3b 0f c5 a7 3c
       0.017835181 0.021761341 0.0047298083 0.020479707
0002c0 cb 3c 56 3d da c4 d4 3c 04 d0 3d 3c ea 68 6d 3d
       0.05230407 0.025972772 0.011585239 0.057961382
0002d0 ce a2 10 bc c3 d6 fd bc 7e 37 26 3d 60 c3 84 3c
       -0.008827878 -0.030986195 0.040580265 0.016206443
0002e0 6e f4 94 3b e1 b3 6e bc 45 c7 cf bc df 37 09 bd
       0.00454574 -0.014569254 -0.025363574 -0.03350055
0002f0 26 e0 49 3b c7 2f cb 3c 1f 3c 88 bc 45 90 7b bc
       0.003080377 0.024803055 -0.01663023 -0.015354221
000300 22 c7 89 bd ed c2 eb bc 94 09 e0 3c 7b b2 95 bc
       -0.06727435 -0.028779471 0.027348317 -0.018273583
000310 4d ed 84 3d ef 1e c1 3b 48 16 66 bd 04 66 01 bc
       0.06490574 0.00589358 -0.056173593 -0.007897858
000320 71 09 a4 bd bf 88 28 bb 49 93 96 3a 67 21 0a bc
       -0.08009613 -0.0025716273 0.0011487986 -0.008430815
000330 97 68 d0 bb 90 7d ee 3c 88 09 00 3d db b6 95 3c
       -0.0063601243 0.029112607 0.03125909 0.018275669
000340 96 b9 86 bc 47 28 e4 bc 02 f1 7b 3d 87 a5 c8 3c
       -0.016445916 -0.027851237 0.06150914 0.024492992
000350 f3 99 80 3c 0b 15 cc 3b 4a 41 39 bd fc 98 12 3d
       0.015698409 0.0062280945 -0.04522828 0.03579043
000360 7b 22 3e 3d 43 e4 32 3d da 1b ba 3c 64 7b 2f bc
       0.046419602 0.04367472 0.022718359 -0.010710571
000370 a3 c9 67 bd 92 d6 ae 3c 12 2a 25 3c d5 f3 52 bc
       -0.05658878 0.02134255 0.010080831 -0.012875517
000380 05 c8 49 3c 62 8f d2 bb e7 1c 81 3b 57 2b 25 bc
       0.012315755 -0.006425784 0.003940213 -0.010081134
000390 f6 8b 46 bc 4b ff 07 bb dd 3a 38 3c 2a 7b 10 3b
       -0.01211833 -0.0020751532 0.011244503 0.0022046068
0003a0 7a 6f cb 3c 1e 15 c3 3c 73 2c a8 bb e5 49 37 bc
       0.02483343 0.02381378 -0.005132252 -0.011187051
0003b0 50 da 85 bb 1a b1 b9 ba e9 74 c2 bb ea af da bc
       -0.004084863 -0.001416716 -0.005934347 -0.02669521
0003c0 cd f2 0f bd 22 88 45 bc 14 73 8c bb fa c3 c7 bc
       -0.035143662 -0.012056382 -0.0042861793 -0.024385441
0003d0 30 1b 87 bc d6 fd 9e 3a f5 40 f6 bb 96 30 3f bc
       -0.016492456 0.0012130092 -0.0075150677 -0.011669299
0003e0 46 20 07 bc 96 09 59 39 1a 4b 01 bd 0b 4a c3 bc
       -0.008247441 0.00020698304 -0.031565763 -0.023839017
0003f0 1b 7d d6 bb 3f 39 1a 3c d1 1e 38 3c 2b 8e 14 bd
       -0.0065456755 0.009413063 0.011237816 -0.036268394

conv2.bias f4 [32]
000000 ef 42 52 bc 28 8c b9 bc 30 c7 44 bb 67 89 e3 3b
       -0.012833341 -0.02264984 -0.0030025952 0.00694387
000010 75 2a cf 3c e6 94 95 3c e2 94 37 bc f4 c7 01 3c
       0.0252888 0.018259477 -0.01120493 0.007921208
000020 80 0a 73 3c 2b c5 25 bc 3c e7 a6 39 f1 77 a7 3b
       0.014834046 -0.010117809 0.0003183427 0.0051107337
000030 1b 58 d5 3c b6 ce 8a 3c b6 56 86 bb ab 77 41 bc
       0.026042989 0.01694427 -0.004099692 -0.011808316
000040 8d b8 6f bc c4 5b 9b bc 65 f7 54 3c 12 cf b6 3c
       -0.014631403 -0.018964656 0.012998437 0.022315536
000050 82 44 ef 3c e5 c6 02 3c 4a e2 0e bc c3 eb be 3a
       0.029207472 0.00798199 -0.008720944 0.0014566112
000060 7b f0 0f 3b 36 1f cb 3c 00 84 91 3c be f8 a0 3c
       0.0021963406 0.024795156 0.017763138 0.01964986
000070 1e 1f 06 3c 6e 5e 6c bc 0c 66 ba bb d4 6a 21 bb
       0.00818613 -0.014426811 -0.0056884345 -0.0024630325

conv3.weight f4 [1, 32, 5, 5]
000000 48 26 90 3c 78 be 91 3c 28 40 bf ba c5 b6 cc 3c
       0.017596379 0.017791018 -0.0014591264 0.024989495
000010 11 9d fb 3c 73 a6 fc bc 4d 1f 07 3a 0c 17 11 bd
       0.030714544 -0.030841088 0.00051545055 -0.03542237
000020 19 57 3d 3b e2 18 22 3c b7 ca 80 bb 0f fa e0 3c
       0.0028891026 0.009893628 -0.0039304155 0.027462987
000030 c7 62 33 3c fb 6f 01 bd c2 5b 87 bb e6 aa 8f bc
       0.010948843 -0.031600934 -0.0041308114 -0.017537545
000040 d3 b4 f0 bc 2f e9 04 ba 05 2a 06 bd 3d 38 b5 3c
       -0.029383099 -0.00050701475 -0.032754917 0.022121543
000050 0d 19 3b 3b 10 da 48 3c a5 9a aa 3c 5b ca ea 3c
       0.0028548867 0.012259021 0.020825693 0.028660944
000060 f9 0a 91 bc 15 84 0b 3b 41 09 09 bd 6d 90 04 3c
       -0.017705427 0.0021288444 -0.03345609 0.008091074
000070 c2 e4 d7 3c ad e5 b6 bc 63 2a a8 3c 56 ac 87 bc
       0.026354197 -0.022326315 0.020528024 -0.016561668
000080 b1 ff 25 3c ae 3a 7d bc 6d f9 dc 3b 5f d9 08 bd
       0.010131762 -0.015455885 0.006743601 -0.033410426
000090 60 dd d7 3c 6b 47 03 bc 18 76 06 3d 52 1d 4d bc
       0.026350677 -0.008012633 0.032827467 -0.012519198
0000a0 af 75 7d 3c a6 90 8a bc e4 2e 75 bc 74 e8 12 bc
       0.0154699525 -0.016914677 -0.014964793 -0.008966554
0000b0 6e 43 8c 3c 80 e8 6a 3c e2 f3 a8 3c 8d 61 bc bb
       0.017121997 0.014337659 0.020624105 -0.0057489336
0000c0 a0 dd 8f 3b 93 49 b3 3c e7 67 62 bc a8 da 34 bc
       0.0043904334 0.021885669 -0.013818718 -0.01103846
0000d0 7e 0d de 3c 52 bb f5 bc 45 69 8c bc 5c b4 9d bc
       0.027106043 -0.029996548 -0.01714004 -0.019251041
0000e0 e6 fe e1 bb 4a a3 d3 bc b8 fc 07 3c 9b d1 c7 bc
       -0.0068968413 -0.025834698 0.008299999 -0.02439194
0000f0 15 c2 79 bc 8b 6c 0b bd 0d 3c bf 3c c3 9d b4 bc
       -0.015244027 -0.03403906 0.023344064 -0.022047883
000100 c9 8d 91 bb 5b c0 a9 bc 83 aa 8f bb 7d b9 ea bb
       -0.004441951 -0.020721605 -0.0043843403 -0.007163225
000110 74 f3 3f bc c5 7f 37 ba 14 00 78 3c 25 13 f0 3c
       -0.011715759 -0.0006999935 0.015136737 0.029306004
000120 42 6e d3 3c fd 32 d6 bc b8 dd 88 bb 4f ea 3d bd
       0.025809411 -0.02614736 -0.0041768216 -0.046366032
000130 d5 e9 8b 3c a0 ce e4 3c 4c a5 a9 3b 66 03 13 3c
       0.017079273 0.027930558 0.0051771756 0.008972978
000140 24 db 34 3d 47 c2 b5 3c 2f 4f 7e bc a8 a5 9b bc
       0.0441543 0.022187365 -0.0155218085 -0.01899989
000150 ba e9 ec bb 6e bb 1b 3d cb a7 a1 3c fa ca b5 3c
       -0.007230011 0.038020544 0.01973333 0.022191513
000160 3d b2 86 ba 26 0e 5b bc e2 a0 26 bb 60 7a 9d bc
       -0.0010276508 -0.0133700725 -0.0025425483 -0.019223392
000170 18 3a 5b bd e9 67 b8 bc 53 f1 d0 bb 9f 73 ef bb
       -0.0535222 -0.022510486 -0.0063764243 -0.0073074843
000180 95 da 9a bc 38 36 ad bc 4e a6 53 ba 65 4e f7 3c
       -0.018903056 -0.021144018 -0.00080737926 0.030188749
000190 9f 7b cc 3b c1 e5 fb 3b 8a 73 6a 3c ee be 41 bb
       0.0062403227 0.007687301 0.014309773 -0.0029563266
0001a0 c2 cd 77 3b 84 b1 f0 bb 7f a5 02 3d 0e 80 d7 b8
       0.003781185 -0.0073453803 0.03189611 -0.00010275851
0001b0 04 e9 ce 3c 38 24 a9 bc 83 3a e2 bc b4 70 94 3b
       0.025257595 -0.020647153 -0.027615791 0.004530037
0001c0 e2 81 02 bd 44 c6 a8 3c fa b1 a6 3c 9f 39 ec 3c
       -0.031862147 0.020602353 0.020348538 0.02883607
0001d0 c7 e6 02 3d 02 54 3a 3c b8 90 5a 3c f0 96 b3 bb
       0.031958368 0.011372568 0.013340168 -0.0054806396
0001e0 ba 3d 04 3d 2b d9 74 3c 2b 73 0d bc 75 1a 07 bd
       0.03228543 0.014944355 -0.008633415 -0.032984216
0001f0 9f 66 85 3b 64 d6 93 3b 7a 0a f6 3c 35 9e c6 3c
       0.0040710713 0.0045116413 0.030034292 0.02424536
000200 9d 49 00 3d d8 e6 62 3b bf 9d 2d 3c 7f a9 db bc
       0.031320203 0.0034622457 0.010596692 -0.02681422
000210 eb c9 cf 3b 75 91 18 3c 87 1c 9c bc f7 cd 91 bc
       0.006341209 0.009312023 -0.019056572 -0.017798407
000220 9d 5b 7f 3c b7 b7 a0 bc cd 4f 36 bc 12 dc e4 3c
       0.015585807 -0.019618852 -0.011127424 0.027936969
000230 ab 7c e5 3c f5 47 ea bc 71 00 f7 bc d3 1a d1 3c
       0.028013548 -0.028598765 -0.030151578 0.025525486
000240 c8 32 03 bc 54 bb cc 3b 3e 58 ac bc ae 67 5a bc
       -0.008007713 0.006247917 -0.02103817 -0.013330383
000250 c5 0e e8 3c fd 24 bc bc fd 62 51 3c d6 a7 bd 3a
       0.028327355 -0.022966856 0.012779948 0.0014469575
000260 eb 75 3b 3c cb e8 fc 3a fc 1f e4 bb 43 8e 54 3c
       0.011441688 0.0019295452 -0.0069618206 0.012973371
000270 df 3d 22 3c c4 fe 43 bb e1 fb c4 3c 69 c0 02 3d
       0.0099024465 -0.002990649 0.024045886 0.031921778
000280 e5 39 99 3c af 79 25 bc 0a 8f d4 bc 44 2b c7 bc
       0.018704364 -0.010099812 -0.025947113 -0.024312623
000290 e3 d2 8e bc f2 3b 45 bb 3b bb 94 3c af 5f 1f 3c
       -0.017434543 -0.0030095545 0.018155685 0.009727403
0002a0 cc 1e 01 3d 33 8a 0d bd df ce a4 bc cf 0f 05 3d
       0.03152351 -0.034555625 -0.020118175 0.03248578
0002b0 9d 2e cc bc 00 e1 bb 3c 89 fc 97 3a cc c5 7b bb
       -0.02492457 0.022934437 0.0011595647 -0.0038417457
0002c0 03 7e ce 3c 80 93 e0 3c 48 0f 6b bc ae b1 f7 ba
       0.025206571 0.027414083 -0.014346905 -0.0018897557
0002d0 55 5b 08 3d dd fa f2 3c f7 3a 6b 3c cc 0f ae bc
       0.033290226 0.029660637 0.01435732 -0.021247767
0002e0 89 f3 c1 bc f5 18 d2 3c ac 9f a8 3c ce 3a 76 bb
       -0.023675697 0.025646666 0.02058395 -0.0037571671
0002f0 62 a8 0c 3d 60 75 cc 3c c8 83 f7 bb d8 b7 7f 3c
       0.03434027 0.024958313 -0.0075535513 0.015607797
000300 25 55 0d 3d 6d 11 a9 3c 51 4f 8b bc b3 27 08 bd
       0.03450503 0.020638192 -0.017005594 -0.033240985
000310 c7 67 32 3c 67 46 5a 3c 16 3f 0e bd 3e 56 b0 3b
       0.010889 0.013322449 -0.034728132 0.0053813746
000320 6c bb 3f bc ab aa 20 3c ff 30 ca bc 06 3a 82 bc
       -0.0117024 0.009806315 -0.024681566 -0.015896808
000330 e9 d8 39 3d 36 9d 93 3c f4 65 81 bc ce 0b 28 bd
       0.045372877 0.0180193 -0.015795685 -0.041026883
000340 52 ae 2f 3c eb 40 95 bb 61 5f 6b bc 43 2f 0b 3c
       0.010722714 -0.004554858 -0.014366002 0.008495155
000350 3d e3 1f 3d ee e1 7e bc 26 19 16 3c a5 de eb bc
       0.03903507 -0.0155567955 0.009161269 -0.028792689
000360 43 a8 5c 3d 89 36 35 3d e2 b0 f2 bc df f4 dc bc
       0.053871404 0.044241462 -0.02962536 -0.026972232
000370 2f f0 c3 3b e5 5e 80 bc 41 44 ec 3c 85 0b 62 3b
       0.00597956 -0.01567025 0.02884114 0.003449173
000380 27 5b 5f bc 99 a0 0d 3d cb 8a 4f bc 4c 97 7a 3c
       -0.013632572 0.034576986 -0.012667368 0.015294861
000390 81 92 b7 3c 8b 5e 3e 3c 90 ed 0a 3d 6b 03 c6 bc
       0.022408726 0.0116192205 0.033917964 -0.024171552
0003a0 ed 34 7c 3b 3e 97 32 ba 4e 7b 8d 3c 9e 2f 74 bc
       0.0038483695 -0.0006812698 0.01727071 -0.014903931
0003b0 4e d3 ab bc 32 c8 e0 bc aa 24 c7 3c 5c d3 28 3c
       -0.020974781 -0.02743921 0.024309475 0.010304298
0003c0 4a bc 07 bd 50 66 12 bb d1 d6 f1 bc e8 68 f3 bc
       -0.03313855 -0.0022338815 -0.029521378 -0.02971311
0003d0 91 b9 b4 3c f6 7a 92 bc 02 f4 ac 3c 3c ef 06 3d
       0.022061141 -0.017880898 0.021112446 0.032942995
0003e0 41 b0 a6 3b 51 55 7b 3c ff ff fc bc f7 39 77 bc
       0.005086929 0.015340165 -0.030883787 -0.0150895035
0003f0 fe 27 ff ba 77 88 f7 3b e5 2c 6a 3c 67 24 9c 3c
       -0.0019466875 0.0075541097 0.01429293 0.019060327
