Lecture8_Image restoration (HuStar_4)/outputs/x3/epoch_58.pth (torch, 231589 bytes, 5 tensors)

conv1.weight f4 [64, 1, 9, 9]
0	0x3c133232	0.008984135
1	0x3d2934df	0.041310187
2	0xbd0aeae3	-0.03391541
3	0x3d9236c9	0.07139356
4	0xbd851ef2	-0.06500043
5	0x3dc71fad	0.097228386
6	0xbd7aaf87	-0.061202552
7	0xbd85eef8	-0.0653972
8	0xbc398828	-0.011323966
9	0x3d89e296	0.06732671
10	0xbd2a55e1	-0.041585807
11	0x3cf3ec2d	0.029775703
12	0xbdda5ff2	-0.10662831
13	0xbda6613b	-0.08124014
14	0xbd8222fd	-0.0635433
15	0xbd28189a	-0.041039087
16	0xbdea26de	-0.114331946
17	0x3d9027ce	0.07038842
18	0xbc5f20f4	-0.0136186965
19	0x3cf98362	0.030458156
20	0x3d8dd023	0.069244646
21	0x3ca9607a	0.020675886
22	0x3d3440ba	0.04400704
23	0x3de7b811	0.11314405
24	0xbd600e35	-0.05470105
25	0x3b931794	0.0044888947
26	0xbd95af3c	-0.07308814
27	0x3d3c5032	0.045974918
28	0x3d14a34a	0.036288537
29	0xbe0cd1cd	-0.13751908
30	0x3de234ff	0.110452645
31	0x3ddf2da1	0.10897375
32	0x3dc22e00	0.0948143
33	0x3d8a79b0	0.06761491
34	0x3d94fbb7	0.07274573
35	0xbd34d74a	-0.04415063
36	0xbe0442c8	-0.129161
37	0xbd9a61d0	-0.075381875
38	0xbdafee78	-0.08590406
39	0x3d98fba9	0.07469875
40	0x3d9903b9	0.07471413
41	0xbb0e0021	-0.0021667557
42	0x3be8a304	0.007099511
43	0x3db2be9a	0.087277606
44	0xbd0b5798	-0.034019083
45	0xbc306842	-0.0107670445
46	0xbd2a3492	-0.04155404
47	0x3cc10058	0.023559734
48	0x3e22e2a3	0.15906768
49	0x3e0185a2	0.12648633
50	0x3d4d156c	0.050069258
51	0x3c39f51d	0.0113499435
52	0x3bff19ca	0.0077850567
53	0x3cb879ab	0.022518953
54	0xbb376172	-0.0027981666
55	0xbe08b390	-0.13349748
56	0xbdb49a81	-0.08818532
57	0x3dcc9194	0.09988704
58	0x3aa96ba0	0.0012925752
59	0xbe03ba68	-0.12864077
60	0xbc1d2e4c	-0.009593558
61	0x3dc02761	0.09382511
62	0xbdce4cc2	-0.10073234
63	0xbc842f3f	-0.01613581
64	0xbd85330b	-0.06503876
65	0xbd1c2d6b	-0.03812925
66	0xbd7ff807	-0.062492397
67	0xbd468513	-0.048466753
68	0xbe2143e7	-0.15748559
69	0x3d2b91d2	0.041887112
70	0x3e02824f	0.12745021
71	0x3db2a184	0.08722213
72	0x3d5d4fdc	0.054031238
73	0xbd87bf9b	-0.06628343
74	0x3be7aa24	0.007069843
75	0xbd226951	-0.03965122
76	0x3cd3f132	0.025871847
77	0xbe01d238	-0.12677848
78	0x3b70db05	0.003675164
79	0x3dd9eb19	0.106405444
80	0x3d3b3fe8	0.045715243
81	0x3ca1052d	0.019655788
82	0x3cff65fc	0.03117656
83	0x3cabeb70	0.020986289
84	0xbd89a068	-0.06720048
85	0xbd9da254	-0.07696977
86	0xbdf54d93	-0.11977687
87	0x3d8da175	0.06915561
88	0x3cf90188	0.030396238
89	0x3be02a93	0.0068410127
90	0xbdaf29e4	-0.08552912
91	0x3daaf6af	0.083478324
92	0x3d5bbf14	0.053649023
93	0x3d8033d0	0.062598825
94	0xbdaa7b96	-0.083243534
95	0xbcb22dc5	-0.02175034
96	0x3de7d6d0	0.11320269
97	0x3db3e907	0.08784681
98	0x3dcabe3f	0.09899568
99	0xbd1cefc4	-0.038314596
100	0x3d87df78	0.0663442
101	0xbd9fe557	-0.07807415
102	0x3acd4c7d	0.0015663054
103	0xbdb53c1a	-0.08849354
104	0xbd687400	-0.05675125
105	0xbc3c4f08	-0.011493452
106	0x3d01edf4	0.03172107
107	0x3de07e11	0.10961545
108	0x3cddd4fc	0.027079098
109	0xbcdc8b9e	-0.026922043
110	0x3db9f307	0.09079557
111	0xbd4c39db	-0.049859863
112	0x3d36bbe8	0.044612795
113	0xbd489704	-0.048972145
114	0xbc82d5ba	-0.015971053
115	0x3c9f75f3	0.019465422
116	0xbdccdbf7	-0.100028925
117	0xbbe620ec	-0.0070229676
118	0x3caee901	0.02135134
119	0x3dfee790	0.12446511
120	0xbbdca18a	-0.006733124
121	0x3d240bc6	0.04005029
122	0x3d92ddb9	0.071711965
123	0xbd50f966	-0.051019095
124	0x3de2c7c2	0.11073257
125	0xbd8d12e1	-0.068883665
126	0x3ce0bf7e	0.02743506
127	0x3c979d39	0.018507587
128	0x3d5aa262	0.053377517
129	0x3dd3d95f	0.103441946
130	0xbd7112f9	-0.058855984
131	0xbcd05fc2	-0.025436286
132	0xbc5a8e0f	-0.0133395335
133	0xbd982d11	-0.07430471
134	0xbd005a13	-0.0313359
135	0xbdcfcefb	-0.101469
136	0x3c26382f	0.010145231
137	0x3c8e7768	0.017390922
138	0x3c1a7936	0.009428313
139	0xbd84eaa8	-0.0649007
140	0xbd8987e6	-0.06715374
141	0xbd4f98c4	-0.050682798
142	0x3d4e50ea	0.050370134
143	0x3de3be2e	0.11120258
144	0x3c205613	0.009786147
145	0xbd94883f	-0.072525494
146	0xbd5ce08e	-0.05392509
147	0x3c45cfe3	0.01207349
148	0xbdd2d31e	-0.10294174
149	0xbe07d718	-0.13265646
150	0xbd994c8e	-0.07485305
151	0xbc0af21d	-0.008480576
152	0x3c6a457a	0.014298791
153	0x3dbdc936	0.092668936
154	0x3d24f985	0.040277023
155	0x3df09a45	0.117481746
156	0xbd2cc1a4	-0.042176858
157	0x3cc76bdf	0.02434343
158	0xbdccaca5	-0.09993867
159	0x3dd616d2	0.104535714
160	0x3da8a636	0.08234827
161	0x3e0885f4	0.13332349
162	0xbd60b7f2	-0.054862924
163	0x3df8665e	0.121289
164	0x3e09bdd3	0.13451318
165	0x3e2058eb	0.1565892
166	0x3de7d17f	0.11319255
167	0x3e3d9813	0.18515043
168	0x3df87f6d	0.121336795
169	0x3d9f18fc	0.07768437
170	0xbd2d7ab6	-0.042353354
171	0xbdd5dc9d	-0.10442469
172	0xbd1ff26c	-0.03904955
173	0xbd35d070	-0.044388235
174	0xbe17d525	-0.14827402
175	0xbddf7b7b	-0.10912224
176	0xbe125a07	-0.14292155
177	0xbd9b6f7b	-0.075896226
178	0x3d03dabc	0.032191023
179	0xbd7bbf0c	-0.061461493
180	0x3b9d0133	0.0047914027
181	0xba5b1e69	-0.00083587185
182	0x3d14af04	0.03629972
183	0xbe118b15	-0.14213212
184	0xbddac0b0	-0.106812835
185	0xbd5a3d42	-0.053281076
186	0xbd9fb802	-0.077987686
187	0x3cfd60a4	0.03092987
188	0x3d527bb6	0.05138751
189	0xbd86f2d3	-0.06589284
190	0xbd5e7501	-0.054310802
191	0xbda1ed2f	-0.07906567
192	0x3d8b6035	0.068054594
193	0x3e0a40d9	0.135013
194	0xbd45e118	-0.04831037
195	0xbcb31449	-0.021860259
196	0x3d7d4d66	0.06184139
197	0xbd12edad	-0.035871197
198	0x3deeb7bc	0.11656138
199	0x3d5302fd	0.05151652
200	0xba250ac8	-0.0006295857
201	0x3d46ac0a	0.048503913
202	0x3db092c4	0.08621743
203	0xbc3003ae	-0.010743065
204	0xbd97030c	-0.07373628
205	0x3c85aa2e	0.0163165
206	0x3cf44ced	0.029821837
207	0x3ca0a638	0.01961051
208	0xbb45fde3	-0.0030211143
209	0x3dbc1ada	0.09184809
210	0x39ba6572	0.00035552267
211	0x3ce32984	0.027729757
212	0x3d889fb6	0.066710874
213	0xbd868cc4	-0.06569818
214	0x3d2de92f	0.04245871
215	0xbba924af	-0.0051618437
216	0x3d7ab410	0.061206877
217	0xbd9ce8cc	-0.0766159
218	0xbc36c644	-0.011155669
219	0xbb2da851	-0.002649803
220	0xbdcba9b8	-0.09944481
221	0xbdc5e3c8	-0.096625865
222	0x3cd7d488	0.02634646
223	0xbd0506bf	-0.032477137
224	0x3d8d566d	0.0690125
225	0xbd50978a	-0.05092577
226	0xbcf51a7a	-0.029919852
227	0xbd9c3014	-0.07626358
228	0x3d5d60cd	0.054047395
229	0x3cb6c555	0.022310892
230	0x3b4aad4c	0.0030926047
231	0x3a31f8eb	0.0006789106
232	0xbd881dfe	-0.066463456
233	0x3d525bea	0.051357187
234	0x3d46451a	0.048405744
235	0xbd7293af	-0.059222873
236	0x3d513801	0.0510788
237	0xb7ad0395	-2.0624875e-05
238	0xbda1acb8	-0.078942716
239	0x3da31d20	0.079645395
240	0x3d860822	0.0654452
241	0xbce5dd6f	-0.02805969
242	0xbd9f3040	-0.07772875
243	0x3c349122	0.0110209305
244	0x3d9f889c	0.07789728
245	0x3dab1ca9	0.08355076
246	0xbdc7eec8	-0.09762341
247	0xbd7b3ea5	-0.06133904
248	0x3da52cbb	0.08065172
249	0x3d486677	0.048925843
250	0x3d643c4b	0.055721562
251	0xbd8bc10c	-0.0682393
252	0x3dccd956	0.10002391
253	0xbdc3b40d	-0.09555826
254	0xbc86cf88	-0.01645638
255	0xbb635318	-0.003468698

conv1.bias f4 [64]
0	0x3c84d37a	0.016214121
1	0xbdd5e1cc	-0.10443458
2	0x3cc9c763	0.024631208
3	0xbd371f10	-0.044707358
4	0x3d8943d8	0.06702393
5	0x3c6a648b	0.014306198
6	0x3d54ea05	0.05198099
7	0xbcab4987	-0.020909084
8	0x3dec61a2	0.115420595
9	0xbd19b453	-0.037525486
10	0x3b8a8d13	0.004228243
11	0x3cb437ac	0.021999203
12	0xbe07fbfb	-0.13279717
13	0x3e361b53	0.17783861
14	0x3d7fe331	0.062472526
15	0x3c8faad3	0.01753751
16	0xbce03a39	-0.027371513
17	0xbd65247b	-0.055942994
18	0x3d875ee6	0.06609897
19	0x3cec1ca7	0.028822256
20	0x3cb95406	0.022623073
21	0xbc55f74d	-0.013059449
22	0xbd684c01	-0.056713108
23	0x3d95b162	0.07309224
24	0xbdbd73b2	-0.09250583
25	0x3d39cee0	0.045363307
26	0xbc151b84	-0.0091007985
27	0x3c5653a9	0.01308147
28	0x3cb15575	0.021647194
29	0x3d2ce83c	0.042213663
30	0x3dcaa490	0.09894669
31	0xbbef2f30	-0.0072993264
32	0x3d181dd8	0.037137836
33	0x3d8fe0d4	0.070253044
34	0xba930fa7	-0.0011219875
35	0xbd8a7487	-0.06760507
36	0xbbeb9f79	-0.0071906415
37	0x3d93baf3	0.07213392
38	0xbd37370e	-0.04473024
39	0x3d2821eb	0.04104797
40	0x3c954e77	0.018225892
41	0xbce65e84	-0.02812124
42	0x3dc5e764	0.09663275
43	0xbc925543	-0.017862922
44	0x3d0c2e01	0.03422356
45	0xbc89e3f4	-0.01683233
46	0xbc7a62e8	-0.01528237
47	0xbc9fd5e5	-0.019511173
48	0x3c11b17d	0.008892414
49	0xbd60c6aa	-0.05487696
50	0xbc87c94f	-0.016575484
51	0x3da18600	0.078868866
52	0x3c689620	0.014195949
53	0x3c3363b6	0.010949066
54	0x3c5c3ad6	0.013441762
55	0x3caf396b	0.021389684
56	0x3db0e53e	0.086374745
57	0xbca99dda	-0.020705152
58	0xbc49d694	-0.012319226
59	0x3d89c5f5	0.067272104
60	0x3ccd0426	0.025026392
61	0xbc1395bb	-0.0090078665
62	0xbd4bef05	-0.049788494
63	0xbdba7cf0	-0.09105861

conv2.weight f4 [32, 64, 5, 5]
0	0x3b91333a	0.0044311555
1	0x3b14b121	0.0022688585
2	0x3d4416fe	0.04787349
3	0x3d9b1fb9	0.0757441
4	0xbdde0a44	-0.10841802
5	0x3d0295de	0.031881206
6	0xbd05a368	-0.03262654
7	0xbc6169c8	-0.01375813
8	0x3d39f503	0.045399677
9	0xbc70976e	-0.014684541
10	0x3d02ddcb	0.0319498
11	0xbc1dea9f	-0.009638458
12	0xbc586379	-0.01320731
13	0x3bd394e2	0.006456957
14	0x3d3aa72f	0.045569595
15	0xbc623e52	-0.013808804
16	0x3ca8e97f	0.020619152
17	0x3caafd6c	0.020872794
18	0x3ce183a6	0.027528595
19	0x3d4de64d	0.05026846
20	0xbcb0e644	-0.021594174
21	0xbc75bdae	-0.014998836
22	0xbd2500be	-0.04028391
23	0x3d197fb6	0.03747531
24	0xbb12abd8	-0.002238026
25	0x3b7d3e8c	0.0038642017
26	0x3ced7a79	0.028989064
27	0xbcde2393	-0.027116572
28	0xbcf6cc2e	-0.030126657
29	0xbcf97b3c	-0.03045427
30	0xbb1f1bdd	-0.0024278082
31	0x3c1eed98	0.009700201
32	0xbc2680a2	-0.010162504
33	0x3bd88533	0.0066076755
34	0xbba3e152	-0.0050012255
35	0x3d94d249	0.07266671
36	0x3c3b41ea	0.011429289
37	0xbb6b05e2	-0.003586166
38	0x3cf484a2	0.0298484
39	0x3db0c94f	0.086321466
40	0x3d13fd1e	0.036130063
41	0x3c578980	0.013155341
42	0xbd62d69e	-0.055380456
43	0xbc6ed8b7	-0.014578036
44	0x3d171d18	0.03689298
45	0xbdadfb6a	-0.08495219
46	0xbc6c3d42	-0.014418902
47	0xbcee6ca6	-0.029104542
48	0xbd039f78	-0.032134503
49	0x3bb33cc1	0.005469889
50	0xbe27a6f2	-0.16372278
51	0xbe334b6f	-0.17509244
52	0xbe64df23	-0.22350745
53	0xbe3a54b5	-0.18196376
54	0xbe84fd17	-0.25974342
55	0xbddecf68	-0.10879403
56	0xbde8a5ee	-0.113597736
57	0xbd98faac	-0.07469687
58	0xbcc5c947	-0.024143828
59	0xbdb3be36	-0.08776514
60	0x3d16971b	0.0367652
61	0x3c916a66	0.01775093
62	0xbb9bcc38	-0.0047545694
63	0x3d69fe06	0.05712702
64	0x3c95fc55	0.018308798
65	0x3d250df2	0.040296502
66	0x3db3c926	0.087786004
67	0x3d670239	0.056398604
68	0x3d99364a	0.07481058
69	0x3d645570	0.055745542
70	0xbb75d9ca	-0.0037513846
71	0x3b465707	0.0030264275
72	0xbcf801f4	-0.030274369
73	0xbc1c99cf	-0.009558155
74	0x3cc12e3b	0.023581615
75	0x3cc2ce2e	0.023779955
76	0xbad0eb8b	-0.0015939338
77	0x3bc703c6	0.006073448
78	0xbc1bc4b4	-0.009507347
79	0xbd2e6c6f	-0.04258388
80	0x3cb73058	0.02236192
81	0x3cff21b7	0.031144006
82	0xbbb92df0	-0.005651228
83	0x3c547d68	0.012969352
84	0x3c127b65	0.008940552
85	0x3c02333d	0.0079467865
86	0xbc83ebe3	-0.01610369
87	0xbd244552	-0.04010517
88	0x3d145c27	0.036220696
89	0xb771fd2b	-1.4423665e-05
90	0xbb44027a	-0.0029908703
91	0x3bd56209	0.006511931
92	0xbc968d7b	-0.01837801
93	0x3cc15f01	0.023604872
94	0x392fdfff	0.00016772746
95	0x3cd62635	0.026141265
96	0xbc0b050e	-0.008485092
97	0xbc024c09	-0.0079526985
98	0xbcaa8286	-0.020814192
99	0x3b30fa63	0.002700471
100	0xbcf295e3	-0.029612487
101	0xbd865021	-0.06558252
102	0xbd02380a	-0.031791724
103	0xbc34382e	-0.010999722
104	0xbc9c2aae	-0.01906332
105	0x3b808daa	0.0039231377
106	0xbc24d260	-0.010059923
107	0xbbcc8043	-0.006240876
108	0x3ac8dddf	0.0015324912
109	0x3c896524	0.01677186
110	0x3c874110	0.016510516
111	0x3c07493b	0.008257206
112	0x3d6e6a54	0.05820687
113	0x3d0d4302	0.03448773
114	0x3a3ac269	0.0007124306
115	0xbc608e56	-0.0137058105
116	0x3c024774	0.007951606
117	0xbcac3c68	-0.021024898
118	0x3a5c72d3	0.0008409444
119	0x39b57c18	0.00034615467
120	0xbd19f1c1	-0.03758407
121	0xbd21e16f	-0.03952163
122	0xbd5d0a43	-0.053964864
123	0xbd88dca1	-0.066827066
124	0xbd2e8778	-0.04260966
125	0x3daf9af5	0.085744776
126	0xbca19ed5	-0.019729057
127	0x3da018a4	0.078172
128	0x3c81a581	0.015825989
129	0x3dc3443f	0.09534501
130	0xbd48c85b	-0.0490192
131	0xbcf93f35	-0.030425647
132	0xbd0b378b	-0.033988517
133	0xbca5099a	-0.02014618
134	0x3b0de858	0.002165338
135	0xbc3e8bcd	-0.011630011
136	0x3bc940b3	0.006141746
137	0x3cef05e0	0.029177606
138	0x3b8100c5	0.0039368593
139	0x3a510c77	0.00079745747
140	0x3ca9c0a1	0.020721735
141	0x3d15506e	0.036453657
142	0x3d15aafd	0.03654002
143	0x3c498f7a	0.012302274
144	0x3baeb95d	0.0053321556
145	0xbd6788fa	-0.056527115
146	0xbd6a5a9b	-0.057215314
147	0xbccd443b	-0.025056949
148	0xbd842410	-0.06452191
149	0xbdc6e207	-0.0971108
150	0x3c205412	0.009785669
151	0x3c81eb0a	0.015859146
152	0xbbca3a9f	-0.006171539
153	0x3c28c252	0.010300236
154	0xbd19eb00	-0.03757763
155	0x3a3bb0ac	0.000715981
156	0xbca53aa1	-0.020169558
157	0xbd0a912e	-0.03382986
158	0xbd01eb4d	-0.03171854
159	0xbadb06a5	-0.0016710354
160	0xbd08fa12	-0.03344161
161	0xbd44693d	-0.047951926
162	0x3b625762	0.0034536947
163	0x3a332bda	0.00068348425
164	0xbd0acc4c	-0.03388624
165	0x3be46bdd	0.006970866
166	0xbbcb850c	-0.006210929
167	0x3c976430	0.01848039
168	0x3c4d13b7	0.012516907
169	0x3c5d0100	0.013489008
170	0x3931b39a	0.00016946942
171	0x3b4817c0	0.0030531734
172	0x3cf93dbc	0.030424945
173	0x3cd0e59b	0.02550011
174	0x3a347dd2	0.0006885204
175	0x3d3e6d11	0.046490733
176	0x3d91c60f	0.07117855
177	0x3d394faf	0.045242008
178	0xbbb08e24	-0.0053880382
179	0x3d3af465	0.04564323
180	0x3c4b13a3	0.0123948185
181	0xbcea787e	-0.028621908
182	0x3d6b9b94	0.057521418
183	0x3cb1af52	0.021690045
184	0xbc846bda	-0.016164709
185	0x3c582a4e	0.01319368
186	0xbc9f4148	-0.019440308
187	0xbc93f446	-0.018060815
188	0x3d3008d5	0.042977173
189	0x3d57ed13	0.052716326
190	0x3ca483c5	0.020082364
191	0xbba403d7	-0.0050053406
192	0xbda2b7a4	-0.07945183
193	0xbb52bd67	-0.003215635
194	0x3d8bad82	0.06820203
195	0x3d2da513	0.042393755
196	0x3de28a4e	0.11061536
197	0xbc1eb04b	-0.009685586
198	0xbd66542a	-0.05623261
199	0x3d3b5c58	0.045742363
200	0xbd7de0db	-0.061982017
201	0x3c77d0a5	0.015125428
202	0x3c131f08	0.008979566
203	0xbb3ad80b	-0.002851012
204	0xbc89f9bd	-0.016842717
205	0x3d684c4e	0.056713395
206	0x3d356367	0.04428425
207	0x3c5f1cd2	0.013617711
208	0xbd0806d8	-0.03320965
209	0xbccd3b09	-0.025052564
210	0x3dc29aff	0.095022194
211	0xbaa8909b	-0.0012860479
212	0xbcb3361c	-0.021876387
213	0xbafbc29a	-0.0019207776
214	0xbd4dba4e	-0.050226502
215	0x3d1ee285	0.038790245
216	0x3c963a6b	0.018338403
217	0x3bf3a5c0	0.0074355304
218	0x3c08af59	0.008342587
219	0xbd2644e8	-0.040593058
220	0xbd44565c	-0.04793392
221	0x3cf950d7	0.030434055
222	0x3c4dc149	0.01255829
223	0xbb243395	-0.002505516
224	0xbb927cd7	-0.0044704485
225	0x3b2aaedf	0.0026044173
226	0x3c2f2448	0.0106898025
227	0x3bdfbc6e	0.0068278825
228	0x3c67cdf8	0.014148228
229	0x3c71dbe1	0.014761896
230	0x3ca82d5e	0.020529445
231	0x3b9bec79	0.0047584143
232	0x3d1b8d4b	0.037976544
233	0x3d192c6b	0.037395876
234	0xbb5da9a0	-0.0033823028
235	0xbcc936c1	-0.024562242
236	0xbcc5e626	-0.024157595
237	0xbc3e6766	-0.011621332
238	0x3b1b8e77	0.0023736039
239	0xbc74b66b	-0.01493607
240	0xbd60f061	-0.054916743
241	0xbd17d8f3	-0.037072133
242	0xbcda5036	-0.026649576
243	0xbcd4ed52	-0.02599207
244	0xbca0d530	-0.019632906
245	0xbd331767	-0.04372349
246	0xbd2ceffd	-0.04222106
247	0xbd380ce4	-0.04493417
248	0xbceb06d2	-0.028689776
249	0xbc3bf6f7	-0.011472455
250	0xbcc0aed1	-0.023520859
251	0xbd073a62	-0.033014663
252	0xbc92f5c3	-0.017939454
253	0x3c8d18da	0.017223764
254	0x3c7e4a1e	0.015520601
255	0xbd0633eb	-0.032764357

conv2.bias f4 [32]
0	0xbc97f63a	-0.018550027
1	0xbc8bfb10	-0.01708749
2	0xbb44c730	-0.0030025952
3	0xbc52c5e1	-0.012864561
4	0x3cd691e8	0.02619262
5	0x3c808286	0.015687238
6	0xbbcdf21f	-0.0062849666
7	0x3c17b7ed	0.00926016
8	0x3c9c4ddf	0.0190801
9	0xbc2881dd	-0.010284868
10	0xba8cd4e4	-0.0010744599
11	0xbc2a177d	-0.010381577
12	0x3ce85227	0.028359486
13	0x3c1f0666	0.009706115
14	0x3d373ec4	0.044737592
15	0xbb63a509	-0.003473582
16	0xbc6a9f7a	-0.014320249
17	0xbc8bc9bb	-0.017063966
18	0x3bc4d681	0.006007016
19	0x3cc268f6	0.02373169
20	0x3cb7d71a	0.022441436
21	0x3c4d010a	0.012512455
22	0xbc8a2dc6	-0.01686753
23	0xbb0c5775	-0.0021414433
24	0xbc05c638	-0.008164935
25	0x3d0b1f50	0.03396541
26	0x3cc92e10	0.024558097
27	0x3ca78f42	0.020454053
28	0x3c1a3faf	0.009414597
29	0xba84e64d	-0.0010139436
30	0xbca6e22c	-0.020371519
31	0x3aba1aef	0.0014198701

conv3.weight f4 [1, 32, 5, 5]
0	0x3c904027	0.017608715
1	0x3c8ff4b8	0.017572746
2	0x38bb6fb7	8.9376634e-05
3	0x3cdf50f0	0.027260274
4	0x3d0459a0	0.032312036
5	0xbcfac4d1	-0.030611428
6	0xba93f2a2	-0.001128752
7	0xbd1f33e3	-0.038867842
8	0xba08a8a3	-0.0005213117
9	0x3c28b8c5	0.010297959
10	0xbbcda24c	-0.006275451
11	0x3cca66a7	0.024707152
12	0x3b868d8e	0.00410623
13	0xbd1f0e71	-0.03883213
14	0xbbfe4645	-0.0077598416
15	0xbc9a554c	-0.0188395
16	0xbcf47bd4	-0.029844202
17	0xbb3afd11	-0.0028532187
18	0xbd0efeb2	-0.034910865
19	0x3c999db2	0.018751953
20	0x3b716527	0.0036833973
21	0x3c7950c8	0.015217014
22	0x3cc47f1b	0.02398639
23	0x3d03597a	0.032067753
24	0xbc768ef4	-0.015048731
25	0x3ac0eb53	0.001471857
26	0xbd0b0f9c	-0.033950433
27	0x3c04ee7c	0.0081135
28	0x3cd6d8e0	0.026226461
29	0xbcbb12a7	-0.022836043
30	0x3ca33094	0.019920625
31	0xbc87c868	-0.016575053
32	0x3c2848d4	0.01027127
33	0xbc81cdd4	-0.015845217
34	0x3bd0a1bc	0.0063669365
35	0xbd0b35f7	-0.03398701
36	0x3cd8174e	0.0263783
37	0xbc028e4e	-0.007968498
38	0x3d046462	0.032322295
39	0xbc527944	-0.012846295
40	0x3c754cd8	0.014971934
41	0xbc8e86aa	-0.017398197
42	0xbc8079e2	-0.015683118
43	0xbc2307ab	-0.009950559
44	0x3c897355	0.016778627
45	0x3c699299	0.014256143
46	0x3ca69eae	0.020339336
47	0xbbcf1a21	-0.0063202535
48	0x3b6c7a2e	0.0036083567
49	0x3cb14f47	0.021644248
50	0xbc6267e7	-0.013818718
51	0xbc34daa8	-0.01103846
52	0x3cde0d7e	0.027106043
53	0xbcf5bb52	-0.029996548
54	0xbc8c6945	-0.01714004
55	0xbc9db45c	-0.019251041
56	0xbbe1fee6	-0.0068968413
57	0xbcd3a34a	-0.025834698
58	0x3c07fcb8	0.008299999
59	0xbcc7d19b	-0.02439194
60	0xbc79c215	-0.015244027
61	0xbd0b6c8b	-0.03403906
62	0x3cbf3c0d	0.023344064
63	0xbcb49dc3	-0.022047883
64	0xbb918dc9	-0.004441951
65	0xbca9c05b	-0.020721605
66	0xbb8faa83	-0.0043843403
67	0xbbeab97d	-0.007163225
68	0xbc3ff374	-0.011715759
69	0xba377fc5	-0.0006999935
70	0x3c780014	0.015136737
71	0x3cf01325	0.029306004
72	0x3cd36e42	0.025809411
73	0xbcd632fd	-0.02614736
74	0xbb88ddb8	-0.0041768216
75	0xbd6c7c4e	-0.057735734
76	0x3c74c4a1	0.014939458
77	0x3c88d389	0.01670243
78	0xbbc6608b	-0.0060539893
79	0x3bafac6c	0.0053611305
80	0x3d1fdb25	0.039027352
81	0x3d4602b4	0.04834242
82	0x3b2c3096	0.0026274077
83	0xbc494c98	-0.012286328
84	0x3bc3c745	0.0059746825
85	0x3d4545b5	0.04816218
86	0x3d1bb30e	0.038012557
87	0x3c0d25f7	0.008615009
88	0xbcae73ff	-0.021295546
89	0xbb638791	-0.0034718255
90	0x3bd9360d	0.006628758
91	0xbc966eb5	-0.018363336
92	0xbd909a40	-0.07060671
93	0xbd27ca0e	-0.04096418
94	0xb9df770f	-0.0004262258
95	0xbbdc40ef	-0.006721608
96	0xbccc650b	-0.024950525
97	0xbcecef22	-0.028922621
98	0x3b2cc9d7	0.0026365423
99	0x3d2bfa37	0.04198667
100	0x3bb8cd22	0.005639688
101	0x3bf14788	0.0073632635
102	0x3c67f92e	0.01415853
103	0xbb47d288	-0.0030490477
104	0x3b757b9a	0.0037457705
105	0xbc061343	-0.008183303
106	0x3d0077f5	0.0313644
107	0xb9ef2f46	-0.00045620854
108	0x3ccccb6b	0.024999341
109	0xbca86281	-0.020554783
110	0xbce662b7	-0.028123243
111	0x3b892ea0	0.0041864663
112	0xbd04085a	-0.032234527
113	0x3ca604ff	0.020266054
114	0x3ca6d77d	0.020366425
115	0x3ce78f0e	0.028266456
116	0x3d006a10	0.03135115
117	0x3c33deb7	0.010978392
118	0x3c547401	0.012967111
119	0xbbc0c473	-0.0058827936
120	0x3d02d71b	0.03194342
121	0x3c6bda33	0.0143952845
122	0xbc140da9	-0.00903646
123	0xbd0954ed	-0.033528257
124	0x3b5a6b9f	0.0033328307
125	0x3ba92401	0.0051617627
126	0x3d1075d0	0.035268605
127	0x3cf74856	0.03018586
128	0x3d045ccc	0.03231506
129	0x3b00a112	0.0019627255
130	0x3c3c2de9	0.011485555
131	0xbcbefe03	-0.023314482
132	0x3c0c0b06	0.00854755
133	0x3c3bcd55	0.011462529
134	0xbc6da326	-0.01450423
135	0xbca52c3c	-0.020162694
136	0x3c13eae1	0.009028167
137	0xbce28ef1	-0.02765605
138	0xbc78ba1f	-0.0151810935
139	0x3ceeb4a6	0.029138874
140	0x3cb42295	0.021989146
141	0xbd154da4	-0.036450997
142	0xbd15147d	-0.036396492
143	0x3cbd378f	0.023097781
144	0xbb68857c	-0.0035479954
145	0x3bde2b1c	0.0067800414
146	0xbcb03a24	-0.021512099
147	0xbc548a5e	-0.012972442
148	0x3ceac327	0.028657509
149	0xbca66797	-0.020313067
150	0x3c46c7eb	0.012132625
151	0x3a8fa0ab	0.0010957917
152	0x3c37fd40	0.011229813
153	0x3acdde1e	0.0015706455
154	0xbbe56a56	-0.0070012016
155	0x3c4ce4cc	0.012505721
156	0x3c1ade7e	0.00945246
157	0xbb500ea1	-0.0031747
158	0x3cc6c5d0	0.024264246
159	0x3d04a4d3	0.03238375
160	0x3c989c9e	0.018629368
161	0xbc2ad01c	-0.010425594
162	0xbcd75ac9	-0.026288407
163	0xbcc77a7c	-0.024350397
164	0xbc8ddfba	-0.017318595
165	0xbb582f80	-0.0032987297
166	0x3c925b02	0.017865662
167	0x3c1d4870	0.00959979
168	0x3d00fbdd	0.031490196
169	0xbd103cc7	-0.03521421
170	0xbca9cca9	-0.020727472
171	0x3d038637	0.03211042
172	0xbcccc7de	-0.024997648
173	0x3cbc936a	0.023019511
174	0x3a56a864	0.00081885443
175	0xbb86e016	-0.0041160686
176	0x3ccd52a8	0.025063828
177	0x3ce115d1	0.027476223
178	0xbc6a8ad0	-0.014315322
179	0xbb00ae4d	-0.0019635141
180	0x3d075782	0.03304244
181	0x3cf1341a	0.02944379
182	0x3c6b3ea3	0.0143581955
183	0xbcad69d2	-0.021168623
184	0xbcc1ff81	-0.023681404
185	0x3ccf7aae	0.025327053
186	0x3ca62606	0.020281803
187	0xbb75f90d	-0.003753248
188	0x3d0ce955	0.03440221
189	0x3cccaaa8	0.024983719
190	0xbc00dbde	-0.00786492
191	0x3c7a5918	0.015280031
192	0x3d0cd6f3	0.03438468
193	0x3ca8e553	0.020617163
194	0xbc8b59d3	-0.017010605
195	0xbd0949e8	-0.033517748
196	0x3c2e1d1f	0.01062706
197	0x3c57b80b	0.013166438
198	0xbd0e8262	-0.03479231
199	0x3babd52c	0.005243918
200	0xbc3b6852	-0.011438446
201	0xbba65ea0	-0.005077198
202	0xbcdeb8b1	-0.027187677
203	0xbcaa9510	-0.020823032
204	0x3cfc4a66	0.030797195
205	0x3c15a191	0.009132759
206	0xbc7690c6	-0.015049165
207	0xbd4010c4	-0.04689099
208	0xb9e5aa4f	-0.00043805173
209	0x3acf7956	0.0015829008
210	0xbc771d68	-0.015082695
211	0x3d3a450a	0.045475997
212	0x3d772452	0.060337372
213	0xbcc988b1	-0.024601312
214	0xbb865eb6	-0.004100646
215	0xbd77bdf6	-0.060483895
216	0x3d8f7465	0.07004622
217	0x3d9daa86	0.076985404
218	0xbce8b91c	-0.02840858
219	0xbcf291db	-0.029610565
220	0xbcfd15ff	-0.030894278
221	0xbceaf750	-0.02868238
222	0x3d133646	0.03594043
223	0x3a2ce591	0.00065954874
224	0xbcdb61f3	-0.026780104
225	0x3d0c6e3a	0.034284808
226	0xbc6104c9	-0.013734051
227	0x3c65b50b	0.014020215
228	0x3cae4364	0.021272369
229	0x3c32d7ca	0.010915706
230	0x3d070d05	0.0329714
231	0xbcd02825	-0.025409767
232	0x3b4432ff	0.0029937623
233	0xbaec669e	-0.0018035953
234	0x3c830b15	0.015996495
235	0xbc7eeb86	-0.015559083
236	0xbcb0a919	-0.021565007
237	0xbce2e462	-0.027696792
238	0x3cc5d07a	0.024147261
239	0x3c2b98af	0.010473414
240	0xbd0b20a5	-0.03396668
241	0xbb2bab93	-0.0026194796
242	0xbcf6a61d	-0.030108506
243	0xbcf98266	-0.030457687
244	0x3cb48a18	0.022038504
245	0xbc979db7	-0.018507821
246	0x3ca8d6fc	0.020610325
247	0x3d05311d	0.03251754
248	0x3b96f009	0.004606251
249	0x3c76bd06	0.015059715
250	0xbcfcfff0	-0.03088376
251	0xbc773a06	-0.015089517
252	0xbaff27af	-0.0019466783
253	0x3bf78856	0.0075540943
254	0x3c6a2cf3	0.014292943
255	0x3c9bf982	0.019039873
