Lecture8_Image restoration (HuStar_4)/outputs/x3/epoch_36.pth (torch, 231589 bytes, 5 tensors)

conv1.weight f4 [64, 1, 9, 9]
0	0x3c09089d	0.00836387
1	0x3ccf9422	0.02533919
2	0xbd335f32	-0.043791957
3	0x3d7bb8a5	0.061455388
4	0xbd9dfbb8	-0.07714027
5	0x3dc4e303	0.096136115
6	0xbd89a6d6	-0.067212746
7	0xbd9a3d9f	-0.075312845
8	0xbd2c53b1	-0.042072
9	0x3d8ce6f5	0.06879989
10	0xbd4a6c9d	-0.049419988
11	0x3d009065	0.031387705
12	0xbdce9ea6	-0.100888535
13	0xbd9bcfa3	-0.07607963
14	0xbd4805c5	-0.048833627
15	0xbd01330d	-0.031542826
16	0xbdcfa614	-0.10139099
17	0x3d846626	0.06464796
18	0xbc78f772	-0.015195714
19	0x3ccb7cf0	0.024839848
20	0x3d938f64	0.07205084
21	0x3cc65baf	0.02421364
22	0x3d2d2321	0.04226983
23	0x3df46343	0.11932995
24	0xbd4d1c62	-0.050075896
25	0x3c94b089	0.018150585
26	0xbd90898a	-0.070574835
27	0x3d77c5ba	0.0604913
28	0x3d507641	0.050894026
29	0xbdfce930	-0.123491645
30	0x3de1f0e8	0.11032277
31	0x3dc1d675	0.094647326
32	0x3db50a8f	0.088399045
33	0x3d80850c	0.06275377
34	0x3da50fd3	0.08059659
35	0xbd28e7e1	-0.041236762
36	0xbdf01406	-0.11722569
37	0xbd8ad002	-0.067779556
38	0xbdaf1b03	-0.08550074
39	0x3d5e95fd	0.05434226
40	0x3d410b00	0.04712963
41	0xbc0d9565	-0.008641575
42	0x3bffb84c	0.0078039523
43	0x3dc51027	0.096222214
44	0xbcfaf591	-0.030634673
45	0xbc2033b7	-0.009777955
46	0xbd398383	-0.045291435
47	0x3c840b6c	0.016118728
48	0x3e0bfc07	0.1367036
49	0x3dd7d3cd	0.10538445
50	0x3d60dd6f	0.054898676
51	0x3ca09f16	0.019607108
52	0x3c805d76	0.015669566
53	0x3cd11ec4	0.025527366
54	0xbb20f2c3	-0.002455876
55	0xbe04bb05	-0.12961967
56	0xbda7edd1	-0.08199657
57	0x3dc679d6	0.09691207
58	0xba494067	-0.0007677138
59	0xbde2829c	-0.11060068
60	0x3ab28337	0.0013619427
61	0x3dc36c1e	0.09542106
62	0xbdd2a71c	-0.1028578
63	0xbcd342cd	-0.025788689
64	0xbd788f2a	-0.060683407
65	0xbcae301c	-0.021263175
66	0xbd581cf8	-0.052762
67	0xbd3a2263	-0.04544295
68	0xbe10a2f2	-0.14124659
69	0x3d401a72	0.04690022
70	0x3dff8e8b	0.1247836
71	0x3db2103c	0.08694503
72	0x3c8bca14	0.017064132
73	0xbdaeff9a	-0.08544846
74	0x3c584df7	0.013202182
75	0xbd129e73	-0.03579564
76	0x3c8ffb63	0.017575925
77	0xbe004786	-0.12527284
78	0x3b434425	0.0029795256
79	0x3de5578b	0.11198338
80	0x3d77e907	0.060524967
81	0x3c557d15	0.01303031
82	0x3cbe050b	0.023195764
83	0xba263f9f	-0.0006341878
84	0xbda0bdd4	-0.07848707
85	0xbd92a9ad	-0.07161269
86	0xbdd06ad8	-0.10176629
87	0x3d9d6cd6	0.076867744
88	0x3d1c7b65	0.038203616
89	0x3c655995	0.013998409
90	0xbdb07753	-0.08616509
91	0x3da8767f	0.08225726
92	0x3d30f648	0.043203622
93	0x3d802653	0.0625731
94	0xbd8957e6	-0.067062184
95	0x3a867d6b	0.0010260766
96	0x3ded5f13	0.115903996
97	0x3da9b4fe	0.08286475
98	0x3dbb1c75	0.09136287
99	0xbd112a05	-0.035440464
100	0x3d90a37a	0.07062431
101	0xbda78e58	-0.08181447
102	0x3bcfd4cb	0.0063425056
103	0xbd8d78ca	-0.06907804
104	0xbd0cb7c8	-0.034354955
105	0xbc59d7bb	-0.013296063
106	0x3c9a2a7e	0.01881909
107	0x3dc45e95	0.095883526
108	0x3ce053d6	0.027383726
109	0xbcbed738	-0.023295984
110	0x3daf793a	0.08568044
111	0xbd4550f3	-0.048172902
112	0x3d7c1248	0.06154087
113	0xbccb5043	-0.024818545
114	0xbc80bffa	-0.015716542
115	0x3c169fbd	0.009193358
116	0xbddf6ae7	-0.10909062
117	0xbc0c5630	-0.008565471
118	0x3cc04ce6	0.023474168
119	0x3dea3e11	0.114376195
120	0xbc5221ba	-0.012825424
121	0x3d4c1de2	0.049833186
122	0x3dbd8f4d	0.09255848
123	0xbd4f2106	-0.050568603
124	0x3dd18c64	0.102318555
125	0xbd9b0d69	-0.07570917
126	0x3cdbf27a	0.02684902
127	0x3cc3788b	0.02386119
128	0x3d2d2d5e	0.042279594
129	0x3dbe0b3f	0.09279489
130	0xbd680027	-0.05664077
131	0xbc1b8777	-0.009492747
132	0xbc6417be	-0.013921676
133	0xbdae73d5	-0.08518187
134	0xbd2dd8c4	-0.042443052
135	0xbdccc439	-0.09998364
136	0x3ca594e4	0.020212598
137	0x3c292472	0.010323631
138	0x3af3e551	0.001860777
139	0xbd7fa7c3	-0.06241585
140	0xbd4dd243	-0.05024935
141	0xbd4dcd81	-0.050244812
142	0x3d210c74	0.039318517
143	0x3dcc7d98	0.099848926
144	0x3c62dafe	0.013846157
145	0xbd70d91d	-0.058800805
146	0xbd62f799	-0.05541191
147	0x3c2dfa6e	0.010618789
148	0xbdc79409	-0.09745032
149	0xbdeb0281	-0.11475087
150	0xbd935916	-0.07194726
151	0xbc8396d8	-0.016063139
152	0x3bd28dff	0.0064256187
153	0x3db79129	0.08963234
154	0x3d4a43f5	0.049381215
155	0x3dedf530	0.116190314
156	0xbd2f2d8d	-0.04276805
157	0x3cdccf6f	0.02695438
158	0xbdb8474f	-0.08997976
159	0x3dcaf908	0.0991078
160	0x3d8e7f93	0.069579266
161	0x3dfbb9ef	0.122913234
162	0xbd6b4b16	-0.057444654
163	0x3df8447b	0.121224366
164	0x3e0b8e22	0.13628438
165	0x3e1a507c	0.15069765
166	0x3dc79c7a	0.097466424
167	0x3e31a6e0	0.17348814
168	0x3df53e70	0.119748
169	0x3dc1997b	0.09453102
170	0xbcd8fb60	-0.026487052
171	0xbdc3cbfe	-0.09560393
172	0xbc8ff475	-0.01757262
173	0xbc1067c2	-0.0088138
174	0xbde019ff	-0.10942458
175	0xbda1a77a	-0.07893272
176	0xbdf131ea	-0.117770985
177	0xbd61e181	-0.055146698
178	0x3d8020ff	0.062562935
179	0xbd1b226c	-0.037874624
180	0xbb920efc	-0.0044573527
181	0x3b8b1aa5	0.0042451196
182	0x3d6732ac	0.05644481
183	0xbdf43cd1	-0.11925662
184	0xbdbe1545	-0.092814006
185	0xbd329b9e	-0.04360544
186	0xbd957ccf	-0.07299196
187	0x3d2b8bce	0.041881375
188	0x3d572aaf	0.05253094
189	0xbdafa5d0	-0.08576548
190	0xbd85bbdb	-0.06529971
191	0xbda2bd74	-0.079462916
192	0x3d89bf3d	0.06725929
193	0x3e02fa34	0.12790757
194	0xbd61bd59	-0.055112217
195	0xbce8d828	-0.028423384
196	0x3d71b75a	0.05901275
197	0xbd490292	-0.049074717
198	0x3dd841c2	0.10559417
199	0x3d378622	0.044805653
200	0xbb9075f4	-0.0044085924
201	0x3d23a16a	0.03994886
202	0x3d99086b	0.07472309
203	0xbc8c6aeb	-0.017140826
204	0xbd9ceae3	-0.076619886
205	0x3c7c91b2	0.015415596
206	0x3ca39dc6	0.019972693
207	0x3c0c690c	0.008569967
208	0xbc2945b6	-0.010331562
209	0x3db23fd0	0.087035775
210	0xbc19da41	-0.009390415
211	0x3c8e7433	0.017389392
212	0x3d75a9e7	0.059976485
213	0xbd8f84ea	-0.07007773
214	0x3d207860	0.0391773
215	0xbc70b7d8	-0.014692269
216	0x3d70f4c6	0.058827184
217	0xbd9663b6	-0.07343237
218	0xbb788b60	-0.003792487
219	0x3b136388	0.0022489745
220	0xbdbf8602	-0.09351732
221	0xbdbb95c8	-0.09159428
222	0x3ce3e13d	0.027817363
223	0xbd00b1eb	-0.031419676
224	0x3d888011	0.06665052
225	0xbd8d3e3f	-0.06896638
226	0xbd2c3f8e	-0.042052798
227	0xbdaa8f52	-0.083281174
228	0x3d39f766	0.045401953
229	0x3c4fdefa	0.012687439
230	0xbc11c751	-0.008897618
231	0xbc569689	-0.013097414
232	0xbd9c877c	-0.07643029
233	0x3d212be1	0.039348487
234	0x3d3813b3	0.04494066
235	0xbd6ec271	-0.058290903
236	0x3d684060	0.056702018
237	0x3bb043a5	0.0053791576
238	0xbd9c15a7	-0.07621317
239	0x3dacedbe	0.08443783
240	0x3d92f548	0.0717569
241	0xbc73dbce	-0.0148839485
242	0xbd958378	-0.07300466
243	0x3bb2c9dc	0.0054561924
244	0x3da4fa48	0.0805555
245	0x3dc18061	0.094483145
246	0xbdb8a69e	-0.09016155
247	0xbd605a2c	-0.054773495
248	0x3dab72b5	0.08371488
249	0x3d4eb576	0.050466023
250	0x3d76bc62	0.06023825
251	0xbd8376a4	-0.06419113
252	0x3dc435fd	0.0958061
253	0xbdc0d845	-0.0941625
254	0xbc251bab	-0.010077397
255	0xbb0bf92b	-0.0021358232

conv1.bias f4 [64]
0	0x3bdf1b4b	0.0068086735
1	0xbde0f099	-0.1098339
2	0x3c822c81	0.015890362
3	0xbd6a2f25	-0.057173867
4	0x3d690772	0.056891866
5	0x3bbf8ecb	0.0058458797
6	0x3d5cd17f	0.05391073
7	0xbcb0d498	-0.021585748
8	0x3dfb8995	0.12282101
9	0xbd3274f3	-0.043568563
10	0x3bc93314	0.006140122
11	0x3d0cab6e	0.034343176
12	0xbdece382	-0.11566831
13	0x3e0be38f	0.13661025
14	0x3d87f825	0.06639127
15	0x3c97ac1b	0.018514683
16	0xbcfeda6a	-0.031110007
17	0xbd91591a	-0.07097073
18	0x3d6bad79	0.057538483
19	0x3d146420	0.0362283
20	0x3c949493	0.018137252
21	0x3999ca13	0.0002933299
22	0xbd81801f	-0.06323265
23	0x3d95d3a5	0.073157586
24	0xbd9c0692	-0.07618441
25	0x3d6758bb	0.056481104
26	0xbbab1c29	-0.005221863
27	0x3b2c943a	0.0026333467
28	0x3cc7f034	0.02440653
29	0x3d2abfde	0.041686885
30	0x3db51f17	0.088438205
31	0xbbe8efd0	-0.007108666
32	0x3d2524a3	0.040318143
33	0x3d9ab919	0.07554836
34	0x3a2906ce	0.00064478524
35	0xbda22768	-0.079176724
36	0xbbbc0a84	-0.0057385582
37	0x3da9f8d8	0.08299416
38	0xbd088232	-0.03332729
39	0x3d427265	0.047472376
40	0x3c5ccf44	0.01347715
41	0xbcca9355	-0.024728457
42	0x3dc88102	0.09790231
43	0xbcdc1c56	-0.02686898
44	0x3d0e09af	0.034677204
45	0xbc40bf99	-0.01176443
46	0xbc8565ee	-0.016283955
47	0xbcb1cad1	-0.021703156
48	0x3b57b678	0.0032915156
49	0xbd3a48e7	-0.04547968
50	0xbc99428b	-0.018708488
51	0x3d9931d0	0.07480204
52	0x3c909140	0.017647386
53	0x3b88615f	0.004161998
54	0x3b8a2a07	0.004216436
55	0x3c34c407	0.011033065
56	0x3dc2af3f	0.09506082
57	0xbd28a527	-0.041173127
58	0xbc68d4b3	-0.014210868
59	0x3d8bbbf7	0.06822961
60	0x3d389074	0.045059636
61	0xbcc39b40	-0.02387774
62	0xbd7bd8b5	-0.061485965
63	0xbda06b1e	-0.07832931

conv2.weight f4 [32, 64, 5, 5]
0	0x3ba90b8c	0.005158847
1	0xbb80b6af	-0.0039280276
2	0x3d2e2440	0.04251504
3	0x3d829cd4	0.06377569
4	0xbdad2f7b	-0.08456322
5	0x3ca4a9d5	0.020100513
6	0xbd055526	-0.032551907
7	0xbca1b047	-0.019737376
8	0x3cc754d0	0.024332434
9	0xbcb23694	-0.02175454
10	0x3d09734b	0.033557218
11	0xbbe0ff90	-0.006866403
12	0xbc1aa528	-0.00943879
13	0xbb7baa5f	-0.003840111
14	0x3d137567	0.036000635
15	0xbc44497b	-0.01198041
16	0x3c7aa7e8	0.015298821
17	0x3c24ab65	0.010050629
18	0x3c497e7f	0.012298225
19	0x3d2b1e4c	0.04177694
20	0xbc750c69	-0.014956572
21	0xbc2db93b	-0.010603244
22	0xbd379553	-0.04482014
23	0x3c861ae7	0.01637025
24	0xbc10c138	-0.008835129
25	0x3b664151	0.0035134146
26	0x3cc72bdc	0.024312906
27	0xba83f410	-0.0010067243
28	0xbcde5a27	-0.027142597
29	0xbd0155b8	-0.03157589
30	0x3c8f2c31	0.017477127
31	0x3d1ff8d3	0.039055657
32	0x3cb9afdf	0.02266687
33	0x3c919081	0.0177691
34	0x3c29fef5	0.010375728
35	0x3d65c17d	0.056092728
36	0x3c8cfaf0	0.0172095
37	0x3ccf1f17	0.02528338
38	0x3d1a840a	0.03772358
39	0x3db051fd	0.08609388
40	0x3b8f6972	0.0043765837
41	0x3a433ad8	0.0007447428
42	0xbd1592d8	-0.036516994
43	0xbc27bc4f	-0.010237767
44	0x3c9174f3	0.017755961
45	0xbd8e45b5	-0.06946889
46	0xbbe48d37	-0.006974842
47	0xbbbe4ad5	-0.0058072605
48	0xbc678e4f	-0.01413305
49	0x3bfaf059	0.007658046
50	0xbdf64df1	-0.12026585
51	0xbe0a5b11	-0.13511302
52	0xbe374aa5	-0.17899568
53	0xbe0f267a	-0.13979521
54	0xbe5fb3f6	-0.21845993
55	0xbd6380e5	-0.055542845
56	0xbd86ba6b	-0.06578525
57	0xbd5f6c60	-0.054546714
58	0xbbe830b1	-0.0070858826
59	0xbd77eabf	-0.060526606
60	0x3ca5338e	0.020166185
61	0xbab248aa	-0.0013601978
62	0xbd0c883f	-0.034309622
63	0x3cdef1d2	0.027214918
64	0x3c47cfc6	0.012195533
65	0xbb176f7c	-0.0023107221
66	0x3d3153f9	0.043292973
67	0x3cb30358	0.02185218
68	0x3d01cdf4	0.031690553
69	0x3cda5042	0.026649598
70	0xbc124bfa	-0.008929247
71	0x3bdcfaa8	0.0067437477
72	0xbc3d3ece	-0.011550618
73	0xbbcb0c82	-0.0061965594
74	0x3c839780	0.016063452
75	0x3ccd8ae8	0.02509065
76	0xbb545967	-0.003240192
77	0xbab6b309	-0.0013938855
78	0xbc3c26d2	-0.011483865
79	0xbcc18471	-0.023622723
80	0x3c65140e	0.013981832
81	0x3cd30bbd	0.025762433
82	0xbc3c76c8	-0.011502929
83	0x3b9289db	0.004472
84	0x3c955327	0.018228127
85	0x3c0ddcd0	0.008658603
86	0xbc194365	-0.009354447
87	0xbd104dac	-0.035230324
88	0x3d0ff89d	0.035149205
89	0x3c2f8927	0.010713852
90	0xb990dcca	-0.0002763032
91	0x3c514b22	0.012774261
92	0xbc30d90c	-0.0107939355
93	0x3cccd77a	0.025005091
94	0x3c1b1e97	0.009467742
95	0x3ce0ad9f	0.027426539
96	0xbb4782fc	-0.0030443063
97	0xbb28d924	-0.0025764192
98	0xbc93cf2f	-0.018043129
99	0x3ba8fefe	0.0051573506
100	0xbd0f1c37	-0.034939017
101	0xbd66df3d	-0.05636524
102	0xbc7fba44	-0.015608374
103	0xbc03b17d	-0.008037922
104	0xbc88ee35	-0.016715148
105	0x3b02c1bb	0.0019951898
106	0xbc29a3bf	-0.0103539815
107	0x3baed826	0.0053358255
108	0x3c61410b	0.013748418
109	0x3c93defa	0.01805066
110	0xb9ecbd0f	-0.00045154287
111	0xbba9c394	-0.0051807854
112	0x3d49d77a	0.04927776
113	0x3d0054f8	0.031331033
114	0xbc1b4904	-0.0094778575
115	0xbcb4f998	-0.022091672
116	0x3b0ac12e	0.0021172273
117	0xbcc64b40	-0.024205804
118	0x3b57cc6e	0.0032928246
119	0x3aa53395	0.0012603874
120	0xbce5eeb7	-0.02806793
121	0xbcca9683	-0.024729973
122	0xbd281573	-0.04103608
123	0xbd55cb88	-0.052196056
124	0xbcee0cc9	-0.02905883
125	0x3d5d478e	0.054023318
126	0xbd046a3d	-0.03232788
127	0x3d90763e	0.07053803
128	0x3d2e7e54	0.042600945
129	0x3e05392a	0.13010088
130	0xbd486003	-0.04891969
131	0xbce41122	-0.0278402
132	0xbcc99fc9	-0.024612324
133	0xbc226aa0	-0.009913117
134	0x3c6fd98d	0.0146392705
135	0xbc528e8b	-0.012851368
136	0x3b090c30	0.0020911805
137	0x3cdaa88d	0.0266917
138	0x39b49ec5	0.00034450568
139	0xb996e3d5	-0.00028779978
140	0x3cd09ace	0.025464442
141	0x3d156d31	0.036481086
142	0x3d0a7cc7	0.033810403
143	0x3c5c4e2c	0.013446372
144	0x3c285afe	0.0102756005
145	0xbd117fc5	-0.03552224
146	0xbd09f776	-0.033683263
147	0x3b06c148	0.0020561982
148	0xbd1e80e8	-0.038697153
149	0xbd8cef3b	-0.06881567
150	0x3bd394c7	0.0064569446
151	0x3c1c03f9	0.0095224315
152	0xbbcef2c3	-0.0063155605
153	0x3c8ee447	0.017442835
154	0xbd085abe	-0.033289663
155	0x3c76491d	0.01503208
156	0xbb90d243	-0.0044195964
157	0xbcd31b54	-0.025769867
158	0xbcb8573c	-0.022502534
159	0x3c4a162b	0.012334387
160	0xbc989ad3	-0.018628513
161	0xbd0e3a5c	-0.034723625
162	0x3b407713	0.0029367849
163	0xbaff4698	-0.0019475995
164	0xbc8635b6	-0.016383033
165	0x3c70b67a	0.014691943
166	0xbc12fac0	-0.008970916
167	0x3b210df3	0.0024574965
168	0x3aea495b	0.0017874645
169	0x3c6fbdef	0.014632686
170	0x3bc255ae	0.005930624
171	0x3c170ce9	0.009219387
172	0x3cf40b11	0.029790433
173	0x3cd80958	0.026371643
174	0x3c288492	0.0102855135
175	0x3cf6b3ac	0.030114971
176	0x3d72608b	0.0591741
177	0x3d038f93	0.032119345
178	0xbb261767	-0.0025343539
179	0x3d51d748	0.0512307
180	0xbb150409	-0.0022738
181	0xbd0e8faa	-0.034804977
182	0x3d415c41	0.04720712
183	0x3c586cc0	0.013209522
184	0xbc00d190	-0.007862464
185	0xbb968814	-0.0045938585
186	0xbceb3994	-0.028713979
187	0xbd09bba3	-0.03362621
188	0x3c7ed1d7	0.015552959
189	0x3cff8221	0.03118998
190	0xbb098fa2	-0.0020990153
191	0xbc094f37	-0.008380703
192	0xbda8d580	-0.08243847
193	0xbcdf778c	-0.027278684
194	0x3d338a12	0.043832846
195	0x3bc43e67	0.0059888843
196	0x3dd7560b	0.10514458
197	0x3bf82d22	0.0075737396
198	0xbd8ab2cc	-0.06772384
199	0x3c2175e7	0.00985477
200	0xbd8d5323	-0.06900623
201	0x3c28bc94	0.010298867
202	0x3b82ea11	0.003995188
203	0xbb07c8d7	-0.0020719075
204	0xbc16aa79	-0.009195917
205	0x3d4aff87	0.049560096
206	0x3d3fadb3	0.04679651
207	0x3c8b0cbb	0.016973844
208	0xbcd55eb4	-0.026046135
209	0xbd0daef8	-0.03459069
210	0x3dab91c8	0.08377415
211	0x3c5c5fc2	0.013450565
212	0xbb63106e	-0.0034647244
213	0x3b5ecf7d	0.0033998184
214	0xbd5b6760	-0.053565383
215	0x3d40ca6d	0.04706805
216	0x3d169c80	0.036770344
217	0x3cd8dff7	0.026473982
218	0x3ccc69e1	0.02495283
219	0xbc89557e	-0.016764399
220	0xbd3016cd	-0.042990495
221	0x3cec3a45	0.028836379
222	0x3bd12aba	0.006383267
223	0xbbc8c6de	-0.0061272224
224	0x3bba110f	0.005678303
225	0xbc2fb7e3	-0.010724994
226	0xba9fcb04	-0.0012191241
227	0xbc64aed3	-0.013957697
228	0xbc1d5ac4	-0.00960416
229	0xba296ec4	-0.0006463344
230	0x3c476ef6	0.012172451
231	0x3a482bbb	0.0007635911
232	0x3ce4546c	0.027872287
233	0x3ce5da9d	0.028058344
234	0xbb842cc7	-0.004033658
235	0xbca937f9	-0.020656573
236	0xbc4dc1cd	-0.012558413
237	0xbb4430ed	-0.0029936389
238	0xba44bc5a	-0.0007504873
239	0xbcb48b68	-0.02203913
240	0xbd4021e8	-0.046907336
241	0xbcbec78b	-0.023288509
242	0xbc35e357	-0.011101565
243	0xbcc39bfd	-0.023878092
244	0xbcafe087	-0.021469368
245	0xbc86b8ea	-0.016445596
246	0xbcb37124	-0.021904536
247	0xbcce7025	-0.025199959
248	0xbc7c3c2e	-0.015395207
249	0xbbebb012	-0.00719262
250	0xbce5ce22	-0.028052393
251	0xbcf3e735	-0.029773334
252	0xbc4ee300	-0.012627363
253	0x3c77faee	0.01513551
254	0x3c55f198	0.013058089
255	0xbd0bb775	-0.034110505

conv2.bias f4 [32]
0	0xbc7c979c	-0.015417006
1	0xbca0bd55	-0.01962153
2	0xbb44c730	-0.0030025952
3	0xbb98a4fb	-0.004658339
4	0x3ccb9f68	0.024856284
5	0x3c7f865b	0.015595998
6	0xbc098bfe	-0.008395193
7	0x3c0bca9c	0.008532193
8	0x3ca81ead	0.02052244
9	0xbc18ce28	-0.009326495
10	0x39a6e73c	0.0003183427
11	0xbaffc62b	-0.0019514015
12	0x3cdfb33d	0.027307147
13	0x3c87331a	0.01650386
14	0x3b1b4578	0.002369253
15	0xbc43e7ad	-0.011957091
16	0xbc738272	-0.014862644
17	0xbc9a38a4	-0.018825836
18	0x3c23b7e0	0.00999257
19	0x3cba46b4	0.022738792
20	0x3cd24946	0.025669705
21	0x3c457792	0.012052434
22	0xbc45aaee	-0.012064679
23	0xbaa5219c	-0.0012598517
24	0xbbaa0e38	-0.0051896833
25	0x3cff8e1d	0.031195695
26	0x3cafb5a3	0.021448916
27	0x3ca54914	0.020176448
28	0x3c0867bd	0.008325514
29	0xbbf8d8d3	-0.007594207
30	0xbc4c6d35	-0.012477209
31	0xba609e0e	-0.0008568474

conv3.weight f4 [1, 32, 5, 5]
0	0x3c8d71e7	0.017266227
1	0x3c924c69	0.0178587
2	0xb9ee426a	-0.0004544438
3	0x3cd60996	0.026127618
4	0x3d01146e	0.031513624
5	0xbcfda7c4	-0.030963786
6	0x3644149d	2.9218274e-06
7	0xbd166e60	-0.036726356
8	0x3ad18f5d	0.001598816
9	0x3c24265c	0.010018911
10	0xbb9fce4d	-0.004876888
11	0x3cdb7076	0.026787024
12	0x3c0d07ee	0.008607848
13	0xbd0d65c1	-0.03452087
14	0xbbc1ee5e	-0.005918308
15	0xbc9aa1f6	-0.018876057
16	0xbcf50f62	-0.029914562
17	0xba93f0bb	-0.0011286953
18	0xbd0a320c	-0.033739135
19	0x3ca696db	0.020335605
20	0x3afb42ab	0.0019169649
21	0x3c4e5f86	0.012596017
22	0x3cb69b52	0.02229086
23	0x3cf74bc1	0.03018749
24	0xbc8ca620	-0.017169058
25	0x3af1923f	0.0018430426
26	0xbd09ef63	-0.033675563
27	0x3c0462f6	0.008080235
28	0x3cd764c9	0.026293175
29	0xbcb8522e	-0.022500124
30	0x3ca60c9a	0.02026968
31	0xbc886d3e	-0.016653653
32	0x3c265217	0.010151408
33	0xbc7f8cb1	-0.015597508
34	0x3bd93641	0.006628782
35	0xbd097b11	-0.03356463
36	0x3cd7abbd	0.026327008
37	0xbc03c827	-0.0080433255
38	0x3d05c24a	0.03265599
39	0xbc4e37d9	-0.012586557
40	0x3c7b0e24	0.015323196
41	0xbc8c1526	-0.017099928
42	0xbc7a5f7c	-0.015281554
43	0xbc191213	-0.009342688
44	0x3c8b7486	0.017023336
45	0x3c6a5197	0.014301679
46	0x3ca87531	0.020563694
47	0xbbc3b9c7	-0.005973074
48	0x3b852a53	0.0040638833
49	0x3cb23e11	0.021758111
50	0xbc6267e7	-0.013818718
51	0xbc34daa8	-0.01103846
52	0x3cde0d7e	0.027106043
53	0xbcf5bb52	-0.029996548
54	0xbc8c6945	-0.01714004
55	0xbc9db45c	-0.019251041
56	0xbbe1fee6	-0.0068968413
57	0xbcd3a34a	-0.025834698
58	0x3c07fcb8	0.008299999
59	0xbcc7d19b	-0.02439194
60	0xbc79c215	-0.015244027
61	0xbd0b6c8b	-0.03403906
62	0x3cbf3c0d	0.023344064
63	0xbcb49dc3	-0.022047883
64	0xbb918dc9	-0.004441951
65	0xbca9c05b	-0.020721605
66	0xbb8faa83	-0.0043843403
67	0xbbeab97d	-0.007163225
68	0xbc3ff374	-0.011715759
69	0xba377fc5	-0.0006999935
70	0x3c780014	0.015136737
71	0x3cf01325	0.029306004
72	0x3cd36e42	0.025809411
73	0xbcd632fd	-0.02614736
74	0xbb88ddb8	-0.0041768216
75	0xbd621127	-0.05519214
76	0x3c8222bd	0.015885705
77	0x3cd0b0c7	0.025474919
78	0x395b6e13	0.00020926473
79	0x3be45ee0	0.006969318
80	0x3d30ad67	0.04313412
81	0x3d16bcae	0.036801033
82	0xbbc27443	-0.0059342696
83	0xbc8d2457	-0.017229242
84	0xb9ce21d2	-0.0003931658
85	0x3d2fd462	0.042927153
86	0x3ce2f055	0.02770249
87	0x3c6f75b1	0.014615462
88	0xbc49be2d	-0.012313408
89	0xbc18df7c	-0.009330627
90	0x3b06b2ad	0.0020553276
91	0xbcb0d12a	-0.021584112
92	0xbd81a09f	-0.06329464
93	0xbcfa12a0	-0.03052646
94	0xbb02ea23	-0.0019975982
95	0xbbe675ba	-0.007033077
96	0xbcc9a419	-0.02461438
97	0xbcc7c324	-0.024385042
98	0x3b726c6c	0.0036990894
99	0x3d16c360	0.036807418
100	0x3bc78754	0.0060891304
101	0x3bfb189a	0.007662845
102	0x3c6a41b3	0.0142978905
103	0xbb43795e	-0.002982698
104	0x3b74ed62	0.0037372936
105	0xbbface77	-0.007654007
106	0x3d0212a1	0.031756047
107	0xb949b775	-0.00019237197
108	0x3cce604d	0.025192404
109	0xbca8d6ef	-0.0206103
110	0xbce3b7f5	-0.027797678
111	0x3b90f5bd	0.0044238255
112	0xbd02fbaf	-0.031978305
113	0x3ca7ab8d	0.020467544
114	0x3ca6627a	0.02031063
115	0x3ceab4a2	0.028650586
116	0x3d021b29	0.031764183
117	0x3c37cb4d	0.011217904
118	0x3c57945d	0.013157931
119	0xbbba79d4	-0.0056907926
120	0x3d03a8fd	0.03214358
121	0x3c71e33d	0.0147636505
122	0xbc100ef6	-0.008792629
123	0xbd085425	-0.03328337
124	0x3b737098	0.0037145969
125	0x3b9ea72b	0.0048417053
126	0x3d05f339	0.03270266
127	0x3ce05103	0.02738238
128	0x3d03527a	0.032061078
129	0x3b4433e7	0.0029938163
130	0x3c2ea56b	0.010659556
131	0xbcd06d35	-0.025442699
132	0x3bedaf2a	0.007253547
133	0x3c2238c2	0.009901227
134	0xbc926bd0	-0.017873675
135	0xbc9a3abe	-0.018826839
136	0x3c4d0c78	0.01251518
137	0xbcbff105	-0.023430357
138	0xbc59d79f	-0.013296037
139	0x3ce72203	0.02821446
140	0x3cd0b8d3	0.025478756
141	0xbd052a63	-0.032511126
142	0xbd080f26	-0.03321757
143	0x3cc4b47a	0.02401184
144	0xbbdff2b2	-0.0068343515
145	0x3bd81225	0.00659396
146	0xbcb03e99	-0.021514224
147	0xbc56e4a4	-0.013116036
148	0x3ce5782f	0.02801141
149	0xbcbdbea2	-0.02316219
150	0x3c4ef205	0.012630944
151	0x3ab7d496	0.0014025148
152	0x3c3bcdd6	0.011462649
153	0x3af54ed1	0.0018715506
154	0xbbe1eba0	-0.0068945438
155	0x3c522efd	0.012828586
156	0x3c2086ed	0.009797794
157	0xbb449d22	-0.0030000885
158	0x3cc62772	0.02418873
159	0x3d03eaad	0.032206226
160	0x3c98ff4a	0.018676419
161	0xbc26bd90	-0.010177031
162	0xbcd56aae	-0.026051845
163	0xbcc76be6	-0.024343442
164	0xbc8e0d10	-0.017340213
165	0xbb4c8f8b	-0.0031213488
166	0x3c940ef8	0.018073544
167	0x3c1e7f2a	0.009673873
168	0x3d00e00f	0.03146368
169	0xbd0eae5d	-0.034834255
170	0xbca6ca65	-0.020360181
171	0x3d04999f	0.032373067
172	0xbccc64ec	-0.024950467
173	0x3cbc4501	0.022982122
174	0x3a8768e6	0.0010330945
175	0xbb819dae	-0.0039555645
176	0x3cce15ec	0.025156938
177	0x3ce0c123	0.027435845
178	0xbc6acc1c	-0.01433089
179	0xbb00c96e	-0.0019651311
180	0x3d081808	0.033226043
181	0x3cf2ade3	0.029623931
182	0x3c6bd11a	0.014393115
183	0xbcad8487	-0.021181358
184	0xbcc1f6de	-0.023677286
185	0x3cd13699	0.02553873
186	0x3ca819ed	0.020520175
187	0xbb71dc64	-0.0036905045
188	0x3d0cf10c	0.034409568
189	0x3ccc8c5d	0.024969274
190	0xbbfb6e23	-0.0076730414
191	0x3c7dca83	0.015490177
192	0x3d0d3759	0.03447661
193	0x3ca90a77	0.020634873
194	0xbc8ba4c5	-0.017046342
195	0xbd088c9d	-0.033337224
196	0x3c30bb62	0.010786863
197	0x3c592df9	0.01325559
198	0xbd0e65cf	-0.03476506
199	0x3bad3bde	0.0052866777
200	0xbc568243	-0.01309258
201	0x3b862b6c	0.0040945318
202	0xbcdd2239	-0.026993858
203	0xbc7813bf	-0.015141427
204	0x3d2a93c5	0.04164483
205	0x3c68fb88	0.014220126
206	0xbc84f808	-0.016231552
207	0xbd49ac75	-0.049236733
208	0x3a1ffd5b	0.00061031216
209	0x3af7c35b	0.0018902825
210	0xbc432fa4	-0.011913214
211	0x3ccd6bbe	0.02507579
212	0x3d4e3896	0.050346933
213	0xbccd0605	-0.025027284
214	0x3b5c4357	0.0033609474
215	0xbd1f3f66	-0.03887882
216	0x3d81735e	0.06320833
217	0x3d7ce328	0.06174007
218	0xbd031840	-0.03200555
219	0xbcebe028	-0.02879341
220	0xbc151efe	-0.009101627
221	0xbc8d38f9	-0.01723908
222	0x3d0857d7	0.033286896
223	0xba9389c2	-0.0011256265
224	0xbc9b0732	-0.01892433
225	0x3d0d0c6e	0.034435682
226	0xbc54d55f	-0.012990325
227	0x3c76afe5	0.015056585
228	0x3cb54a58	0.022130176
229	0x3c394a25	0.011309181
230	0x3d0946dd	0.033514846
231	0xbccadcc1	-0.024763467
232	0x3b688778	0.0035481136
233	0xba882394	-0.001038658
234	0x3c89a684	0.016803034
235	0xbc791075	-0.015201678
236	0xbcadd65a	-0.021220375
237	0xbce27156	-0.027641933
238	0x3cc62239	0.02418624
239	0x3c2abcb4	0.010420967
240	0xbd094229	-0.03351036
241	0xbb1c2692	-0.00238267
242	0xbcf4d3f7	-0.029886229
243	0xbcf6ac20	-0.030111372
244	0x3cb41499	0.021982478
245	0xbc963d47	-0.018339766
246	0x3caa6751	0.020801218
247	0x3d05fd8f	0.032712515
248	0x3ba02602	0.0048873434
249	0x3c769ebd	0.015052495
250	0xbcfcffff	-0.030883787
251	0xbc7739f7	-0.0150895035
252	0xbaff27fe	-0.0019466875
253	0x3bf78877	0.0075541097
254	0x3c6a2ce5	0.01429293
255	0x3c9c2467	0.019060327
