Lecture8_Image restoration (HuStar_4)/outputs/x3/epoch_12.pth (torch, 231589 bytes, 5 tensors)

conv1.weight f4 [64, 1, 9, 9]
00000000: 9d02 0dbd 201d d73b fa1b 5cbd 2185 3f3d
00000010: 2039 b4bd 926c bb3d e305 93bd f27c a5bd
00000020: a9e6 88bd f6dd 4e3d 8ac9 37bd 70fd 223d
00000030: bb75 bbbd 02c8 7cbd c129 07bd 67c2 83bc
00000040: 5b22 a2bd 2d3e 963d bf70 e8bc 711f 073d
00000050: 1a30 a23d 2bbf e33c 70b9 2e3d ed75 f63d
00000060: c8b1 2dbd 7b19 293d 74eb 48bd ca59 953d
00000070: d3fd a73d ac89 d4bd ffd1 dc3d da6a 983d
00000080: ad18 8a3d a19a 5a3d 7769 c03d c242 9abc
00000090: bc80 cebd 36ac 22bd 7fd0 9dbd 5f24 f03c
000000a0: b933 113c 3047 0fbd 975c 6eba 8e95 d83d
000000b0: 480f 6dbc e2fb c7bb 5d5c e6bc 7c33 833c
000000c0: f8a5 e63d 24bc a53d bd53 3e3d 738b ae3c
000000d0: 3ba4 b03c 05b1 073d 0c68 87bc c248 e5bd
000000e0: cca8 90bd c500 cf3d c41e fa3b 5f2c bfbd
000000f0: ae7f 373c a766 bc3d 7159 debd 3447 86bd
00000100: 2e19 3cbd 9902 303b 4ce3 d4bc 9825 9bbc
00000110: 7fb6 edbd 5ea7 443d 3499 da3d c9c5 923d
00000120: b974 5ebd 6c32 a9bd 58ce 323d b2fe 46bb
00000130: 9244 1a3d 114e e8bd 3e46 90bb 4f88 c13d
00000140: 7e1a 6d3d c55f babb 015b da3b 10b3 b8bc
00000150: 08c4 97bd 5294 51bd dcfc 96bd 2ed0 b73d
00000160: 440e 5e3d 4144 073d 1c06 c2bd 02e5 973d
00000170: 4487 eb3c f148 903d 38e9 3fbd d8e7 bf3c
00000180: 6c3b e83d ba65 9c3d 183c b83d f65b 1bbd
00000190: 9164 8d3d 5782 c1bd df83 cd3b 6c0e 7dbd
000001a0: 70c3 d6bc a55f e0bc ca97 873b 114a c23d
000001b0: 3dbc 1a3d 8984 7cbc 33cb 9c3d dec2 51bd
000001c0: b7ab 873d d300 27bc fbc8 afbc de37 923b
000001d0: f727 c4bd 1359 d3ba 37bf d03c 12fa c33d
000001e0: 4926 dcbc bff3 433d e372 db3d 0cb3 62bd
000001f0: 313c bf3d 4667 8dbd e500 1c3d 95c1 063d
00000200: d09e ec3c 259f b03d d561 43bd fed9 8f3c
00000210: ccc7 34bc c585 c6bd bc45 2ebd 5073 acbd
00000220: a17d 193d a5ff ad3b c80e 813b b9c7 31bd
00000230: a0c5 6ebc b93d 37bd 8b4e bf3c 4157 c53d
00000240: 99bb 653c f532 5fbd 2036 8bbd 8f46 b23b
00000250: d859 b3bd b974 babd e9aa 99bd e8e7 19bd
00000260: d5db 8d3b 9a18 a93d 2f9b 423d b342 c83d
00000270: 313d 68bd 384a b83c 51b8 b2bd 47b8 9c3d
00000280: f867 093d 8b2c df3d c59f 92bd 457e cf3d
00000290: e3a7 ec3d d907 f03d 48d4 383d 9e28 023e
000002a0: 608b c83d fcd3 cd3d a57d 1d3a 690a abbd
000002b0: 3da0 783b a9ae 043d f45f 7bbd 8bc3 44bd
000002c0: d186 bcbd c5da b7bc ddf4 e43d 7c25 d43c
000002d0: 7352 38bb 907b 4d3c 795c a53d 9bbd b0bd
000002e0: f514 99bd bdde e5bc dc15 4fbd 3a3e 983d
000002f0: 7770 b93d 2f06 cbbd 02b5 a2bd a8cc b6bd
00000300: 1507 743d 9623 d43d b952 9ebd e47f 1cbd
00000310: 8e26 643d c1c2 5ebd def6 d63d bf86 323d
00000320: eb92 04bc 098c fb3c ceff 553d 569e fbbc
00000330: 82d5 99bd 551b a63c a473 ac3c ab24 b13b
00000340: bfcd 0bbc a992 b63d d443 36bc 095c 683b
00000350: 5ad9 4f3d b40d 86bd d7f8 243d ebec 7fbc
00000360: c159 483d 5a2a 90bd ab26 dd3b 28b5 943c
00000370: 3bd5 b0bd c148 aebd 03a1 163d 1c91 0ebd
00000380: dda8 7e3d 8018 d1bd 89d6 6dbd d111 b0bd
00000390: 5035 573d 8403 d73b 24cd 83bc 17fc 8ebc
000003a0: a4ae adbd 7bf1 ff3c a14f bc3c 9f9c 8bbd
000003b0: 82f6 653d ee20 523c 7560 b3bd 427d 9a3d
000003c0: 738b 913d b28c 2cbc 86b0 8dbd 344c 853b
000003d0: 6627 aa3d 449e cd3d 6ed0 afbd 2d69 53bd
000003e0: 4903 af3d d58a 593d d763 893d d95a 69bd
000003f0: cdc1 c23d d7a1 bcbd a202 d5bb 5aa8 cf36
-0.03442632 0.0065647513 -0.053737618 0.04675782 -0.08799958 0.091515675 -0.07178857 -0.08080472
-0.0668462 0.050504647 -0.044869937 0.039792478 -0.09153315 -0.06171418 -0.032998804 -0.01608391
-0.07916709 0.07336078 -0.028374074 0.03298897 0.07919331 0.027801117 0.042657316 0.12034211
-0.042405874 0.041284066 -0.04905267 0.072925165 0.0820271 -0.10377821 0.10782241 0.07442255
0.06742988 0.053370122 0.09395116 -0.01883066 -0.10083148 -0.039715014 -0.07705783 0.029314218
0.008862429 -0.03498 -0.00090927765 0.105754 -0.014468975 -0.006103025 -0.028120214 0.01601576
0.11262125 0.080925256 0.046466578 0.021306729 0.021562686 0.033127803 -0.016529106 -0.11195518
-0.070634454 0.10107569 0.007633062 -0.09334635 0.011199875 0.09199267 -0.10856903 -0.0655655
-0.04592245 0.0026857017 -0.02598729 -0.018938825 -0.11607074 0.048011176 0.106737524 0.07166631
-0.054310534 -0.0826157 0.043653816 -0.0030364213 0.03766305 -0.11343015 -0.004402905 0.09449827
0.057886593 -0.005687686 0.0066636805 -0.022546321 -0.07410437 -0.05116684 -0.07372448 0.08975254
0.054212824 0.033024076 -0.094738215 0.07416727 0.028751023 0.070451625 -0.046853274 0.023425981
0.11339459 0.0763659 0.08995837 -0.037929498 0.06903947 -0.094486885 0.006271824 -0.061781332
-0.026216239 -0.027389357 0.0041379677 0.09486783 0.037777174 -0.015412458 0.07655945 -0.05121123
0.06624549 -0.010193068 -0.02145814 0.0044622263 -0.09577935 -0.0016124569 0.025481803 0.095691815
-0.026873725 0.047839876 0.10715272 -0.055346534 0.093376525 -0.069044635 0.03808679 0.032899458
0.028884321 0.086241044 -0.04770072 0.017560001 -0.011033963 -0.09693483 -0.042546973 -0.084204316
0.037473325 0.005310016 0.0039385296 -0.04340336 -0.014573485 -0.044736598 0.023352882 0.09635783
0.014021778 -0.054491956 -0.06797433 0.00544054 -0.08757371 -0.09104294 -0.07503302 -0.03757468
0.0043291845 0.082566455 0.047511276 0.09778347 -0.05669898 0.022496328 -0.08726562 0.076523356
0.033546418 0.10897168 -0.0715938 0.10131506 0.11555459 0.11720247 0.045124322 0.12710807
0.09792209 0.100501984 0.0006007797 -0.08351595 0.0037937306 0.03239313 -0.061370805 -0.048038047
-0.09205402 -0.022443185 0.111795165 0.02589678 -0.0028125315 0.012541667 0.080742784 -0.086299144
-0.074747 -0.028060311 -0.050557956 0.07433744 0.09054654 -0.09913289 -0.07944681 -0.08925754
0.059577066 0.1035835 -0.07730622 -0.038207904 0.05570083 -0.05438495 0.10496305 0.043585535
-0.008091669 0.030706422 0.052245907 -0.030715149 -0.075114265 0.020276705 0.021051235 0.0054059825
-0.00853294 0.08914692 -0.01112457 0.0035455248 0.050744392 -0.065455824 0.040276375 -0.0156204505
0.04891372 -0.07039328 0.0067489943 0.018152788 -0.086344205 -0.085099705 0.036774646 -0.034806356
0.06217276 -0.10209751 -0.058065925 -0.08597148 0.052541077 0.0065616984 -0.01608903 -0.01745419
-0.08480576 0.031243077 0.022987189 -0.068169825 0.05614329 0.012825234 -0.08758632 0.07543422
0.07106676 -0.010531591 -0.06918435 0.004067922 0.08308296 0.100399524 -0.08584677 -0.051613975
0.085455485 0.053110916 0.06708496 -0.056971405 0.09509621 -0.09210556 -0.006500558 6.1886794e-06

conv1.bias f4 [64]
00000000: 113a d6bc d8d5 bdbd 3cc0 433c 376e 86bd
00000010: 644e 1f3d 5146 9bbb 9686 6d3d 942e e73a
00000020: a27f 023e e32f 4fbd f241 0c3c 2506 883c
00000030: 777f c9bd d074 cf3d 2de6 913d fffe 683d
00000040: bddd 0cbd 3087 76bd 25ed 583d 446d 023d
00000050: d191 7e3c 0cf0 943b 9f91 96bd 3c71 943d
00000060: c684 8abd 021b 9a3d 1864 a83a 0985 80bc
00000070: 95ad f83c 3a57 793d 27a5 bd3d 98b5 2fbc
00000080: 8865 473d dfa3 7b3d 68d8 cb3b 047b cbbd
00000090: 9b5d e9bc e9f3 b03d 0b52 6b3c 45b6 483d
000000a0: 8a5f 97bc 978e 0abb 9e73 c73d 19bf 48bc
000000b0: b641 1e3d 082d 343c c7ff c2bc 2026 7ebc
000000c0: 386c 30bd 413b e2bc 4e71 bbbc 9a7b 593d
000000d0: 439d 103d 5c60 30bb f820 c63a 46b4 863b
000000e0: b036 ba3d 3941 47bd c1ea 89bb 25e7 8b3d
000000f0: 3a01 973d 5570 e3bc 0419 98bd 2c15 a4bd
-0.026150735 -0.09269303 0.011947688 -0.065639906 0.03889312 -0.004738607 0.05798968 0.0017637783
0.12744 -0.050582778 0.008560644 0.016604492 -0.09838765 0.10129702 0.07123981 0.05688381
-0.034391154 -0.06018752 0.052960534 0.031842485 0.015537695 0.0045452174 -0.07351994 0.0724816
-0.06763606 0.075246826 0.0012847213 -0.015688436 0.030356208 0.0608742 0.09260016 -0.010724448
0.048680812 0.061435577 0.006220866 -0.09935573 -0.028487017 0.08640272 0.014362822 0.04900195
-0.018478174 -0.002114212 0.09738849 -0.0122525925 0.038636886 0.010997064 -0.023803605 -0.015512019
-0.043071955 -0.027616145 -0.022881176 0.05309639 0.035306226 -0.0026912903 0.0015116027 0.0041108457
0.09092462 -0.048646186 -0.004208893 0.06831197 0.07373281 -0.027763525 -0.07426646 -0.08011851

conv2.weight f4 [32, 64, 5, 5]
00000000: b862 05b9 6571 463b ed2c f8ba bd0e dcbb
00000010: f5da 40bd 7a85 913b 97b3 0fbc 79b0 b3bc
00000020: 26f4 a3bc 9cce bebc b3af 533c 17da 57bc
00000030: 46ae 4dbb d223 a6bc 4c44 243c 49fe f4bb
00000040: d37b 1c3c bb4f cd3b bb2a 46b8 dd67 b83c
00000050: 1de4 803c 886e 8a3c 5114 9cbc b406 6d3c
00000060: 29f8 5dbc 8b01 bebc 657c 203c ab3b 443c
00000070: 30ca 45bc 0b55 b1bc fe96 fdbb ee91 e53c
00000080: e0e3 e13c abf6 a63c d697 33bb 336b 083c
00000090: c994 20bc 03dc 9b3c 627c 8f3c 02c3 d03c
000000a0: 4b29 4abc d2f8 e1bb ac31 90bc 334c fa3b
000000b0: 62e3 703b a5b1 f9bc 4a1f 133c 101c 0f3c
000000c0: 1d6a 843c beec 603c 0ee6 48bd 297d 2cbd
000000d0: e809 b1bd af40 a0bd 4562 ccbd b12e dcbc
000000e0: 96e2 80ba 9629 9139 f56c 2f3c f6b5 91bc
000000f0: e3a9 983b 6a05 e5bb 4335 7abc 1d56 663c
00000100: 5d30 f239 ea83 09bc af1c ba3c e015 163d
00000110: 6398 003d 70d2 ad3b eb4c 253c 024a 503c
00000120: 4271 193c c89d e73b 24ba c9bb 97a4 593c
00000130: 9a11 1ebc 12cd 29bc 12cd 8cbc 5870 6dbc
00000140: c467 6839 f379 b53c 1659 5cbc 3a71 93bc
00000150: d487 993c b41d 383c 98ea 073c 368d 8abc
00000160: f6c5 b93c 6d80 283c 51d6 e03a 4edb b63c
00000170: 4d17 0e3c 069c 8a3c 9347 c3bb f873 953c
00000180: 9f50 ecbb 281d 0c3c bac2 83bc 8ee8 8bbc
00000190: 7d27 bebc d4e4 8cbc f258 843c c6c6 b93c
000001a0: dc97 183c 95cf 8fbb 8b54 9339 65e3 253c
000001b0: fc6c f23c 4392 6b3c 964d 90bc a7e6 68bc
000001c0: 366e de3c 77ff d23c 4e75 c1bc 5f92 aabc
000001d0: c658 2e3c 9a98 7abc c429 c43c 0774 863c
000001e0: ca08 5abc b9b5 613b a449 3ebc 03c6 e2bc
000001f0: efe7 943b c1eb 0c3c e5c1 3fbb 94f9 c83c
00000200: 54a1 1fbd d2dc bb3c 8629 47bd b3dc 51bb
00000210: 9116 0dbc 98e9 0a3b aca8 693c b684 57bc
00000220: fcd2 2e3b 22ac d23c aa2e fa3b 06c6 083c
00000230: e634 ed3c 712a 113d 4c61 ee3c bf73 a03c
00000240: 0428 103d a152 96bc fed7 cebb 887d fb3c
00000250: a5b4 02bc 2698 d6bc 8ea3 83bc 94e3 65bb
00000260: 22ae 72bc e116 cf3c 4eab d4bc 4b2a a73c
00000270: d59d 693c bf5a 9cbc 5f21 3fbc 5d4f bd3c
00000280: d903 dbbb 0444 9fbc 6a27 243b 924f 34bb
00000290: 03b6 5139 7b72 0d3c 6167 aabc 2f0a 5cbc
000002a0: 3b72 5bba a7e9 a83c bfbb 95bc 78ed 23bc
000002b0: 8783 763c c426 bf3c 3459 fd3a e3bd 6b3c
000002c0: ce6d 263d 935f b23c e0ab a23c 92ee 423d
000002d0: 3b1c 8dbb 50a7 cabc 716c 253d 2266 c33c
000002e0: b4bd af3b 7697 97bc f9a4 8dbc 24c4 adbc
000002f0: a4a8 7b3b da41 a83c 2f6f e3bb 77f3 42bc
00000300: a08c 0cbd 9918 37bc 0700 633c d9a1 78bb
00000310: 1178 8e3c d273 263b 7a2f 08bd cafc 8abc
00000320: 5ac1 a5bd f5e9 cebc 4bde 5dbc cff0 c1ba
00000330: 9b1c acbb e12b b83a 0d33 22bc 92dd d4bb
00000340: 1aa7 ccba 451a a8bc da79 133c 7201 853a
00000350: 6360 52ba 0625 d23b bd6c 26bd 2f04 bf3c
00000360: 891d 2a3d 7b6d 013d 1427 973c dccf eabb
00000370: 20cf 73bd ab93 993c 8188 053c c9d2 73bc
00000380: 0a08 163c 6db6 3abb 18d8 113c 8f8a 85bb
00000390: 25f2 0fbc 05dc cc39 f9ba 763c 7a53 f93b
000003a0: ab82 ec3c ad53 cb3c e496 c4bb 4532 c7bb
000003b0: 37ba c4b9 f5cb c83a c46c d2bb 266d eabc
000003c0: 665c f0bc d752 14bc ac0c 22bb 6c79 cabc
000003d0: f89b 7fbc c31b c93b 9365 bebb b9df 0cbc
000003e0: ee36 b3bb 5365 8d3b d1fd f3bc b5c1 97bc
000003f0: adc5 6ebb a0b9 f33b 4583 233c baa0 1bbd
-0.00012720644 0.003027999 -0.0018934287 -0.006715624 -0.047083814 0.0044409605 -0.008770845 -0.021934735
-0.02001388 -0.023291878 0.012920308 -0.013174555 -0.0031384393 -0.020280752 0.010026049 -0.007476602
0.009551006 0.006265608 -4.7246675e-05 0.022510463 0.015733773 0.016898409 -0.019052656 0.01446693
-0.0135479355 -0.023194095 0.009795283 0.011977117 -0.012072131 -0.021646997 -0.007738947 0.028023686
0.02757448 0.020381292 -0.0027403734 0.00832634 -0.009801098 0.019025808 0.017515365 0.025483612
-0.012338947 -0.006896117 -0.01760181 0.007638478 0.0036756624 -0.030480215 0.008979628 0.008734718
0.01616388 0.013728319 -0.049047522 -0.04211155 -0.086444676 -0.078248374 -0.09979681 -0.026877733
-0.0009833153 0.0002768754 0.01070713 -0.017786961 0.004658924 -0.006989171 -0.015271488 0.014058617
0.0004619387 -0.008393267 0.022718756 0.036641955 0.031395327 0.005304627 0.010089139 0.012712957
0.009365382 0.0070683695 -0.006156223 0.01328387 -0.009647751 -0.010363834 -0.017187629 -0.014492117
0.000221639 0.022152876 -0.013448974 -0.017998327 0.018741526 0.0112375505 0.008295678 -0.016913038
0.022677403 0.010284525 0.0017153715 0.02232137 0.0086725475 0.0169201 -0.00595946 0.018243775
-0.007211759 0.008551873 -0.016084064 -0.017078664 -0.023212189 -0.017198958 0.016155694 0.02267779
0.00931355 -0.0043887594 0.00028101014 0.010125016 0.029592983 0.014378133 -0.01761512 -0.014215148
0.027152162 0.02575658 -0.023615506 -0.020821748 0.010641282 -0.015295172 0.023945697 0.016412748
-0.01330776 0.003444059 -0.011614237 -0.02768231 0.00454425 0.00860113 -0.0029259857 0.02453307
-0.038972214 0.022932444 -0.048623584 -0.0032022416 -0.008611337 0.0021196362 0.014261406 -0.013154199
0.002667605 0.025716845 0.0076349573 0.008347994 0.028955888 0.035440866 0.02909913 0.019586442
0.035194412 -0.018349947 -0.0063123694 0.030699506 -0.007977639 -0.026195597 -0.0160692 -0.0035078274
-0.014812024 0.025279464 -0.02596059 0.020405909 0.0142588215 -0.01908624 -0.011665671 0.023109132
-0.0066838083 -0.019441612 0.0025047907 -0.0027513248 0.00019999598 0.008633251 -0.020801248 -0.013430162
-0.00083712087 0.020619227 -0.018278 -0.010005347 0.015046007 0.023333915 0.0019328953 0.014388534
0.04063206 0.021774089 0.019857347 0.0475908 -0.004306344 -0.024737984 0.04038662 0.023852412
0.0053631905 -0.01850484 -0.01729058 -0.021211691 0.0038400078 0.020539213 -0.0069407444 -0.011898867
-0.034313798 -0.011175298 0.013854987 -0.0037938266 0.017391236 0.0025398624 -0.033248402 -0.016966242
-0.080935195 -0.025258044 -0.013541768 -0.0014796498 -0.0052524335 0.0014051163 -0.009899867 -0.00649614
-0.0015613765 -0.020520339 0.00900122 0.0010147525 -0.0008025227 0.006413105 -0.040631045 0.023317425
0.041532073 0.03159855 0.018451251 -0.007165892 -0.0595237 0.018747171 0.008150221 -0.014881798
0.00915719 -0.0028490082 0.008901618 -0.0040753554 -0.008785759 0.0003907384 0.015059226 0.007608828
0.028870901 0.024820173 -0.005999433 -0.0060789906 -0.00037522774 0.0015319573 -0.0064216573 -0.0286165
-0.029340934 -0.009052954 -0.0024726791 -0.024716102 -0.015601151 0.0061373427 -0.0058104484 -0.0085982615
-0.0054691946 0.0043150573 -0.029784115 -0.018524984 -0.0036433742 0.0074378997 0.009980028 -0.037995078

conv2.bias f4 [32]
00000000: eaf8 33bc 6318 bfbc 30c7 44bb c266 523c
00000010: 0ec4 d23c f1f2 9e3c b34a 42bc 23be dc3b
00000020: 87bf 343c 2ab6 2abc 3ce7 a639 44e0 f73b
00000030: c481 d13c 38de 693c b337 c2bb e2be 11bc
00000040: a88f 66bc 242b 99bc bd40 6b3c 34d5 b43c
00000050: 008f db3c 7d10 a63b 3eb2 e8bb 7fe7 b83a
00000060: 2e10 323c 4c04 b13c 53d0 823c 2a2e 9d3c
00000070: 7331 073c 98f9 9ebc 71bc bdba f5ae 3dbb
-0.010984639 -0.023327058 -0.0030025952 0.012841882 0.025728252 0.019402953 -0.01185863 0.0067365333
0.011031992 -0.010419408 0.0003183427 0.0075645763 0.025574572 0.0142741725 -0.00592705 -0.008895608
-0.014072336 -0.018697329 0.0143586965 0.02207432 0.026801586 0.0050678835 -0.0071013262 0.0014107077
0.010868115 0.021608494 0.015968477 0.019187052 0.008251536 -0.019406125 -0.0014475716 -0.0028943394

conv3.weight f4 [1, 32, 5, 5]
00000000: 21d6 963c 0d86 943c 6657 d9ba ca35 ca3c
00000010: 7e5e fa3c c44b f6bc ecac 9d3a 663e 0dbd
00000020: 583f 713b 2748 273c c983 43bb e303 e53c
00000030: 5ace 433c 37f1 f8bc 09f8 56bb 2f07 86bc
00000040: ce89 ebbc b332 17b9 9429 04bd 76cd bb3c
00000050: bba5 793b e011 4d3c 5d4d a53c 7421 e53c
00000060: c515 90bc 1178 163b a85c 08bd 6172 053c
00000070: 28c3 d83c 6307 b6bc 5652 a93c 0c85 86bc
00000080: dbac 263c fd71 7bbc 44d5 df3b d75b 08bd
00000090: ae99 d83c d809 03bc 77bf 063d 3ea4 4cbc
000000a0: a895 7f3c a744 89bc 0d6b 71bc bf70 0fbc
000000b0: e574 8c3c 2ef0 6b3c 644e a93c 03f4 b6bb
000000c0: cd54 963b a0f7 b33c e767 62bc a8da 34bc
000000d0: 7e0d de3c 52bb f5bc 4569 8cbc 5cb4 9dbc
000000e0: e6fe e1bb 4aa3 d3bc b8fc 073c 9bd1 c7bc
000000f0: 15c2 79bc 8b6c 0bbd 0d3c bf3c c39d b4bc
00000100: c98d 91bb 5bc0 a9bc 83aa 8fbb 7db9 eabb
00000110: 74f3 3fbc c57f 37ba 1400 783c 2513 f03c
00000120: 426e d33c fd32 d6bc b8dd 88bb c4cd 14bd
00000130: f2be 923c 68a1 db3c 0b3f fb3b 71b7 2f3c
00000140: c792 263d c5db 053c a631 cabc 2917 9ebc
00000150: 67be 3ebc cf83 f03c b8d7 393c f831 de3c
00000160: e5b4 273c 7762 6bbc b5d2 e4bb a57b 81bc
00000170: a69b 2ebd f1fb 81bc 9faa 4abc 2ebc fdbb
00000180: 7fd9 51bc 8748 93bc 2352 29bc 120a 8a3c
00000190: 7584 d03b 0a5c fe3b c9ab 6b3c 5f62 3bbb
000001a0: b398 7a3b 1919 e9bb 7c16 033d 9a6a 3cb7
000001b0: 7a81 cf3c c45b a9bc 7cde e0bc c1f5 973b
000001c0: 7512 02bd 8cbf a93c 7544 a73c 7461 ed3c
000001d0: f2ad 033d adba 3c3c 5e85 5d3c f223 adbb
000001e0: 4cb7 043d b1df 773c eb6a 0abc 9cf4 05bd
000001f0: 3454 8e3b db3c 893b 1f47 ea3c f108 b83c
00000200: 2318 003d 7f4b 7b3b 2d50 333c ca96 dbbc
00000210: 3b74 cc3b cadb 203c 16a1 98bc e776 89bc
00000220: e661 8f3c 07f2 8fbc d6a2 23bc 7fe4 e63c
00000230: 5426 f03c c736 d9bc 279d eabc 70ef d43c
00000240: fdbc 04bc 585d a83b ddf8 adbc bbd5 5cbc
00000250: f14e ea3c 8c41 b4bc 3ac4 533c c6e1 c83a
00000260: f78f 3a3c 105a fe3a 5729 e6bb d560 563c
00000270: 7e55 253c 3d0e 3ebb c608 c53c 412d 023d
00000280: 9958 993c 87a5 22bc c4e0 d2bc 463b c6bc
00000290: 7088 8fbc ced2 3bbb 54b7 953c af3e 213c
000002a0: 6ec3 013d a299 0cbd 18b9 a2bc 766a 053d
000002b0: 8516 ccbc 8e47 bc3c fdb3 ad3a 0c95 72bb
000002c0: d326 cf3c 2bf3 e03c 1bc0 69bc 0e26 e3ba
000002d0: aca5 083d 493d f33c a90d 6b3c 5620 aebc
000002e0: 6db0 c1bc db7c d23c a895 a83c 6bdb 7cbb
000002f0: 5963 0c3d 075d cc3c e1d6 f4bb 847b 803c
00000300: 9e4f 0d3d 9814 a93c 6ee2 8abc b5c6 07bd
00000310: 78f1 333c 2909 5b3c b60c 0ebd 1b51 b33b
00000320: 23fb 95bc 675d 5a3c 8d6b a3bc cef5 c8bc
00000330: 0bea 193d e7ff ae3c bcdc 60bc 10a3 e9bc
00000340: d2dc ac3c fa07 96bc 9a95 45bc 6c1a 0ebc
00000350: 63c9 ab3c 0078 90bb 71a5 513c 4b64 a4bc
00000360: 0dd7 143d 1d05 8f3c 14ff c5bc b601 cfbc
00000370: 1add a03c 6689 4dbc 7bcf 8d3c c040 1a3b
00000380: a007 87bc e43d 0e3d 9121 4ebc b85c 793c
00000390: 946c b83c a2cd 413c 62f3 0b3d 976c c3bc
000003a0: 8455 823b e86f 06ba 8675 8f3c 9af7 6fbc
000003b0: a0d0 a9bc c233 debc 3430 c93c f289 293c
000003c0: 0d60 06bd a6be 05bb 5d4b eebc 90c0 efbc
000003d0: 795b b63c 23f6 8fbc 1be0 ad3c f585 073d
000003e0: 7ff4 ac3b 0d1c 803c ffff fcbc f739 77bc
000003f0: fe27 ffba 7788 f73b e52c 6a3c 6724 9c3c
0.018412651 0.018130327 -0.0016581833 0.024683852 0.030562636 -0.030065425 0.0012029684 -0.034483336
0.0036811437 0.010210074 -0.0029833189 0.027955955 0.0119510535 -0.030388458 -0.003280165 -0.016360847
-0.028752234 -0.00014419369 -0.032266214 0.02292512 0.0038093168 0.012516469 0.020178491 0.027970053
-0.017588506 0.0022959749 -0.03329149 0.008144946 0.026460245 -0.02222032 0.020669144 -0.016420864
0.010173048 -0.015347001 0.006830843 -0.03329071 0.026440468 -0.007997952 0.03289744 -0.01249033
0.015599646 -0.016756369 -0.014734996 -0.008754908 0.017145583 0.014400525 0.020667262 -0.0055832877
0.0045877458 0.021968663 -0.013818718 -0.01103846 0.027106043 -0.029996548 -0.01714004 -0.019251041
-0.0068968413 -0.025834698 0.008299999 -0.02439194 -0.015244027 -0.03403906 0.023344064 -0.022047883
-0.004441951 -0.020721605 -0.0043843403 -0.007163225 -0.011715759 -0.0006999935 0.015136737 0.029306004
0.025809411 -0.02614736 -0.0041768216 -0.036329046 0.017913315 0.026810363 0.0076674274 0.010724888
0.04066732 0.008170073 -0.024681877 -0.019298153 -0.011642075 0.029359726 0.011342935 0.027123436
0.010236 -0.014366738 -0.006983126 -0.015806029 -0.042628907 -0.015867205 -0.012369781 -0.00774338
-0.012808203 -0.01797892 -0.010334524 0.016850505 0.0063634464 0.0077624368 0.0143842185 -0.002859257
0.0038237988 -0.0071135876 0.032003865 -1.1230493e-05 0.025330294 -0.02067364 -0.027449839 0.0046374504
-0.031755883 0.02072122 0.020418385 0.028977133 0.03214831 0.011519116 0.013520567 -0.005283826
0.032401368 0.015129016 -0.008448343 -0.03270398 0.004343534 0.0041881627 0.028598366 0.022465201
0.03127302 0.003834456 0.010944408 -0.0268053 0.0062394417 0.009818027 -0.0186315 -0.01678033
0.017502736 -0.017571462 -0.009987554 0.028185127 0.029315151 -0.026515378 -0.02863939 0.025993079
-0.008101699 0.0051380806 -0.021236831 -0.013478692 0.028602095 -0.022003911 0.012925202 0.0015326075
0.011386863 0.0019405503 -0.007023971 0.01308461 0.010091184 -0.0029000186 0.024052035 0.03178144
0.018719004 -0.00992716 -0.025741942 -0.024198186 -0.017521113 -0.0028659585 0.018275894 0.009841605
0.031680517 -0.034326203 -0.01986365 0.032572232 -0.024913082 0.022983339 0.0013252493 -0.0037015108
0.025287068 0.027459702 -0.014266993 -0.0017330067 0.033361122 0.029692309 0.014346519 -0.021255653
-0.023643697 0.025694301 0.020579174 -0.0038582932 0.034274433 0.024946703 -0.0074719046 0.015683897
0.034499757 0.020639703 -0.016953673 -0.033148486 0.010982864 0.013368883 -0.03468009 0.005472315
-0.018308228 0.013327933 -0.019948745 -0.024531271 0.037576716 0.021362258 -0.013724502 -0.028520137
0.02110139 -0.01831435 -0.012059594 -0.008673292 0.020970052 -0.0044088364 0.012795792 -0.020067355
0.0363379 0.017458493 -0.024169482 -0.02526937 0.01963668 -0.012544965 0.017310848 0.002353713
-0.016483128 0.034726992 -0.012581245 0.01521986 0.022512712 0.011828812 0.034167655 -0.02385549
0.0039774794 -0.00051283697 0.017512094 -0.014646435 -0.020729363 -0.02712429 0.024559118 0.01034783
-0.032806445 -0.0020407825 -0.02908867 -0.029266626 0.022260414 -0.017573422 0.021225026 0.033086736
0.0052781696 0.015638376 -0.030883787 -0.0150895035 -0.0019466875 0.0075541097 0.01429293 0.019060327
