Lecture8_Image restoration (HuStar_4)/outputs/x3/epoch_30.pth (torch, 231589 bytes, 5 tensors)

conv1.weight f4 [64, 1, 9, 9]
00000000: 8bc2 1a3b e30c a43c 6ba6 42bd 38fa 6a3d
00000010: 094d a6bd d56c c13d b7e7 8ebd 98ae a2bd
00000020: 4989 4ebd 7a65 8b3d fe42 46bd 2df6 083d
00000030: c9c4 c8bd e120 95bd 1704 36bd 1acb e7bc
00000040: 1e3d c8bd 3905 863d 975a 80bc 1f9a db3c
00000050: f77b 973d 383e d53c deda 303d a1ec f73d
00000060: 7eb0 44bd 2486 b93c 9507 88bd 9cab 823d
00000070: 1bb3 693d 96ee f4bd 98b3 e13d 3cdc b93d
00000080: e96c ae3d b411 7a3d a124 aa3d 5218 16bd
00000090: d2de e8bd 8a01 81bd 2010 adbd 4f56 4b3d
000000a0: ffc1 243d 3bb7 3fbc 0b47 fb3b 35f2 ca3d
000000b0: 07c3 d6bc d210 2cbc 180d 35bd 0886 763c
000000c0: e3d5 063e 6269 cd3d 49cd 5f3d 7c14 ab3c
000000d0: 989c 8b3c 147e e03c a7ad a1bb 7bb8 01be
000000e0: d04c a2bd fecd c83d 4543 9c39 50c7 d9bd
000000f0: ae73 6c3b e24e c13d 4975 d5bd 6acb 0abd
00000100: 2355 6fbd add9 81bc 9a3a 44bd 65d1 2cbd
00000110: 10cc 0bbe 4578 413d 4ba8 f83d 3142 ac3d
00000120: dfb2 0a3a 50b3 b4bd 03e3 933c 7fdd febc
00000130: 390b 963c e3dc febd 2c39 d73a 2ef4 e13d
00000140: 70c5 7c3d 45b5 203c 4b24 a03c e47b edbb
00000150: 5d92 a3bd d1a6 89bd 6bb2 bfbd b9bc a53d
00000160: c007 2f3d e432 a73c dbdf b2bd 04ea a33d
00000170: abb1 1c3d 655b 7e3d 76f7 7fbd 0361 f63b
00000180: 98fd eb3d 13e1 a43d 40e4 ba3d 40d0 0cbd
00000190: 1331 913d ef23 adbd e432 d83b 739f 84bd
000001a0: 1773 f0bc b9ea 86bc 5d2e 5b3c a111 c13d
000001b0: e8a1 e73c 0c9f bdbc 6550 a83d e2ef 4bbd
000001c0: ee22 833d 6053 a6bc b297 9fbc feff 573b
000001d0: ce6c e1bd 2025 febb e219 c53c 0860 e23d
000001e0: d331 80bc 2dd8 523d 42b3 c73d 3384 5abd
000001f0: 193c c63d 8b6d 9dbd 3fe4 e43c d268 d83c
00000200: d65c 233d 8220 ba3d b99d 5dbd 60af 40bb
00000210: 5dd9 72bc 450d b9bd 88d0 37bd 5ced c8bd
00000220: d1a5 cd3c fabc 313c ebfd 313b 22b1 6bbd
00000230: 58d6 29bd 7fb0 49bd a2d7 0e3d 337f c73d
00000240: 7f35 3a3c 2b56 6bbd f820 6abd ebb1 203c
00000250: e574 c1bd 653f ddbd c019 94bd bb81 b1bc
00000260: 2dbb 733b 7160 ac3d f524 463d b3fc e73d
00000270: 1227 35bd ac1d ea3c 0475 b0bd ce90 c33d
00000280: cd31 7a3d f900 f03d db34 69bd 5a66 f53d
00000290: 5849 093e a39c 133e f61c b13d 2acb 273e
000002a0: 2a89 ea3d 491b c83d 3a0d a3bc ef56 bfbd
000002b0: 044c 52bc 71c5 183a 73fe cabd 9f9b 93bd
000002c0: c4bb e5bd 8da3 4cbd b9f1 953d 1732 cfbc
000002d0: a82e 02bc 1d86 8d3b 4fa5 793d e921 e9bd
000002e0: 56a5 b9bd 3a1d 2dbd db3b 93bd e47c 3f3d
000002f0: 1f66 6a3d 8286 bdbd 0490 8dbd e272 a4bd
00000300: 6833 873d 9db2 fb3d 651f 77bd 7fae 06bd
00000310: 8260 693d 85c5 5abd c46a d53d ba8d 393d
00000320: c0d7 72bb 6c58 1e3d 576f 923d dbf5 98bc
00000330: ef1e 9dbd 6a3a 823c f6ce 953c 32e9 eb3b
00000340: 129c 1dbc be4b b43d c689 23bc 310e 823c
00000350: 0fd3 723d e6c4 8fbd adae 1d3d e379 8cbc
00000360: f651 6f3d 3dc5 91bd d6fd 20b9 396f cf3b
00000370: 004f b6bd 85e4 b3bd 69a8 ee3c c86c 04bd
00000380: 633e 843d 09ae 98bd da60 38bd 5f20 acbd
00000390: 4570 3c3d 84d3 523c 456a 1fbc e178 81bc
000003a0: e13d a1bd 0ffd 163d 2152 2c3d 1f39 74bd
000003b0: ffcd 683d 7f29 e23b 654c 9cbd 0894 ad3d
000003c0: 593a 953d 6cc5 30bc 26c4 8dbd b476 863b
000003d0: fb2e a63d db20 c63d 5123 b5bd 5619 5abd
000003e0: a210 ad3d 477a 503d 7809 7c3d 10d6 81bd
000003f0: 501b c23d 25dd bfbd 5996 0cbc 3c90 b7ba
0.0023614492 0.020025676 -0.04752199 0.057367533 -0.08120162 0.09444586 -0.0697779 -0.07943457
-0.050423894 0.068064645 -0.048403732 0.033437897 -0.09803159 -0.07281662 -0.044437494 -0.028295089
-0.09777282 0.06543965 -0.015668197 0.02680689 0.07396691 0.026030645 0.043177478 0.1210568
-0.04801988 0.022646971 -0.06642071 0.06380388 0.057055574 -0.11959569 0.11020583 0.090752095
0.08516867 0.06105204 0.08307768 -0.036644287 -0.113706246 -0.06299122 -0.08450341 0.049642857
0.04022407 -0.0117014 0.007668381 0.099094786 -0.026216043 -0.010502057 -0.04420194 0.015046604
0.13167529 0.10029866 0.054639135 0.020883791 0.017042443 0.027403869 -0.004934031 -0.1266803
-0.07924807 0.09804915 0.00029804758 -0.10633719 0.0036079693 0.09438874 -0.10422761 -0.033885397
-0.058430802 -0.015850866 -0.04790745 -0.04219188 -0.13652062 0.04723384 0.12141474 0.084110625
0.0005290936 -0.08823264 0.018052584 -0.031111477 0.018315898 -0.124444745 0.0016420237 0.11032902
0.06171173 0.009808843 0.019548556 -0.007247435 -0.07986901 -0.06721271 -0.093602024 0.080926366
0.042732 0.020410009 -0.08734103 0.08003619 0.038255375 0.06209888 -0.062491857 0.007518889
0.115229785 0.08050742 0.091255665 -0.03437829 0.07089438 -0.084541194 0.0065978635 -0.06475725
-0.029351754 -0.016469346 0.013377753 0.094271906 0.028275445 -0.023147129 0.08218459 -0.049789317
0.06403147 -0.020303428 -0.019481514 0.003295898 -0.11007081 -0.0077558905 0.024060193 0.11053473
-0.015648758 0.051475693 0.097509876 -0.05334873 0.096794315 -0.07686909 0.027940867 0.02641717
0.039883457 0.090882316 -0.054105494 -0.0029401407 -0.014822331 -0.09035734 -0.044876605 -0.09810898
0.025103481 0.010848278 0.0027159404 -0.057541974 -0.04146418 -0.049240585 0.034873612 0.09741058
0.0113652935 -0.057455223 -0.057160348 0.009808044 -0.09446124 -0.10803107 -0.07231474 -0.021668306
0.0037190423 0.08416832 0.04837509 0.113274954 -0.044226713 0.028578602 -0.08616069 0.09549104
0.06108265 0.117189355 -0.056935173 0.11982413 0.13406885 0.14415221 0.08648102 0.16386095
0.11451943 0.09770829 -0.019903768 -0.09342753 -0.012835506 0.0005827761 -0.099118136 -0.07207417
-0.11217454 -0.04996066 0.073214956 -0.02529244 -0.007945694 0.004318966 0.060948666 -0.11383421
-0.090647385 -0.0422642 -0.07189151 0.046749964 0.057226297 -0.09254171 -0.069122344 -0.08029725
0.06601602 0.12289927 -0.060332675 -0.032881256 0.056976803 -0.053411026 0.104207546 0.045301177
-0.0037054867 0.038658544 0.07150143 -0.01867192 -0.07671916 0.015896995 0.018287163 0.00719943
-0.00961973 0.08803509 -0.009981578 0.015875908 0.059283312 -0.07019977 0.038496662 -0.017147964
0.058427773 -0.07117698 -0.0001535335 0.0063303974 -0.08901787 -0.08783821 0.029133039 -0.032330304
0.06457212 -0.074550696 -0.04501424 -0.08404612 0.046005506 0.012867812 -0.0097299265 -0.01580471
-0.078731306 0.03686243 0.04207051 -0.059624787 0.05683708 0.0069019194 -0.076317586 0.084755
0.072865196 -0.010789257 -0.06922178 0.004103506 0.081144296 0.096742354 -0.08844627 -0.05324682
0.08450438 0.050897863 0.061532468 -0.06339657 0.09477866 -0.09368352 -0.008580768 -0.0014004777

conv1.bias f4 [64]
00000000: 48b8 9e3a ee08 e1bd 2419 3f3c 6f5d 79bd
00000010: d45b 4c3d 1125 953b 240a 613d f465 99bc
00000020: 1611 013e 3a90 33bd d9e0 e03b e484 213d
00000030: d721 e6bd 444b ff3d 5dbf 8a3d 71a6 a83c
00000040: 0ee5 03bd d82c 96bd 9f33 633d 6c6c 1a3d
00000050: 4e6e 8c3c fb08 843b 7be2 85bd 559b 953d
00000060: 4960 8ebd 1894 763d 5463 2cbb 9ce6 f939
00000070: a93e d43c 3b1e 313d 7c2e b43d 8a0d fcbb
00000080: bb93 283d dad6 9b3d f010 e43a a4a7 abbd
00000090: 2279 17bc 898d a83d 0e66 c8bc bab7 503d
000000a0: 2101 2d3c 784d b3bc c9f6 c83d 827b f2bc
000000b0: 09c9 0f3d 9bb2 18bc 7754 8ebc c166 94bc
000000c0: 2d20 0bbb 7185 2fbd b1de a1bc ee22 943d
000000d0: 8fe5 a43c 45e0 ac3a c160 1f3b 24f6 f63b
000000e0: e0af c23d 80c2 30bd bc87 62bc 6df4 883d
000000f0: 903e 503d d681 dabc 0ce0 82bd 475a a0bd
0.0012109363 -0.10988031 0.011663709 -0.06088012 0.04989226 0.004551538 0.05494131 -0.018725373
0.12604174 -0.043838717 0.0068627414 0.039433375 -0.11236923 0.12465528 0.06774781 0.020587178
-0.032200865 -0.07332772 0.05546915 0.037701055 0.017142441 0.004029391 -0.06537338 0.07305018
-0.06951959 0.060199827 -0.0026304321 0.00047664798 0.025908785 0.04324172 0.08797929 -0.0076920437
0.04115651 0.07609339 0.0017400067 -0.08381584 -0.009245189 0.08230121 -0.024462726 0.050956465
0.010559351 -0.021887526 0.098126955 -0.029599909 0.03510383 -0.009319927 -0.01737426 -0.018115403
-0.0021228895 -0.04285187 -0.019759508 0.07233225 0.020128993 0.0013189396 0.0024319144 0.0075366665
0.09506202 -0.04315424 -0.013826307 0.066872455 0.050840914 -0.026673239 -0.0639039 -0.07829719

conv2.weight f4 [32, 64, 5, 5]
00000000: 8f39 e83a d0ae 0ebc b926 043d 8f77 4b3d
00000010: 7ed4 9fbd 8fd9 8b3c 3819 f8bc fbc0 c7bc
00000020: 4451 263c 8f17 d7bc 9722 003d 8fb0 c8bb
00000030: cf01 0cbc 19c5 1fbc d23f f13c cb50 4fbc
00000040: 5a29 543c 439d cc3b 07bb b63b 3b73 103d
00000050: b8cc 1ebc 0573 d6bb be05 2ebd 1e4e 273c
00000060: 4b7b 5ebc 4d38 1e3a e08b b33c 1680 193c
00000070: 68e1 a7bc 3552 e0bc 1cfc 853c 187b 303d
00000080: c342 073d 6934 c83c 78b7 393c 2d45 1e3d
00000090: bb93 ed3b a793 d23c dde0 0e3d b044 963d
000000a0: f61b 9ebb 396e babb f284 0bbd 411e 02bc
000000b0: d1bb 3c3c 58d4 79bd 5d0d 30bb d8d3 a9b9
000000c0: c9ee adbb 8d1d 4a3c ebef ddbd 0ea8 f9bd
000000d0: 65a0 2abe c26b 03be e88f 45be e676 33bd
000000e0: 1745 45bd 56b5 36bd f0e0 86b9 72ac 37bd
000000f0: b43a a23c baf2 12ba 80ff 03bd 4b83 cc3c
00000100: 7e15 723c ebb7 d7bb 0567 1a3d 71a9 b03c
00000110: 54bc d73c 79dc ba3c e3b1 a2bb 1f0b 453c
00000120: fe61 45bb c189 ffba 8eb1 773c 6b9e b53c
00000130: 5a41 adbb 1ed5 9ebb 8194 60bc c752 97bc
00000140: 982c 2f3c 6102 d83c d8b6 40bc 1e06 d639
00000150: eac7 b93c ce00 fc3b 9afc 85bb 0b43 01bd
00000160: 126d 033d 6164 503c 2117 00bb c0a0 823c
00000170: 8040 d8bb 3eb1 b33c 26a6 ea3b 958c cb3c
00000180: 63a7 e4ba 2d1c 593a 53fd 95bc f537 bd3a
00000190: a03b 00bd 998b 3bbd 41e2 abbb 494b 2f3a
000001a0: 4831 0dbc cd9c 9338 7fa7 07bc fe36 103c
000001b0: fbfa 9c3c 59df 8b3c 9004 fabb 8ac6 27bc
000001c0: 42ef 2a3d 3fea e93c 5a5c 87bc a237 b6bc
000001d0: 9527 2f3b c462 c8bc 5d1d 0c3c f69e 873b
000001e0: fa97 babc 5ddb 8ebc 981a 11bd 1c6e 3bbd
000001f0: fe26 b7bc fc6a 243d 06e9 28bd 12c4 8d3d
00000200: cd80 373d fd97 013e a9cd 3abd a26b cebc
00000210: c22b a7bc c080 c3bb bbc1 973c ce6e 5bbc
00000220: 8390 bcb9 bfdb c53c 1ed9 8aba c4df 0139
00000230: 0c8b c93c 0c13 0b3d 6a75 f93c 280b 493c
00000240: 0dd3 443c 507a ebbc 20ca dabc ac9c 423c
00000250: 2a8c eebc 89e6 6bbd 6ade 413b 48b7 973b
00000260: 7fb4 dcbb c15a ad3c 6d67 fdbc e48f 973c
00000270: bbad 81ba d838 c0bc 1fa6 9fbc 8f01 833c
00000280: 3016 66bc aeb8 04bd c807 003b f21a 84bb
00000290: cf68 3ebc 6514 813c ff3a 48bc d2dd 13bb
000002a0: b7f2 1eba 6b6f 883c 39c9 f53a a113 923b
000002b0: 9d05 d53c 683f c83c 8728 283c b0b6 cd3c
000002c0: 9244 633d bfcb e23c 6ec2 c53a d561 5b3d
000002d0: df9a c9bb 0e1c 0cbd bc6a 343d df0e 603c
000002e0: a847 57bb 78ac 25bc 6f27 f1bc 209e 13bd
000002f0: 638f 183c 2661 e03c 39d6 1ebc 9218 4cbc
00000300: dac4 a4bd f8f5 febc fb35 133d 3409 babb
00000310: b92c bc3d 7cc4 043c 3aff 86bd 9c44 8fba
00000320: 908d 93bd cf1d 193c c496 3d3b 4bd3 a2bb
00000330: 33bd b4bb 6a44 2d3d 9e04 493d 7415 a63c
00000340: 6a81 a8bc 68d9 e6bc 1c44 9b3d bd24 b93c
00000350: 3e06 d83b a688 ca3b d93f 41bd 1f61 303d
00000360: aba7 343d bbc5 143d b057 e03c 85d5 25bc
00000370: dc2d 47bd fdd5 e03c 94b9 e43b 9609 01bc
00000380: 6146 393c ab4a 21bc 79da 87b9 0d56 63bc
00000390: 5db0 46bc cdee 18bb a834 2a3c 38f1 6d39
000003a0: 649f ce3c cb20 cf3c a3e9 a7bb 8303 93bc
000003b0: 006f 18bc a136 30bb e39b 63bb 09ea c9bc
000003c0: 2417 2ebd 1f52 95bc b7b2 f1bb ad70 c0bc
000003d0: 8706 9cbc c737 0dbc 0642 7dbc 429d 9abc
000003e0: d722 41bc 031f 94bb e553 f4bc 75a8 dfbc
000003f0: b756 26bc e391 533c 660c 4b3c 2dec 12bd
0.0017717349 -0.008708671 0.03226349 0.049674567 -0.078042015 0.017071513 -0.030285463 -0.024384012
0.010151211 -0.02625635 0.031282987 -0.006124563 -0.008545353 -0.009751582 0.029449377 -0.01265354
0.012949312 0.006244333 0.0055764946 0.035266142 -0.009692363 -0.006544473 -0.042485945 0.010211496
-0.0135792 0.0006035611 0.021917284 0.009368917 -0.020493224 -0.02738295 0.016355567 0.04308614
0.033022653 0.024439054 0.011335246 0.03864019 0.007250277 0.025705172 0.034882415 0.0733732
-0.0048251105 -0.005689409 -0.034062333 -0.007941783 0.011519388 -0.060993522 -0.0026863434 -0.00032392028
-0.0053080064 0.012336147 -0.10836776 -0.12190257 -0.16662748 -0.12834075 -0.19293177 -0.043814562
-0.048161592 -0.04460653 -0.00025726063 -0.04484219 0.019803382 -0.0005605627 -0.032226086 0.02496495
0.014775632 -0.006583204 0.037695903 0.021565171 0.026334919 0.022810208 -0.0049650534 0.012026577
-0.0030118222 -0.001949601 0.015118016 0.022170266 -0.0052873315 -0.004847183 -0.013707281 -0.018472089
0.010691784 0.026368322 -0.011762343 0.00040821818 0.022678334 0.0076905256 -0.0040889503 -0.031558078
0.03208644 0.012719245 -0.0019545036 0.015945792 -0.006599486 0.021935102 0.0071609197 0.024847308
-0.0017444905 0.00082820916 -0.018309271 0.0014436232 -0.031306863 -0.045787428 -0.0052454774 0.00066869386
-0.008617707 7.038713e-05 -0.00827968 0.008802174 0.019162646 0.017074274 -0.0076299384 -0.0102402065
0.04173208 0.02855408 -0.016523529 -0.022243325 0.0026726474 -0.024461158 0.008551923 0.0041388227
-0.022777546 -0.017438585 -0.035425752 -0.045759305 -0.02235746 0.04014109 -0.041237853 0.06922163
0.04480057 0.12655635 -0.04560629 -0.025197808 -0.020406608 -0.005966276 0.018524995 -0.013393117
-0.00035965824 0.024152635 -0.001059327 0.00012385758 0.024602436 0.03395371 0.030451495 0.012270726
0.012013209 -0.028744847 -0.026707709 0.011878174 -0.02911957 -0.057592902 0.0029582032 0.004630003
-0.006735384 0.021161439 -0.030933106 0.01850123 -0.0009893695 -0.023464605 -0.019488392 0.015991954
-0.014043376 -0.032402687 0.0019535888 -0.0040315324 -0.011621668 0.015756795 -0.012221097 -0.0022562635
-0.0006063389 0.01665469 0.0018751986 0.0044579064 0.026003653 0.024444297 0.010263569 0.025111526
0.055485316 0.027685044 0.0015087852 0.053560097 -0.0061524953 -0.034206443 0.044047102 0.013675421
-0.0032849107 -0.010111921 -0.029437749 -0.03603947 0.00931153 0.027390074 -0.009694629 -0.01245703
-0.08045359 -0.031123146 0.03594015 -0.0056773666 0.09188218 0.008103486 -0.06591649 -0.0010930481
-0.07204735 0.009345486 0.0028928975 -0.0049690357 -0.0055157184 0.042301573 0.04907667 0.020273902
-0.020569522 -0.02817984 0.0758135 0.022600526 0.006592541 0.0061808405 -0.04718003 0.043061372
0.044105213 0.036321383 0.027385563 -0.010121708 -0.04862772 0.027445788 0.0069801304 -0.007875821
0.011308284 -0.009844462 -0.0002591198 -0.013875497 -0.012127009 -0.0023335696 0.010388531 0.00022691942
0.025222488 0.025284192 -0.005124287 -0.01794601 -0.009303808 -0.002688803 -0.0034730367 -0.02464773
-0.042502537 -0.018227635 -0.007376041 -0.023491228 -0.019046081 -0.008619255 -0.015457636 -0.018873814
-0.011788092 -0.0045202984 -0.02982516 -0.027302006 -0.01015251 0.0129132 0.012393093 -0.035869766

conv2.bias f4 [32]
00000000: 91da 68bc 9c2d abbc 30c7 44bb b636 18b9
00000010: a920 cd3c d0d2 883c 536c 1cbc 521b 0b3c
00000020: 4da3 9e3c bad2 17bc 3ce7 a639 dbee a539
00000030: bcd3 db3c 122c 8d3c b656 86bb 590e 4dbc
00000040: 6565 72bc 2d31 9abc 8c23 393c 7cfe b93c
00000050: af1d e13c 150f 2d3c cbdd 2cbc e327 0e3a
00000060: f61b 28bb 3f97 e73c 5a52 a53c bb5d a23c
00000070: c60e 093c f921 25bc e171 1dbc fce5 c2ba
-0.014212267 -0.020895772 -0.0030025952 -0.00014516231 0.025039988 0.016702086 -0.009547311 0.0084904
0.019364977 -0.00926655 0.0003183427 0.00031649214 0.026834361 0.017232928 -0.004099692 -0.012515628
-0.014794682 -0.018822277 0.011299979 0.022704355 0.027479975 0.010562678 -0.010550926 0.00054228137
-0.0025651432 0.028270362 0.02018087 0.019820085 0.008365339 -0.0100789005 -0.00960967 -0.0014869566

conv3.weight f4 [1, 32, 5, 5]
00000000: 4838 8e3c abe1 913c 806d 6cba c6e1 d13c
00000010: 1641 ff3c c611 febc 309f 2f39 7d35 14bd
00000020: 58fb 0d3b ab36 223c b083 93bb 0d2d de3c
00000030: a272 1f3c 4eb4 07bd 7a2d a7bb 78ab 96bc
00000040: 0d84 f3bc 9812 58ba a65c 08bd ce02 ad3c
00000050: b74d 0a3b 0d66 493c ba33 b13c b497 f13c
00000060: e5b5 8fbc 71c4 003b 5284 09bd 316d 043c
00000070: ca93 d73c 45a8 b7bc baf5 a63c d419 88bc
00000080: 9217 263c d1a4 7ebc ade1 da3b 4732 09bd
00000090: d4b2 d73c d0ac 03bc 160d 063d 84c1 4dbc
000000a0: 0728 7c3c 3f65 8bbc 0432 78bc fb63 16bc
000000b0: 6dcf 8b3c 9484 6a3c 6ab8 a83c f1be c0bb
000000c0: 968a 893b 0a95 b23c e767 62bc a8da 34bc
000000d0: 7e0d de3c 52bb f5bc 4569 8cbc 5cb4 9dbc
000000e0: e6fe e1bb 4aa3 d3bc b8fc 073c 9bd1 c7bc
000000f0: 15c2 79bc 8b6c 0bbd 0d3c bf3c c39d b4bc
00000100: c98d 91bb 5bc0 a9bc 83aa 8fbb 7db9 eabb
00000110: 74f3 3fbc c57f 37ba 1400 783c 2513 f03c
00000120: 426e d33c fd32 d6bc b8dd 88bb ae68 55bd
00000130: 43a2 853c 95e7 dc3c f5bd 1c3b 4cb2 003c
00000140: 1023 353d 323f fe3c 9c1e 1ebc f321 94bc
00000150: 073d 3cbb fe07 293d 0e81 c63c ba87 913c
00000160: f9e5 02bc 4658 37bc 2430 1339 672e adbc
00000170: b1d8 74bd 02a8 dfbc 0d63 59bb df56 efbb
00000180: 57a1 babc 8ad9 bdbc 9c15 463b 0a9e 113d
00000190: e1e4 c93b 3078 fb3b e931 6a3c fa98 43bb
000001a0: 1697 753b db76 f6bb e053 023d 972c 27b9
000001b0: e790 ce3c 1ffb a8bc ca0c e3bc 505d 923b
000001c0: afca 02bd e710 a83c 4769 a63c b867 eb3c
000001d0: 1e71 023d fcc4 383c e1a3 583c 0719 b8bb
000001e0: 60e8 033d 2b28 733c d41b 0fbc 06e8 07bd
000001f0: c503 7c3b 694d 9a3b 6575 013d 8402 d63c
00000200: 06f4 013d 886a 533b 721b 2d3c 7f49 d5bc
00000210: b9e0 de3b b412 1b3c ea79 98bc bd76 96bc
00000220: 81db 623c f8e3 b2bc efe8 4cbc bd75 e53c
00000230: b853 da3c 17ac fcbc 89c3 02bd e927 c93c
00000240: fc43 f5bb d233 d73b a2a7 aebc 0c5a 59bc
00000250: ad73 e53c b9fc bebc 25dc 4f3c 72f1 b83a
00000260: dcbe 3b3c 48ba f83a 7ae0 e2bb b2f5 523c
00000270: 23f5 203c 38df 44bb 558c c53c ae65 033d
00000280: 071b 993c 614d 26bc f70d d5bc f865 c7bc
00000290: 3263 8ebc f2f6 48bb 6455 943c efd0 1e3c
000002a0: 51e9 003d 7842 0ebd cefb a5bc 8dc7 043d
000002b0: c956 ccbc c6ff bb3c 54e1 8c3a 4d61 80bb
000002c0: 2c33 ce3c e796 e03c ee1d 6bbc 6d10 00bb
000002d0: 5931 083d 23d3 f23c 5292 6b3c 07c2 adbc
000002e0: 7cff c1bc 12a1 d13c e262 a83c 780f 73bb
000002f0: 84d7 0c3d 857a cc3c 60b8 f9bb 7897 7e3c
00000300: 2a46 0d3d 5209 a93c 3099 8bbc c95f 08bd
00000310: e761 313c 3092 593c d25f 0ebd 1302 ae3b
00000320: 8a6f 4dbc caf6 d83b 0062 d7bc b688 71bc
00000330: 18c7 333d 4894 853c a625 83bc 69bb 3fbd
00000340: 58d1 893b 58ab a8b9 48c1 4dbc d5bb 993c
00000350: c6ac 3d3d 9802 b2bc 8db5 b13b 0caa 0fbd
00000360: 9826 753d bae3 623d d5df 00bd 9b65 e6bc
00000370: 6358 7fbb d574 8cbc 38c2 023d 3918 933a
00000380: 73ba 80bc 5e36 0d3d 8c26 52bc 3802 793c
00000390: bc62 b63c ea49 3b3c beea 093d 06bd c8bc
000003a0: 8d3b 713b d6bc 67ba 834d 8b3c b324 77bc
000003b0: 16f7 acbc 29ec e1bc 105f c63c 65c0 293c
000003c0: 2898 08bd 0f76 17bb 66bb f3bc ef68 f5bc
000003d0: eb38 b43c 2bc2 94bc 968b ab3c 3d5a 063d
000003e0: 7c14 a33b 4054 783c ffff fcbc f739 77bc
000003f0: fe27 ffba 7788 f73b e52c 6a3c 6724 9c3c
0.017360821 0.017807802 -0.00090190023 0.025620352 0.031158965 -0.031014334 0.00016748603 -0.036183823
0.0021664705 0.009900729 -0.0045017824 0.027121091 0.00973192 -0.033130936 -0.005101857 -0.01839231
-0.029726053 -0.0008242517 -0.03329148 0.021119501 0.002110345 0.012292397 0.02163111 0.029491283
-0.017542789 0.0019648338 -0.033573456 0.008082674 0.026315589 -0.022419104 0.020380843 -0.016613878
0.010137456 -0.015542225 0.0066797347 -0.033495214 0.02633039 -0.008036807 0.032727323 -0.012558345
0.015390403 -0.017016051 -0.015148643 -0.009179111 0.017066682 0.014313836 0.020595748 -0.005882137
0.004197429 0.021799583 -0.013818718 -0.01103846 0.027106043 -0.029996548 -0.01714004 -0.019251041
-0.0068968413 -0.025834698 0.008299999 -0.02439194 -0.015244027 -0.03403906 0.023344064 -0.022047883
-0.004441951 -0.020721605 -0.0043843403 -0.007163225 -0.011715759 -0.0006999935 0.015136737 0.029306004
0.025809411 -0.02614736 -0.0041768216 -0.052101783 0.016312724 0.026965896 0.0023916934 0.007855009
0.04422289 0.031035993 -0.0096508525 -0.018082594 -0.0028722899 0.041267388 0.02423146 0.017764915
-0.0079894 -0.01119048 0.00014036946 -0.02114029 -0.059776966 -0.027301792 -0.003317061 -0.007304057
-0.022782011 -0.02317502 0.0030225283 0.03555111 0.0061613177 0.0076742396 0.014294126 -0.002984582
0.0037474087 -0.007521493 0.03181827 -0.00015942972 0.02521558 -0.020627556 -0.02771606 0.00446669
-0.031931575 0.020515872 0.020313872 0.02873598 0.03184616 0.0112774335 0.0132226655 -0.005618218
0.032204032 0.01484112 -0.008734662 -0.03318026 0.0038454395 0.004708935 0.031606097 0.026124246
0.03172686 0.0032259542 0.0105656255 -0.026036022 0.0068016914 0.009464908 -0.01861282 -0.018367166
0.013846279 -0.02183722 -0.012506708 0.028010244 0.026651248 -0.030843778 -0.031924758 0.024555163
-0.007484911 0.0065674568 -0.021320168 -0.013266098 0.02800926 -0.023313867 0.012686764 0.0014110042
0.011459079 0.0018976415 -0.0069237323 0.012875961 0.00982407 -0.0030040275 0.024114767 0.03207939
0.018689645 -0.0101502845 -0.026007636 -0.024340615 -0.017381284 -0.003066477 0.018107124 0.009693368
0.031472508 -0.03473136 -0.020261671 0.03241687 -0.024943726 0.02294911 0.0010748305 -0.003917849
0.025170885 0.027415706 -0.0143503975 -0.001954104 0.033250187 0.029641693 0.014378147 -0.021210684
-0.023681395 0.0255895 0.020554963 -0.0037088078 0.03438522 0.024960766 -0.007620856 0.015539043
0.03449074 0.020634327 -0.017040819 -0.033294473 0.010826564 0.013279483 -0.03475935 0.005310306
-0.0125388 0.0066212164 -0.026291847 -0.014742067 0.043891042 0.016306058 -0.016009163 -0.046809588
0.004205864 -0.00032171118 -0.012558289 0.018766323 0.046307348 -0.021729752 0.005423254 -0.03507428
0.05985126 0.05539296 -0.031463463 -0.028124621 -0.0038962595 -0.017145554 0.031923503 0.0011222429
-0.015713906 0.034475677 -0.012826573 0.015198283 0.022263877 0.011431197 0.033671133 -0.024504196
0.0036809177 -0.00088400894 0.017004734 -0.015084433 -0.021113914 -0.02757843 0.024215251 0.010360812
-0.033348233 -0.002311114 -0.029752444 -0.029957263 0.021999797 -0.018158993 0.020940583 0.0328009
0.004976807 0.0151568055 -0.030883787 -0.0150895035 -0.0019466875 0.0075541097 0.01429293 0.019060327
