Lecture8_Image restoration (HuStar_4)/outputs/x3/epoch_68.pth (torch, 231589 bytes, 5 tensors)

conv1.weight f4 [64, 1, 9, 9]
0.0019982643 0.042718288 -0.03265943 0.07596338 -0.05956996 0.0978788 -0.058587573 -0.063136116
-0.0003133225 0.0669509 -0.03705295 0.030447261 -0.1057846 -0.08110322 -0.068067 -0.043315805
-0.12062858 0.07169647 -0.012073869 0.03407754 0.06770988 0.019432383 0.043729883 0.11034866
-0.055349674 -0.002673758 -0.07596489 0.04052208 0.029698452 -0.14631122 0.1074869 0.11072391
0.09509956 0.07030553 0.06900036 -0.045210686 -0.1326603 -0.07839297 -0.08803953 0.08114958
0.083094604 -0.00016155814 0.0099152615 0.08639859 -0.03206764 -0.010528759 -0.039703675 0.025582012
0.16650347 0.13107058 0.046492796 0.010390515 0.0069596246 0.023192657 -0.003015237 -0.13375832
-0.090131894 0.10114203 -0.001889733 -0.13742122 -0.012283311 0.09428361 -0.10061179 -0.015040104
-0.06587637 -0.044012763 -0.06538719 -0.05302558 -0.16445135 0.041242357 0.12839022 0.085146755
0.06175963 -0.059138443 0.0056646024 -0.040168703 0.026707325 -0.12671337 0.0057279286 0.10436749
0.03919188 0.018247275 0.028772503 0.026690995 -0.061188236 -0.073493585 -0.12145773 0.07091972
0.033033904 0.011077667 -0.08654283 0.07945589 0.05424423 0.06169851 -0.08754402 -0.029278018
0.11274757 0.091494024 0.10607757 -0.03824192 0.062435884 -0.078887925 -0.0017129745 -0.09570866
-0.06637596 -0.01248868 0.036094505 0.11725808 0.02752349 -0.031351134 0.08881587 -0.054255452
0.03603267 -0.060750864 -0.018656587 0.021562606 -0.095811695 -0.001654964 0.022546211 0.12968096
-0.0032432366 0.039078653 0.06608033 -0.048950408 0.115636036 -0.06321314 0.029609673 0.017631296
0.058554053 0.10758544 -0.058068823 -0.0304034 -0.011896749 -0.070078224 -0.026220543 -0.10044405
0.009216433 0.023203319 0.014083333 -0.0631502 -0.07213505 -0.049356055 0.05562069 0.11805337
0.005244344 -0.078450225 -0.052525062 0.013131331 -0.103386134 -0.13991311 -0.07729058 -0.007601869
0.018321078 0.088077754 0.033892512 0.11823641 -0.04044534 0.026092526 -0.104652 0.10281865
0.08142095 0.13418786 -0.043533932 0.12917048 0.1399029 0.16164564 0.120125316 0.1882099
0.119462326 0.0756407 -0.038489386 -0.10066825 -0.041718125 -0.052866787 -0.15948156 -0.11777256
-0.15111427 -0.08327048 0.02703651 -0.05870684 0.008215261 -0.0020346148 0.02975492 -0.15135872
-0.11352984 -0.059042253 -0.08201873 0.02845453 0.054950763 -0.061806187 -0.05071909 -0.07796329
0.068241335 0.13671744 -0.047129814 -0.020550445 0.063547306 -0.03088792 0.11444984 0.05131777
-0.00019368382 0.050209727 0.08929393 -0.009094081 -0.07304964 0.016333327 0.03110375 0.015987147
-0.0036879086 0.09250019 0.0030110592 0.03142861 0.0686893 -0.06527632 0.041688435 -0.0055117924
0.05440846 -0.08175521 -0.01590412 -0.005703229 -0.101550914 -0.10002234 0.022191716 -0.038299818
0.06371892 -0.0458149 -0.024881821 -0.07230395 0.059342526 0.029148424 0.008982792 0.005661991
-0.0636166 0.05594471 0.048689447 -0.0594774 0.049078826 -0.0014515443 -0.078269005 0.07777058
0.064485915 -0.030952435 -0.07502316 0.014084118 0.075326264 0.077103004 -0.100331046 -0.06313014
0.07788801 0.0491935 0.053442214 -0.070933186 0.10248871 -0.09717612 -0.020591449 -0.0032822113
00000000: 50f5 023b 5ff9 2e3d e5c5 05bd b092 9b3d
00000010: a1ff 73bd ae74 c83d 86f9 6fbd 824d 81bd
00000020: 6f45 a4b9 8e1d 893d d6c4 17bd 896c f93c
00000030: 99a5 d8bd 7219 a6bd b666 8bbd ea6b 31bd
00000040: 1e0c f7bd 99d5 923d 7ad1 45bc e494 0b3d
00000050: 7aab 8a3d a930 9f3c 1b1e 333d 7afe e13d
00000060: 57b6 62bd 373a 2fbb 7b93 9bbd 7bfa 253d
00000070: 2b4a f33c 9cd2 15be 1822 dc3d 38c3 e23d
00000080: 8fc3 c23d 59fc 8f3d 1050 8d3d d72e 39bd
00000090: 1ad8 07be 7e8c a0bd 124e b4bd c031 a63d
000000a0: 812d aa3d ef67 29b9 9f73 223c bef1 b03d
000000b0: 5c59 03bd d180 2cbc 52a0 22bd 5e91 d13c
000000c0: e37f 2a3e 5e37 063e 3b6f 3e3d fb3c 2a3c
000000d0: 900d e43b 87fe bd3c 489b 45bb f1f7 08be
000000e0: 1297 b8bd 8d23 cf3d ebb0 f7ba 26b8 0cbe
000000f0: f13f 49bc c417 c13d 8e0d cebd c56a 76bc
00000100: 31ea 86bd ba46 34bd b8e9 85bd 5a31 59bd
00000110: ef65 28be bfed 283d ba78 033e 6c61 ae3d
00000120: aaf7 7c3d 273b 72bd 219e b93b f087 24bd
00000130: 52c9 da3c 26c1 01be 59b1 bb3b 9fbe d53d
00000140: aa87 203d 4f7b 953c 50b4 eb3c 13a7 da3c
00000150: 84a0 7abd ce83 96bd d5be f8bd 5c3e 913d
00000160: 8f4e 073d 1a7f 353c 5e3d b1bd c5b9 a23d
00000170: 332f 5e3d 94b7 7c3d 474a b3bd 74d8 efbc
00000180: 33e8 e63d 3861 bb3d 323f d93d 8fa3 1cbd
00000190: c5bc 7f3d fe8f a1bd e385 e0ba e702 c4bd
000001a0: 1ff0 87bd 529d 4cbc d5d7 133d 0125 f03d
000001b0: f178 e13c 0c6a 00bd 18e5 b53d f73a 5ebd
000001c0: fe96 133d e6d5 78bd b3d5 98bc 10a4 b03c
000001d0: ec38 c4bd 61eb d8ba d5b2 b83c 16cb 043e
000001e0: 7b8c 54bb f010 203d 2055 873d 3980 48bd
000001f0: 96d2 ec3d e475 81bd fc8f f23c 826f 903c
00000200: 60d6 6f3d c155 dc3d 93d9 6dbd 8d10 f9bc
00000210: 95ea 42bc 2c85 8fbd 77cc d6bc 9cb5 cdbd
00000220: 8600 173c e314 be3c c8bd 663c e454 81bd
00000230: 8bbb 93bd 9329 4abd 85d2 633d f7c5 f13d
00000240: bfd8 ab3b 83aa a0bd 8524 57bd cb24 573c
00000250: 1cbc d3bd 6245 0fbe 864a 9ebd 1919 f9bb
00000260: 1616 963c 1c62 b43d e0d2 0a3d ee25 f23d
00000270: 03aa 25bd febf d53c ca53 d6bd 9692 d23d
00000280: 07c0 a63d 8b68 093e a350 32bd 4445 043e
00000290: b542 0f3e 6f86 253e 4304 f63d 19ba 403e
000002a0: aaa8 f43d 83e9 9a3d 0ca7 1dbd 282b cebd
000002b0: a0e0 2abd d88a 58bd 224f 23be bd32 f1bd
000002c0: b3bd 1abe b789 aabd ac7b dd3c 9576 70bd
000002d0: 4d99 063c 2c57 05bb 97c0 f33c c8fd 1abe
000002e0: 5582 e8bd 4ad6 71bd 70f9 a7bd 7919 e93c
000002f0: 0d14 613d 7c28 7dbd d2be 4fbd 38ab 9fbd
00000300: 1dc2 8b3d a8ff 0b3e 310b 41bd 6859 a8bc
00000310: 1725 823d aa08 fdbc ad64 ea3d 9532 523d
00000320: 9b17 4bb9 b7a8 4d3d bcdf b63d 57ff 14bc
00000330: 0d9b 95bd 78cd 853c 4bcd fe3c 7af7 823c
00000340: d7b0 71bb bd70 bd3d 3155 453b 49bb 003d
00000350: faac 8c3d 97af 85bd 7ec1 2a3d 449c b4bb
00000360: 68db 5e3d 476f a7bd 5b49 82bc 27e2 babb
00000370: edf9 cfbd 83d8 ccbd 67cb b53c 45e0 1cbd
00000380: 117f 823d 68a8 3bbd f6d4 cbbc 1814 94bd
00000390: 2611 733d adc8 ee3c 8f2c 133c 3988 b93b
000003a0: 6c49 82bd 4826 653d 966e 473d 939e 73bd
000003b0: e106 493d bf41 beba 804b a0bd 2f46 9f3d
000003c0: 3111 843d f68f fdbc bea5 99bd 13c1 663c
000003d0: a844 9a3d 2ee8 9d3d 5d7a cdbd 604a 81bd
000003e0: c083 9f3d 207f 493d 39e6 5a3d 6b45 91bd
000003f0: 9ae5 d13d 4604 c7bd 66af a8bc 5e1a 57bb

conv1.bias f4 [64]
0.017056251 -0.10341153 0.025334783 -0.040131353 0.06674329 0.018908842 0.04819053 -0.017981287
0.11199279 -0.03792107 0.0039862706 0.020038284 -0.13894755 0.19447467 0.060749438 0.015410404
-0.02514986 -0.05076263 0.07764224 0.024625009 0.024332318 -0.013676922 -0.053592898 0.07231329
-0.0963716 0.04169566 -0.009553671 0.013506766 0.021378985 0.042993914 0.10555134 -0.007695054
0.037142262 0.069079 0.0017776508 -0.06330507 -0.008783278 0.06923184 -0.045663476 0.041121285
0.017066559 -0.026733166 0.09581329 -0.01752559 0.032237373 -0.015639575 -0.01898011 -0.01875466
0.009504935 -0.057108488 -0.016354246 0.08238324 0.011606907 0.010583248 0.017764129 0.025419436
0.07915112 -0.017131958 -0.008443858 0.06359329 0.019782301 -0.0058492958 -0.041686498 -0.09409056
00000000: 8db9 8b3c 6dc9 d3bd e48a cf3c c660 24bd
00000010: b5b0 883d b7e6 9a3c 6f63 453d 7e4d 93bc
00000020: 7a5c e53d 2053 1bbd 439f 823b 5427 a43c
00000030: 4448 0ebe 5e24 473e 67d4 783d eb7b 7c3c
00000040: 1407 cebc 7aec 4fbd e502 9f3d 63ba c93c
00000050: 9254 c73c 2b15 60bc 3a84 5bbd fd18 943d
00000060: 795e c5bd 12c9 2a3d 0087 1cbc 7c4b 5d3c
00000070: fb22 af3c 631a 303d 4d2b d83d cb26 fcbb
00000080: 7c22 183d 4a79 8d3d 1000 e93a 17a6 81bd
00000090: bde7 0fbc 6cc9 8d3d a009 3bbd cb6e 283d
000000a0: 2bcf 8b3c 83ff dabc c239 c43d d391 8fbc
000000b0: 560b 043d 911e 80bc 2d7c 9bbc 5fa3 99bc
000000c0: 96ba 1b3c 97ea 69bd 57f9 85bc 8bb8 a83d
000000d0: e52a 3e3c 5c65 2d3c 1486 913c 6c3c d03c
000000e0: fb19 a23d 5258 8cbc 1b58 0abc 333d 823d
000000f0: 7e0e a23c 73ab bfbb 76bf 2abd 8db2 c0bd

conv2.weight f4 [32, 64, 5, 5]
0.005822916 -1.503251e-05 0.03877311 0.07143364 -0.11436003 0.039928142 -0.027798142 -0.014095017
0.045607068 -0.013631147 0.029023862 -0.010940601 -0.015424274 0.005052075 0.043624677 -0.01645795
0.02004343 0.024577277 0.030399008 0.048577577 -0.023280725 -0.019042922 -0.038648337 0.04329031
-0.0024719303 -0.0013826379 0.020378403 -0.041158672 -0.030590683 -0.030133849 -0.008552018 -0.0022945956
-0.021448959 0.0034529907 -0.014620141 0.07302337 -0.0009273 -0.022222873 0.02595922 0.082510576
0.051870264 0.013753338 -0.06872005 -0.014744831 0.04620371 -0.0828607 -0.014280724 -0.041739833
-0.03657203 0.006574251 -0.17248826 -0.18557923 -0.23766491 -0.1932423 -0.26207083 -0.12913027
-0.12992541 -0.08371517 -0.033638094 -0.09447486 0.043998625 0.024170464 0.009171332 0.068497725
0.023929803 0.055120274 0.0994605 0.069454744 0.089780875 0.062429365 0.011064075 0.009088203
-0.029353255 -0.0010095491 0.03069367 0.016899878 -0.005090271 0.0038108425 -0.011790779 -0.052287012
0.025301322 0.03478672 -0.0014318867 0.019865058 0.009129885 0.006561765 -0.015855446 -0.04107345
0.035874512 -0.0051234406 -0.0060143066 0.0048104366 -0.021359706 0.021299027 -0.0049919127 0.024897385
-0.009723298 -0.008376108 -0.023405436 -0.0023228147 -0.019379055 -0.060390826 -0.032174382 -0.0048814653
-0.012538889 0.006038859 -0.0057812277 -0.0078111077 -0.0002178256 0.016810074 0.017725892 0.010653903
0.05746638 0.031769987 -0.00046443898 -0.011121143 0.010432979 -0.0191016 0.0021164862 0.0026282785
-0.04029261 -0.04365016 -0.055936135 -0.06854796 -0.04181972 0.08970463 -0.017771184 0.076836884
0.0058168927 0.0869959 -0.04705129 -0.03217029 -0.039753225 -0.027552163 -0.00565812 -0.010676438
0.005702689 0.027581966 0.0038240217 0.0006216211 0.016765103 0.033078175 0.03483347 0.011540633
0.0037436243 -0.0643472 -0.06577085 -0.033292823 -0.0708493 -0.10416577 0.010856581 0.019444752
-0.0021393432 0.014520309 -0.035736643 -0.00012300248 -0.023115559 -0.032611866 -0.030967582 -0.008902232
-0.034832336 -0.05287554 0.003067604 0.0017130417 -0.04187746 0.00018438729 -0.008596191 0.020355701
0.01732801 0.016751785 -0.010907796 -0.005891409 0.02378933 0.021007527 -0.00091905845 0.053973738
0.076095924 0.04920199 -0.002530376 0.046708148 0.017424691 -0.024237951 0.060290873 0.025776397
-0.016084598 0.014931984 -0.01698709 -0.014741132 0.046559386 0.058841396 0.028341355 -0.0033443412
-0.07185236 0.0041423654 0.076654084 0.06526402 0.106314905 -0.010668434 -0.0480954 0.055757422
-0.061676174 0.014085421 0.009718707 -0.009463582 -0.0341333 0.06454722 0.048064716 0.012225949
-0.032026842 -0.017030163 0.098679624 -0.002704297 -0.030359909 -0.004225777 -0.048824392 0.037893232
0.01955253 0.0059565813 0.0051089698 -0.04608925 -0.054217245 0.033253197 0.018271837 0.0020992833
-0.004431731 0.008282049 0.016413828 0.015931772 0.023017446 0.022857493 0.019861065 0.0032951923
0.03912604 0.038150646 -0.003899714 -0.02824301 -0.029263666 -0.016737081 0.0006672138 -0.016126676
-0.05603871 -0.040009174 -0.029960267 -0.024382828 -0.013683523 -0.054257624 -0.051717922 -0.05030387
-0.03297756 -0.010646099 -0.020663602 -0.031965695 -0.018824922 0.016770396 0.01688182 -0.03287011
00000000: 29ce be3b 2434 7cb7 8dd0 1e3d cd4b 923d
00000010: 9735 eabd b18b 233d eeb8 e3bc c9ee 66bc
00000020: 7ace 3a3d 2d55 5fbc 73c3 ed3c 3540 33bc
00000030: 18b6 7cbc e08b a53b caaf 323d d3d2 86bc
00000040: 1f32 a43c 4956 c93c 5707 f93c 48f9 463d
00000050: 38b7 bebc e7ff 9bbc b84d 1ebd 2e51 313d
00000060: 1c00 22bb a139 b5ba 9cf0 a63c ff95 28bd
00000070: 5099 fabc 43db f6bc c31d 0cbc ed60 16bb
00000080: bab5 afbc 924b 623b 5189 6fbc 478d 953d
00000090: 0d16 73ba be0c b6bc 6ea8 d43c 4efb a83d
000000a0: ea75 543d ae55 613c 19bd 8cbd 4e94 71bc
000000b0: 1a40 3d3d dfb2 a9bd b3f9 69bc 63f7 2abd
000000c0: 8ecc 15bd d16c d73b c3a0 30be 7b08 3ebe
000000d0: 6e5e 73be 4fe1 45be 262e 86be ba3a 04be
000000e0: 2b0b 05be dc72 abbd 19c8 09bd 097c c1bd
000000f0: e737 343d 2301 c63c 5b43 163c 8948 8c3d
00000100: 6f08 c43c ccc5 613d f2b1 cb3d 4a3e 8e3d
00000110: 09df b73d efb5 7f3d 1846 353c b0e6 143c
00000120: 3d76 f0bc d952 84ba 4b71 fb3c 9d71 8a3c
00000130: 4acc a6bb 54bf 793b 1d2e 41bc e82a 56bd
00000140: b844 cf3c 857c 0e3d 25ae bbba 0cbc a23c
00000150: 8395 153c 1304 d73b 48e3 81bc a23c 28bd
00000160: 27f1 123d 89e2 a7bb a913 c5bb dea0 9d3b
00000170: 8dfa aebc 4c7b ae3c 3393 a3bb 9af5 cb3c
00000180: 784e 1fbc f13b 09bc c2bc bfbc 5d3a 18bb
00000190: d3c0 9ebc 5f5c 77bd 49c9 03bd b3f4 9fbb
000001a0: ea6f 4dbc 9fe1 c53b 7470 bdbb 52f4 ffbb
000001b0: 1d68 64b9 48b5 893c e435 913c b58d 2e3c
000001c0: de61 6b3d 3f21 023d f27f f3b9 7435 36bc
000001d0: 16ef 2a3c f57a 9cbc bfb4 0a3b 323f 2c3b
000001e0: dd09 25bd 83ca 32bd 4a1d 65bd df62 8cbd
000001f0: 284b 2bbd 10b7 b73d e094 91bc a85c 9d3d
00000200: a29b be3b e82a b23d dab8 40bd fec4 03bd
00000210: 47d4 22bd 13b5 e1bc c067 b9bb 3aec 2ebc
00000220: 9fdd ba3b 93f3 e13c 709c 7a3b 49f4 223a
00000230: f856 893c fb7c 073d 8aad 0e3d ec14 3d3c
00000240: 9857 753b 77c8 83bd deb2 86bd 0e5e 08bd
00000250: 7019 91bd dd54 d5bd cddf 313c 9a4a 9f3c
00000260: 3934 0cbb 97e6 6d3c 9660 12bd 3afa 00b9
00000270: d75c bdbc 0594 05bd baaf fdbc abda 11bc
00000280: 5aac 0ebd 0694 58bd db09 493b 2488 e03a
00000290: b387 2bbd 1658 4139 0ad7 0cbc 00c1 a63c
000002a0: 79f3 8d3c 0a3b 893c 9db6 32bc b80c c1bb
000002b0: d7e1 c23c fa17 ac3c f8ec 70ba 9113 5d3d
000002c0: 2ed8 9b3d 0788 493d aad4 25bb 0b51 3f3d
000002d0: 3abe 8e3c ab8e c6bc 90f3 763d 0629 d33c
000002e0: d9c3 83bc 48a5 743c 8328 8bbc ca84 71bc
000002f0: 0eb5 3e3d ad03 713d 212c e83c bc2c 5bbb
00000300: 5527 93bd aebc 873b d1fc 9c3d 24a9 853d
00000310: a1bb d93d a8ca 2ebc afff 44bd e561 643d
00000320: 28a0 7cbd 8ac6 663c 363b 1f3c 240d 1bbc
00000330: 5ccf 0bbd 5531 843d 82df 443d 594f 483c
00000340: 942e 03bd d782 8bbc 8b18 ca3d 933a 31bb
00000350: 58b5 f8bc 6378 8abb 16fc 47bd ef35 1b3d
00000360: a12c a03c 6d2f c33b 2569 a73b 15c8 3cbd
00000370: e712 5ebd 8134 083d d2ae 953c 2194 093b
00000380: 0e38 91bb 6eb1 073c 4b76 863c 5983 823c
00000390: 158f bc3c a33f bb3c acb3 a23c 27f4 573b
000003a0: a042 203d da43 1c3d 5892 7fbb e35d e7bc
000003b0: 5bba efbc 341c 89bc f6e7 2e3a 171c 84bc
000003c0: d988 65bd a9e0 23bd 3c6f f5bc 7fbe c7bc
000003d0: db30 60bc 3e3d 5ebd 2cd6 53bd 6e0b 4ebd
000003e0: 7a13 07bd fa6c 2ebc b746 a9bc 76ee 02bd
000003f0: b936 9abc 1262 893c be4b 8a3c cfa2 06bd

conv2.bias f4 [32]
-0.021841027 -0.016684534 -0.0030025952 -0.01637326 0.027335905 0.017309569 -0.005217401 0.010482516
0.016426805 -0.010233018 -0.0010744599 -0.014968006 0.029575372 0.008176355 0.05075048 -0.00094058126
-0.013529777 -0.016097048 0.004097067 0.02485625 0.021888256 0.013158995 -0.01876875 1.7485236e-05
-0.008674225 0.03452311 0.026009414 0.020114485 0.0104795005 -0.00044782035 -0.022469724 0.0030682196
00000000: f4eb b2bc 01ae 88bc 30c7 44bb 3721 86bc
00000010: 8cef df3c cccc 8d3c bbf6 aabb dcbe 2b3c
00000020: 8291 863c 63a8 27bc e4d4 8cba 5e3c 75bc
00000030: 0d48 f23c 1ef6 053c bcdf 4f3d 5791 76ba
00000040: ffab 5dbc f5dd 83bc b040 863b 569f cb3c
00000050: 004f b33c d398 573c ecc0 99bc 42ad 9237
00000060: 561e 0ebc 1b68 0d3d b211 d53c 22c7 a43c
00000070: 36b2 2b3c 6ec9 eab9 6d12 b8bc 2f14 493b

conv3.weight f4 [1, 32, 5, 5]
0.018450169 0.017694967 0.00045846298 0.0274787 0.0321729 -0.030714368 -0.0017797183 -0.03947095
-0.0015582752 0.00983685 -0.0075249886 0.023351675 0.002164576 -0.040621143 -0.008801503 -0.018265827
-0.029242381 -0.0032303368 -0.034969915 0.01835441 0.004633794 0.016611306 0.024954934 0.033006426
-0.013880457 0.0014101472 -0.033997804 0.008150897 0.026191158 -0.023040093 0.019832041 -0.016446013
0.010355837 -0.016001893 0.0062152436 -0.034205068 0.026451267 -0.007872175 0.03211932 -0.0130315535
0.014867394 -0.017513845 -0.01586193 -0.010239431 0.016647747 0.014327785 0.020247921 -0.0065201013
0.0034152572 0.021639233 -0.013818718 -0.01103846 0.027106043 -0.029996548 -0.01714004 -0.019251041
-0.0068968413 -0.025834698 0.008299999 -0.02439194 -0.015244027 -0.03403906 0.023344064 -0.022047883
-0.004441951 -0.020721605 -0.0043843403 -0.007163225 -0.011715759 -0.0006999935 0.015136737 0.029306004
0.025809411 -0.02614736 -0.0041768216 -0.057058457 0.0143733695 0.0132642705 -0.0073093264 0.0054988605
0.037806287 0.05161654 0.005376635 -0.011112042 0.007861526 0.05133311 0.041351467 0.006622869
-0.024260499 -0.00071454997 0.0074410182 -0.01820317 -0.073338985 -0.043824963 0.00094173005 -0.00753455
-0.024735719 -0.03063525 0.0020988975 0.043718558 0.0054398226 0.0071925293 0.014094336 -0.003070932
0.003753469 -0.008392418 0.03117826 -0.0005521923 0.02495869 -0.020517576 -0.028246993 0.004075658
-0.03232626 0.020240963 0.020426294 0.028109537 0.031172253 0.010902193 0.0129504455 -0.0058953133
0.031895615 0.014255477 -0.009109823 -0.03355369 0.003251712 0.0050894404 0.035863783 0.030859442
0.03208123 0.0014366789 0.01219299 -0.022330545 0.008849559 0.011648816 -0.013303306 -0.020648083
0.007680052 -0.029328262 -0.016317787 0.02903402 0.020651828 -0.03736141 -0.03712451 0.022846
-0.0022325064 0.0071134167 -0.020917434 -0.012837491 0.029179156 -0.018386284 0.011881203 0.0008650385
0.011048944 0.0014398363 -0.0070292354 0.012363267 0.009254232 -0.0033165112 0.024230674 0.032398667
0.018637292 -0.010548345 -0.026384195 -0.024340803 -0.017324558 -0.0033187987 0.017797334 0.009645249
0.0316081 -0.0353121 -0.020829791 0.032049607 -0.024936765 0.023078792 0.0007569909 -0.004194239
0.0250154 0.027514426 -0.014272538 -0.0019373916 0.03294963 0.029349739 0.014350224 -0.021152724
-0.023678016 0.025245745 0.02015614 -0.0037803666 0.0344236 0.025001453 -0.007942275 0.015178326
0.034355633 0.020648653 -0.016967194 -0.033589087 0.0105775455 0.013155686 -0.034757465 0.005276329
-0.014666813 -0.008883135 -0.02852844 -0.022706915 0.028039062 0.003924399 -0.013754406 -0.04587939
0.0008819388 0.00056559633 -0.01551699 0.05233098 0.06016725 -0.022672797 -0.0059829317 -0.064748004
0.06995844 0.08076098 -0.023584388 -0.02925851 -0.03739871 -0.033325747 0.036524456 0.00780937
-0.029235357 0.034187138 -0.01403087 0.013542792 0.020844037 0.010801499 0.032768864 -0.025542295
0.0027669983 -0.002154585 0.015753675 -0.015712297 -0.021645458 -0.02769586 0.024082845 0.01037055
-0.034179863 -0.0026630638 -0.030062731 -0.03045864 0.02203574 -0.018452005 0.020692104 0.03270983
0.004780076 0.015266469 -0.03088376 -0.015089517 -0.0019466783 0.0075540943 0.014292943 0.019039873
00000000: cf24 973c 09f5 903c dc5d f039 031b e13c
00000010: bbc7 033d b39c fbbc 7045 e9ba 4aac 21bd
00000020: 0a3f ccba bd2a 213c 2e94 f6bb 034c bf3c
00000030: 8fdb 0d3b 5b62 26bd 2e34 10bc 37a2 95bc
00000040: b88d efbc 0fb4 53bb 9d3c 0fbd fd5b 963c
00000050: 15d7 973b 6f14 883c 4a6e cc3c bf31 073d
00000060: db6a 63bc b0d4 b83a 4841 0bbd 578b 053c
00000070: d78e d63c 94be bcbc ce76 a23c cab9 86bc
00000080: 87ab 293c 6716 83bc 3ea9 cb3b 9d1a 0cbd
00000090: 54b0 d83c 4cfa 00bc 8c8f 033d 4c82 55bc
000000a0: 5f96 733c 3279 8fbc e1f0 81bc 49c3 27bc
000000b0: db60 883c 16bf 6a3c f8de a53c 93a6 d5bb
000000c0: 82d2 5f3b c344 b13c e767 62bc a8da 34bc
000000d0: 7e0d de3c 52bb f5bc 4569 8cbc 5cb4 9dbc
000000e0: e6fe e1bb 4aa3 d3bc b8fc 073c 9bd1 c7bc
000000f0: 15c2 79bc 8b6c 0bbd 0d3c bf3c c39d b4bc
00000100: c98d 91bb 5bc0 a9bc 83aa 8fbb 7db9 eabb
00000110: 74f3 3fbc c57f 37ba 1400 783c 2513 f03c
00000120: 426e d33c fd32 d6bc b8dd 88bb 21b6 69bd
00000130: 487e 6b3c 6252 593c 1383 efbb c92f b43b
00000140: c4da 1a3d dd6b 533d 7c2e b03b 480f 36bc
00000150: a1cd 003c ab42 523d 2860 293d a704 d93b
00000160: f4bd c6bc a350 3bba c9d3 f33b d01e 95bc
00000170: c032 96bd ce81 33bd 6fde 763a 63e4 f6bb
00000180: 90a2 cabc c7f6 fabc a88d 093b 3b12 333d
00000190: 8a40 b23b 4faf eb3b eeeb 663c b141 49bb
000001a0: c3fc 753b 5a80 09bc 8d69 ff3c ffc0 10ba
000001b0: 2b76 cc3c 7a14 a8bc 3d66 e7bc 198d 853b
000001c0: 8a68 04bd 60d0 a53c 0b55 a73c f945 e63c
000001d0: f45c ff3c 1d9f 323c 1b2e 543c 792d c1bb
000001e0: faa4 023d ce8f 693c 5e41 15bc 986f 09bd
000001f0: ad1a 553b 52c5 a63b e7e5 123d f1cc fc3c
00000200: 9c67 033d f24e bc3a 1bc5 473c 8cee b6bc
00000210: befd 103c adda 3e3c 1cf6 59bc 2b26 a9bc
00000220: f2a8 fb3b d341 f0bc e1ac 85bc c1d8 ed3c
00000230: 062e a93c 4708 19bd df0f 18bd 8927 bb3c
00000240: 3e4f 12bb aa17 e93b 0a5b abbc 5754 52bc
00000250: 2009 ef3c d59e 96bc 61a9 423c c0c3 623a
00000260: a106 353c e4b8 bc3a 8055 e6bb 4d8f 4a3c
00000270: 109f 173c d359 59bb 687f c63c 77b4 043d
00000280: 3cad 983c f7d2 2cbc ab23 d8bc 5d66 c7bc
00000290: 3bec 8dbc 3480 59bb b7cb 913c 1b07 1e3c
000002a0: 7f77 013d 6ca3 10bd 3da3 aabc 7346 033d
000002b0: 3048 ccbc bc0f bd3c cd70 463a d46f 89bb
000002c0: 19ed cc3c ef65 e13c 5dd7 69bc 13f0 fdba
000002d0: 31f6 063d dd6e f03c 341d 6b3c 7a48 adbc
000002e0: 66f8 c1bc 2ad0 ce3c 7d1e a53c 07c0 77bb
000002f0: c3ff 0c3d d9cf cc3c 5120 02bc 83ae 783c
00000300: 7eb8 0c3d 5d27 a93c c9fe 8abc b694 09bd
00000310: 714d 2d3c f28a 573c d85d 0ebd 0ee5 ac3b
00000320: 134d 70bc 928a 11bc 7ab4 e9bc da03 babc
00000330: 2db2 e53c 3f98 803b 295a 61bc 07ec 3bbd
00000340: e931 673a 8744 143a f93a 7ebc 0259 563d
00000350: ef71 763d 4dbc b9bc 780c c4bb 9a9a 84bd
00000360: 5f46 8f3d 0366 a53d 0c34 c1bc 8baf efbc
00000370: 642f 19bd 9480 08bd ab9a 153d bee5 ff3b
00000380: fd7e efbc d007 0c3d bce1 65bc 96e2 5d3c
00000390: 1dc1 aa3c c5f8 303c a538 063d 133e d1bc
000003a0: 8756 353b f033 0dbb da0d 813c 13b7 80bc
000003b0: d151 b1bc 6ee2 e2bc 6349 c53c 3de9 293c
000003c0: 2f00 0cbd cc86 2ebb 1e46 f6bc 6684 f9bc
000003d0: 4c84 b43c a928 97bc 7d82 a93c befa 053d
000003e0: 2fa2 9c3b 3620 7a3c f0ff fcbc 063a 77bc
000003f0: af27 ffba 5688 f73b f32c 6a3c 82f9 9b3c
