Lecture8_Image restoration (HuStar_4)/outputs/x3/epoch_53.pth (torch, 231589 bytes, 5 tensors)

conv1.weight f4 [64, 1, 9, 9]
000000 0a 74 2a 3c 95 8c 1c 3d 45 4a 13 bd 24 24 8c 3d
       0.010403642 0.038220007 -0.0359595 0.06842831
000010 f4 01 8c bd 01 82 c5 3d 4d d4 81 bd 16 c9 8a bd
       -0.0683631 0.09643937 -0.06339321 -0.06776635
000020 51 5f 9a bc 5c 38 8b 3d 72 1d 34 bd 7e 50 f4 3c
       -0.018844279 0.06797859 -0.043973394 0.029823538
000030 17 81 d9 bd 09 3f a5 bd 0d f0 77 bd 4a 1e 22 bd
       -0.10620325 -0.080686636 -0.060531665 -0.039579667
000040 1c 15 e4 bd 3e a9 8c 3d a9 82 68 bc 6f 17 e7 3c
       -0.11136839 0.06868218 -0.014191308 0.028209416
000050 5a ca 8e 3d ed 7b ad 3c fd fd 32 3d e4 ce ea 3d
       0.06972189 0.021177256 0.043699253 0.114652425
000060 d5 22 5f bd 57 13 f2 3b a5 26 96 bd 3e 94 48 3d
       -0.054476578 0.0073875594 -0.073315896 0.0489695
000070 53 c4 1f 3d 37 22 09 be b6 3e e3 3d f1 b3 da 3d
       0.03900559 -0.13391958 0.110959455 0.10678852
000080 bb c5 c0 3d fb f5 86 3d 17 9f 97 3d 76 c3 38 bd
       0.09412714 0.06589886 0.07403391 -0.04510828
000090 91 75 02 be cc fe 98 bd 16 d5 af bd 31 ca 8f 3d
       -0.1274016 -0.07470474 -0.08585565 0.07020987
0000a0 d8 6d 8d 3d 8d 34 68 bb bc 3a bf 3b 3e f9 b3 3d
       0.06905717 -0.0035431713 0.005835859 0.087877735
0000b0 b0 8d 11 bd ca 75 2c bc 1c 26 2f bd dd 1e b5 3c
       -0.035535514 -0.01052613 -0.042760953 0.022109443
0000c0 eb 16 1e 3e aa 72 fb 3d f0 b0 53 3d 39 4d 4a 3c
       0.1543843 0.1227773 0.051682413 0.012347513
0000d0 a0 f2 11 3c 63 2f b7 3c d5 03 05 bb 4c 29 08 be
       0.008907944 0.022361463 -0.0020296474 -0.13297004
0000e0 37 3e b2 bd 1f 7e ca 3d 16 67 d3 3a 22 95 fe bd
       -0.08703273 0.09887337 0.0016128744 -0.124307886
0000f0 f0 d0 00 bc 6e 6d c0 3d 33 04 cf bd d9 72 86 bc
       -0.007862315 0.09395872 -0.10108223 -0.016412186
000100 a4 a3 83 bd c1 3c 0f bd 67 7b 7a bd 69 19 42 bd
       -0.06427696 -0.03497005 -0.061152842 -0.047387514
000110 b4 cc 1d be 7c 23 2d 3d 11 03 02 3e 66 c5 b3 3d
       -0.1541012 0.04227017 0.12696482 0.08777885
000120 34 e3 48 3d 51 e5 8f bd 7a 9a f9 3b 79 98 22 bd
       0.049044803 -0.070261605 0.007617292 -0.03969619
000130 38 51 c7 3c 26 c7 01 be fe 9e 36 3b 9d ae dc 3d
       0.02433072 -0.12673625 0.0027865763 0.10775492
000140 b0 fb 49 3d e0 5d 97 3c b2 d8 f8 3c ce 71 88 3c
       0.049312294 0.01847738 0.030376766 0.016655829
000150 bb f6 8f bd 57 a3 9e bd 97 22 f0 bd 16 99 8e 3d
       -0.07029482 -0.07745998 -0.117253475 0.069627926
000160 82 f6 f9 3c c3 e5 be 3b 6a 28 b1 bd 22 f8 aa 3d
       0.030513052 0.0058257296 -0.086502865 0.08348109
000170 14 39 53 3d 6d 10 7f 3d d0 29 a5 bd 83 ce 8c bc
       0.051568106 0.062271524 -0.08064616 -0.017188316
000180 9c 4d e9 3d 41 64 b1 3d cf 0d c4 3d c2 99 20 bd
       0.11391756 0.086617 0.09572946 -0.039209135
000190 7e 29 89 3d 8c ce a1 bd 09 4c 1c 3b 15 a0 ad bd
       0.06697367 -0.07900724 0.0023849031 -0.08477799
0001a0 fd b7 52 bd 45 6b 30 bc b4 51 f4 3c 78 8c d8 3d
       -0.051444996 -0.010767763 0.029824115 0.10573667
0001b0 1a 91 d9 3c 12 91 d1 bc 1b 31 b9 3d 8d ec 47 bd
       0.026558448 -0.02558187 0.09042569 -0.048809577
0001c0 20 16 47 3d 81 b5 2e bd 40 1a 69 bc 4f 74 9a 3c
       0.048605084 -0.042653564 -0.01422745 0.018854288
0001d0 61 58 d1 bd 62 f8 0b bc 29 66 ae 3c 62 40 f9 3d
       -0.10221935 -0.008543106 0.021288948 0.12170483
0001e0 65 c4 0f bc ba a0 27 3d 69 d2 9a 3d f3 c3 50 bd
       -0.008774851 0.040924765 0.07559664 -0.05096812
0001f0 9f 88 df 3d 2f bf 92 bd 92 8f dc 3c 4f 5f 9d 3c
       0.1091473 -0.071653716 0.026923928 0.019210486
000200 77 32 4d 3d d2 24 cd 3d e3 79 75 bd 8b 39 bb bc
       0.050096955 0.100167885 -0.059930693 -0.022854587
000210 41 82 61 bc 13 8d 9c bd 3a 67 0d bd 11 75 cf bd
       -0.013763965 -0.07644095 -0.034522273 -0.101297505
000220 54 89 3c 3c 88 3d 6c 3c 38 f4 cf 3b 52 f4 87 bd
       0.011507351 0.014418967 0.006346252 -0.06638397
000230 05 ab 84 bd 89 61 52 bd 26 db 42 3d 7a 20 dc 3d
       -0.06477932 -0.051362548 0.047572277 0.10748382
000240 f1 f4 44 3c c8 36 8d bd 3f 1a 5f bd 68 b8 38 3c
       0.012021289 -0.06895214 -0.05446839 0.011274435
000250 94 22 d3 bd c0 94 04 be 2a 48 98 bd 64 b2 1f bc
       -0.1030933 -0.12947369 -0.07435639 -0.0097471215
000260 48 6e 41 3c 39 f0 c0 3d 16 45 33 3d 8b f1 f0 3d
       0.011806078 0.09420819 0.043767057 0.11764821
000270 1c 50 2e bd 66 10 c1 3c 69 6a c9 bd 7f 72 d4 3d
       -0.042556867 0.02356739 -0.09834749 0.10373401
000280 68 c5 a5 3d 1c db 06 3e 2e 81 72 bd d7 b3 f2 3d
       0.08094293 0.13169521 -0.059205227 0.11850708
000290 42 a5 08 3e 4f ae 1f 3e 75 78 e3 3d 69 09 3d 3e
       0.13344291 0.15593837 0.1110696 0.18460621
0002a0 71 29 fb 3d 81 ff a3 3d ce d4 32 bd 20 d6 d5 bd
       0.12263764 0.08007718 -0.043659978 -0.10441232
0002b0 21 33 13 bd 36 5e 1a bd 7c f6 0e be 53 0b d1 bd
       -0.035937432 -0.037687503 -0.13961214 -0.10207238
0002c0 ea a5 0b be 51 4a 90 bd 90 bc 18 3d 71 b0 7a bd
       -0.1363751 -0.07045425 0.037289202 -0.061203424
0002d0 56 a9 53 3b 4f 40 a8 38 af 2a 26 3d 8f 83 0b be
       0.0032296977 8.022843e-05 0.04056805 -0.13624404
0002e0 f0 4f d2 bd 96 44 4c bd 27 e3 9a bd dc 44 07 3d
       -0.10269153 -0.049870096 -0.07562857 0.033024654
0002f0 ee 5e 49 3d 90 59 8d bd 4d 7c 69 bd e8 70 a3 bd
       0.049162798 -0.06901848 -0.057003308 -0.079805195
000300 af 68 8b 3d cd 37 09 3e 48 84 48 bd 69 44 b6 bc
       0.06807076 0.13400193 -0.04895428 -0.022249417
000310 96 ad 7c 3d 51 0f 20 bd 3b 2c ed 3d db 90 4d 3d
       0.061688982 -0.039077107 0.11580702 0.050186973
000320 3e ec cb ba 78 39 41 3d ed 08 ac 3d 01 e5 44 bc
       -0.0015558077 0.047173947 0.0840014 -0.012017489
000330 8b c7 97 bd 7d 28 87 3c 66 5b e4 3c d9 f6 9a 3c
       -0.07411107 0.016498799 0.027875613 0.018916534
000340 a5 9a 90 bb f3 b2 b9 3d 7c 26 c9 ba 1e a7 cd 3c
       -0.0044129663 0.09067335 -0.0015346552 0.025104102
000350 52 2b 85 3d 47 b9 87 bd 54 cc 2e 3d 2d 1c d4 bb
       0.06502403 -0.06627136 0.04267533 -0.0064730854
000360 38 fe 7c 3d f4 95 9b bd 61 43 21 bc f5 73 f7 ba
       0.06176588 -0.07596961 -0.009842725 -0.0018879162
000370 cb 97 cb bd dc d5 c4 bd 75 7e e0 3c 51 21 f9 bc
       -0.099410616 -0.09611103 0.02740405 -0.030411394
000380 e6 22 8f 3d f2 44 61 bd 4c 25 08 bd d5 c6 a0 bd
       0.06989078 -0.054997392 -0.033238694 -0.07850424
000390 85 15 52 3d 24 66 97 3c 2e 8b f0 b9 8d c0 08 bb
       0.051290054 0.018481322 -0.00045880064 -0.0020866722
0003a0 b7 c6 8a bd 1a e3 47 3d 15 74 44 3d eb e9 70 bd
       -0.06776183 0.048800565 0.047962267 -0.05881683
0003b0 f9 24 58 3d 9a 37 c1 3a 56 58 a1 bd e7 b6 a5 3d
       0.052769635 0.0014741302 -0.07878177 0.080915265
0003c0 cf 2a 89 3d e7 0f ce bc cd c8 9f bd be 87 1f 3c
       0.06697618 -0.025154067 -0.078019716 0.009736953
0003d0 87 f8 a0 3d 11 fe b0 3d b9 2b c5 bd 17 64 76 bd
       0.07859903 0.08642209 -0.0962748 -0.060154047
0003e0 25 b3 a6 3d 9d 56 4b 3d 0e 86 69 3d b8 7e 89 bd
       0.08139638 0.049643148 0.05701261 -0.06713623
0003f0 82 4e cb 3d 71 bf c2 bd 71 28 70 bc 3d b1 66 bb
       0.099270836 -0.09509171 -0.0146580795 -0.0035200857

conv1.bias f4 [64]
000000 07 8c 81 3c 48 93 d8 bd 4e 1b c5 3c 3a ad 40 bd
       0.01581384 -0.10574967 0.024060871 -0.0470402
000010 85 a8 87 3d 7d 06 4c 3c 0a 06 58 3d 85 59 b2 bc
       0.066239394 0.012452719 0.052740134 -0.021771202
000020 79 eb ee 3d 35 99 1f bd 34 bc 92 3b 4e 22 c4 3c
       0.116660066 -0.03896447 0.004478002 0.023942139
000030 bc 5f 04 be 70 53 2c 3e 92 7e 81 3d b2 ea 99 3c
       -0.12927145 0.16828704 0.063229695 0.01878867
000040 bb 70 e8 bc 12 b7 72 bd 12 0c 80 3d 79 19 fa 3c
       -0.028374067 -0.05925662 0.06252302 0.030529724
000050 78 89 ae 3c 88 a1 3c bc 9c a9 6e bd bb 6c 96 3d
       0.021305785 -0.011513121 -0.05826722 0.073449574
000060 81 3e b8 bd 94 f5 43 3d a9 06 12 bc 5a ec 3e 3c
       -0.08996297 0.047841623 -0.008912721 0.01165303
000070 e7 1c b3 3c 33 c2 28 3d 87 2e c4 3d ad 1e db bb
       0.021864368 0.041200828 0.09579187 -0.0066870064
000080 85 dd 18 3d cc fb 91 3d 5c 4b f4 ba 9a 2f 8f bd
       0.037320632 0.071281046 -0.0018638182 -0.06991501
000090 dd e1 a6 bb fe 73 99 3d 6a 27 31 bd 38 b4 26 3d
       -0.005092843 0.07492827 -0.04325048 0.040699214
0000a0 56 c4 96 3c 0b 90 e2 bc b5 da c6 3d 32 ae 9e bc
       0.018404167 -0.027656576 0.09709684 -0.019370172
0000b0 85 54 0c 3d a5 10 89 bc 58 33 67 bc c9 ba a2 bc
       0.03426029 -0.01673157 -0.014111362 -0.019864457
0000c0 0b 58 13 3c 85 25 57 bd d8 b1 84 bc 26 47 9e 3d
       0.008993159 -0.052526016 -0.016198084 0.07728414
0000d0 6e 7d 78 3c 78 9c 2f 3c c3 b2 2d 3c 77 d1 98 3c
       0.0151666235 0.010718457 0.010601702 0.018654568
0000e0 1b fa b6 3d e1 f0 d5 bc 47 15 52 bc a4 e4 8e 3d
       0.089344226 -0.026115837 -0.012822456 0.069772035
0000f0 0c a8 ed 3c 9d bc 4b bc db 4e 58 bd a2 0a b6 bd
       0.029010795 -0.012435106 -0.052809577 -0.08888747

conv2.weight f4 [32, 64, 5, 5]
000000 74 25 9a 3b 8b 08 6b 3a 4a 70 48 3d 2f 66 99 3d
       0.004704172 0.00089658116 0.048935212 0.07490193
000010 28 e3 d7 bd f5 fc eb 3c 99 15 0f bd 6d 51 75 bc
       -0.105413735 0.028807143 -0.034932707 -0.014973027
000020 7f c9 2e 3d d5 7a 88 bc c4 a8 08 3d b9 9c 1b bc
       0.04267263 -0.016660133 0.033364072 -0.009497815
000030 af f2 4d bc 08 45 bd 3b 49 5e 38 3d cc 82 50 bc
       -0.012570067 0.0057760514 0.045011792 -0.012726497
000040 ef 30 a4 3c 7c c6 99 3c 71 dd cb 3c 5a 01 4b 3d
       0.020042865 0.018771403 0.024885865 0.049561836
000050 90 01 ad bc 90 b7 61 bc 68 54 2b bd 1b 94 05 3d
       -0.02111891 -0.013776675 -0.041828543 0.032611948
000060 c9 44 80 bb 68 5e 49 3b 87 3a f0 3c bb 2d ac bc
       -0.00391445 0.0030726437 0.029324783 -0.0210179
000070 33 ac f2 bc 6f 8a fd bc c2 ae 68 3a 56 7d 89 3c
       -0.029623127 -0.0309498 0.00088761386 0.016783398
000080 62 76 22 bb 2e e5 2d 3c bd 48 c2 3a 15 1b 94 3d
       -0.00247898 0.010613723 0.0014822703 0.07231728
000090 48 4a 93 3c 24 ce ef 3b 08 dd 0d 3d 95 3e b9 3d
       0.017979756 0.007318275 0.03463462 0.0904514
0000a0 fd 7b e1 3c 48 c3 43 3c 84 b7 48 bd 5b d7 59 bc
       0.027524943 0.011948414 -0.04900314 -0.013295974
0000b0 0c 99 07 3d 47 8e ad bd b8 b2 5e bc 72 6e b4 bc
       0.03310494 -0.08474403 -0.013592415 -0.02202532
0000c0 36 dc ea bc 9c 9d a1 3b 04 18 20 be 82 1c 2c be
       -0.028669458 0.0049321186 -0.15634161 -0.1680775
0000d0 9a cb 5a be b8 f4 30 be dc 67 82 be a6 f6 c6 bd
       -0.2136673 -0.17280853 -0.25469863 -0.09715013
0000e0 0a bc d8 bd 40 0a 92 bd 96 69 a6 bc 30 2b ac bd
       -0.105827406 -0.07130861 -0.02031402 -0.08406675
0000f0 62 14 01 3d c1 81 3c 3c 17 1b 73 bc ad 78 47 3d
       0.03151358 0.011505545 -0.014838002 0.04869907
000100 da 4f 6e 3c 87 76 f3 3c 03 98 9f 3d a7 23 41 3d
       0.014545405 0.029719604 0.07792666 0.04715314
000110 41 40 84 3d 7b ac 49 3d a8 5e 1b bc f7 16 b1 3a
       0.06457568 0.049236756 -0.009483017 0.0013510872
000120 3f 55 e5 bc d6 4b 3b bc 89 2d a4 3c aa 3e db 3c
       -0.02799475 -0.011431655 0.020041244 0.026763279
000130 96 52 2e ba dc 6b bd 3b 58 86 15 bc c6 cf 1a bd
       -0.00066498795 0.00578068 -0.009126268 -0.037795804
000140 f4 d9 ae 3c 22 ac f2 3c e0 02 ff bb aa 5e 1a 3c
       0.021344163 0.029623095 -0.007782325 0.009421984
000150 cc 2a 0e 3c ef 70 1f 3c ca db 75 bc 80 2f 20 bd
       0.008677196 0.009731515 -0.015006015 -0.0391078
000160 26 fa 14 3d d6 76 19 3b 89 1a ad ba 86 77 f6 3b
       0.036371373 0.002341678 -0.0013206761 0.0075215725
000170 13 87 8d bc f0 4e c6 3c a6 6f 24 3b 78 2e e3 3c
       -0.017276322 0.024207562 0.0025090962 0.027732119
000180 cb 01 f3 bb 43 cc fe bb 14 27 a4 bc ad c0 8f 3b
       -0.007415985 -0.0077758147 -0.020038165 0.0043869824
000190 3b be 0a bd fd f6 88 bd 98 07 f7 bc d3 5b 58 bc
       -0.033872824 -0.06687734 -0.030154988 -0.013205486
0001a0 0e 2f ad bc 40 34 4d 3b 0e 39 3c bc b0 bb 97 bb
       -0.021140601 0.003131166 -0.011488212 -0.0046305284
0001b0 93 dc 2e 3b 91 68 86 3c e5 d6 6a 3c b3 33 cb 3b
       0.0026681765 0.016407283 0.014333461 0.0062012314
0001c0 e3 45 6c 3d fe f9 0c 3d ae 0b fb b9 72 7a 82 bc
       0.057683837 0.0344181 -0.00047883153 -0.015927527
0001d0 40 88 dc 3b e3 98 b2 bc fd 09 45 38 09 2b 1c ba
       0.0067301095 -0.021801418 4.6977762e-05 -0.00059573405
0001e0 b5 85 18 bd b9 a8 1a bd be 3e 58 bd f9 5d 86 bd
       -0.037236888 -0.037758563 -0.05279421 -0.065608926
0001f0 7c f9 29 bd 0e cc a3 3d d0 0d ca bc 77 99 9c 3d
       -0.041497692 0.07997905 -0.02466479 0.076464586
000200 75 f4 a4 3c d2 1a cc 3d 01 bd 4e bd 34 f6 f9 bc
       0.020136097 0.09966053 -0.050473217 -0.030512907
000210 b4 9f 01 bd 79 06 8b bc a4 83 af 3b 0f 98 40 bc
       -0.031646445 -0.01697086 0.005356269 -0.011755004
000220 00 0e cb 3b 0e 5d f6 3c 3a 3b 85 3b f7 2b 59 3a
       0.0061967373 0.030073669 0.0040658982 0.00082844443
000230 c7 a1 b9 3c fa 00 1b 3d f4 a6 17 3d b6 74 4e 3c
       0.02266015 0.03784273 0.037024453 0.012601068
000240 e6 72 cb 3b dd 38 55 bd 33 81 55 bd db ab a5 bc
       0.0062087653 -0.052056182 -0.052125167 -0.020223549
000250 d9 ce 78 bd c0 98 bd bd 57 49 0b 3c 4c 8d 78 3c
       -0.06074414 -0.092576504 0.008501372 0.015170407
000260 79 65 eb bb a0 c1 21 3c 5c ab 19 bd 3b 21 3d 3b
       -0.0071837273 0.009872824 -0.037516937 0.0028858918
000270 e2 c5 83 bc 06 4c 03 bd 74 94 f4 bc 38 a0 01 3b
       -0.016085569 -0.032054923 -0.029855944 0.0019779336
000280 4e d3 01 bd 5e 65 39 bd 06 42 57 3b fa f0 ff 37
       -0.031695656 -0.045262687 0.003284575 3.0510582e-05
000290 7f f5 f8 bc 8b 92 19 3c c4 72 cc bb 50 7d 7d 3c
       -0.0303905 0.0093733175 -0.006239267 0.015471771
0002a0 fb 5e 11 3c 7f fd 47 3c 23 fb 9e 3b 0d c7 e6 3b
       0.008872743 0.012206434 0.004851715 0.0070427717
0002b0 dd d7 03 3d f3 26 d8 3c f0 6c 18 3b 20 8f 31 3d
       0.032188285 0.02638576 0.0023258291 0.043349385
0002c0 7f 37 8d 3d fb 4e 30 3d 00 e1 ca bb d8 53 3c 3d
       0.06895351 0.04304407 -0.006191373 0.045978397
0002d0 4c 4a 22 3c 31 57 f8 bc 53 f7 64 3d f3 bf a1 3c
       0.009905409 -0.030315014 0.05589993 0.019744849
0002e0 57 1c 77 bc b7 4f 36 3c 83 8d ab bc 2f 58 a9 bc
       -0.01508244 0.011127404 -0.020941501 -0.020671932
0002f0 5a 24 21 3d 62 1a 49 3d f2 42 7d 3c be d0 b8 bb
       0.03934131 0.049097426 0.015457856 -0.0056401184
000300 0a 45 a9 bd 56 62 07 bc c9 af 83 3d ce c2 06 3d
       -0.08265121 -0.008263191 0.06430013 0.032900624
000310 e9 3a e5 3d 26 7b 05 bc 7f e6 7b bd 42 3c 22 3d
       0.11192877 -0.008147037 -0.061499115 0.039608248
000320 27 9d 81 bd 8a 42 84 3c e9 a1 21 3c 9b 21 96 3a
       -0.063288026 0.01614501 0.009865263 0.0011454107
000330 fd ae 43 bc 6a 54 54 3d b4 22 24 3d 82 3b 46 3c
       -0.011943576 0.051838316 0.040072158 0.012099149
000340 5a 66 0c bd cf f6 ff bc 29 44 be 3d 40 2c c2 b8
       -0.034277298 -0.031245617 0.09290344 -9.258883e-05
000350 f8 25 97 bc 1c 54 99 ba d8 1d 59 bd 08 e4 25 3d
       -0.018450722 -0.001169804 -0.053006977 0.04050067
000360 42 a8 a3 3c 5e 5f 19 3c d2 1a 30 3c a5 7a 18 bd
       0.019977693 0.009361116 0.010748582 -0.037226338
000370 3d be 3a bd 55 c6 ee 3c 87 ac 2d 3c a3 4a 80 bb
       -0.04559158 0.029147306 0.010600216 -0.0039151474
000380 6b 38 67 bb cb 6c 15 ba e5 e0 f8 3b 4f 3f fb 3a
       -0.003528143 -0.00057001103 0.007595169 0.0019168648
000390 d3 27 1a 3c 4d 3b 35 3c 15 80 9f 3c 42 fc 84 3b
       0.009408909 0.011061502 0.019470254 0.004058392
0003a0 47 20 13 3d 57 57 12 3d 61 b1 82 bb 10 45 be bc
       0.035919454 0.035727825 -0.0039884304 -0.023226291
0003b0 16 7c b3 bc 81 49 1e bc b3 da 0a 3b d2 ab 85 bc
       -0.021909755 -0.009661079 0.0021187484 -0.016317282
0003c0 a3 eb 5d bd 09 bb 10 bd 8e fb c7 bc 0e f6 d6 bc
       -0.0541798 -0.03533462 -0.024411943 -0.026240375
0003d0 f6 68 b4 bc 86 7c 1b bd 85 e3 1b bd 57 2d 2c bd
       -0.022022706 -0.03796055 -0.038058776 -0.042035427
0003e0 82 41 d9 bc 7d 44 42 bc 48 72 ca bc bc 59 06 bd
       -0.026520494 -0.011857149 -0.024712697 -0.03280042
0003f0 ec ae 8b bc a1 93 8e 3c 66 b8 73 3c e9 8b 06 bd
       -0.017051183 0.01740438 0.014875507 -0.032848272

conv2.bias f4 [32]
000000 00 87 8c bc f4 ad 8e bc 30 c7 44 bb dd fb 33 bc
       -0.017154217 -0.017416932 -0.0030025952 -0.010985342
000010 6d 47 d2 3c 9e 68 80 3c f0 36 de bb 2a 0c 11 3c
       0.025668824 0.015674885 -0.0067814514 0.008852998
000020 b4 87 ac 3c 46 c6 28 bc e4 d4 8c ba 32 e0 05 bc
       0.021060802 -0.010301178 -0.0010744599 -0.008171128
000030 e2 9b e5 3c a2 df 35 3c e7 d7 24 3d 7b 84 b5 bb
       0.028028432 0.0111006815 0.040244963 -0.0055394745
000040 c0 92 6d bc fe 64 90 bc 2f 0c e8 3b 7f 67 be 3c
       -0.01450032 -0.017626282 0.0070815305 0.02324271
000050 62 9b c0 3c 8d 87 4e 3c 94 1a 83 bc 42 7e 2f bb
       0.023511592 0.01260556 -0.016003884 -0.0026778136
000060 3c 4f 01 bc be e0 0a 3d 90 c4 c2 3c 76 fc a8 3c
       -0.007892426 0.033905737 0.023775369 0.020628195
000070 d5 5c 13 3c 34 2d c7 ba f2 a0 9a bc df 27 30 3a
       0.008994301 -0.0015195967 -0.018875573 0.00067198084

conv3.weight f4 [1, 32, 5, 5]
000000 9f 2e 8e 3c 02 bb 8f 3c ac 23 a6 b7 c3 f3 dd 3c
       0.017356215 0.017545227 -1.9805353e-05 0.027093774
000010 27 10 04 3d 50 aa fa bc c5 f5 5a ba 47 b6 1d bd
       0.032241967 -0.03059879 -0.00083526626 -0.03850391
000020 6a d7 93 b8 af 17 2a 3c eb d7 bd bb 2d 60 cf 3c
       -7.04963e-05 0.010381623 -0.0057935617 0.025314415
000030 da a2 a5 3b 42 a6 1b bd 46 b2 ef bb 12 06 9c bc
       0.005054814 -0.038000353 -0.007314953 -0.019045863
000040 b0 f2 f5 bc de cd 28 bb 84 c7 0e bd df 1e 9b 3c
       -0.030022949 -0.0025757472 -0.03485824 0.018935619
000050 f1 92 4c 3b 72 42 6d 3c 12 e8 c0 3c a3 81 01 3d
       0.0031215514 0.014481174 0.02354816 0.03161777
000060 4d fe 7f bc 87 04 c9 3a e4 dc 0a bd 8c ee 04 3c
       -0.015624595 0.0015336432 -0.033902064 0.008113515
000070 58 02 d7 3c d0 64 ba bc 79 bc a3 3c 7c 18 88 bc
       0.026246235 -0.02275315 0.019987332 -0.016613238
000080 69 ee 27 3c 27 3b 81 bc f3 b6 d2 3b 14 bc 0a bd
       0.0102497125 -0.015775276 0.0064305007 -0.03387077
000090 9e 00 d8 3c ec db 02 bc 3e c2 04 3d 8a 4f 51 bc
       0.026367482 -0.007987004 0.032411806 -0.012775311
0000a0 3a 8e 76 3c 76 f3 8d bc 03 73 7f bc 35 e0 20 bc
       0.015048558 -0.017328005 -0.015591386 -0.00981908
0000b0 48 d7 89 3c c7 85 69 3c d0 1d a7 3c 35 25 cc bb
       0.016826287 0.014253086 0.020399958 -0.0062300214
0000c0 1b 85 72 3b 7f 60 b1 3c e7 67 62 bc a8 da 34 bc
       0.0037005607 0.021652458 -0.013818718 -0.01103846
0000d0 7e 0d de 3c 52 bb f5 bc 45 69 8c bc 5c b4 9d bc
       0.027106043 -0.029996548 -0.01714004 -0.019251041
0000e0 e6 fe e1 bb 4a a3 d3 bc b8 fc 07 3c 9b d1 c7 bc
       -0.0068968413 -0.025834698 0.008299999 -0.02439194
0000f0 15 c2 79 bc 8b 6c 0b bd 0d 3c bf 3c c3 9d b4 bc
       -0.015244027 -0.03403906 0.023344064 -0.022047883
000100 c9 8d 91 bb 5b c0 a9 bc 83 aa 8f bb 7d b9 ea bb
       -0.004441951 -0.020721605 -0.0043843403 -0.007163225
000110 74 f3 3f bc c5 7f 37 ba 14 00 78 3c 25 13 f0 3c
       -0.011715759 -0.0006999935 0.015136737 0.029306004
000120 42 6e d3 3c fd 32 d6 bc b8 dd 88 bb 94 cc 6c bd
       0.025809411 -0.02614736 -0.0041768216 -0.05781229
000130 1b 59 7a 3c c0 1a 99 3c aa 0e a7 bb 74 e9 af 3b
       0.015280033 0.018689513 -0.0050981836 0.005368406
000140 8a c8 22 3d 4f 9d 3e 3d b2 41 a3 3a 5b e2 54 bc
       0.03974203 0.04653674 0.0012455492 -0.0129934205
000150 5d 1f a0 3b 9c b8 3f 3d 8a 51 14 3d 54 9e 20 3c
       0.0048865513 0.046806917 0.036210574 0.009803373
000160 68 e3 a0 bc 01 3e 9e bb 3b 17 c7 3b 94 84 99 bc
       -0.019639686 -0.004829169 0.0060757673 -0.018739976
000170 ff a6 8d bd f6 e2 1f bd 3b 1b 5a ba d3 2c d8 bb
       -0.069166176 -0.039034806 -0.00083200977 -0.0065971403
000180 8c 74 ce bc 91 9e e5 bc c3 ef 46 3b 48 61 27 3d
       -0.025202058 -0.028029712 0.0030355311 0.04086426
000190 d5 99 bc 3b 42 23 f4 3b 8f 95 68 3c cd 63 46 bb
       0.005755643 0.007450492 0.014195814 -0.0030271888
0001a0 05 d5 75 3b cc 0b 04 bc 75 e2 00 3d f8 82 ce b9
       0.0037511003 -0.008059453 0.031465966 -0.0003938896
0001b0 22 2e cd 3c df 72 a8 bc 2c cb e5 bc 7d fa 8a 3b
       0.025046412 -0.020562587 -0.028050981 0.0042412863
0001c0 a0 d2 03 bd 07 52 a6 3c f8 ae a6 3c 19 4e e8 3c
       -0.03218329 0.020302786 0.020347103 0.028357552
0001d0 93 cd 00 3d 1d a3 34 3c 9d fa 54 3c 9f aa bf bb
       0.03144605 0.011025217 0.012999204 -0.005849197
0001e0 ac 00 03 3d 3d 28 6d 3c 5a 36 13 bc eb 2a 09 bd
       0.031983063 0.014474926 -0.008985126 -0.033488195
0001f0 98 3f 5f 3b b7 9e a8 3b 9d f1 0e 3d 29 06 f4 3c
       0.0034065004 0.0051458734 0.03489839 0.029788094
000200 d4 8e 04 3d 19 fc 0e 3b 14 fe 37 3c f4 9a c2 bc
       0.032362774 0.0021817742 0.011230011 -0.023755528
000210 3e 53 09 3c be c2 38 3c a9 c7 78 bc 78 d4 a2 bc
       0.008381663 0.011276899 -0.015184321 -0.019876704
000220 d7 a3 1f 3c c7 91 db bc 92 c7 70 bc ee 49 ee 3c
       0.009743652 -0.02680291 -0.014696019 0.029087987
000230 04 41 ba 3c d1 b0 12 bd 66 1a 13 bd 8b 4f be 3c
       0.02273608 -0.035813157 -0.035913847 0.023231288
000240 11 44 8a bb d0 b4 da 3b d0 cf b1 bc 99 e2 55 bc
       -0.00421954 0.0066743866 -0.021705538 -0.013054513
000250 d6 16 e9 3c 74 e0 ac bc 5c 06 49 3c 42 da 9b 3a
       0.028453272 -0.021103121 0.012269583 0.0011890607
000260 e7 5b 39 3c ab 84 d9 3a 89 0e e4 bb 5f 63 4e 3c
       0.011313415 0.0016595324 -0.0069597405 0.012596934
000270 ad 7e 1c 3c 7d f3 4b bb df df c6 3c a7 a6 04 3d
       0.009551686 -0.0031120472 0.024276672 0.032385495
000280 55 bf 98 3c 28 9b 29 bc 5a d2 d6 bc 91 62 c7 bc
       0.018645922 -0.010351934 -0.02622335 -0.024338992
000290 62 b4 8d bc 6b f0 55 bb 3c c8 92 3c 0c 73 1d 3c
       -0.017297927 -0.003264452 0.017917745 0.009609949
0002a0 52 e8 00 3d 01 ee 0f bd cb 30 a9 bc f5 ba 03 3d
       0.031471558 -0.035139088 -0.02065315 0.032160718
0002b0 47 c8 cc bc 91 87 bc 3c 65 fa 61 3a f9 8c 85 bb
       -0.024997843 0.023013862 0.00086203805 -0.004075643
0002c0 51 78 cd 3c ab ec e0 3c 99 bf 6a bc f0 28 01 bb
       0.025081785 0.027456602 -0.014327907 -0.0019708239
0002d0 f7 8e 07 3d 1e 9a f1 3c af 5c 6b 3c 46 6d ad bc
       0.033095326 0.029492434 0.014365359 -0.02117027
0002e0 04 f7 c1 bc e0 df cf 3c be af a6 3c b5 a8 74 bb
       -0.023677357 0.025375307 0.020347472 -0.0037332003
0002f0 77 ea 0c 3d 95 a3 cc 3c 44 25 00 bc 56 39 7b 3c
       0.03440329 0.024980346 -0.007821385 0.015333494
000300 7c ee 0c 3d 40 e7 a8 3c 70 75 8b bc 1c 1b 09 bd
       0.034407124 0.020618081 -0.017023772 -0.03347312
000310 4b b9 2e 3c 6b 13 58 3c 34 77 0e bd 23 13 ac 3b
       0.0106642945 0.013188223 -0.03478165 0.0052513047
000320 fa b4 38 bc 49 45 6b bb 33 3a df bc e8 fc 9f bc
       -0.011273617 -0.0035899451 -0.027249431 -0.019529775
000330 67 61 06 3d ec 4b 3a 3c d8 00 83 bc 25 89 47 bd
       0.032807734 0.01137064 -0.015991613 -0.048714776
000340 34 72 e7 ba 75 69 2b 3b 67 f8 5c bc 02 af 29 3d
       -0.0017657937 0.0026155387 -0.013486958 0.041426666
000350 35 ac 73 3d 09 e1 d7 bc a4 b8 43 bb e1 f8 61 bd
       0.0594904 -0.026352422 -0.0029864693 -0.05516899
000360 41 3a 90 3d 9f 15 9a 3d ac db fa bc 51 27 fc bc
       0.07042361 0.07523655 -0.030622326 -0.030780466
000370 9c d2 d2 bc e4 cb c9 bc 0b ba 11 3d 4f be f1 ba
       -0.025735192 -0.024633355 0.035577815 -0.0018443557
000380 6b e7 d3 bc ab 93 0c 3d 8b 89 5e bc f9 13 6a 3c
       -0.025867185 0.034320515 -0.0135825975 0.014286988
000390 2e 17 b0 3c 7f c1 33 3c 35 8a 07 3d 15 5e cf bc
       0.021495428 0.010971426 0.03309079 -0.025313416
0003a0 fb 5e 4d 3b ad 2a d2 ba 29 65 84 3c 55 39 7d bc
       0.003133713 -0.0016034447 0.016161518 -0.015455564
0003b0 cc fb af bc ff bc e2 bc 9f 2f c6 3c da 97 2c 3c
       -0.02148237 -0.027678011 0.02419263 0.010534251
0003c0 45 af 0a bd 03 8b 28 bb 69 94 f6 bc 39 26 f9 bc
       -0.033858556 -0.0025717623 -0.030100064 -0.030413734
0003d0 d1 a0 b4 3c 3b c1 97 bc fc ad a8 3c 24 12 05 3d
       0.02204934 -0.018524757 0.020590775 0.032488003
0003e0 da 93 96 3b 04 92 75 3c f0 ff fc bc 06 3a 77 bc
       0.004595262 0.014988426 -0.03088376 -0.015089517
0003f0 af 27 ff ba 56 88 f7 3b f3 2c 6a 3c 82 f9 9b 3c
       -0.0019466783 0.0075540943 0.014292943 0.019039873
