Lecture8_Image restoration (HuStar_4)/outputs/x3/epoch_10.pth (torch, 231589 bytes, 5 tensors)

conv1.weight f4 [64, 1, 9, 9]
000000 d5 3e 1c bd b0 ce b8 3b c4 49 5d bd f3 41 3a 3d
       -0.03814586 0.0056398734 -0.054025427 0.04547305
000010 b6 b0 b6 bd 3a 50 b8 3d 42 b8 94 bd 02 23 a5 bd
       -0.08920424 0.08999677 -0.07261707 -0.08063318
000020 71 a2 88 bd aa 13 4b 3d 1a c4 32 bd 52 2b 28 3d
       -0.06671608 0.0495793 -0.04364405 0.04105694
000030 47 2f bb bd bb f7 7d bd 52 88 0a bd ec f4 82 bc
       -0.09139877 -0.062003832 -0.03382141 -0.015985928
000040 d8 25 9f bd 89 34 9a 3d d3 d1 ec bc 88 e7 0b 3d
       -0.0777089 0.075295515 -0.028908646 0.034156352
000050 22 57 a4 3d 24 1f e1 3c b3 a3 28 3d c9 24 f2 3d
       0.08024432 0.02748067 0.04117174 0.118234225
000060 80 23 2f bd 95 e1 2f 3d 21 51 3d bd 69 d2 97 3d
       -0.042758465 0.04293974 -0.04621995 0.074131794
000070 9c 6d ad 3d 27 d3 d0 bd 80 f5 d9 3d c1 5e 91 3d
       0.08468172 -0.10196524 0.106425285 0.07098151
000080 71 b1 82 3d 8f eb 56 3d 4f 19 c4 3d c9 1d 81 bc
       0.063815005 0.05247074 0.0957514 -0.015761273
000090 63 23 cb bd 4b 2a 17 bd fe fa 9b bd 69 18 cf 3c
       -0.09918859 -0.036905568 -0.07616232 0.025280194
0000a0 61 ed 56 3b 7c d2 22 bd 8d 0c 0e bb 42 63 db 3d
       0.0032795297 -0.039751515 -0.0021674961 0.10712291
0000b0 88 58 4a bc 78 1a 83 bb a3 d0 cb bc b1 77 8a 3c
       -0.012350209 -0.004000958 -0.02487976 0.016902776
0000c0 99 69 e0 3d 9a 46 a0 3d 79 a9 38 3d 5e 75 b6 3c
       0.10957641 0.07825966 0.045083497 0.022272762
0000d0 e5 72 bf 3c 48 d8 10 3d 85 20 8a bc 0f 34 e0 bd
       0.023370216 0.035362512 -0.01686121 -0.109474294
0000e0 de 53 8e bd d9 65 cd 3d 19 e4 08 3c da 6e bc bd
       -0.0694959 0.100291915 0.008355164 -0.09200831
0000f0 94 5c 51 3c ec 8d bc 3d e3 5c dd bd 40 7a 8c bd
       0.01277842 0.09206757 -0.10808732 -0.06859255
000100 f6 ea 37 bd 2d c9 8a 3b 27 6f c8 bc 7c 95 80 bc
       -0.04490181 0.004235408 -0.024467064 -0.01569628
000110 4a 75 e8 bd 76 23 46 3d e4 c8 d4 3d 82 bd 8f 3d
       -0.11350496 0.048373662 0.10389879 0.070185676
000120 e5 77 78 bd 13 1b aa bd 51 32 3c 3d 0a 0d 2b 39
       -0.060661215 -0.08305945 0.045946423 0.00016312688
000130 c5 50 2a 3d 92 90 e3 bd 9c 61 a3 bb 33 a1 b9 3d
       0.041580934 -0.11111559 -0.004986001 0.090639494
000140 d8 b6 68 3d 5b 56 fd bb 1d 41 e2 3b 18 2a ae bc
       0.056815 -0.0077312416 0.0069047348 -0.021260306
000150 8c 79 8f bd 87 12 44 bd e7 8a 93 bd 00 b7 b7 3d
       -0.07005605 -0.04786923 -0.07204228 0.08970451
000160 38 e7 5f 3d dd 58 06 3d 03 86 c3 bd 35 43 99 3d
       0.054663867 0.03279959 -0.09547045 0.07483522
000170 44 53 f1 3c 1e 66 96 3d b9 c2 37 bd 40 0d c1 3c
       0.02945865 0.07343696 -0.044863436 0.023565888
000180 d5 08 e4 3d 65 bc 98 3d f8 27 b4 3d 33 4d 18 bd
       0.11134497 0.074578084 0.08796686 -0.037182998
000190 8e 81 90 3d ef fd c0 bd 9c 6f e9 3b 2b fa 7f bd
       0.070559606 -0.09423434 0.0071239006 -0.06249444
0001a0 92 c4 e4 bc 2c 4d f1 bc 18 87 81 3b 4e e1 c3 3d
       -0.027925763 -0.029455744 0.003952872 0.09564458
0001b0 57 95 24 3d 82 9a 5c bc f5 bd 9b 3d 64 cd 54 bd
       0.040181484 -0.013464572 0.07604591 -0.05195369
0001c0 93 bd 83 3d b0 bd 33 bc a4 94 af bc 0e 2f dc 3b
       0.06432643 -0.010970518 -0.021433182 0.0067194765
0001d0 8f 14 bd bd 41 45 05 ba 87 48 d3 3c 3b a8 bf 3d
       -0.09232437 -0.0005083867 0.02579142 0.09358259
0001e0 ca d1 e9 bc d4 ac 3d 3d 5a 7d dc 3d 3d ab 5c bd
       -0.028542418 0.0463074 0.107660964 -0.053874243
0001f0 70 89 c4 3d d5 2c 86 bd 41 4a 21 3d 67 6d 09 3d
       0.095965266 -0.0655152 0.039377455 0.0335516
000200 d2 04 e2 3c 57 f9 b1 3d f2 d1 3b bd 10 58 ad 3c
       0.02759019 0.08690136 -0.045854516 0.021160156
000210 5c 28 06 bc 1b 7a c2 bd 30 4a 22 bd 47 4e a9 bd
       -0.008188333 -0.09495946 -0.039621532 -0.08266883
000220 e3 f0 1c 3d 23 20 7e 3b 4c dc 99 3b 4b e0 26 bd
       0.038315665 0.003877648 0.004695451 -0.040741246
000230 35 0b 30 bc 7e 59 31 bd 1a 5c b9 3c 58 ff c6 3d
       -0.010744859 -0.043298237 0.022626925 0.09716672
000240 a4 80 65 3c b1 81 61 bd 63 4e 90 bd 09 ba 96 3b
       0.014007721 -0.055055324 -0.07046201 0.004599814
000250 56 78 b2 bd 91 b6 b8 bd 27 4b 9b bd c8 ce 22 bd
       -0.087143585 -0.09019197 -0.075826935 -0.039747983
000260 c4 90 9e 3b f1 72 a6 3d 1f 43 3b 3d 23 e2 bf 3d
       0.0048390348 0.08127392 0.04571831 0.09369304
000270 9e f0 76 bd 8f c8 9b 3c 49 f5 ba bd 01 a4 92 3d
       -0.060288064 0.019016532 -0.09128816 0.071601875
000280 2f 6b ec 3c d1 1a de 3d 32 6c 95 bd ea 8c cc 3d
       0.028859703 0.108449586 -0.07296027 0.09987815
000290 a2 05 ea 3d ac 2f ed 3d 6a ac 32 3d 18 13 01 3e
       0.114268556 0.11581358 0.043621458 0.1260494
0002a0 68 13 c7 3d 21 29 ce 3d 3b 06 13 3b c3 d6 a9 bd
       0.09720498 0.100664385 0.0022434134 -0.08292916
0002b0 fa 84 9f 3b 5e 2a 0c 3d a9 a9 72 bd bc e8 3c bd
       0.004868147 0.034220092 -0.05924383 -0.04612039
0002c0 ea 43 b8 bd 76 db a8 bc 7a 4e e9 3d bf 03 ef 3c
       -0.089973286 -0.02061246 0.11391921 0.029176591
0002d0 64 35 0c bb 72 74 5e 3c 60 05 a9 3d b7 33 ac bd
       -0.0021394128 0.013577567 0.08252978 -0.08408301
0002e0 71 95 94 bd 3d 34 d0 bc a5 b5 45 bd 5d 89 9c 3d
       -0.07255066 -0.025415534 -0.048268933 0.076433875
0002f0 5a 09 bf 3d ba 5a cb bd 11 39 a3 bd 02 cc b6 bd
       0.093279555 -0.09929414 -0.07969869 -0.0892563
000300 94 22 75 3d 80 0c d5 3d 0d 5a 9b bd 7d 85 16 bd
       0.05984743 0.10402775 -0.07585535 -0.036748398
000310 fe b2 68 3d c6 19 59 bd 12 4d d5 3d 1f 4f 2e 3d
       0.056811325 -0.053003095 0.104150906 0.042555925
000320 de de 15 bc f8 96 f1 3c 4b 4c 52 3d 73 91 f6 bc
       -0.009147374 0.029490933 0.05134229 -0.030098652
000330 a7 71 97 bd 95 44 ad 3c 2f b1 b4 3c a8 d1 83 3b
       -0.07394724 0.021150867 0.022057144 0.0040227957
000340 35 6d 1f bc 12 99 b4 3d e2 12 49 bc 1c 34 31 3b
       -0.009730627 0.08818258 -0.012272568 0.0027039116
000350 c4 15 52 3d 59 50 83 bd 3f a8 29 3d dd 32 69 bc
       0.05129029 -0.064118095 0.041420218 -0.014233318
000360 5e 03 3f 3d d1 3b 93 bd 14 cf c0 3b c9 92 8e 3c
       0.04663407 -0.071891434 0.0058840606 0.017403977
000370 47 b1 b1 bd 1f 01 ad bd 90 5e 1b 3d 23 5f 0b bd
       -0.08676391 -0.084474795 0.03793198 -0.034026276
000380 f6 60 81 3d 9a d8 d8 bd 09 d4 77 bd 33 8b b2 bd
       0.06317322 -0.105881885 -0.060504947 -0.087179564
000390 0a cc 53 3d 1a 6f b7 3b 6e f6 85 bc 29 6e 8d bc
       0.05170826 0.005597961 -0.016352858 -0.017264443
0003a0 32 88 ad bd d0 50 01 3d 11 8e 93 3c 0f d5 92 bd
       -0.08473243 0.03157121 0.018012078 -0.07169544
0003b0 94 18 5d 3d 89 50 38 3c ac 66 b7 bd 6c 7f 97 3d
       0.053978518 0.01124967 -0.0895513 0.07397351
0003c0 df 3d 8f 3d 77 f6 3b bc 9f 15 8f bd 0c 1d 93 3b
       0.06994223 -0.011472336 -0.06986546 0.0044895466
0003d0 a0 0a ab 3d cf b8 ce 3d bb b2 ae bd b6 d2 51 bd
       0.08351636 0.10093843 -0.08530184 -0.05122634
0003e0 96 71 af 3d 82 8d 5a 3d 0e 56 8a 3d 9b 88 66 bd
       0.08566587 0.05335761 0.06754695 -0.05628262
0003f0 24 f6 c3 3d c6 85 bb bd 4c 14 c2 bb 23 5e 38 3a
       0.09568432 -0.09156375 -0.0059228297 0.00070330704

conv1.bias f4 [64]
000000 dd 3c d6 bc bf 56 b4 bd 71 2f 54 3c 84 e0 86 bd
       -0.026152069 -0.08805608 0.012950764 -0.06585792
000010 11 d9 20 3d f3 c6 ae bb ba ea 70 3d 31 11 05 3c
       0.03926951 -0.005333775 0.058817603 0.0081217745
000020 87 6c 00 3e 65 d0 51 bd 42 87 0d 3c 23 0d 7b 3c
       0.125414 -0.05122413 0.008638205 0.015322956
000030 ba 9c c6 bd 29 7f cb 3d 6c e1 92 3d ad 98 76 3d
       -0.09697862 0.09936363 0.07171902 0.060204197
000040 2c 0a 0e bd ea 40 68 bd 58 50 5b 3d a8 fe f1 3c
       -0.03467767 -0.056702532 0.05354342 0.029540375
000050 f1 f7 7a 3c 21 dc a4 3b 8b 71 98 bd 52 df 94 3d
       0.015317903 0.005031124 -0.074435316 0.072691575
000060 2e a0 89 bd 24 54 99 3d 64 a6 cb ba 92 3f 9e bc
       -0.06720005 0.07486752 -0.0015537259 -0.019317422
000070 03 b8 fd 3c 1d 8c 7a 3d 73 82 bf 3d 4e 1b 3b bc
       0.030971533 0.06116878 0.09351053 -0.011420084
000080 b7 8b 48 3d 63 5d 6a 3d 99 3c cf 3b 25 d1 cd bd
       0.048961367 0.057217967 0.0063243625 -0.10049657
000090 3b 64 e9 bc 11 86 b2 3d c1 41 73 3c f4 0e 49 3d
       -0.028490176 0.087169774 0.01484722 0.049086526
0000a0 e5 ca c1 bc e5 b9 85 3a fa ea c5 3d 7a d7 26 bc
       -0.023656318 0.0010202496 0.09663959 -0.01018321
0000b0 18 13 21 3d ce c6 6e 3c 87 f5 ca bc dc 91 89 bc
       0.03932485 0.014573766 -0.02477528 -0.016793184
0000c0 69 4a 40 bd e6 75 df bc 76 ff a2 bc ef 34 44 3d
       -0.046945963 -0.027277898 -0.019897204 0.047902044
0000d0 3b 14 18 3d 96 c5 1d bb 0e 13 39 3b 0c f5 21 3b
       0.03712867 -0.002407407 0.0028240117 0.002471271
0000e0 5d d3 b6 3d 14 fb 46 bd ee 12 4e bb 82 d2 88 3d
       0.08927033 -0.04857929 -0.0031444388 0.06680776
0000f0 f1 f8 9f 3d 48 38 eb bc 2f c4 9c bd 45 3b a5 bd
       0.07811154 -0.02871336 -0.076546066 -0.080679454

conv2.weight f4 [32, 64, 5, 5]
000000 7f f1 d7 38 66 e0 b6 3b 7a 31 89 bb 44 0e 40 bc
       0.00010296981 0.0055809496 -0.0041868063 -0.011722151
000010 96 45 2e bd 2a d1 1f 3b 79 e6 e3 bb e7 3d 9c bc
       -0.04254683 0.0024386146 -0.0069549647 -0.019072486
000020 7d 8c a1 bc eb 66 a8 bc 4d cc 32 3c 04 e4 7e bc
       -0.01972031 -0.020556888 0.010912967 -0.015557293
000030 1e 67 0a bb 25 d5 9e bc 93 f6 17 3c 25 1c ab bb
       -0.0021118592 -0.019388745 0.0092750965 -0.005221861
000040 c9 8d 25 3c f3 ea ed 3b 0b 74 e8 3a e7 66 b9 3c
       0.010104605 0.007260674 0.0017734779 0.022632075
000050 a7 0a 99 3c 1b 3e 97 3c 32 c1 90 bc c2 05 87 3c
       0.018681837 0.018462231 -0.017670248 0.016482238
000060 bd e5 44 bc 27 1a bc bc 92 8e 29 3c 3a d4 1f 3c
       -0.0120176645 -0.02296169 0.010348933 0.009755189
000070 59 9d 71 bc 70 b9 b3 bc bd f1 1c bc 2d 2e ce 3c
       -0.014746987 -0.02193901 -0.009579119 0.025168503
000080 fe ec b6 3c bc da 71 3c 43 30 eb bb 92 8a 10 3c
       0.022329804 0.014761623 -0.007177384 0.0088221
000090 b8 06 0b bc 6f 6d 97 3c 8a 12 60 3c d8 c0 9d 3c
       -0.008485489 0.0184848 0.013676295 0.019256994
0000a0 47 f9 4d bc eb ca cf bb 1e c5 84 bc 10 83 02 3c
       -0.012571639 -0.0063413284 -0.016207274 0.007965818
0000b0 be 8c 24 3b 7c d0 e5 bc 7c 95 1c 3c fd 0e 07 3c
       0.0025108303 -0.028053515 0.009557124 0.00824332
0000c0 2b 35 83 3c 8a 51 4a 3c 30 06 3b bd ee 68 0d bd
       0.016016563 0.012348542 -0.045660198 -0.034523897
0000d0 cf ad a2 bd ea c7 99 bd df a9 be bd a9 b6 e7 bc
       -0.079433076 -0.07508834 -0.09309744 -0.028285341
0000e0 28 28 2d 3a 23 be af 3a dd ad 02 3c f6 46 9c bc
       0.000660541 0.0013408106 0.007976023 -0.019076806
0000f0 aa 79 e7 3a a4 86 05 bc 4b dc 7d bc c0 ee 33 3c
       0.001766016 -0.008149777 -0.0154944165 0.010982215
000100 bb 3d 42 bb 9f 16 1b bc bb 0a aa 3c ef 6c 13 3d
       -0.0029638845 -0.0094658425 0.02075707 0.03599256
000110 19 5c fa 3c e3 04 65 3b bd 6d 39 3c 0a a9 4f 3c
       0.030561494 0.003494554 0.011317668 0.012674579
000120 3d e1 0b 3c 5d ee af 3b e6 23 02 bc 2c f5 49 3c
       0.008537588 0.0053689913 -0.007943129 0.01232652
000130 cd f9 25 bc 0b 1d 31 bc 50 3b 89 bc 4a ab 70 bc
       -0.010130358 -0.010810147 -0.016751915 -0.014689276
000140 1b da db b9 08 e0 ae 3c 0d 38 5f bc 95 f0 98 bc
       -0.00041933436 0.02134706 -0.013624203 -0.018669406
000150 b6 8c 96 3c 0a 8b 46 3c 8e b0 0a 3c cd c0 84 bc
       0.018377643 0.01211811 0.0084649455 -0.016205216
000160 35 a7 b4 3c c1 ef 25 3c e3 d3 28 3b 45 f1 b1 3c
       0.022052387 0.010127963 0.002576106 0.021721492
000170 c7 f4 16 3c 8b 24 8b 3c 7c 03 d9 bb ed 57 95 3c
       0.009213633 0.016985198 -0.00662273 0.018230403
000180 26 b8 04 bc 36 74 10 3c 10 51 7b bc bf dd 97 bc
       -0.008100545 0.008816769 -0.015339151 -0.018538354
000190 09 9a b7 bc bd d8 87 bc 68 63 87 3c bd 45 bd 3c
       -0.022412317 -0.016582841 0.016526893 0.023104543
0001a0 32 af 2b 3c dd a0 69 bb 48 b7 ad 38 a8 b5 11 3c
       0.010478782 -0.003564886 8.2834216e-05 0.008893408
0001b0 93 1a eb 3c 00 1c 5b 3c 52 a5 83 bc b6 fc 5e bc
       0.028699195 0.013373375 -0.016070042 -0.013610056
0001c0 f7 56 db 3c c6 8e cc 3c 8f 9c c0 bc 79 c2 9d bc
       0.026774867 0.024970423 -0.023512153 -0.01925777
0001d0 7f 50 46 3c 41 9c 57 bc f9 21 d0 3c ce 44 93 3c
       0.012104153 -0.013159812 0.025406824 0.017977145
0001e0 80 46 59 bc db fd 9f 3b b5 cd 19 bc 34 4c d2 bc
       -0.013261437 0.004882557 -0.009387423 -0.025671102
0001f0 52 95 d9 3b bd a9 24 3c a0 a3 2f 3b fd 6d c8 3c
       0.006640115 0.010050234 0.002680041 0.024466509
000200 20 8f 27 bd 96 33 a1 3b 72 7f 47 bd e1 1b 29 bb
       -0.04090798 0.0049194796 -0.048705526 -0.002580397
000210 39 26 0c bc b0 07 1f 3b d6 a8 2d 3c c0 80 4b bc
       -0.008554035 0.0024266057 0.010599336 -0.012420833
000220 90 70 87 3b 13 e6 d3 3c 8d ca 23 3c 22 76 0c 3c
       0.0041332915 0.025866544 0.009997022 0.008573087
000230 a1 e9 e5 3c 86 34 0e 3d 0a a1 da 3c 63 3e a8 3c
       0.028065505 0.03471806 0.026688118 0.02053756
000240 85 70 17 3d 28 49 8d bc 3a 18 7a bb c0 28 01 3d
       0.03697254 -0.017246798 -0.0038161413 0.031533003
000250 4d 3f c1 bb 5e e3 c0 bc 02 51 82 bc 40 c8 18 bb
       -0.0058974386 -0.023545917 -0.015907768 -0.0023312718
000260 28 22 68 bc 5f 9e d7 3c 86 55 c7 bc e9 d8 a6 3c
       -0.0141683 0.026320634 -0.024332773 0.020367103
000270 42 28 7f 3c 0b c3 97 bc 8f 9a 36 bc cc 7f c1 3c
       0.015573563 -0.01852562 -0.011145248 0.023620509
000280 2c d7 d1 bb 87 cf 98 bc 95 f5 46 3b f7 68 12 bb
       -0.0064038243 -0.018653644 0.003035878 -0.0022340396
000290 70 29 b3 3a 07 af 02 3c 99 9a b0 bc 1b 7d 5c bc
       0.0013668966 0.0079763 -0.021558093 -0.013457562
0002a0 93 5d ae b9 88 b1 af 3c 3f e0 9b bc a0 6e 30 bc
       -0.00033257584 0.021446958 -0.019027827 -0.010768563
0002b0 43 49 75 3c 37 62 c2 3c 32 03 fe 3a 6b 57 4f 3c
       0.01497108 0.023728473 0.0019379614 0.012655119
0002c0 bc 32 15 3d 5c 72 96 3c 9c 24 92 3c 2f 70 2d 3d
       0.036425337 0.018365078 0.017839722 0.042343315
0002d0 e9 f8 8b ba e8 00 b6 bc 47 05 26 3d c0 f9 cb 3c
       -0.0010679039 -0.022217229 0.040532377 0.024899364
0002e0 b1 67 88 3b 07 d6 9a bc bd ed 69 bc 28 7e 8d bc
       0.0041627516 -0.018900884 -0.014277873 -0.01727207
0002f0 1a 07 9c 3b ce 69 9a 3c f8 a7 90 bb 2c 19 2c bc
       0.0047615888 0.01884928 -0.0044145547 -0.010504048
000300 a8 61 db bc 46 96 d5 bb b3 37 35 3c 06 06 89 ba
       -0.026779965 -0.006518158 0.011060643 -0.0010454066
000310 a1 e6 81 3b 6c ca c3 39 aa 66 ea bc 46 da 93 bc
       0.0039642607 0.00037344114 -0.028613407 -0.018048417
000320 2d e3 9d bd 46 78 d4 bc 1d cd 56 bc 79 49 6f 3a
       -0.07709346 -0.025936257 -0.013110426 0.0009128075
000330 04 e4 89 bb 50 cf fa ba 22 6d 87 bc eb 9a 20 bc
       -0.00420809 -0.001913527 -0.01653153 -0.00980256
000340 a4 cc da 3a 69 63 89 bc 18 f5 9f ba 9e 34 d3 bb
       0.0016693068 -0.016771035 -0.0012203781 -0.0064454814
000350 cd ef 71 bb 4d fb c3 3b 85 91 1e bd 8e 71 c7 3c
       -0.0036916614 0.005980885 -0.038712997 0.02434614
000360 01 54 1b 3d fd df e2 3c 07 18 88 3c 29 4b e6 bb
       0.03792191 0.027694697 0.01661302 -0.0070280028
000370 6c 65 5d bd 78 4a 9a 3c 3a b2 f8 3b 85 82 87 bc
       -0.0540518 0.018834338 0.0075896056 -0.016541729
000380 c1 04 05 3c bc 36 19 bb 7e fc 1a 3c e6 f4 6e bb
       0.008118809 -0.0023378571 0.009459613 -0.0036461889
000390 c9 20 07 bc 18 46 53 3a 1c 3b 79 3c 46 c5 0a 3c
       -0.008247563 0.0008059456 0.015211847 0.008469885
0003a0 95 ba ef 3c a1 b5 cc 3c f1 df ce bb 54 be d6 bb
       0.029263774 0.024988951 -0.006313317 -0.0065534506
0003b0 8f 81 08 ba ff a2 dd 3a 41 e9 d4 bb ab e3 e9 bc
       -0.0005207294 0.0016909539 -0.0064975326 -0.028550943
0003c0 13 63 f2 bc f9 28 1e bc 23 5f 30 bb 2c 77 ca bc
       -0.029588258 -0.009653323 -0.0026912175 -0.024715029
0003d0 ef a0 7a bc 8f 0b ae 3b 88 69 ef bb 4c d0 19 bc
       -0.015297159 0.0053114365 -0.0073062815 -0.009388041
0003e0 eb 96 ad bb 5f 27 99 3b f4 ec e4 bc 30 8b 85 bc
       -0.005297532 0.004673883 -0.02794502 -0.016301721
0003f0 d1 99 1a bb 4e 92 03 3c 95 51 26 3c e4 04 1c bd
       -0.0023590217 0.008030487 0.010151287 -0.0380906

conv2.bias f4 [32]
000000 55 16 23 bc 97 91 bb bc 10 1c 7a ba 79 63 52 3c
       -0.009954055 -0.022896571 -0.0009540925 0.012841099
000010 0e cf d3 3c b9 20 a4 3c ef 68 3c bc c7 35 d4 3b
       0.025855567 0.020035135 -0.0114996275 0.0064761373
000020 78 93 31 3c 66 46 2a bc 3c e7 a6 39 60 36 04 3c
       0.010838382 -0.010392761 0.0003183427 0.008069605
000030 6c dd d1 3c b2 47 5d 3c b3 37 c2 bb ea 22 02 bc
       0.025618277 0.013505863 -0.00592705 -0.0079428945
000040 83 b5 64 bc 02 0b 97 bc 46 c9 6b 3c 09 35 b5 3c
       -0.013959291 -0.018437866 0.014391249 0.022120016
000050 4b 1c cc 3c 7c 0c a2 3b 8f f0 dc bb ca 6d 94 3a
       0.024915835 0.004945336 -0.006742544 0.0011324224
000060 39 cd 49 3c 54 81 aa 3c 33 dd 81 3c e7 8a 9c 3c
       0.012316995 0.020813622 0.015852546 0.019109203
000070 93 b7 08 3c 7e ce 99 bc e5 57 50 ba 4d b2 33 bb
       0.008344549 -0.018775221 -0.00079476676 -0.0027419508

conv3.weight f4 [1, 32, 5, 5]
000000 83 9e 98 3c 74 11 95 3c e2 70 d7 ba 95 55 ca 3c
       0.018630272 0.018196799 -0.001643684 0.024699012
000010 27 b0 fa 3c 43 70 f4 bc 7b 80 ae 3a 88 8b 0c bd
       0.030601574 -0.029838687 0.0013313437 -0.034312755
000020 6a 12 7b 3b 24 0c 29 3c be a8 35 bb bd b1 e5 3c
       0.0038310536 0.010317836 -0.0027718986 0.028038854
000030 6b 2d 46 3c 1c 4b f7 bc f3 b6 4b bb 12 4a 84 bc
       0.012095789 -0.030187182 -0.0031084388 -0.0161486
000040 f4 80 ea bc 88 f5 6f b8 10 a0 03 bd 12 2d bd 3c
       -0.028625943 -5.721071e-05 -0.03213507 0.02309278
000050 bd f6 81 3b 57 59 4e 3c a6 d9 a4 3c 47 a2 e4 3c
       0.003966181 0.0125945425 0.020123314 0.027909411
000060 24 8e 8f bc 77 0a 18 3b f2 2b 08 bd 33 e6 05 3c
       -0.017523833 0.0023199597 -0.033245035 0.00817256
000070 e2 fb d8 3c 91 e0 b5 bc 4d 77 a9 3c 4d 31 86 bc
       0.026487295 -0.022201808 0.02068677 -0.01638093
000080 6e e5 26 3c 38 30 7b bc 0c 65 e0 3b 65 40 08 bd
       0.010186536 -0.01533132 0.006847983 -0.033264536
000090 08 cc d8 3c 21 14 03 bc 35 c3 06 3d b4 9f 4c bc
       0.026464477 -0.008000405 0.032901008 -0.012489248
0000a0 6a 08 80 3c 3d ed 88 bc 00 be 70 bc c2 e4 0e bc
       0.015629012 -0.016714687 -0.014693737 -0.008721532
0000b0 51 75 8c 3c 18 24 6c 3c a1 6a a9 3c f2 3f b6 bb
       0.017145785 0.014412902 0.020680727 -0.005561822
0000c0 8d 50 97 3b be 10 b4 3c 4b 83 62 bc 12 7f 3e bc
       0.0046177567 0.02198064 -0.013825248 -0.011626976
0000d0 26 6a dc 3c a9 57 f4 bc 57 31 8c bc 2f a5 a0 bc
       0.026906084 -0.029826956 -0.01711337 -0.019610016
0000e0 da d2 f3 bb 9d e6 d4 bc 10 dd 06 3c 2c 46 ca bc
       -0.007440907 -0.025988871 0.008231416 -0.024691664
0000f0 87 d1 7e bc 03 f6 0c bd 6f 0d c1 3c b3 86 b1 bc
       -0.015552885 -0.034414303 0.023565976 -0.021670675
000100 ea 03 8b bb 79 a3 ac bc ef 40 a0 bb 01 76 de bb
       -0.00424241 -0.021074044 -0.004890553 -0.0067889695
000110 ef a6 3c bc d7 48 06 ba 71 a6 76 3c 7e 7a ee 3c
       -0.011514409 -0.00051225483 0.015054331 0.029111143
000120 72 ac d6 3c 0a 03 d7 bc 75 5b 86 bb b7 08 0d bd
       0.026205275 -0.026246566 -0.004100258 -0.03443214
000130 3d f8 8d 3c 52 a2 d2 3c 34 f8 f6 3b 38 69 33 3c
       0.017330283 0.025712166 0.0075369123 0.010950379
000140 1c 0b 1f 3d 10 3a 7f 3b 9c ad df bc 43 77 9e bc
       0.038828954 0.003894452 -0.027304463 -0.019343978
000150 6d 30 40 bc d9 15 d4 3c a7 77 05 3c 99 53 e2 3c
       -0.011730296 0.025889324 0.008146203 0.027627753
000160 4b f8 56 3c 86 27 60 bc 54 54 0e bc d6 2e 7d bc
       0.013120721 -0.013681298 -0.008687098 -0.015453061
000170 37 ea 22 bd 4a e3 64 bc a1 5d 63 bc f4 d3 ff bb
       -0.039774146 -0.013970206 -0.013877303 -0.007807249
000180 68 0a 37 bc f5 65 89 bc aa da 4d bc 08 2a 52 3c
       -0.011171915 -0.01677225 -0.012564341 0.012827404
000190 45 a4 d1 3b af f7 fe 3b 38 16 6c 3c d3 32 39 bb
       0.0063977563 0.007780991 0.014409594 -0.0028259053
0001a0 cd 4f 7b 3b af 84 e7 bb 8c 24 03 3d c1 d8 da 36
       0.0038347126 -0.0070653777 0.032017276 6.5221398e-06
0001b0 a8 ab cf 3c 86 66 a9 bc fc 8c e0 bc 1b 5d 98 3b
       0.025350407 -0.02067877 -0.027410977 0.004649771
0001c0 d3 05 02 bd 9a e9 a9 3c 66 5c a7 3c ac a1 ed 3c
       -0.031743836 0.020741273 0.020429801 0.029007755
0001d0 3c cc 03 3d d8 11 3d 3c 4e 33 5e 3c 4c e4 ab bb
       0.032177195 0.011539899 0.013562037 -0.005245721
0001e0 4a d7 04 3d bf 85 78 3c b3 bc 09 bc ec b2 05 bd
       0.03243188 0.015168606 -0.008406806 -0.032641336
0001f0 7e 1e 90 3b a1 7a 87 3b 7b 75 e8 3c 5d 15 b6 3c
       0.004398166 0.0041344916 0.028376332 0.022226984
000200 82 6d 00 3d 82 2a 81 3b 8a 23 35 3c 3b be da bc
       0.031354435 0.003941835 0.011055836 -0.026702037
000210 6f 06 d0 3b e8 5d 24 3c 37 83 97 bc a7 d5 87 bc
       0.006348423 0.010032155 -0.018495185 -0.01658137
000220 15 5d 92 3c f7 30 8d bc 82 3e 21 bc 9e 19 e7 3c
       0.01786665 -0.017235262 -0.009841563 0.028210457
000230 0e d0 f1 3c df 83 d6 bc 5d fb e8 bc e3 87 d4 3c
       0.029518154 -0.026185928 -0.028440172 0.025943702
000240 7c c9 04 bc 71 a9 a3 3b 2e 1b ae bc 6c 97 5d bc
       -0.008104678 0.004994564 -0.021253195 -0.013524871
000250 bd 24 ea 3c 7e 63 b2 bc 55 4e 54 3c 1a 36 cb 3a
       0.028581971 -0.021775957 0.012958129 0.0015503794
000260 76 76 3a 3c 83 27 fd 3a fb 30 e7 bb 7d a6 56 3c
       0.011380782 0.0019314144 -0.0070553995 0.013101217
000270 80 d0 25 3c d8 d8 3c bb ee 10 c5 3c 9e 12 02 3d
       0.010120511 -0.0028815772 0.024055924 0.031756036
000280 c4 62 99 3c b5 2b 22 bc 84 80 d2 bc 15 f4 c5 bc
       0.018723853 -0.009898116 -0.025696047 -0.024164239
000290 04 97 8f bc 72 02 39 bb cf db 95 3c ac 87 21 3c
       -0.017528065 -0.0028230217 0.01829329 0.009859007
0002a0 49 e2 01 3d b4 6b 0c bd d7 25 a2 bc 57 7d 05 3d
       0.031709943 -0.0342824 -0.019793434 0.032590237
0002b0 d4 26 cc bc 62 3c bc 3c 0a a3 b2 3a b8 c8 70 bb
       -0.024920858 0.022978012 0.0013628912 -0.0036740731
0002c0 84 43 cf 3c 50 08 e1 3c ff 68 69 bc 41 c4 df ba
       0.025300749 0.027469784 -0.014246224 -0.0017072038
0002d0 ab b0 08 3d 4d 39 f3 3c 4a ed 6a 3c 92 1b ae bc
       0.03337161 0.02969041 0.014338801 -0.02125338
0002e0 25 a9 c1 bc 43 85 d2 3c 03 75 a8 3c 7e 20 7f bb
       -0.023640225 0.02569831 0.020563608 -0.003892928
0002f0 38 52 0c 3d b7 48 cc 3c 8b 71 f4 bb d6 84 80 3c
       0.034258097 0.024937017 -0.0074598244 0.015688341
000300 18 3e 0d 3d 92 05 a9 3c 99 de 8a bc d4 ab 07 bd
       0.034483045 0.020632539 -0.016951846 -0.033122852
000310 91 42 34 3c 91 10 5b 3c 9a 08 0e bd eb a0 b3 3b
       0.011002199 0.013370649 -0.03467617 0.0054818294
000320 5c 2c b2 bc fb 23 64 3c 51 e5 95 bc 9d d0 da bc
       -0.021749668 0.013924594 -0.018297823 -0.026710803
000330 6a 56 0c 3d 0d 0f ad 3c cd 47 66 bc a8 69 d0 bc
       0.0342621 0.02112534 -0.014055205 -0.025441006
000340 e7 63 bd 3c ac e3 b5 bc 38 06 2d bc fb 18 69 bc
       0.023118926 -0.022203289 -0.010560565 -0.014227147
000350 31 01 7c 3c e0 9f 06 bb fb b5 4a 3c 1e 57 a2 bc
       0.015381143 -0.002054207 0.012372489 -0.019816931
000360 2b d8 e5 3c 5d e6 0c 3c 0b b4 c3 bc 57 a7 d7 bc
       0.028057178 0.008599845 -0.023889562 -0.026324911
000370 28 c6 af 3c 0e 99 6d bc cb 23 4a 3c bf 6a ac 3a
       0.021456793 -0.014501823 0.012337635 0.0013154371
000380 f7 94 8a bc ac 47 0e 3d bb 17 4e bc 88 d0 78 3c
       -0.016916735 0.03473632 -0.0125789 0.0151864365
000390 95 8c b8 3c 14 68 42 3c 6f f4 0b 3d 6f 0f c3 bc
       0.022527972 0.0118656345 0.034168657 -0.02381107
0003a0 e7 15 83 3b b1 f1 00 ba 98 b1 8f 3c c5 a2 6f bc
       0.0040004137 -0.00049188273 0.017540738 -0.01462621
0003b0 95 56 a9 bc ff 78 dd bc e0 b2 c9 3c 50 c1 29 3c
       -0.020671168 -0.027035234 0.024621427 0.010361031
0003c0 9e 1c 06 bd aa 55 01 bb 68 6e ed bc e9 dc ee bc
       -0.032742135 -0.0019734898 -0.02898331 -0.029158073
0003d0 02 c5 b6 3c 37 82 8f bc fc 14 ae 3c e5 93 07 3d
       0.022310738 -0.017518146 0.02125024 0.033100028
0003e0 fb 17 ae 3b 67 89 80 3c ff ff fc bc f7 39 77 bc
       0.0053129173 0.015690519 -0.030883787 -0.0150895035
0003f0 fe 27 ff ba 77 88 f7 3b e5 2c 6a 3c 67 24 9c 3c
       -0.0019466875 0.0075541097 0.01429293 0.019060327
