Lecture8_Image restoration (HuStar_4)/outputs/x3/epoch_26.pth (torch, 231589 bytes, 5 tensors)

conv1.weight f4 [64, 1, 9, 9]
0	0xbb926c74	-0.004468495
1	0x3c8111f6	0.015755635
2	0xbd4fab8b	-0.050700705
3	0x3d5d9578	0.054097623
4	0xbdaba1b2	-0.0838045
5	0x3dbf11e3	0.093295835
6	0xbd915172	-0.070956126
7	0xbda76ed1	-0.081754334
8	0xbd63be8b	-0.055601638
9	0x3d8648f4	0.065568835
10	0xbd44305d	-0.047897685
11	0x3d0cccdb	0.034375053
12	0xbdc5516b	-0.0963467
13	0xbd9005c0	-0.07032347
14	0xbd295c82	-0.041347988
15	0xbcd02f16	-0.025413077
16	0xbdc1c5ad	-0.09461532
17	0x3d89391d	0.067003466
18	0xbc8a9ef6	-0.016921502
19	0x3cea965e	0.028636154
20	0x3d9a5b10	0.075369
21	0x3ce0b1af	0.027428476
22	0x3d346cde	0.044049136
23	0x3dfa23eb	0.12213882
24	0xbd3ceba7	-0.046123173
25	0x3cd70987	0.02624966
26	0xbd7f35f9	-0.06230733
27	0x3d871fb5	0.065978445
28	0x3d7edd58	0.06222281
29	0xbdee8e4b	-0.11648234
30	0x3de24d99	0.11049957
31	0x3db4bd3f	0.08825158
32	0x3da91161	0.08255268
33	0x3d75c047	0.059997823
34	0x3dae2859	0.085037895
35	0xbd042e41	-0.032270674
36	0xbde3fd37	-0.11132281
37	0xbd6fb919	-0.058526132
38	0xbdaa767e	-0.08323382
39	0x3d3f2c91	0.04667336
40	0x3d10c181	0.03534079
41	0xbc700ad0	-0.014651015
42	0x3bea0e29	0.0071428013
43	0x3dce804b	0.10083064
44	0xbcb6fda0	-0.022337735
45	0xbc305e83	-0.010764721
46	0xbd2af1f3	-0.041734647
47	0x3c782118	0.015144609
48	0x3e03d237	0.1287316
49	0x3dc6c80a	0.09706123
50	0x3d5d63e2	0.054050334
51	0x3cb241f5	0.021759966
52	0x3c94895d	0.018131906
53	0x3cf41d2a	0.029799063
54	0xbbe9d7c3	-0.0071363165
55	0xbdfc5f37	-0.12322848
56	0xbd9d56a7	-0.07682543
57	0x3dcb8fad	0.09939513
58	0x3ad21c9a	0.0016030252
59	0xbdd3a438	-0.103340566
60	0x3bb10fc7	0.005403492
61	0x3dc01b23	0.09380176
62	0xbdd59636	-0.10429041
63	0xbd251168	-0.040299803
64	0xbd6225dc	-0.055211887
65	0xbc37e125	-0.011223112
66	0xbd31f363	-0.043445002
67	0xbd1ef553	-0.03880818
68	0xbe07f4a6	-0.1327692
69	0x3d43147a	0.04762695
70	0x3df33e48	0.118771136
71	0x3da8fab3	0.08250942
72	0xbc3aaf1c	-0.011394288
73	0xbdb31822	-0.08744837
74	0x3cbf524f	0.023354677
75	0xbcd59c62	-0.026075546
76	0x3ca6bcc4	0.020353682
77	0xbdfc335e	-0.12314485
78	0x3a3bc6b5	0.00071630935
79	0x3ddd9691	0.10819734
80	0x3d7edff3	0.062225293
81	0x3bdf1e5a	0.006809038
82	0x3c869020	0.016426146
83	0xbc41a4be	-0.011819063
84	0xbda4725b	-0.08029624
85	0xbd831f01	-0.06402398
86	0xbdb4e667	-0.08833008
87	0x3daaf388	0.08347231
88	0x3d3ac36f	0.045596536
89	0x3ccb5216	0.024819415
90	0xbdb605c5	-0.08887819
91	0x3d9fd3bc	0.07804057
92	0x3d0f8e1c	0.035047635
93	0x3d7fc65b	0.062445026
94	0xbd724f1f	-0.059157487
95	0x3c41dd2d	0.011832518
96	0x3deb8b93	0.11501231
97	0x3da25ef9	0.07928271
98	0x3dbc06d9	0.091809936
99	0xbd0f143d	-0.03493141
100	0x3d8f80ed	0.070070125
101	0xbdb2129a	-0.08694954
102	0x3bd58d0f	0.0065170596
103	0xbd802f8a	-0.06259067
104	0xbcdbfa3d	-0.026852721
105	0xbc9a1575	-0.01880906
106	0x3c235eb3	0.0099713085
107	0x3dc0525c	0.09390709
108	0x3cee9005	0.029121408
109	0xbcba5a25	-0.022748062
110	0x3da491ad	0.08035598
111	0xbd4da98d	-0.050210524
112	0x3d86ca89	0.06581599
113	0xbc8c87a0	-0.017154515
114	0xbcaed979	-0.021343933
115	0x3a08ee9a	0.00052235427
116	0xbddf1b9d	-0.10893939
117	0xbbe0283b	-0.0068407333
118	0x3cc8c038	0.02450572
119	0x3ddd955d	0.108195044
120	0xbc8c0335	-0.017091373
121	0x3d577033	0.052597236
122	0x3dce9851	0.10087646
123	0xbd609024	-0.054824963
124	0x3dc025f8	0.09382242
125	0xbd9c4a3b	-0.07631346
126	0x3cef2fcd	0.029197598
127	0x3ce61581	0.028086426
128	0x3d1dc7cb	0.038520616
129	0x3db8f39f	0.09030842
130	0xbd5487bf	-0.05188727
131	0x3afe4ef1	0.0019402188
132	0xbc74f603	-0.014951232
133	0xbdbef9f0	-0.093250155
134	0xbd38fd62	-0.04516352
135	0xbdc4df29	-0.09612877
136	0x3ce87531	0.028376194
137	0x3c3c3de7	0.011489368
138	0x3b8580d1	0.004074194
139	0xbd5adb61	-0.053431872
140	0xbd0e50d4	-0.034745052
141	0xbd44c30e	-0.04803758
142	0x3d04dd81	0.032437805
143	0x3dc75f0c	0.09734926
144	0x3c2bc203	0.010483268
145	0xbd68373e	-0.056693308
146	0xbd6e796e	-0.058221273
147	0x3c1e5f3f	0.009666263
148	0xbdbca602	-0.09211351
149	0xbdd3963f	-0.103313915
150	0xbd94b1da	-0.07260485
151	0xbcd01925	-0.025402615
152	0x3b57b90d	0.0032916695
153	0x3da79e4f	0.08184492
154	0x3d440045	0.04785182
155	0x3de3e161	0.11126972
156	0xbd398594	-0.045293406
157	0x3cf0d4de	0.029398378
158	0xbdac16cd	-0.084027864
159	0x3dbd6922	0.09248568
160	0x3d612ae8	0.05497256
161	0x3dea499a	0.1143982
162	0xbd6bcc78	-0.057568043
163	0x3df173c7	0.11789661
164	0x3e06ff56	0.1318334
165	0x3e0e6554	0.13905841
166	0x3d9e78e7	0.07737904
167	0x3e1eb7c5	0.1549979
168	0x3de3f3d7	0.11130493
169	0x3dccd580	0.100016594
170	0xbc76c9e6	-0.015062785
171	0xbdba5e1c	-0.09099981
172	0xbc0a2704	-0.008432154
173	0x3c145f1f	0.009055882
174	0xbdb6d0f6	-0.08926575
175	0xbd86bb04	-0.06578639
176	0xbddd3c44	-0.108025104
177	0xbd339fbc	-0.043853506
178	0x3da97ee4	0.082761556
179	0xbc68ff13	-0.014220971
180	0xbc11856c	-0.008881908
181	0x3bb03c87	0.005378309
182	0x3d85f4a4	0.06540802
183	0xbddcd78a	-0.10783298
184	0xbdb4732e	-0.08811031
185	0xbd2ab7b3	-0.041679095
186	0xbd8da7d1	-0.06916774
187	0x3d549d23	0.05190767
188	0x3d8034ca	0.06260069
189	0xbdc53b57	-0.09630459
190	0xbd933a83	-0.071888946
191	0xbda71add	-0.08159421
192	0x3d859646	0.06522803
193	0x3df18c70	0.117943645
194	0xbd891690	-0.066937566
195	0xbd15cf60	-0.03657472
196	0x3d6164a5	0.055027623
197	0xbd66e536	-0.056370936
198	0x3dd4f2c8	0.10397869
199	0x3d3bf306	0.045886062
200	0xbb64ed4e	-0.0034931484
201	0x3d1c0b51	0.03809673
202	0x3d8b2a4e	0.06795178
203	0xbcb7a504	-0.022417553
204	0xbd9e91ec	-0.07742676
205	0x3c816c17	0.015798612
206	0x3c8abdb0	0.016936153
207	0x3bd41295	0.0064719417
208	0xbc10bf92	-0.008834736
209	0x3db5b1a2	0.088717714
210	0xbc1cce78	-0.00957071
211	0x3c631168	0.01385913
212	0x3d66dc68	0.05636254
213	0xbd909228	-0.07059127
214	0x3d1963bd	0.037448633
215	0xbc9dc86b	-0.019260606
216	0x3d6baae3	0.057536017
217	0xbd8ea4bb	-0.069650136
218	0x3b1b428a	0.0023690783
219	0x3c297cb5	0.010344674
220	0xbdb1533c	-0.08658454
221	0xbdb29ce2	-0.08721329
222	0x3cf65be6	0.030073117
223	0xbd099ea9	-0.033598576
224	0x3d7fa544	0.06241347
225	0xbda1f8dd	-0.07908795
226	0xbd40350b	-0.046925586
227	0xbdac5586	-0.0841475
228	0x3d44da28	0.048059613
229	0x3c4e6a6d	0.012598616
230	0xbc3fc018	-0.011703514
231	0xbc8c4a24	-0.017125197
232	0xbda4648e	-0.08026992
233	0x3d0f2c77	0.034954514
234	0x3d2213c4	0.03956963
235	0xbd77cfd5	-0.06050094
236	0x3d69cbf0	0.057079256
237	0x3c1289e1	0.008944006
238	0xbd9ed280	-0.077549934
239	0x3da9b749	0.08286912
240	0x3d96850f	0.07349598
241	0xbc087df8	-0.008330815
242	0xbd896d63	-0.06710317
243	0x3b6ca911	0.0036111514
244	0x3da714c3	0.08158257
245	0x3dc8a337	0.09796756
246	0xbdb3a197	-0.08771055
247	0xbd57d8f2	-0.05269713
248	0x3dad9ca4	0.084771425
249	0x3d515c5f	0.051113483
250	0x3d7fcd2b	0.062451523
251	0xbd8020d2	-0.0625626
252	0x3dc15512	0.09440054
253	0xbdbf4dca	-0.09341009
254	0xbc015f4a	-0.007896254
255	0xbaa118cd	-0.0012290716

conv1.bias f4 [64]
0	0xbb6f6cc3	-0.0036533333
1	0xbdddaf06	-0.10824399
2	0x3c2cd711	0.010549323
3	0xbd809da5	-0.06280068
4	0x3d316a00	0.04331398
5	0x3b4fd43d	0.0031712197
6	0x3d62bb64	0.05535449
7	0xbc85be15	-0.01632599
8	0x3e030ec8	0.12798607
9	0xbd3725ba	-0.044713713
10	0x3beb880c	0.007187849
11	0x3d279051	0.040909115
12	0xbde0bd69	-0.10973627
13	0x3ded06cd	0.11573563
14	0x3d8c6953	0.068560265
15	0x3cc98df0	0.024603814
16	0xbd0809de	-0.033212535
17	0xbd992fa1	-0.074797876
18	0x3d5e2a23	0.054239403
19	0x3d1cf147	0.038316038
20	0x3c88d243	0.016701823
21	0x3bbfa1e6	0.005848157
22	0xbd89a0b3	-0.06720104
23	0x3d94c30a	0.07263763
24	0xbd8b1d8c	-0.06792745
25	0x3d80366b	0.062603794
26	0xba8433b6	-0.0010086212
27	0xbad68359	-0.0016366049
28	0x3cdb42dd	0.026765281
29	0x3d3d77f7	0.046256986
30	0x3db4a72f	0.0882095
31	0xbc0241e3	-0.007950279
32	0x3d30260c	0.043005034
33	0x3d9aa19a	0.07550354
34	0x3b3b3185	0.0028563451
35	0xbdb2bde6	-0.087276265
36	0xbc35fa08	-0.011106975
37	0x3da6b3e6	0.08139782
38	0xbc8e88b8	-0.017399177
39	0x3d5d0140	0.05395627
40	0x3bf163a5	0.007366615
41	0xbcad4dfe	-0.021155354
42	0x3dc8f700	0.098127365
43	0xbcff7764	-0.03118486
44	0x3d10e43e	0.03537392
45	0xbbe12cf9	-0.0068718162
46	0xbc8df4c9	-0.017328637
47	0xbc89ec90	-0.016836435
48	0xbc0f7492	-0.00875582
49	0xbd25241e	-0.040317647
50	0xbcac128e	-0.021004941
51	0x3d8e295a	0.06941481
52	0x3cba898b	0.022770664
53	0xb96558c2	-0.00021872207
54	0x3ab64c74	0.0013908283
55	0x3bbef098	0.005827021
56	0x3dc384c6	0.09546809
57	0xbd37c8a0	-0.044869065
58	0xbc51b79a	-0.012800122
59	0x3d88fae4	0.066884786
60	0x3d6081a6	0.054811142
61	0xbce97c01	-0.028501512
62	0xbd847468	-0.06467515
63	0xbda13ed0	-0.07873309

conv2.weight f4 [32, 64, 5, 5]
0	0xba9b0312	-0.0011826477
1	0xbc351c9a	-0.011054182
2	0x3cbcae7b	0.023032418
3	0x3d159eb4	0.036528304
4	0xbd97de82	-0.07415487
5	0x3c6e34aa	0.014538923
6	0xbce46e84	-0.02788473
7	0xbce2e903	-0.027699
8	0xba4da8c0	-0.0007845275
9	0xbcf11d89	-0.029433029
10	0x3ce443f2	0.02786443
11	0xbbe90c06	-0.007112029
12	0xbc11ab53	-0.0088909445
13	0xbc80dd77	-0.015730603
14	0x3cbe0c22	0.023199145
15	0xbc600a79	-0.013674372
16	0x3c3a17ed	0.011358243
17	0x3b8c22c0	0.0042766035
18	0x3936cc08	0.0001743288
19	0x3cf24ffb	0.029579153
20	0xbbb237e2	-0.0054387907
21	0xbaa5aab4	-0.0012639374
22	0xbd1b0e82	-0.037855633
23	0x3bf47cb3	0.0074611544
24	0xbc877bf1	-0.016538592
25	0xbb8cac0b	-0.00429297
26	0x3ca8acd9	0.020590233
27	0x3c78d096	0.0151864495
28	0xbc7e45a5	-0.015519534
29	0xbcbd4b6a	-0.02310725
30	0x3c701651	0.014653758
31	0x3d3ae3d1	0.04562742
32	0x3d23ac75	0.03995939
33	0x3ceca7e3	0.028888648
34	0x3c48e88c	0.012262475
35	0x3ce88215	0.02838234
36	0x3ad45d20	0.001620207
37	0x3cd484d1	0.025942238
38	0x3d04798b	0.032342475
39	0x3d839a12	0.06425871
40	0xbc148a4d	-0.009066177
41	0xbc0ff474	-0.0087863095
42	0xbd002ffb	-0.031295758
43	0xbb94f504	-0.0045458097
44	0x3c1221a3	0.008919152
45	0xbd625efe	-0.055266373
46	0xba4aff68	-0.0007743747
47	0x3b28e2d8	0.0025769975
48	0x39dca27b	0.00042082727
49	0x3c69afcc	0.014263105
50	0xbdcb7127	-0.099336915
51	0xbde18e74	-0.11013499
52	0xbe1d950a	-0.15388885
53	0xbdf3c60e	-0.1190301
54	0xbe2f8505	-0.17140587
55	0xbd14c496	-0.03632029
56	0xbd10c715	-0.03534611
57	0xbd0da400	-0.03458023
58	0x3baed206	0.0053350953
59	0xbd0718a9	-0.032982502
60	0x3c9af8d8	0.018917486
61	0xba0a2bbb	-0.00052707986
62	0xbceff116	-0.029289763
63	0x3cbb2894	0.022846498
64	0x3c613da1	0.013747604
65	0xbbf84c26	-0.007577437
66	0x3d110748	0.035407335
67	0x3cc83846	0.024440896
68	0x3ccab455	0.024744192
69	0x3c9ab03d	0.018882865
70	0xbb380675	-0.002808002
71	0x3c6c017e	0.014404653
72	0x3b386753	0.0028137758
73	0x3a3b5c42	0.00071472314
74	0x3c464cb3	0.012103247
75	0x3ca7a181	0.020462753
76	0xbbe0be55	-0.006858627
77	0xbbc4d095	-0.00600631
78	0xbc7e87f5	-0.015535344
79	0xbc84542f	-0.016153423
80	0x3c0a4808	0.008440025
81	0x3cd67336	0.026177984
82	0xbc3eb805	-0.011640553
83	0xbb896030	-0.0041923746
84	0x3cc0795a	0.023495365
85	0x3bf0f044	0.0073528606
86	0xb9bca75f	-0.00035982855
87	0xbce5b1b4	-0.028038837
88	0x3ceda798	0.029010579
89	0x3c46e6e4	0.01214001
90	0xbb30c58f	-0.0026973223
91	0x3c96d5b9	0.018412458
92	0xbb1c1508	-0.0023816247
93	0x3c9f2a61	0.019429388
94	0x3b59fd95	0.003326272
95	0x3cbca9ae	0.023030128
96	0xbace03c8	-0.001571768
97	0x3b94ab72	0.0045370394
98	0xbc987646	-0.018611085
99	0xbb429060	-0.0029688105
100	0xbce13c5e	-0.027494606
101	0xbd13aef1	-0.03605551
102	0x3b5f6956	0.0034089885
103	0x3c03be84	0.008041028
104	0xbada4a95	-0.0016654307
105	0xba98c946	-0.0011656664
106	0xbbbb0510	-0.0057073906
107	0x3c347ffb	0.011016841
108	0x3cb942c6	0.022614848
109	0x3c7e4f0c	0.015521776
110	0xbc533caa	-0.012892881
111	0xbc61f374	-0.013790954
112	0x3d1090d3	0.035294365
113	0x3cd527f9	0.026020037
114	0xbcb58ad2	-0.022160921
115	0xbcbc1cc4	-0.022962935
116	0x3b542893	0.0032372817
117	0xbccd1eee	-0.025039162
118	0x3c42d510	0.011891618
119	0x3bccc7ee	0.0062494194
120	0xbc9709d3	-0.018437302
121	0xbc327df9	-0.010894292
122	0xbcf65b07	-0.030072702
123	0xbd2739af	-0.040826496
124	0xbc808f2f	-0.015693275
125	0x3cf2c285	0.02963377
126	0xbd4b499d	-0.04963075
127	0x3d86f5ad	0.06589828
128	0x3d3dda3e	0.04635071
129	0x3dfd7776	0.12376301
130	0xbd3640b8	-0.044495314
131	0xbcbc1838	-0.022960767
132	0xbc8dbae2	-0.017301027
133	0xbb19360c	-0.0023378162
134	0x3caae905	0.020863065
135	0xbc5e44e5	-0.01356623
136	0xbb06acc0	-0.0020549744
137	0x3cbbe714	0.022937335
138	0xba81870c	-0.0009882166
139	0x3abd5d4c	0.001444736
140	0x3cd01ece	0.025405314
141	0x3d089ade	0.033350818
142	0x3ceddcd8	0.02903597
143	0x3c4ffcae	0.012694521
144	0x3c79c407	0.0152444905
145	0xbcc46db2	-0.023978088
146	0xbcaebe75	-0.021331051
147	0x3c92d969	0.017925935
148	0xbcba7504	-0.022760876
149	0xbd4b4470	-0.049625814
150	0xba556040	-0.00081396475
151	0x3ae9893b	0.0017817387
152	0xbc131dec	-0.008979302
153	0x3cbb8a89	0.022893207
154	0xbcf5225b	-0.029923609
155	0x3ca4050f	0.020021943
156	0x3b1816fa	0.0023207054
157	0xbcba5298	-0.022744462
158	0xbc91071f	-0.01770359
159	0x3c91a954	0.017780937
160	0xbc3ab84c	-0.011396479
161	0xbcf394f2	-0.029734109
162	0x3a004689	0.0004893323
163	0xbbb6087d	-0.005555211
164	0xbc1987db	-0.009370769
165	0x3c810193	0.015747821
166	0xbc621453	-0.013798791
167	0xbbcf810e	-0.006332523
168	0xbb1d114e	-0.0023966613
169	0x3c881af8	0.016614422
170	0xbb174e92	-0.0023087603
171	0x3a816097	0.0009870705
172	0x3cb5051f	0.022097168
173	0x3cb97007	0.022636427
174	0x3bfb4731	0.007668399
175	0x3cb7441b	0.022371342
176	0x3d5acbe2	0.053417094
177	0x3cd5e064	0.026107974
178	0x3bb99295	0.005663226
179	0x3d647fdb	0.055785995
180	0xbbfee204	-0.007778408
181	0xbd065d9f	-0.032804128
182	0x3d2c5532	0.042073436
183	0x3c6a3017	0.014293692
184	0x39a07798	0.00030606682
185	0xbc509c3c	-0.012732562
186	0xbce3db53	-0.027814543
187	0xbd1198c0	-0.035546064
188	0x3bb531c9	0.0055296165
189	0x3cd2be3c	0.025725476
190	0xbc6d481f	-0.014482527
191	0xbc707bcf	-0.014677956
192	0xbd9bb404	-0.07602695
193	0xbd01fdb8	-0.031736106
194	0x3d0332b4	0.032030776
195	0xbc5768d8	-0.013147555
196	0x3da3d73d	0.08000038
197	0x3bf1fddd	0.007384999
198	0xbd801c05	-0.06255344
199	0xbba34fc5	-0.0049838745
200	0xbd98e422	-0.07465388
201	0x3ba47c1c	0.005019678
202	0x3b45428f	0.0030099486
203	0xbbd7166d	-0.0065639527
204	0xbbb61700	-0.005556941
205	0x3d1366f7	0.035986867
206	0x3d2e5d3f	0.042569395
207	0x3cad8bad	0.021184767
208	0xbc94305f	-0.018089471
209	0xbcdeb247	-0.027184619
210	0x3d8f21da	0.069888785
211	0x3ccc39ed	0.024929965
212	0x3c57bd3c	0.013167676
213	0x3bf1b433	0.0073762177
214	0xbd37794f	-0.044793423
215	0x3d2209ac	0.039560005
216	0x3d3b5bf9	0.04574201
217	0x3d2b2936	0.04178735
218	0x3cd7aa7e	0.026326414
219	0xbc168b4b	-0.0091884835
220	0xbd5a39c1	-0.053277735
221	0x3cc62a50	0.024190098
222	0x3c130d8c	0.008975398
223	0xbc215985	-0.009848003
224	0x3c534198	0.012894057
225	0xbc05e5d5	-0.008172472
226	0x3af2223d	0.0018473339
227	0xbc47bdad	-0.012191218
228	0xbc4cc9b2	-0.01249926
229	0xbb2df72b	-0.0026545029
230	0x3c295a1d	0.010336426
231	0x3a89ee1d	0.0010523234
232	0x3cc9cd08	0.0246339
233	0x3cc5aa9f	0.02412921
234	0xbbb03d99	-0.0053784368
235	0xbc78a0fe	-0.015175102
236	0xbbda9a5e	-0.006671234
237	0xbb0f87fe	-0.0021901126
238	0xbba0ef3f	-0.004911333
239	0xbcd1992c	-0.025585733
240	0xbd200a55	-0.039072353
241	0xbc72fbf6	-0.01483058
242	0xbbb0ceff	-0.0053957696
243	0xbcc2830f	-0.023744134
244	0xbc8d276f	-0.017230717
245	0xbb66a54c	-0.003519374
246	0xbc357744	-0.011075798
247	0xbc70f95f	-0.014707892
248	0xbc1f748e	-0.009732379
249	0xbae5f4c7	-0.0017544263
250	0xbcfc84cf	-0.030825047
251	0xbcd1539e	-0.025552567
252	0xbc065fd1	-0.008201555
253	0x3c39c7d5	0.011339148
254	0x3c3d764c	0.011563849
255	0xbd1522ce	-0.036410145

conv2.bias f4 [32]
0	0xbc5f3881	-0.013624311
1	0xbcb28d80	-0.021795988
2	0xbb44c730	-0.0030025952
3	0x3b321029	0.0027170277
4	0x3ccd772e	0.025081243
5	0x3c8ffa4d	0.017575407
6	0xbc2a8f2d	-0.010410112
7	0x3c078449	0.008271285
8	0x3c8b5075	0.017006138
9	0xbc20f95d	-0.009825078
10	0x39a6e73c	0.0003183427
11	0x3b138559	0.0022509901
12	0x3cd84105	0.026398191
13	0x3c8ee6ca	0.017444033
14	0xbb8656b6	-0.004099692
15	0xbc494acc	-0.012285899
16	0xbc718240	-0.014740527
17	0xbc9b6d2f	-0.018972961
18	0x3c4918d1	0.012273983
19	0x3cb86cb8	0.022512779
20	0x3ce97266	0.028496932
21	0x3c186e65	0.009303664
22	0xbc1aa142	-0.009437861
23	0x3a8ad1f0	0.0010591131
24	0xba6e895b	-0.0009099447
25	0x3cd9255e	0.026507076
26	0x3c9aa1ac	0.01887592
27	0x3ca1b6f4	0.01974056
28	0x3c0634bf	0.008191287
29	0xbc42d5c7	-0.011891789
30	0xbc025e3d	-0.0079570385
31	0xbb06cdf8	-0.0020569544

conv3.weight f4 [1, 32, 5, 5]
0	0x3c8f03a4	0.01745779
1	0x3c91aaa0	0.017781556
2	0xba9baf81	-0.0011877866
3	0x3ccf3dba	0.025297988
4	0x3cfd5b87	0.030927433
5	0xbcfd8a39	-0.030949699
6	0x39b2a0ab	0.00034070513
7	0xbd128cf0	-0.03577894
8	0x3b281310	0.0025646128
9	0x3c224f46	0.009906596
10	0xbb899871	-0.0041990806
11	0x3cdfd3a2	0.027322594
12	0x3c2a9d0a	0.010413418
13	0xbd0430af	-0.03227299
14	0xbb94f45d	-0.004545732
15	0xbc93576a	-0.017986018
16	0xbcf24b7b	-0.029577008
17	0xba27c2dc	-0.0006399581
18	0xbd07197a	-0.03298328
19	0x3cb18973	0.021671986
20	0x3b1e2037	0.0024128088
21	0x3c47f90e	0.012205375
22	0x3cadd5cd	0.021220112
23	0x3cee39ba	0.02908026
24	0xbc908932	-0.017643545
25	0x3b0628f4	0.0020471187
26	0xbd0943ce	-0.03351193
27	0x3c049248	0.008091517
28	0x3cd7c5e2	0.026339475
29	0xbcb73990	-0.022366315
30	0x3ca792ef	0.020455806
31	0xbc87e753	-0.016589796
32	0x3c2617c3	0.010137501
33	0xbc7dddd5	-0.015494783
34	0x3bdc10ed	0.006715885
35	0xbd090708	-0.03345397
36	0x3cd7c06b	0.02633687
37	0xbc037332	-0.00802307
38	0x3d064556	0.032780968
39	0xbc4d6925	-0.012537275
40	0x3c7cc657	0.015428147
41	0xbc8afb28	-0.016965464
42	0xbc76b628	-0.015058078
43	0xbc14af51	-0.009075002
44	0x3c8c0799	0.017093467
45	0x3c6abc93	0.014327186
46	0x3ca8e3ba	0.020616401
47	0xbbbe9a29	-0.005816717
48	0x3b8c8624	0.0042884517
49	0x3cb2e391	0.021837028
50	0xbc6267e7	-0.013818718
51	0xbc34daa8	-0.01103846
52	0x3cde0d7e	0.027106043
53	0xbcf5bb52	-0.029996548
54	0xbc8c6945	-0.01714004
55	0xbc9db45c	-0.019251041
56	0xbbe1fee6	-0.0068968413
57	0xbcd3a34a	-0.025834698
58	0x3c07fcb8	0.008299999
59	0xbcc7d19b	-0.02439194
60	0xbc79c215	-0.015244027
61	0xbd0b6c8b	-0.03403906
62	0x3cbf3c0d	0.023344064
63	0xbcb49dc3	-0.022047883
64	0xbb918dc9	-0.004441951
65	0xbca9c05b	-0.020721605
66	0xbb8faa83	-0.0043843403
67	0xbbeab97d	-0.007163225
68	0xbc3ff374	-0.011715759
69	0xba377fc5	-0.0006999935
70	0x3c780014	0.015136737
71	0x3cf01325	0.029306004
72	0x3cd36e42	0.025809411
73	0xbcd632fd	-0.02614736
74	0xbb88ddb8	-0.0041768216
75	0xbd4b118a	-0.049577273
76	0x3c88d299	0.016701983
77	0x3ce27cd3	0.027647411
78	0x3b71f2c9	0.0036918393
79	0x3c081b01	0.0083072195
80	0x3d35cd72	0.04438538
81	0x3cdb619b	0.02677994
82	0xbc4b8e95	-0.012424131
83	0xbc98c0f2	-0.018646691
84	0xbba0a912	-0.0049029673
85	0x3d2324b4	0.039829925
86	0x3cb443d5	0.022005001
87	0x3ca3cc4c	0.019994877
88	0xbb9a1257	-0.0047018933
89	0xbc496108	-0.0122912
90	0xba92575d	-0.0011164952
91	0xbca607fc	-0.02026748
92	0xbd690068	-0.056885153
93	0xbccc3d95	-0.024931708
94	0xbb974858	-0.0046167783
95	0xbbeb8129	-0.007187028
96	0xbcab3e93	-0.020903861
97	0xbcb6490e	-0.022251632
98	0x3ad1ba26	0.0016000911
99	0x3d093aba	0.03350327
100	0x3bcb4789	0.006203596
101	0x3bfbad5c	0.007680578
102	0x3c6a6123	0.014305386
103	0xbb42c8a5	-0.0029721644
104	0x3b76a1ec	0.0037633134
105	0xbbf3c117	-0.0074387896
106	0x3d02795d	0.031854022
107	0xb9092c2e	-0.00013081796
108	0x3ccebd03	0.025236612
109	0xbca91134	-0.020638086
110	0xbce2b2bb	-0.027673116
111	0x3b932a41	0.004491121
112	0xbd02a9a3	-0.03190006
113	0x3ca864f3	0.020555949
114	0x3ca68913	0.020329034
115	0x3cebce41	0.028784873
116	0x3d02a61d	0.0318967
117	0x3c397b30	0.011320874
118	0x3c59839a	0.013276005
119	0xbbb6036e	-0.005554608
120	0x3d041612	0.03224761
121	0x3c73fd52	0.014891939
122	0xbc0e58e0	-0.008688182
123	0xbd078bbf	-0.033092257
124	0x3b816a5e	0.0039494475
125	0x3b981c98	0.0046420805
126	0x3cfc901f	0.030830441
127	0x3ccea9fc	0.02522754
128	0x3d0112ec	0.031512186
129	0x3b5a6097	0.0033321732
130	0x3c2d845e	0.010590641
131	0xbcd870dd	-0.026421005
132	0x3bd81487	0.006594244
133	0x3c18a0d6	0.00931569
134	0xbc9b383f	-0.018947719
135	0xbc93f848	-0.018062726
136	0x3c71d461	0.014760108
137	0xbca9a497	-0.020708365
138	0xbc425cf6	-0.011862984
139	0x3ce4b12f	0.027916519
140	0x3ce07abf	0.02740228
141	0xbcf34861	-0.029697599
142	0xbcfe3fb1	-0.03103623
143	0x3ccceee6	0.02501626
144	0xbbffe1a9	-0.007808883
145	0x3bd5b0c5	0.0065213167
146	0xbcad2ade	-0.021138605
147	0xbc5a12e7	-0.013310171
148	0x3ce67e00	0.028136253
149	0xbcbe082c	-0.023197256
150	0x3c509db3	0.012732911
151	0x3aba9a51	0.0014236664
152	0x3c3ba31e	0.011452464
153	0x3afab612	0.0019127748
154	0xbbe3c968	-0.0069514997
155	0x3c53be1a	0.012923742
156	0x3c217295	0.009853979
157	0xbb44b2f8	-0.00300139
158	0x3cc537f6	0.024074536
159	0x3d030dfe	0.031995766
160	0x3c992f91	0.01869944
161	0xbc25fd5c	-0.010131206
162	0xbcd4d1fc	-0.025979035
163	0xbcc749b9	-0.024327146
164	0xbc8e9283	-0.017403847
165	0xbb46f220	-0.003035672
166	0x3c94853b	0.018129935
167	0x3c1f14f2	0.009709584
168	0x3d00fe26	0.031492375
169	0xbd0deb5a	-0.034648277
170	0xbca5644a	-0.020189423
171	0x3d04eeb8	0.032454222
172	0xbccc3de4	-0.024931855
173	0x3cbbe255	0.022935072
174	0x3a914185	0.0011082148
175	0xbb7e9a28	-0.0038849209
176	0x3cce52aa	0.025185902
177	0x3ce093ce	0.027414229
178	0xbc6b26b1	-0.0143524865
179	0xbafd45fb	-0.0019323224
180	0x3d084203	0.03326608
181	0x3cf2e4dd	0.029650146
182	0x3c6b6f6b	0.014369826
183	0xbcade6b0	-0.021228164
184	0xbcc2002d	-0.023681724
185	0x3cd1de3a	0.025618661
186	0x3ca887ce	0.02057257
187	0xbb74415c	-0.0037270403
188	0x3d0cc439	0.03436682
189	0x3ccc770a	0.024959106
190	0xbbf8ab59	-0.0075887856
191	0x3c7f2646	0.01557309
192	0x3d0d4f4a	0.034499444
193	0x3ca90f85	0.020637283
194	0xbc8b7888	-0.017025247
195	0xbd084201	-0.03326607
196	0x3c31e886	0.010858661
197	0x3c59ecd3	0.013301092
198	0xbd0e5170	-0.034745634
199	0x3baf0bbd	0.0053419755
200	0xbc4306e7	-0.011903501
201	0x3c0757b4	0.008260656
202	0xbcd128a0	-0.025532067
203	0xbc73cf11	-0.014880911
204	0x3d382e66	0.044966124
205	0x3c8dc8e8	0.017307714
206	0xbc83dcbc	-0.016096465
207	0xbd3605bb	-0.04443906
208	0x3bec5b9f	0.0072130705
209	0xbb097cb5	-0.0020978872
210	0xbc5ce999	-0.013483428
211	0x3c652963	0.013986918
212	0x3d30541e	0.04304897
213	0xbc9b82a6	-0.018983196
214	0x3be79610	0.0070674494
215	0xbd0420fc	-0.03225802
216	0x3d69caeb	0.057078283
217	0x3d4e090f	0.050301608
218	0xbcfd73fd	-0.030939097
219	0xbce42928	-0.027851656
220	0x3a3e6732	0.0007263302
221	0xbc8951c2	-0.016762618
222	0x3cfad672	0.030619834
223	0x3b1b65f0	0.0023711883
224	0xbc653989	-0.013990768
225	0x3d0d6f46	0.034529947
226	0xbc50a6c3	-0.012735072
227	0x3c7a0352	0.015259581
228	0x3cb7053f	0.022341369
229	0x3c3cbaa3	0.011519107
230	0x3d0a70d9	0.033799026
231	0xbcc75115	-0.024330655
232	0x3b76c1f0	0.0037652217
233	0xba4c4cd1	-0.0007793429
234	0x3c8c65c9	0.017138379
235	0xbc75b0cf	-0.014995768
236	0xbcac602e	-0.021041956
237	0xbce16acb	-0.027516743
238	0x3cc6b37c	0.024255507
239	0x3c2928ee	0.0103247
240	0xbd082603	-0.033239376
241	0xbb145498	-0.002263343
242	0xbcf2d56e	-0.029642787
243	0xbcf47518	-0.02984099
244	0x3cb463a3	0.022020167
245	0xbc9399d3	-0.018017685
246	0x3cac5d28	0.021040514
247	0x3d06a5e1	0.03287304
248	0x3ba4d0e8	0.0050297864
249	0x3c799db1	0.0152353505
250	0xbcfcffff	-0.030883787
251	0xbc7739f7	-0.0150895035
252	0xbaff27fe	-0.0019466875
253	0x3bf78877	0.0075541097
254	0x3c6a2ce5	0.01429293
255	0x3c9c2467	0.019060327
