Lecture8_Image restoration (HuStar_4)/outputs/x3/epoch_47.pth (torch, 231589 bytes, 5 tensors)

conv1.weight f4 [64, 1, 9, 9]
0.011625832 0.035101816 -0.03764821 0.06639853 -0.07126911 0.09623436 -0.06546477 -0.07060305
-0.028097877 0.067926995 -0.046825185 0.02962239 -0.105445385 -0.080109455 -0.05717059 -0.038050946
-0.108559504 0.06562602 -0.014863287 0.026169335 0.0702227 0.02179126 0.042904116 0.11631845
-0.053858776 0.010541433 -0.07402611 0.052860778 0.04260102 -0.13027158 0.11069378 0.10286032
0.0927461 0.0641968 0.07554862 -0.04590195 -0.12455405 -0.07344226 -0.086457446 0.063841045
0.061020076 -0.0052775443 0.0053646364 0.08929567 -0.0365383 -0.0096648345 -0.04388901 0.019838998
0.1478842 0.116886675 0.053526953 0.014578192 0.010804616 0.022330467 -0.00068194617 -0.13170935
-0.08542548 0.09764355 0.00087356364 -0.11887193 -0.004700339 0.094595835 -0.101756975 -0.01739241
-0.0628675 -0.03043402 -0.058895405 -0.04685762 -0.14951108 0.043775674 0.12664089 0.08812046
0.040533 -0.07562827 0.008817267 -0.039102074 0.021823633 -0.12611458 0.0025235713 0.10934986
0.053368032 0.017089166 0.028477425 0.010742294 -0.07379291 -0.07666066 -0.113506034 0.07088362
0.03178482 0.006635424 -0.08618847 0.08385366 0.049501214 0.062806204 -0.0759137 -0.0111086285
0.11492806 0.08548888 0.09340717 -0.038502708 0.06841515 -0.07944761 0.0042212466 -0.07911067
-0.045317106 -0.01079219 0.026704675 0.10162348 0.02679493 -0.024150604 0.0898383 -0.047441818
0.054046575 -0.035578467 -0.013128093 0.017051935 -0.10469741 -0.009469667 0.021307511 0.118567
-0.010660199 0.043423455 0.08079461 -0.050619096 0.1072702 -0.07405321 0.02669587 0.01998317
0.046301484 0.09666717 -0.060012214 -0.019509142 -0.014128994 -0.07930023 -0.03807051 -0.10039651
0.013681678 0.011668107 0.0035651491 -0.0665634 -0.06129794 -0.05172875 0.044397652 0.103936285
0.015244176 -0.06429139 -0.054267384 0.011306748 -0.10162849 -0.125127 -0.073609255 -0.011494212
0.0096539585 0.095881656 0.04759598 0.11826464 -0.042172596 0.024124669 -0.096391164 0.10203299
0.07783076 0.1292521 -0.061762787 0.11795562 0.13457029 0.15554644 0.10803474 0.18232802
0.1232003 0.08541416 -0.039577764 -0.10257276 -0.0295766 -0.026726613 -0.12765953 -0.09265223
-0.12880555 -0.06402555 0.046050973 -0.055307932 0.00062417786 0.0022076522 0.047466017 -0.1286741
-0.09789543 -0.046841513 -0.0738493 0.03619563 0.049003944 -0.074573696 -0.060454585 -0.0799962
0.06788255 0.13222946 -0.05091484 -0.023835838 0.061239164 -0.042283107 0.11196433 0.046797954
-0.0038471515 0.043761 0.07971102 -0.015247006 -0.075992875 0.015626837 0.024710769 0.015145879
-0.007995934 0.08802544 -0.0053491974 0.020973854 0.061710007 -0.06834846 0.041550875 -0.0092104
0.060619913 -0.076330185 -0.008822037 -0.0015507446 -0.09913181 -0.09615576 0.02735675 -0.029671468
0.069717735 -0.05974516 -0.036976464 -0.08063969 0.048595317 0.015243442 -0.0044650165 -0.0056743436
-0.06993367 0.045910504 0.048318017 -0.057687826 0.05551197 0.0040870537 -0.077066354 0.08308007
0.07000933 -0.020459665 -0.07616532 0.008403633 0.079664476 0.0895914 -0.09422184 -0.058236055
0.08229282 0.050228823 0.058812957 -0.06521845 0.09802086 -0.094785 -0.0132231545 -0.0036182597
00000000: 467a 3e3c ecc6 0f3d 0235 1abd f4fb 873d
00000010: 8af5 91bd 8516 c53d 6512 86bd 5598 90bd
00000020: 852d e6bc 4f1d 8b3d c4cb 3fbd a8aa f23c
00000030: c0f3 d7bd 6d10 a4bd b52b 6abd 4fdb 1bbd
00000040: 7254 debd ef66 863d 2585 73bc 1361 d63c
00000050: ebd0 8f3d 9683 b23c 3abc 2f3d 5e38 ee3d
00000060: 059b 5cbd f9b5 2c3c 009b 97bd 8b84 583d
00000070: 687e 2e3d ea65 05be 6cb3 e23d 6ea8 d23d
00000080: abf1 bd3d 9d79 833d 3cb9 9a3d af03 3cbd
00000090: 3216 ffbd e568 96bd 9a10 b1bd 18bf 823d
000000a0: 30f0 793d 40ef acbb d5c9 af3b a6e0 b63d
000000b0: 2fa9 15bd 4159 1ebc f6c4 33bd 6585 a23c
000000c0: f56e 173e 4862 ef3d 143f 5b3d 5ed9 6e3c
000000d0: d805 313c 62ee b63c a2c4 32ba d1de 06be
000000e0: 8ef3 aebd 57f9 c73d ddff 643a 2073 f3bd
000000f0: 4d05 9abb 76bb c13d f665 d0bd 877a 8ebc
00000100: adc0 80bd c450 f9bc 4f3c 71bd c7ed 3fbd
00000110: 6f19 19be 1f4e 333d 26ae 013e 8078 b43d
00000120: ee05 263d ffe2 9abd 4c76 103c 7f29 20bd
00000130: 7ac7 b23c 2e24 01be 8062 253b d2f2 df3d
00000140: 7098 5a3d 94fe 8b3c 7d49 e93c 7200 303c
00000150: bd20 97bd 4400 9dbd da75 e8bd 6e2b 913d
00000160: cd30 023d f96d d93b 9583 b0bd 78bb ab3d
00000170: c9c1 4a3d 8aa0 803d a478 9bbd f700 36bc
00000180: 675f eb3d cb14 af3d 424c bf3d 04b5 1dbd
00000190: 3e1d 8c3d 6eb5 a2bd 6252 8a3b c604 a2bd
000001a0: 6e9e 39bd bad1 30bc c3c3 da3c f91f d03d
000001b0: 0b81 db3c 7dd7 c5bc 25fd b73d 5a52 42bd
000001c0: f15f 5d3d baba 11bd 3717 57bc 80b0 8b3c
000001d0: 986b d6bd aa26 1bbc 178d ae3c 41d3 f23d
000001e0: 1ea8 2ebc cbdc 313d a577 a53d f855 4fbd
000001f0: 7bb0 db3d 36a9 97bd 4cb1 da3c bfb3 a33c
00000200: a0a6 3d3d 70f9 c53d 5ecf 75bd a3d1 9fbc
00000210: 4c7d 67bc 2968 a2bd d3ef 1bbd af9c cdbd
00000220: 1e29 603c 962b 3f3c 47a5 693b 6452 88bd
00000230: 8c13 7bbd 87e1 53bd 50da 353d 8cdc d43d
00000240: b5c2 793c 34ab 83bd 7a47 5ebd f03f 393c
00000250: 9922 d0bd 4b21 00be 73c0 96bd 3852 3cbc
00000260: a32b 1e3c 9a5d c43d 01f4 423d bb34 f23d
00000270: 2cbd 2cbd 19a1 c53c bb68 c5bd acf6 d03d
00000280: bc65 9f3d aa5a 043e fafa 7cbd b792 f13d
00000290: cbcc 093e 9147 1f3e 5141 dd3d 32b4 3a3e
000002a0: 7050 fc3d 9eed ae3d 4b1c 22bd ab11 d2bd
000002b0: a04a f2bc c5f1 dabc 2eb9 02be 74c0 bdbd
000002c0: 9ae5 03be d41f 83bd f29f 3c3d 928a 62bd
000002d0: de9f 233a 42ae 103b ba6b 423d 25c3 03be
000002e0: 667d c8bd e3dc 3fbd 4d3e 97bd de41 143d
000002f0: 5cb8 483d 18ba 98bd 3a9f 77bd 0cd5 a3bd
00000300: 0206 8b3d 2967 073e 148c 50bd 6043 c3bc
00000310: ebd5 7a3d 0d31 2dbd 8e4d e53d 36af 3f3d
00000320: 7e20 7cbb bc3e 333d 883f a33d 94ce 79bc
00000330: 27a2 9bbd da03 803c 3d6e ca3c 6c26 783c
00000340: 6101 03bc af46 b43d 5248 afbb 5cd1 ab3c
00000350: a2c3 7c3d 47fa 8bbd 4031 2a3d 38e7 16bc
00000360: 964c 783d 0053 9cbd 4e8a 10bc 5b42 cbba
00000370: 9e05 cbbd 50ed c4bd 431b e03c 9411 f3bc
00000380: 2cc8 8e3d 57b7 74bd a274 17bd 6c26 a5bd
00000390: e20b 473d a1bf 793c 464f 92bb d8ef b9bb
000003a0: 6239 8fbd a70c 3c3d 1de9 453d 124a 6cbd
000003b0: 8560 633d b1ec 853b f7d4 9dbd e225 aa3d
000003c0: 0d61 8f3d 079b a7bc 90fc 9bbd 64af 093c
000003d0: 2127 a33d b27b b73d 61f7 c0bd ee88 6ebd
000003e0: 2389 a83d bdbc 4d3d dbe5 703d 4091 85bd
000003f0: 29bf c83d a31e c2bd eea5 58bc 5320 6dbb

conv1.bias f4 [64]
0.015689194 -0.10734249 0.022138305 -0.050136708 0.0637964 0.008956194 0.05180216 -0.022392277
0.11800984 -0.03990788 0.005039659 0.027658677 -0.12412719 0.15590356 0.06432987 0.018270487
-0.029636962 -0.06269181 0.059832245 0.033091646 0.020511305 -0.008789525 -0.060206607 0.07328535
-0.08637948 0.049933407 -0.008569644 0.0083891405 0.02251485 0.040946223 0.09180506 -0.0061961696
0.037828073 0.072083294 -0.0013580289 -0.07288557 -0.002936704 0.07877463 -0.040271696 0.042657465
0.015369606 -0.027573898 0.0973928 -0.021689167 0.034286883 -0.014906782 -0.014362804 -0.022045545
0.010044896 -0.049106043 -0.016212095 0.0759208 0.015376503 0.009484025 0.0072166403 0.015922157
0.09144864 -0.035117935 -0.013695691 0.06989986 0.034462873 -0.01612587 -0.056714382 -0.08432183
00000000: a086 803c 61d6 dbbd 645b b53c 265c 4dbd
00000010: b0a7 823d 00bd 123c 802e 543d 0270 b7bc
00000020: 25af f13d 7276 23bd b923 a53b 7394 e23c
00000030: 6536 febd 2fa5 1f3e 61bf 833d fdab 953c
00000040: 37c9 f2bc 9064 80bd a812 753d 1b8b 073d
00000050: 5307 a83c f101 10bc 349b 76bd a116 963d
00000060: bae7 b0bd f986 4c3d b167 0cbc 9b72 093c
00000070: 1071 b83c 3ab7 273d 4b04 bc3d 3d09 cbbb
00000080: 9cf1 1a3d 68a0 933d e3ff b1ba 0845 95bd
00000090: b875 40bb 9854 a13d eff3 24bd 98b9 2e3d
000000a0: cdd0 7b3c a8e2 e1bc e075 c73d 7bad b1bc
000000b0: 6770 0c3d 933b 74bc f751 6bbc dc98 b4bc
000000c0: 5993 243c 6b23 49bd 3acf 84bc 5d7c 9b3d
000000d0: baed 7b3c e262 1b3c 9179 ec3b 2f6f 823c
000000e0: 6d49 bb3d d3d7 0fbd e463 60bc a827 8f3d
000000f0: f128 0d3d 671a 84bc 574d 68bd ecb0 acbd

conv2.weight f4 [32, 64, 5, 5]
0.004445823 -0.0002693619 0.04962755 0.073329374 -0.100121126 0.024490269 -0.03558697 -0.014919455
0.03928884 -0.017783219 0.03420146 -0.009087134 -0.0112001365 0.00424735 0.044136602 -0.011385972
0.018920327 0.015907768 0.021508493 0.049259145 -0.019364627 -0.012023636 -0.04335356 0.027139729
-0.004067514 0.0023302236 0.026847696 -0.016800685 -0.03098944 -0.03215963 0.008098797 0.026292285
0.005844245 0.01352383 0.006383532 0.06845111 0.020150222 0.0142926285 0.035673548 0.09091395
0.01768655 0.008452826 -0.043844435 -0.012679496 0.027876042 -0.07987922 -0.010573957 -0.014029538
-0.023371605 0.0059462176 -0.14105637 -0.15476348 -0.1982312 -0.15846492 -0.24320456 -0.07883434
-0.09187921 -0.06509755 -0.013840343 -0.076233305 0.026581652 0.0055737407 -0.02509742 0.03923761
0.011624064 0.015838128 0.06446965 0.03547488 0.05042015 0.039064135 -0.011979597 0.0025572085
-0.02218898 -0.010791202 0.018027786 0.030662652 0.0021295329 0.006906114 -0.0069785826 -0.030284094
0.020127965 0.029298238 -0.007819927 0.008348425 0.01155622 0.010679009 -0.013360158 -0.037355483
0.036722414 0.0058289743 -0.00068840414 0.008217187 -0.015110177 0.025359292 0.0057629542 0.028052373
-0.006576249 -0.0063437927 -0.01931159 0.0054278774 -0.038024798 -0.06679567 -0.02784687 -0.016113713
-0.023962317 0.002275616 -0.012124131 -0.0016903814 0.0049401587 0.016383313 0.010150656 0.0028621333
0.05631821 0.03394188 -0.002187098 -0.017974278 0.0056548594 -0.022157462 0.00033383854 -0.00028837795
-0.03510865 -0.03395143 -0.049287457 -0.061957743 -0.038183864 0.07259921 -0.028352758 0.076836385
0.03014526 0.11027354 -0.051282085 -0.030145558 -0.029133659 -0.014474185 0.008430113 -0.011860404
0.0059019453 0.030453563 0.003546481 0.00093967596 0.02499671 0.038957026 0.03729839 0.013341122
0.008019344 -0.046665553 -0.046022814 -0.013738878 -0.054981407 -0.08619225 0.0075891935 0.014703435
-0.007188785 0.011671575 -0.03689921 0.006494958 -0.010688771 -0.029831318 -0.026895564 0.0057549295
-0.02738491 -0.039879672 0.0035101073 0.00075487536 -0.025066443 0.011952995 -0.0050610895 0.010651395
0.006286459 0.012222895 0.0075161704 0.011283984 0.031902984 0.026606718 0.0047403127 0.03959948
0.06586107 0.039502524 -0.0064367666 0.04738743 0.0063022953 -0.032257725 0.053160995 0.01683459
-0.013075545 0.00723642 -0.02310207 -0.024801621 0.03193301 0.04304682 0.010437551 -0.0051090512
-0.08375102 -0.015695795 0.058486443 0.02478775 0.11444854 -0.0015496905 -0.06538201 0.03227103
-0.06747779 0.013816507 0.009368304 0.0024085648 -0.01013454 0.049530417 0.038644567 0.012709014
-0.032676324 -0.036450963 0.08993018 0.0018801788 -0.014225832 0.00032790023 -0.05588359 0.0436787
0.024449946 0.014070976 0.015698597 -0.031387653 -0.04270513 0.029479783 0.009934034 -0.0045618345
-0.0016771911 -0.0065885023 0.0022736113 -0.006499779 0.0004633251 0.005620971 0.01643985 0.002181303
0.032293916 0.032017257 -0.004532566 -0.022590643 -0.018971035 -0.0071805837 0.0010641589 -0.018345995
-0.0525646 -0.031538703 -0.020003902 -0.025750808 -0.02344553 -0.030951375 -0.032565974 -0.037029333
-0.022831956 -0.010687871 -0.026031662 -0.03215632 -0.015667044 0.016953588 0.014021631 -0.03357332
00000000: 44ae 913b 2439 8db9 4246 4b3d b62d 963d
00000010: 4e0c cdbd d19f c83c a5c3 11bd bb70 74bc
00000020: 56ed 203d 1dae 91bc d516 0c3d 34e2 14bc
00000030: c780 37bc 5b2d 8b3b 95c8 343d 3a8c 3abc
00000040: cdfe 9a3c 0251 823c 9432 b03c f5c3 493d
00000050: 91a2 9ebc c9fe 44bc 8193 31bd 2354 de3c
00000060: c848 85bb aab6 183b b3ef db3c 97a1 89bc
00000070: 91dd fdbc d1b9 03bd d1b0 043c eb62 d73c
00000080: 1581 bf3b 0e93 5d3c f32c d13b 1830 8c3d
00000090: 1412 a53c a12b 6a3c 6d1e 123d 1831 ba3d
000000a0: 62e3 903c b97d 0a3c 3996 33bd a9bd 4fbc
000000b0: 4c5c e43c b797 a3bd 643e 2dbc 26dc 65bc
000000c0: cf75 bfbc 7dd8 c23b 1571 10be 517a 1ebe
000000d0: 1ffd 4abe a144 22be 9e0a 79be e673 a1bd
000000e0: 2b2b bcbd dd51 85bd 9bc2 62bc 3520 9cbd
000000f0: c4c1 d93c eda3 b63b 1b99 cdbc 9eb7 203d
00000100: dc72 3e3c f6be 813c aa08 843d 1c4e 113d
00000110: 5c85 4e3d b701 203d 1246 44bc d796 273b
00000120: aac5 b5bc 95cd 30bc 02af 933c 3e30 fb3c
00000130: a28f 0b3b af4c e23b 98ac e4bb 5916 f8bc
00000140: 67e3 a43c dc02 f03c 271f 00bc d5c7 083c
00000150: 4d56 3d3c 03f7 2e3c 90e4 5abc 1002 19bd
00000160: 3e6a 163d fb00 bf3b 0576 34ba 61a1 063c
00000170: ad90 77bc 4abe cf3c 2ad7 bc3b 17ce e53c
00000180: 937d d7bb 97df cfbb 5733 9ebc 56dc b13b
00000190: e4bf 1bbd 2bcc 88bd 1e1f e4bc e800 84bc
000001a0: 9f4c c4bc 8022 153b 4ba4 46bc ca8f ddba
000001b0: 0ee1 a13b 4c36 863c f04e 263c a192 3b3b
000001c0: ecad 663d a406 0b3d 6a55 0fbb cb3e 93bc
000001d0: 664c b93b 9183 b5bc 0d07 af39 6f31 97b9
000001e0: 16ce 0fbd a810 0bbd a5e1 49bd 67c7 7dbd
000001f0: af66 1cbd e5ae 943d 0b44 e8bc 655c 9d3d
00000200: 31f3 f63c 18d7 e13d 2a0d 52bd d1f3 f6bc
00000210: b6a9 eebc 2225 6dbc 751e 0a3c 2452 42bc
00000220: 1b65 c13b c079 f93c 146c 683b 9654 763a
00000230: e6c5 cc3c 6791 1f3d 32c6 183d b994 5a3c
00000240: 9163 033c 6124 3fbd 6b82 3cbd 0819 61bc
00000250: 2f34 61bd 9085 b0bd c5ae f83b ade6 703c
00000260: e68f ebbb 223a 3f3c a023 17bd a8d3 d43b
00000270: f41f 2fbc cf60 f4bc 1654 dcbc d993 bc3b
00000280: 5256 e0bc de58 23bd d409 663b d4e2 453a
00000290: 2458 cdbc 7fd6 433c 7fd7 a5bb 3083 2e3c
000002a0: a4fe cd3b 8a42 483c 354a f63b 76e0 383c
000002b0: b4ac 023d 55f6 d93c a054 9b3b 1033 223d
000002c0: 2be2 863d 66cd 213d 83eb d2bb 5219 423d
000002d0: 7c83 ce3b ad20 04bd 58bf 593d b2e8 893c
000002e0: d03a 56bc 7e1f ed3b 8d40 bdbc c52c cbbc
000002f0: 30cc 023d dd51 303d 4302 2b3c d469 a7bb
00000300: a885 abbd 7894 80bc 7b8f 6f3d ae0f cb3c
00000310: ff63 ea3d fc1e cbba 01e7 85bd a12e 043d
00000320: cc31 8abd a15e 623c 847d 193c 03d9 1d3b
00000330: 570b 26bc 68e0 4a3d c449 1e3d 7839 503c
00000340: 9cd7 05bd 9b4d 15bd 502d b83d 5570 f63a
00000350: 7713 69bc 06ea ab39 31e6 64bd 70e8 323d
00000360: 414b c83c f389 663c 589a 803c 5790 00bd
00000370: 93eb 2ebd 967f f13c 5cc2 223c 717b 95bb
00000380: 32d5 dbba 5de4 d7bb de00 153b 19fc d4bb
00000390: 71ea f239 1f30 b83b ddac 863c 31f4 0e3b
000003a0: a046 043d 8724 033d eb85 94bb 0310 b9bc
000003b0: 2569 9bbc 1a4b ebbb 3f7b 8b3a 574a 96bc
000003c0: fa4d 57bd ba2e 01bd 39df a3bc 5cf3 d2bc
000003d0: d710 c0bc bd8d fdbc e663 05bd 12ac 17bd
000003e0: 150a bbbc 2e1c 2fbc 5a40 d5bc 58b6 03bd
000003f0: 2c58 80bc 40e2 8a3c fcba 653c 2d84 09bd

conv2.bias f4 [32]
-0.01563128 -0.018094199 -0.0030025952 -0.008972857 0.025200604 0.015232979 -0.007202779 0.0086936755
0.021887371 -0.009747714 0.0003183427 -0.0056975232 0.02793917 0.013009129 0.032125473 -0.008536901
-0.014494913 -0.018131707 0.008116014 0.022948043 0.024882775 0.013124347 -0.01433947 -0.00321879
-0.0072083143 0.033959217 0.022945713 0.020594303 0.008789135 -0.0032709695 -0.016547576 0.000111025955
00000000: 2c0d 80bc 493a 94bc 30c7 44bb e402 13bc
00000010: 7f71 ce3c bf93 793c 4a05 ecbb eb6f 0e3c
00000020: 254d b33c e0b4 1fbc 3ce7 a639 4ab2 babb
00000030: b0e0 e43c 3e24 553c 0096 033d 5cde 0bbc
00000040: 127c 6dbc f288 94bc 08f9 043c 89fd bb3c
00000050: f6d6 cb3c 8007 573c 19f0 6abc 56f2 52bb
00000060: b933 ecbb d218 0b3d a6f8 bb3c 62b5 a83c
00000070: 4e00 103c c35d 56bb c88e 87bc 9bd6 e838

conv3.weight f4 [1, 32, 5, 5]
0.017149474 0.017588658 -0.000106592226 0.02682115 0.03203535 -0.030641066 -0.00044834247 -0.037864998
0.0005236675 0.010342225 -0.0053150975 0.026017671 0.0063751107 -0.03689483 -0.0068751536 -0.019172957
-0.030077938 -0.0020131883 -0.03459816 0.019281546 0.0023973347 0.013576578 0.023100097 0.031114813
-0.016271543 0.0016115267 -0.033847097 0.008091863 0.026263783 -0.022658205 0.020057783 -0.016671956
0.010200855 -0.015700893 0.0065051303 -0.03374781 0.026344039 -0.008020281 0.03251087 -0.012698268
0.015146539 -0.017249754 -0.015493894 -0.00965009 0.016900618 0.014254221 0.020462304 -0.006139338
0.003823339 0.021680027 -0.013818718 -0.01103846 0.027106043 -0.029996548 -0.01714004 -0.019251041
-0.0068968413 -0.025834698 0.008299999 -0.02439194 -0.015244027 -0.03403906 0.023344064 -0.022047883
-0.004441951 -0.020721605 -0.0043843403 -0.007163225 -0.011715759 -0.0006999935 0.015136737 0.029306004
0.025809411 -0.02614736 -0.0041768216 -0.057681747 0.015364678 0.021057285 -0.003755242 0.0055237114
0.040637568 0.04372922 -0.00092499715 -0.014396847 0.0031957126 0.04532573 0.033662237 0.011157649
-0.01748792 -0.0063966895 0.0051270286 -0.019520976 -0.067397 -0.036214076 -0.0011636679 -0.006469342
-0.025234148 -0.026791403 0.0035742365 0.039364308 0.0058921496 0.007553162 0.014253919 -0.0029942775
0.0037503177 -0.007907279 0.031588767 -0.0003021742 0.025115123 -0.020578053 -0.027954945 0.0043153414
-0.032100763 0.020366687 0.02032847 0.028467951 0.03156434 0.011094321 0.013051758 -0.0058003534
0.032033037 0.014576543 -0.008916117 -0.033431336 0.0035040635 0.005053135 0.034263354 0.029123439
0.03239028 0.0024858303 0.010942846 -0.024362696 0.008065626 0.010947881 -0.016058639 -0.019543111
0.010598313 -0.025745273 -0.014152116 0.028917205 0.023590077 -0.03491757 -0.035195787 0.02341849
-0.0051687676 0.006521756 -0.021844245 -0.01318295 0.028205035 -0.022055555 0.012417317 0.0012765342
0.011390656 0.0017547377 -0.006919212 0.0126950685 0.009660941 -0.003049297 0.024269579 0.032358795
0.018656356 -0.010270436 -0.026138652 -0.024321938 -0.017281694 -0.0032287955 0.017970914 0.009631138
0.03145703 -0.03503915 -0.020556632 0.03222357 -0.025000703 0.022992192 0.00091027917 -0.0040343814
0.02510386 0.027445324 -0.014329006 -0.0019748984 0.03315101 0.02954926 0.014383073 -0.021167517
-0.023676101 0.025433755 0.02042304 -0.0037012459 0.03441383 0.02497787 -0.0077717663 0.015394985
0.034440894 0.020627696 -0.017033806 -0.033426788 0.010706516 0.013213056 -0.03477449 0.005259318
-0.0121775195 -0.00086934294 -0.027315583 -0.017510304 0.0359716 0.012194604 -0.01691809 -0.050298993
-0.0024844604 0.0034571423 -0.011730063 0.03534597 0.056866907 -0.02802623 -0.0010363444 -0.046942953
0.069304876 0.07152236 -0.03246543 -0.03109204 -0.017960532 -0.019207252 0.03515318 -0.003226252
-0.024216758 0.03434071 -0.013389293 0.014596234 0.021751124 0.0110734785 0.033245154 -0.02515204
0.0033005038 -0.001360141 0.016410882 -0.015352251 -0.02137904 -0.02767642 0.0242062 0.010554794
-0.033738572 -0.002486667 -0.030062776 -0.0303529 0.02201438 -0.018527666 0.020627921 0.032521885
0.0046389056 0.014923429 -0.030883787 -0.0150895035 -0.0019466875 0.0075541097 0.01429293 0.019060327
00000000: 0e7d 8c3c 1716 903c 448a dfb8 07b8 db3c
00000010: 8037 033d f902 fbbc 820f ebb9 5418 1bbd
00000020: bb46 093a 7072 293c 452a aebb 0323 d53c
00000030: 4ee6 d03b 091f 17bd f848 e1bb 9b10 9dbc
00000040: 0266 f6bc b2ef 03bb cdb6 0dbd 55f4 9d3c
00000050: 9a1c 1d3b 4c70 5e3c 6a3c bd3c 7ee4 fe3c
00000060: e64b 85bc dd39 d33a 41a3 0abd bc93 043c
00000070: 2527 d73c b39d b9bc 3850 a43c a093 88bc
00000080: 7d21 273c 299f 80bc fd28 d53b 253b 0abd
00000090: 74cf d73c 7f67 03bc 1e2a 053d 650c 50bc
000000a0: 3029 783c 5b4f 8dbc 1ada 7dbc 691b 1ebc
000000b0: 2a73 8a3c 898a 693c 90a0 a73c 802c c9bb
000000c0: fc90 7a3b 509a b13c e767 62bc a8da 34bc
000000d0: 7e0d de3c 52bb f5bc 4569 8cbc 5cb4 9dbc
000000e0: e6fe e1bb 4aa3 d3bc b8fc 073c 9bd1 c7bc
000000f0: 15c2 79bc 8b6c 0bbd 0d3c bf3c c39d b4bc
00000100: c98d 91bb 5bc0 a9bc 83aa 8fbb 7db9 eabb
00000110: 74f3 3fbc c57f 37ba 1400 783c 2513 f03c
00000120: 426e d33c fd32 d6bc b8dd 88bb b243 6cbd
00000130: 21bc 7b3c 5480 ac3c 821a 76bb 4000 b53b
00000140: 9473 263d 691d 333d 827b 72ba c1e0 6bbc
00000150: 296f 513b 79a7 393d 6ae1 093d 92ce 363c
00000160: d442 8fbc 529b d1bb a200 a83b 74ea 9fbc
00000170: 7007 8abd 3655 14bd 3786 98ba c6fc d3bb
00000180: d8b7 cebc a579 dbbc bd3d 6a3b 783c 213d
00000190: ef12 c13b 8480 f73b 4589 693c a43b 44bb
000001a0: e4c7 753b 888d 01bc 3963 013d 226d 9eb9
000001b0: 3bbe cd3c 4e93 a8bc c501 e5bc b567 8d3b
000001c0: 177c 03bd 0ad8 a63c e487 a63c 9f35 e93c
000001d0: 9c49 013d f4c4 353c 0ad7 553c e410 bebb
000001e0: 1335 033d 74d2 6e3c e814 12bc 4cef 08bd
000001f0: 6ea4 653b c594 a53b bb57 0c3d 4794 ee3c
00000200: acab 043d 50e9 223b 9f49 333c 4794 c7bc
00000210: b025 043c be5e 333c 688d 83bc e018 a0bc
00000220: 8ca4 2d3c c0e7 d2bc 47de 67bc c6e3 ec3c
00000230: fa3f c13c ba05 0fbd 7529 10bd 22d8 bf3c
00000240: c45e a9bb 74b4 d53b b4f2 b2bc 4dfd 57bc
00000250: 3f0e e73c daad b4bc 0172 4b3c 6151 a73a
00000260: e09f 3a3c 3aff e53a 8fba e2bb fafe 4f3c
00000270: ec48 1e3c b7d6 47bb ffd0 c63c a88a 043d
00000280: 37d5 983c 5545 28bc ba20 d6bc cd3e c7bc
00000290: 5792 8dbc 339a 53bb bd37 933c eccb 1d3c
000002a0: 16d9 003d 3685 0fbd 6266 a8bc ddfc 033d
000002b0: 46ce ccbc 1f5a bc3c cd9f 6e3a d832 84bb
000002c0: 9ca6 cd3c 04d5 e03c 35c4 6abc 4c6d 01bb
000002d0: 5ac9 073d 4a11 f23c fba6 6b3c 8067 adbc
000002e0: 62f4 c1bc 735a d03c 384e a73c 9a90 72bb
000002f0: 84f5 0c3d 649e cc3c 4daa febb 3f3b 7c3c
00000300: e511 0d3d 6afb a83c 7b8a 8bbc 87ea 08bd
00000310: 626a 2f3c 937b 583c b26f 0ebd 5b56 ac3b
00000320: 3884 47bc 9ee4 63ba eec4 dfbc c571 8fbc
00000330: f556 133d e0cb 473c ce97 8abc 5106 4ebd
00000340: 54d2 22bb 3991 623b 732f 40bc f0c6 103d
00000350: 46ed 683d 4497 e5bc f3d5 87ba 4147 40bd
00000360: b7ef 8d3d 517a 923d 79fa 04bd bcb4 febc
00000370: f721 93bc 8758 9dbc c8fc 0f3d 876f 53bb
00000380: 3962 c6bc d8a8 0c3d c45e 5bbc 0b25 6f3c
00000390: 6a2f b23c 896d 353c 122c 083d a70b cebc
000003a0: 444d 583b c246 b2ba 1d70 863c 0288 7bbc
000003b0: 1923 afbc a9b9 e2bc 154c c63c 04ee 2c3c
000003c0: 7531 0abd 59f7 22bb 3646 f6bc a5a6 f8bc
000003d0: 8057 b43c 55c7 97bc e3fb a83c ab35 053d
000003e0: f601 983b 6681 743c ffff fcbc f739 77bc
000003f0: fe27 ffba 7788 f73b e52c 6a3c 6724 9c3c
