Lecture8_Image restoration (HuStar_4)/outputs/x3/epoch_28.pth (torch, 231589 bytes, 5 tensors)

conv1.weight f4 [64, 1, 9, 9]
00000000: b91e 27ba ed23 923c 2b2d 4abd ee79 633d
00000010: b74f a9bd c63d c03d eddf 8fbd 6f92 a4bd
00000020: 2a37 57bd 2910 8a3d 7b7a 44bd f52c 0b3d
00000030: 04f0 c6bd 309b 92bd 743f 2fbd 8f43 dabc
00000040: ad50 c4bd ffd1 883d 48c0 80bc 1cb5 e43c
00000050: 7336 993d 06c9 db3c c5ac 323d 2547 f93d
00000060: 20f4 3fbd 9302 cb3c 48a3 82bd c68a 853d
00000070: 965d 743d 79a7 f1bd 8318 e23d 5a4f b73d
00000080: 930c ac3d 73c9 783d 1aba ac3d c23a 0bbd
00000090: 2ce6 e5bd 17de 78bd 51b7 abbd 598a 453d
000000a0: 73ff 1a3d f8af 54bc 63e0 f93b 2b35 cd3d
000000b0: 25b8 c3bc 5d93 2abc 9235 30bd d512 783c
000000c0: 996e 053e 0741 ca3d cb6a 5f3d b754 b03c
000000d0: b98e 913c d5de ec3c 358a bdbb fe0b 00be
000000e0: 2fbd 9fbd 3a52 ca3d 9f9b 873a 0742 d6bd
000000f0: 7b46 9b3b 5625 c13d 15c2 d4bd 33af 16bd
00000100: 4444 69bd f88e 5dbc 2cd1 3abd d639 25bd
00000110: 4d8c 09be a5d0 433d 28c2 f63d 41d2 ab3d
00000120: 4dd3 aabb bd7f b4bd 245a a83c 10ea e9bc
00000130: 884b a03c 4a98 fcbd 82bf e33a d505 e13d
00000140: 837d 803d 0db3 043c 0492 913c f635 20bc
00000150: 58b3 a4bd 0c01 87bd 53a1 babd f7f0 a73d
00000160: 9331 343d 8761 b83c cb73 b4bd b4ca a13d
00000170: 81f3 153d 758a 7e3d cd9b 79bd 40e9 1d3c
00000180: 717e eb3d ff58 a33d 054f bb3d 3e82 0dbd
00000190: 0083 903d 9662 afbd b69f d73b 2a61 82bd
000001a0: 91d8 e5bc 4441 91bc ee88 3d3c 94a0 c03d
000001b0: 56e1 eb3c 5a53 bbbc e1b7 a63d 229a 4cbd
000001c0: 8402 853d ed2f 99bc f0fe a7bc b64d ef3a
000001d0: 1f45 e0bd 4eff ebbb e83d c83c 8576 e03d
000001e0: b8cd 84bc 4bb9 553d 2a7d cb3d e035 5dbd
000001f0: 5e66 c33d 5e88 9cbd 5400 eb3c 6e04 e13c
00000200: 2cc2 213d 82fb b93d 7d25 58bd 1dce 67b9
00000210: f31b 70bc de7e bbbd 8966 37bd 2f94 c6bd
00000220: 1f75 dd3c c343 3d3c 4248 733b 7b03 62bd
00000230: 79b5 1abd 6afc 45bd d6fb 0a3d 9edc c73d
00000240: b60f 353c 1f8a 68bd 9ac0 6abd 14b4 243c
00000250: 9b72 bebd 82cc d7bd 4fda 93bd 07a9 bebc
00000260: fc2a 743b b813 aa3d 480a 463d 31af e63d
00000270: f8f2 35bd 7e08 f03c efb0 adbd 37ef c03d
00000280: 4894 6e3d 4191 ed3d 0c33 68bd dda1 f43d
00000290: c7dc 083e f1ba 113e bc65 a93d 9af2 233e
000002a0: 9ede e63d f199 ca3d 1743 8ebc 8911 bcbd
000002b0: a343 28bc e379 aa3b ea64 c0bd 3d96 8cbd
000002c0: 9efd e0bd 4b33 42bd 175d 9f3d 7d7a a2bc
000002d0: f584 05bc afe9 a73b 15f5 813d 9bea e2bd
000002e0: 9002 b7bd f403 2cbd 5cfc 91bd f6a2 483d
000002f0: 858d 743d aec5 c0bd e2bd 8fbd f7e4 a4bd
00000300: 9ad9 863d bf2a f73d 92d2 81bd dae8 10bd
00000310: e462 643d 3972 61bd d76c d53d b7fd 3a3d
00000320: 4cad 64bb 680d 1d3d 01fa 8e3d a777 a7bc
00000330: 5c3a 9fbd 17aa 7c3c c3d7 8c3c 11f4 e63b
00000340: ca20 16bc b31c b53d 5e07 21bc dfee 753c
00000350: 0993 6d3d 34a4 91bd 3252 193d 7604 9abc
00000360: a7e3 6e3d 41df 8fbd 2444 9d3a 6c90 073c
00000370: 2285 b3bd 67f0 b2bd 2e04 ec3c 7f98 09bd
00000380: f4ab 803d 9ae1 9cbd 87f0 3bbd 262d acbd
00000390: 5349 403d 5cca 523c 32c5 2dbc cf95 8dbc
000003a0: b327 a4bd 04a4 103d 5acc 273d 91af 75bd
000003b0: f687 693d 8720 023c abf9 9cbd 0d3f ac3d
000003c0: cfc4 943d 63fa 22bc ed54 8cbd f882 733b
000003d0: 6173 a63d ed51 c73d 6971 b4bd faf2 58bd
000003e0: 2162 ad3d 8ced 503d ced0 7d3d 9f01 81bd
000003f0: ba73 c13d 60c8 bfbd c8a9 07bc c1a8 b3ba
-0.00063751225 0.017839396 -0.04935948 0.055536203 -0.082671575 0.09386782 -0.07025132 -0.080357425
-0.052542843 0.067413636 -0.04796837 0.03397842 -0.09713748 -0.07158506 -0.042785123 -0.026643543
-0.095857 0.066806786 -0.015716687 0.02791839 0.074810885 0.026829254 0.043621797 0.12171773
-0.046863675 0.0247815 -0.063788 0.065206096 0.059659563 -0.11799521 0.110398315 0.08950682
0.08400836 0.060738992 0.084339336 -0.033991583 -0.112255424 -0.060758676 -0.08384574 0.04822764
0.03784127 -0.012981407 0.007625626 0.100199066 -0.023891518 -0.010411111 -0.04301984 0.015141209
0.13030471 0.09875684 0.054545205 0.02152477 0.01776825 0.028914848 -0.005784298 -0.12504575
-0.07799756 0.09878965 0.0010346061 -0.104618125 0.0047386265 0.094309494 -0.10388581 -0.036788177
-0.05694987 -0.013522856 -0.045609638 -0.04033836 -0.13432427 0.0478064 0.12048751 0.08389712
-0.0052131773 -0.08813427 0.020550795 -0.028553993 0.019567266 -0.12333734 0.0017375799 0.109874405
0.062739395 0.00809933 0.017769821 -0.00977849 -0.080420196 -0.065919966 -0.091128014 0.08200257
0.04399259 0.022507442 -0.08811148 0.07899991 0.036609177 0.06214376 -0.0609396 0.009638131
0.11498726 0.07975959 0.09145931 -0.034548037 0.07056236 -0.08563726 0.0065803183 -0.06366189
-0.028057368 -0.017731316 0.011568291 0.09405628 0.028793972 -0.022866894 0.08140541 -0.04995168
0.064946204 -0.01869961 -0.020507306 0.0018257413 -0.10950684 -0.0072020655 0.024443582 0.10960106
-0.016211376 0.052178662 0.099359825 -0.054006457 0.09541009 -0.076431975 0.02868668 0.027467933
0.039491817 0.090811744 -0.052770127 -0.0002210666 -0.014655101 -0.09155057 -0.04477552 -0.096962325
0.027033387 0.0115518 0.0037121926 -0.0551791 -0.037770722 -0.048336424 0.033931576 0.09758876
0.011051109 -0.056772348 -0.057312585 0.0100527 -0.09299203 -0.10537054 -0.072193734 -0.023273958
0.0037257066 0.08304542 0.04834965 0.11263884 -0.044421166 0.029300924 -0.08481013 0.094206266
0.05824688 0.115999706 -0.056689307 0.119449355 0.1336547 0.14231469 0.082713574 0.16010514
0.112729296 0.09892643 -0.017365975 -0.09183032 -0.010270032 0.0052025183 -0.09394248 -0.06864593
-0.10985874 -0.047412198 0.07781427 -0.019833798 -0.008149375 0.005124293 0.06345574 -0.11079904
-0.08936036 -0.041995957 -0.07128212 0.048983537 0.059705276 -0.094127044 -0.07018639 -0.08051484
0.06584473 0.120687 -0.06338991 -0.035378315 0.055758372 -0.05504057 0.1042115 0.045652118
-0.0034893332 0.038342863 0.06981278 -0.020442797 -0.07774803 0.015421412 0.017192727 0.007048138
-0.009163091 0.088433646 -0.009828417 0.015010565 0.05800155 -0.071113974 0.037431903 -0.018800955
0.058322575 -0.07025004 0.0011998457 0.008274179 -0.087656274 -0.08737259 0.028810587 -0.033592697
0.062827975 -0.076602176 -0.04588368 -0.08407049 0.046944927 0.012865629 -0.010606097 -0.017283348
-0.080153845 0.035312667 0.04096637 -0.059981886 0.057014428 0.007942325 -0.07664808 0.084104635
0.07264101 -0.009947392 -0.06852136 0.003715692 0.081274755 0.09732423 -0.08810694 -0.052966096
0.08465982 0.051007792 0.06196671 -0.06299137 0.09445901 -0.093643904 -0.008280225 -0.0013706909

conv1.bias f4 [64]
00000000: d859 3fba 275a dfbd 9ebf 393c f0f7 7cbd
00000010: 49fd 3e3d 3bbe 853b f027 623d c3ec 91bc
00000020: 54b5 023e 35b7 34bd 5519 e63b 08a0 253d
00000030: 7ee9 e2bd 6bd4 f53d 178e 8b3d 2e6e b63c
00000040: 3edc 05bd 9aa6 97bd 7ae3 603d 437b 1b3d
00000050: 6030 8a3c 4401 9c3b 26c4 87bd 2d54 953d
00000060: c0f6 8cbd 3916 7c3d a275 dbba e087 48ba
00000070: c9d7 d73c 206c 353d d45d b43d 505c ffbb
00000080: 3e88 2c3d 4273 9b3d 2d64 133b 6a34 afbd
00000090: f754 2dbc 3848 a83d 75f7 acbc a3a7 583d
000000a0: 3365 103c 83f2 b5bc a233 c93d 7abd fcbc
000000b0: f15c 103d a81d 04bc 8a5c 8ebc 1bba 8bbc
000000c0: 54bf b1bb de41 2cbd 1162 a6bc 35ee 913d
000000d0: d36c ad3c dbfa ea39 7da8 f73a fce4 d83b
000000e0: ca86 c33d 4af9 33bd 6db5 5abc 79a2 883d
000000f0: d5e4 573d d1a5 e2bc 2377 84bd 20a9 a0bd
-0.00072994595 -0.10905867 0.011337189 -0.06175989 0.04662827 0.004081515 0.05521387 -0.017813092
0.12764484 -0.044120032 0.007022063 0.04043582 -0.11079691 0.12003406 0.06814211 0.022269335
-0.032680742 -0.074048236 0.05490444 0.03795935 0.01686877 0.004760893 -0.06629209 0.07291446
-0.06883001 0.06154463 -0.0016743431 -0.00076496415 0.026348012 0.04429257 0.08806959 -0.007792987
0.04212212 0.07590343 0.002249013 -0.08554919 -0.010579339 0.082169 -0.02111409 0.052894246
0.00881319 -0.022210365 0.09824301 -0.030852068 0.035244886 -0.008063711 -0.01737811 -0.017056515
-0.0054244194 -0.042055003 -0.020310434 0.071255125 0.021170055 0.0004481886 0.0018894818 0.006619094
0.09547193 -0.043938912 -0.013348919 0.06671614 0.052708466 -0.027666958 -0.06468036 -0.07844758

conv2.weight f4 [32, 64, 5, 5]
00000000: cbbb 25b9 b39a 29bc 12a6 de3c b525 2f3d
00000010: a4f8 9cbd 54e7 803c f3b9 edbc 11a8 d4bc
00000020: 9c3e 9f3b f405 e4bc be4c f33c 657b cfbb
00000030: 54a1 0bbc 24a3 4ebc 585f d93c 8569 5fbc
00000040: 5b51 423c 95de a33b 019b 203b d7af 033d
00000050: 619b 02bc 6ecc 8ebb 5c07 26bd 4272 0b3c
00000060: fdf6 77bc 2533 0fbb 4dd8 a73c e0f6 3c3c
00000070: cf20 9cbc 5a70 d8bc 2aa1 7b3c ca4e 343d
00000080: 020d 133d b23d d33c 2363 323c 1254 073d
00000090: 2059 823b 24ef d13c ae81 063d 67e8 8b3d
000000a0: 931f e8bb 8236 f3bb 5473 05bd 97a4 d7bb
000000b0: bcbb 263c c75d 6ebd 0a30 faba 4622 a63a
000000c0: 3be2 33bb 76c2 543c f5b1 d5bd 8d0e efbd
000000d0: 88e9 24be 40ee febd 6c69 3bbe 6cb8 27bd
000000e0: 1483 2fbd 7e14 28bd 7135 883a ffe1 24bd
000000f0: fbcd 993c 0476 9aba 34e7 01bd e390 bc3c
00000100: fae0 603c e4f1 ebbb b35c 153d 9338 bb3c
00000110: 7b0b ce3c 72eb aa3c cf0d 65bb 2cee 5e3c
00000120: 3ede c639 4419 d2b9 431a 653c c5cb ae3c
00000130: 5f47 cabb 9555 a5bb d6ef 6fbc 300c 8ebc
00000140: a100 1c3c 3f31 d63c d019 3cbc c6bd dcba
00000150: 5f13 bd3c 20d5 e83b 2a84 2dbb f0e7 f5bc
00000160: 6887 f93c 2d21 493c 8786 13bb 5d23 8d3c
00000170: e7b3 8ebb ff66 ab3c 9ae5 af3b 17d7 c43c
00000180: 3ded d5ba 54a9 2e3b ee49 97bc feee 59ba
00000190: 4503 f4bc 7689 2abd f16b b9ba 8a2a 863b
000001a0: 3e5e a9bb 4158 e3b9 1b36 ecbb 93b9 263c
000001b0: 418a ac3c 04ac 853c f4e5 26bc ec66 47bc
000001c0: e27b 1e3d 2c23 e03c e621 a0bc 2f20 b8bc
000001d0: 1d0b 303b 7499 ccbc 59f6 243c 9ad2 983b
000001e0: d8c7 a8bc 4cd3 6bbc 30d6 07bd 27d9 31bd
000001f0: ee0c a0bc 286f 0a3d 4868 42bd f83c 873d
00000200: 90d7 393d 1bdf fe3d 8920 36bd f262 c3bc
00000210: d170 98bc 9207 7abb e04e a53c 27f4 65bc
00000220: abab ceba 7223 bd3c b47c d5ba 41f2 2c39
00000230: a339 cd3c a697 0a3d da68 f43c d1be 4b3c
00000240: 647a 5b3c 0b90 d5bc 738c c2bc d13b 7c3c
00000250: 096a d0bc 6c57 5abd 11f7 ae3a 9e39 4a3b
00000260: d1f0 00bc 13a2 b23c 889b fbbc 3390 9c3c
00000270: 8689 8139 613e bfbc c34f 9abc 679b 873c
00000280: ee90 50bc d9b7 00bd ca0e 793a b110 a6bb
00000290: 2ad1 2ebc 734f 843c a821 56bc 56ac 8ebb
000002a0: e12a d3ba cdab 873c 8b41 f938 e6d4 263b
000002b0: ae08 c43c 5f18 bf3c bbb4 123c 4d61 be3c
000002c0: ac2d 5e3d fbcf db3c 89dc 6b3b f6da 603d
000002d0: 9adc eabb 8a4d 0abd 91ec 303d 1126 693c
000002e0: 1a96 8bba 12c3 3bbc 8547 edbc 4347 13bd
000002f0: 1e90 f83b ad0c dc3c ce1e 45bc 60f2 61bc
00000300: f75b a1bd 17a7 01bd 1d2d 0e3d 51c8 18bc
00000310: 080d b13d 3530 f33b d5fb 84bd 07e1 1dbb
00000320: d93b 96bd bf80 e53b 1341 433b 5b02 9ebb
00000330: d4a4 a4bb 26c3 1e3d 5ecf 3b3d 4595 aa3c
00000340: 5aa0 95bc 0981 d9bc daaf 953d 115c c53c
00000350: de88 243c 06b7 fc3b 674b 38bd b724 273d
00000360: 61ef 373d ce6e 203d 48e5 e23c 6d01 11bc
00000370: ea61 52bd c687 d43c 81a9 013c 0474 02bc
00000380: fb1d 563c 6af0 16bc 8fdd fe39 e3ba 59bc
00000390: 7f99 4bbc aaf7 2abb 3324 293c 1f0b 1c3a
000003a0: 1d23 cb3c f4dd ca3c 1469 a9bb 25e7 84bc
000003b0: 21a8 f7bb bade 0abb 9bb9 76bb 513f cabc
000003c0: 4c70 27bd 889b 86bc 3b13 cdbb 4130 c0bc
000003d0: 9bab 93bc 0b45 c3bb 210d 57bc a9f4 87bc
000003e0: eafe 2bbc 1d2d 3fbb d6f5 f7bc 0528 d8bc
000003f0: 8cc1 17bc 400c 473c 74df 413c e612 14bd
-0.00015805585 -0.010351825 0.027178798 0.04276057 -0.07664612 0.015735306 -0.029019332 -0.025959047
0.0048597585 -0.02783487 0.02969968 -0.0063318484 -0.00852235 -0.012612138 0.026534721 -0.013635998
0.011860217 0.005000899 0.0024506452 0.032150116 -0.0079716155 -0.004357866 -0.040534362 0.008511128
-0.01513457 -0.0021850553 0.020488882 0.011533469 -0.019058613 -0.02642076 0.015358249 0.04402045
0.035901077 0.025786255 0.010887894 0.03303916 0.0039779097 0.025626726 0.032838516 0.068314366
-0.007083842 -0.0074222693 -0.03258069 -0.0065809 0.010176595 -0.0581949 -0.0019087803 0.0012675009
-0.0027448076 0.012985816 -0.10434333 -0.11672697 -0.1610471 -0.12447786 -0.18301934 -0.040947363
-0.042849615 -0.041035168 0.0010391903 -0.04025459 0.018774977 -0.0011784439 -0.031714633 0.023018306
0.013725514 -0.0072004665 0.036465358 0.022854125 0.025151959 0.020864222 -0.0034950858 0.013606589
0.00037931086 -0.00040073146 0.013983312 0.0213374 -0.006173059 -0.0050456026 -0.014644584 -0.017339796
0.009521634 0.02614653 -0.011480764 -0.0016841225 0.023080526 0.0071054846 -0.002647648 -0.030017823
0.030460075 0.012275976 -0.0022510604 0.017228777 -0.004354942 0.020923136 0.005367947 0.024028344
-0.0016321313 0.002665122 -0.01846787 -0.00083135057 -0.029786715 -0.041635 -0.0014146549 0.0040944265
-0.0051687052 -0.00043362568 -0.0072085983 0.01017608 0.021062018 0.016317375 -0.010186661 -0.012170535
0.038692363 0.027360521 -0.019547414 -0.022476284 0.0026862093 -0.024975516 0.0100684995 0.0046637775
-0.020603105 -0.014393639 -0.03316325 -0.043419983 -0.019537415 0.033797413 -0.04746273 0.06603426
0.045371592 0.12444898 -0.04446462 -0.023850892 -0.018608483 -0.0038151485 0.020179212 -0.014035261
-0.0015767714 0.02308819 -0.0016287775 0.00016493445 0.025051897 0.03383603 0.029835153 0.012435631
0.013395879 -0.026069662 -0.023748612 0.015395121 -0.025441187 -0.05330603 0.0013348778 0.0030857096
-0.007869915 0.021805799 -0.030713812 0.019111728 0.0002470726 -0.023345174 -0.018836861 0.016553594
-0.012729866 -0.03142533 0.00095008 -0.0050679077 -0.010669986 0.016151166 -0.013069548 -0.00435404
-0.0016110801 0.016561413 0.000118854536 0.0025456487 0.02392992 0.02332705 0.008954222 0.023239756
0.054242775 0.026832571 0.0035989603 0.054896317 -0.007167411 -0.033765353 0.043194357 0.014230267
-0.0010649592 -0.011460083 -0.028964767 -0.035956632 0.0075855395 0.026861513 -0.01203127 -0.013790697
-0.07878869 -0.03165349 0.034710992 -0.009325103 0.08645064 0.007421518 -0.06493346 -0.0024090426
-0.07335634 0.007003873 0.0029793426 -0.004822058 -0.005024532 0.038760327 0.045852058 0.02082313
-0.018264938 -0.026550787 0.07308932 0.024091752 0.010042397 0.007712248 -0.044993784 0.0408065
0.044906024 0.03916817 0.02769722 -0.008850438 -0.05136291 0.025943648 0.007913948 -0.007962231
0.013068671 -0.009212593 0.0004861173 -0.013289186 -0.012426733 -0.002608756 0.010323572 0.0005952585
0.024797017 0.024764039 -0.005169997 -0.0162235 -0.0075578843 -0.0021189884 -0.003764725 -0.024688395
-0.04087858 -0.016431585 -0.006258396 -0.02346051 -0.018026164 -0.0059591583 -0.013125689 -0.016596155
-0.010497788 -0.0029171177 -0.03026859 -0.02638627 -0.009262454 0.012148917 0.0118330605 -0.036150835

conv2.bias f4 [32]
00000000: 9ca0 66bc 7233 afbc 30c7 44bb 1b47 893a
00000010: 534f cd3c 11dd 8b3c c6d4 23bc 9b7a 093c
00000020: 4bf8 953c ddb4 1cbc 3ce7 a639 d952 ba3a
00000030: 0bf2 d93c f141 8e3c b656 86bb e7ab 4abc
00000040: 7ea4 72bc 6ace 9abc 128a 403c 001c b93c
00000050: cd81 e73c 7132 233c 8793 24bc f32a 6c3a
00000060: 897f f7ba b17d de3c c114 a13c 333f a23c
00000070: 2fe4 073c 123f 33bc bc1d 0fbc 6a96 e3ba
-0.014076378 -0.021386836 -0.0030025952 0.0010473462 0.025062239 0.017073186 -0.00999946 0.008391048
0.018306872 -0.009564606 0.0003183427 0.0014215364 0.026604673 0.017365428 -0.004099692 -0.012370086
-0.014809726 -0.018897254 0.0117516685 0.02259636 0.028260136 0.009960757 -0.010044939 0.00090090855
-0.0018882613 0.027159544 0.019663217 0.019805526 0.008294149 -0.01094033 -0.008735117 -0.0017363552

conv3.weight f4 [1, 32, 5, 5]
00000000: 0072 8e3c 40a9 913c cf1c 8bba 6374 d03c
00000010: 6239 fe3c 4ee1 fdbc d92c 8639 6e62 13bd
00000020: a3f3 1a3b 0636 223c e506 8ebb 052f df3c
00000030: 6548 253c 71e6 05bd bac9 9dbb cbed 94bc
00000040: 8acc f2bc 18b9 3dba 99b7 07bd 354d af3c
00000050: 554f 133b 477a 483c 4774 af3c 72e6 ef3c
00000060: 7f2e 90bc 6272 033b 0765 09bd 8e83 043c
00000070: 06ac d73c f36e b7bc 9e3d a73c f208 88bc
00000080: 6510 263c 924d 7ebc c979 db3b a21d 09bd
00000090: 44b7 d73c 9292 03bc dd27 063d 538a 4dbc
000000a0: 6183 7c3c 0d2a 8bbc ef6e 77bc aa92 15bc
000000b0: b1eb 8b3c c5a0 6a3c aad1 a83c c1bf bfbb
000000c0: eacd 8a3b b2ac b23c e767 62bc a8da 34bc
000000d0: 7e0d de3c 52bb f5bc 4569 8cbc 5cb4 9dbc
000000e0: e6fe e1bb 4aa3 d3bc b8fc 073c 9bd1 c7bc
000000f0: 15c2 79bc 8b6c 0bbd 0d3c bf3c c39d b4bc
00000100: c98d 91bb 5bc0 a9bc 83aa 8fbb 7db9 eabb
00000110: 74f3 3fbc c57f 37ba 1400 783c 2513 f03c
00000120: 426e d33c fd32 d6bc b8dd 88bb 527e 50bd
00000130: 13f9 863c 1407 e03c b98b 4b3b 66f9 043c
00000140: d1bc 353d 52b9 ec3c 075a 34bc 13ec 95bc
00000150: 0f39 7bbb a92f 263d 56c3 bc3c adf9 9a3c
00000160: 3b43 cebb 7587 40bc 104f 0bba b560 aabc
00000170: 8806 6fbd cd83 d5bc f917 82bb c9f9 edbb
00000180: 7239 b3bc 35d6 b9bc 9bf6 223b 8bd0 0d3d
00000190: 277e ca3b 5288 fb3b 9c49 6a3c 142f 43bb
000001a0: ed1e 763b 7e28 f5bb e066 023d cc49 16b9
000001b0: 26ac ce3c ca03 a9bc 44de e2bc 34c1 923b
000001c0: fab8 02bd 703d a83c f076 a63c 609b eb3c
000001d0: c089 023d 6e19 393c 840d 593c 6b2a b7bb
000001e0: eafe 033d 518b 733c 71ca 0ebc b6be 07bd
000001f0: 4213 7f3b 5049 993b 72c4 ff3c 6e76 d23c
00000200: 928c 013d fe3c 583b ead1 2d3c 4a95 d6bc
00000210: b828 dc3b e80e 1a3c 59a3 99bc 21f6 94bc
00000220: cac7 6a3c ff37 aebc d0a5 47bc cb43 e53c
00000230: d79c dd3c bada f7bc 6af4 00bd 5ee1 ca3c
00000240: 782c fbbb dee9 d63b 7df3 adbc 3814 5abc
00000250: 009a e53c 86ef bebc df2e 503c 68ad b93a
00000260: f1ab 3b3c 8d66 f93a e967 e3bb b957 533c
00000270: 1137 213c a4b6 44bb db5c c53c 1938 033d
00000280: b42a 993c 6b21 26bc 8fec d4bc 1c5a c7bc
00000290: f77b 8ebc 85de 47bb fd69 943c 73f0 1e3c
000002a0: 74f1 003d 611b 0ebd 1caf a5bc 74d9 043d
000002b0: df4d ccbc 6fec bb3c 9ee9 8e3a 35e0 7fbb
000002c0: c044 ce3c 1998 e03c 151b 6bbc 5abf feba
000002d0: 7638 083d b3df f23c 0c8a 6b3c 44d0 adbc
000002e0: cf00 c2bc 16bf d13c f677 a83c c58c 73bb
000002f0: 58cf 0c3d 0878 cc3c fa35 f9bb 5add 7e3c
00000300: 2c4a 0d3d 690b a93c 618a 8bbc 2451 08bd
00000310: a29f 313c a2b4 593c 8c5b 0ebd ce77 ae3b
00000320: e75c 46bc 361a f43b 38c4 d4bc d56c 71bc
00000330: f02c 363d 54ce 8a3c 7d30 83bc ff10 3bbd
00000340: 69ef b83b d026 a4ba 6b4c 55bc 0f1d 863c
00000350: 053b 373d a93b a7bc f133 c93b c016 0abd
00000360: cf68 6f3d c5e4 583d 60ab febc 1d59 e5bc
00000370: 9ac1 d5ba da50 8bbc 4ab2 ff3c 5a39 e13a
00000380: a041 70bc 9a45 0d3d 858a 51bc b17a 793c
00000390: a0ac b63c 5ae2 3b3c 5d2c 0a3d 8c03 c8bc
000003a0: 8545 743b f9be 59ba a2da 8b3c 006c 76bc
000003b0: cca2 acbc 29a7 e1bc 5a81 c63c 266f 293c
000003c0: 345e 08bd 0b6a 15bb 9042 f3bc adf8 f4bc
000003d0: ff42 b43c c138 94bc 1efb ab3c 5d80 063d
000003e0: 6bdf a33b 43e7 783c ffff fcbc f739 77bc
000003f0: fe27 ffba 7788 f73b e52c 6a3c 6724 9c3c
0.017388344 0.0177809 -0.0010613444 0.025446123 0.031033222 -0.030991223 0.00025591886 -0.03598254
0.0023643754 0.0099005755 -0.004334318 0.0272441 0.010088061 -0.03269047 -0.0048153074 -0.018179795
-0.029638547 -0.0007237359 -0.033134077 0.02139912 0.0022477705 0.012236184 0.02141775 0.02928469
-0.017600296 0.002005719 -0.033543613 0.008088006 0.026327144 -0.022391772 0.020415124 -0.016605828
0.010135745 -0.015521424 0.0066978675 -0.033475526 0.026332505 -0.008030551 0.03275286 -0.012545186
0.015412183 -0.016987825 -0.015102132 -0.009129206 0.01708016 0.014320557 0.020607788 -0.0058517163
0.0042359727 0.021810863 -0.013818718 -0.01103846 0.027106043 -0.029996548 -0.01714004 -0.019251041
-0.0068968413 -0.025834698 0.008299999 -0.02439194 -0.015244027 -0.03403906 0.023344064 -0.022047883
-0.004441951 -0.020721605 -0.0043843403 -0.007163225 -0.011715759 -0.0006999935 0.015136737 0.029306004
0.025809411 -0.02614736 -0.0041768216 -0.05090172 0.01647619 0.027347125 0.0031058623 0.008116102
0.044369522 0.028896961 -0.011007792 -0.018301046 -0.003833357 0.040572796 0.023042362 0.018917883
-0.0062946356 -0.0117510455 -0.00053142104 -0.020798067 -0.058355838 -0.026063824 -0.003970143 -0.0072624427
-0.021877978 -0.02268515 0.0024866227 0.03462271 0.0061795893 0.0076761628 0.014299776 -0.00297827
0.0037555054 -0.0074816337 0.03183639 -0.00014332606 0.025228571 -0.02063169 -0.027693875 0.004478598
-0.03191469 0.020537108 0.020320386 0.028760612 0.03186965 0.011297567 0.013247851 -0.0055897734
0.032225527 0.014864759 -0.008715258 -0.03314086 0.003892139 0.004677929 0.031221602 0.025691237
0.0316282 0.0032995339 0.010609129 -0.026194233 0.0067187212 0.009402968 -0.018754648 -0.01818377
0.01432986 -0.021266935 -0.012185529 0.027986428 0.027052326 -0.030255664 -0.03148309 0.024765667
-0.007665213 0.006558641 -0.021234268 -0.013310485 0.028027534 -0.023307573 0.012706487 0.0014166059
0.011454568 0.0019027755 -0.0069398773 0.012899333 0.009839789 -0.003001609 0.024092129 0.03203592
0.01869712 -0.010139803 -0.025991706 -0.02433496 -0.017393095 -0.0030497622 0.018116945 0.009700882
0.031480268 -0.03469408 -0.0202251 0.032433942 -0.024939476 0.022939889 0.0010903364 -0.003904355
0.025179267 0.027416276 -0.014349719 -0.0019435689 0.03325697 0.029647684 0.014376175 -0.021217473
-0.023682026 0.025603812 0.020565014 -0.0037162763 0.034377426 0.02495958 -0.0076053115 0.015555704
0.034494564 0.020635324 -0.017033758 -0.033280507 0.010841282 0.013287695 -0.034755275 0.0053243404
-0.012107111 0.0074494136 -0.02597247 -0.01473542 0.04447645 0.016944088 -0.016014332 -0.045670506
0.0056437743 -0.0012523774 -0.013018708 0.016371278 0.04473402 -0.02041419 0.006140225 -0.033713102
0.058449563 0.052952547 -0.031087577 -0.027996594 -0.0016308308 -0.017006326 0.031212945 0.001718323
-0.014664084 0.034490205 -0.012789373 0.015227006 0.02229911 0.011467541 0.033733714 -0.024415754
0.0037272882 -0.000830635 0.017072026 -0.015040398 -0.021073721 -0.027545528 0.024231602 0.010341441
-0.033292964 -0.0022798802 -0.029694825 -0.029903734 0.022004602 -0.018093469 0.020993765 0.03283726
0.0050009987 0.015191856 -0.030883787 -0.0150895035 -0.0019466875 0.0075541097 0.01429293 0.019060327
