Lecture8_Image restoration (HuStar_4)/outputs/x3/epoch_54.pth (torch, 231589 bytes, 5 tensors)

conv1.weight f4 [64, 1, 9, 9]
0	0x3c2f0323	0.0106819
1	0x3d2149d0	0.039377034
2	0xbd0f6b05	-0.03501417
3	0x3d8e17ca	0.06938131
4	0xbd8a8b71	-0.067648776
5	0x3dc5cb5d	0.09657929
6	0xbd80ebc8	-0.06294972
7	0xbd89f0c9	-0.06735379
8	0xbc8cd50d	-0.017191434
9	0x3d8c16a1	0.068402536
10	0xbd3005ca	-0.04297427
11	0x3cf8e2ee	0.030381646
12	0xbdd8b68b	-0.10581692
13	0xbda512d6	-0.08060233
14	0xbd79f28d	-0.06102233
15	0xbd22d604	-0.039754882
16	0xbde526dd	-0.11189053
17	0x3d8e0654	0.06934801
18	0xbc6136b9	-0.013745957
19	0x3ced6778	0.028980002
20	0x3d8f67b0	0.07002199
21	0x3cafcc08	0.021459594
22	0x3d33e59b	0.04392014
23	0x3dea58cb	0.11442717
24	0xbd5f07b9	-0.054450724
25	0x3be0c636	0.006859566
26	0xbd9577ce	-0.072982416
27	0x3d46fd79	0.048581574
28	0x3d1e9806	0.0387192
29	0xbe097e2f	-0.13427041
30	0x3de3d636	0.11124842
31	0x3ddbfecd	0.10741959
32	0x3dc13cdd	0.09435437
33	0x3d87cf2b	0.06631311
34	0x3d97377d	0.073836304
35	0xbd36f8d5	-0.0446709
36	0xbe02b8b8	-0.12765777
37	0xbd99067f	-0.07471942
38	0xbdaf6615	-0.085643925
39	0x3d921c65	0.07134322
40	0x3d8fe0a8	0.07025272
41	0xbb5937d6	-0.0033144853
42	0x3bc5f6f2	0.006041401
43	0x3db39fd9	0.08770723
44	0xbd0fcf7a	-0.035109974
45	0xbc2d2f30	-0.010570332
46	0xbd2e0533	-0.042485427
47	0x3cb8cac9	0.022557633
48	0x3e1f42bf	0.15552805
49	0x3dfd1aa0	0.12358594
50	0x3d521cd1	0.051297013
51	0x3c4618b9	0.012090855
52	0x3c0d4c40	0.008624136
53	0x3cb86e50	0.022513539
54	0xbb11abd1	-0.0022227655
55	0xbe083ff7	-0.1330565
56	0xbdb25132	-0.08706893
57	0x3dcb6333	0.0993103
58	0x3ad67bf6	0.0016363848
59	0xbe004373	-0.1252573
60	0xbc07a629	-0.008279362
61	0x3dc04c8e	0.09389602
62	0xbdce74bc	-0.10080859
63	0xbc858a23	-0.01630122
64	0xbd83b809	-0.06431586
65	0xbd1097b1	-0.035300914
66	0xbd7a4c0a	-0.061107673
67	0xbd42690a	-0.047463454
68	0xbe1e912b	-0.15485065
69	0x3d2c9605	0.042135257
70	0x3e021c27	0.12706052
71	0x3db4164e	0.08793317
72	0x3d4d9ec2	0.05020023
73	0xbd8de74e	-0.069288835
74	0x3c006834	0.007837344
75	0xbd214f26	-0.039382122
76	0x3ccaae48	0.024741307
77	0xbe01eacf	-0.12687229
78	0x3b3a7026	0.0028448193
79	0x3ddbff4b	0.10742053
80	0x3d47ae90	0.04875046
81	0x3c9870aa	0.01860841
82	0x3cf9df00	0.030501842
83	0x3c8f877b	0.017520657
84	0xbd8f1928	-0.0698722
85	0xbd9f181e	-0.07768272
86	0xbdf1f3c7	-0.11814075
87	0x3d8da9d1	0.069171555
88	0x3cf5f29f	0.030022917
89	0x3bb39c1d	0.0054812566
90	0xbdb0974f	-0.0862261
91	0x3dab4f51	0.08364738
92	0x3d55a70a	0.052161254
93	0x3d7f287d	0.062294472
94	0xbda69b98	-0.08135146
95	0xbc9634c3	-0.018335706
96	0x3de8a348	0.113592684
97	0x3db16040	0.08660936
98	0x3dc4b69a	0.09605141
99	0xbd1fe7cc	-0.039039418
100	0x3d891b3f	0.0669465
101	0xbda12320	-0.07868028
102	0x3b0db96f	0.002162542
103	0xbdaf8f56	-0.08572261
104	0xbd582816	-0.052772604
105	0xbc35f72a	-0.011106292
106	0x3cf5b0e4	0.029991575
107	0x3dd9a4d4	0.106271416
108	0x3cdacf9d	0.026710326
109	0xbcd23737	-0.025661094
110	0x3db9f2c3	0.09079506
111	0xbd48648e	-0.04892402
112	0x3d4372d0	0.047716916
113	0xbd34a1ce	-0.04409962
114	0xbc70d506	-0.014699226
115	0x3c9abb27	0.01888807
116	0xbdd08341	-0.10181285
117	0xbc060083	-0.008178833
118	0x3cb0b3ec	0.021570168
119	0x3dfb5711	0.12272466
120	0xbc044a74	-0.008074392
121	0x3d272e8c	0.040815875
122	0x3d990b22	0.074728265
123	0xbd5121ab	-0.0510575
124	0x3de02204	0.10943988
125	0xbd916ff7	-0.07101434
126	0x3cddeb1c	0.027089648
127	0x3c9e3e71	0.019316884
128	0x3d520aef	0.05127996
129	0x3dcf563d	0.101238705
130	0xbd73bb96	-0.059505068
131	0xbcbf2532	-0.023333166
132	0xbc604432	-0.013688134
133	0xbd9b9a97	-0.07597845
134	0xbd0a27c0	-0.033729315
135	0xbdcfd4a9	-0.101479836
136	0x3c37de9c	0.011222508
137	0x3c7b73d5	0.015347441
138	0x3bed621e	0.0072443625
139	0xbd87201e	-0.06597923
140	0xbd85cc12	-0.06533064
141	0xbd527600	-0.051382065
142	0x3d44a144	0.048005357
143	0x3ddd9dd6	0.108211204
144	0x3c3957d1	0.011312441
145	0xbd8eff4a	-0.06982286
146	0xbd5def4f	-0.0541833
147	0x3c3df397	0.011593721
148	0xbdd2fd1f	-0.10302185
149	0xbe05584e	-0.13021967
150	0xbd98eb71	-0.07466782
151	0xbc1f8344	-0.009735886
152	0x3c46082f	0.012086912
153	0x3dbfdde3	0.093684934
154	0x3d2fafb4	0.042892173
155	0x3df119c9	0.11772496
156	0xbd2d9d81	-0.042386536
157	0x3cc2773e	0.0237385
158	0xbdca4270	-0.09875953
159	0x3dd46523	0.10370853
160	0x3da5d8ac	0.080979675
161	0x3e06ebd8	0.13175905
162	0xbd70c89c	-0.058785066
163	0x3df33160	0.11874652
164	0x3e089e17	0.13341556
165	0x3e1f9b2b	0.15586536
166	0x3de3dc06	0.111259505
167	0x3e3cdb97	0.18443142
168	0x3dfa0ff7	0.12210076
169	0x3da20a73	0.07912149
170	0xbd33fd99	-0.04394302
171	0xbdd6e78a	-0.10493381
172	0xbd178022	-0.03698743
173	0xbd216f73	-0.039412927
174	0xbe111b67	-0.1417061
175	0xbdd4b41a	-0.10385914
176	0xbe0d6dc9	-0.13811411
177	0xbd935707	-0.071943335
178	0x3d123e67	0.035704043
179	0xbd7d764d	-0.0618804
180	0x3b45eb95	0.0030200232
181	0xba18a85f	-0.0005823429
182	0x3d20e1f2	0.03927798
183	0xbe0d1910	-0.13779092
184	0xbdd4b988	-0.1038695
185	0xbd5075ad	-0.050893474
186	0xbd9c79bc	-0.076404065
187	0x3d03ed42	0.03220869
188	0x3d49a04e	0.049225144
189	0xbd8cc0ac	-0.06872687
190	0xbd685c02	-0.05672837
191	0xbda3962b	-0.07987627
192	0x3d8b0ea9	0.067899056
193	0x3e09417e	0.1340389
194	0xbd488ed8	-0.04896435
195	0xbcb67bc5	-0.022275815
196	0x3d7c5384	0.061603084
197	0xbd1d93ac	-0.03847091
198	0x3ded2947	0.11580139
199	0x3d4e8596	0.050420366
200	0xbaafc048	-0.0013408745
201	0x3d429b5c	0.047511443
202	0x3dad0e67	0.08450013
203	0xbc3f9fd9	-0.0116958255
204	0xbd977174	-0.07394686
205	0x3c87e23c	0.01658737
206	0x3ce99eb9	0.028518068
207	0x3c9bb0bc	0.019005172
208	0xbb861069	-0.0040913117
209	0x3dba5995	0.09099118
210	0xba88a1ec	-0.0010424233
211	0x3cd2aa00	0.025715828
212	0x3d860d47	0.06545501
213	0xbd87434e	-0.06604634
214	0x3d2f5872	0.042808957
215	0xbbc23340	-0.0059265196
216	0x3d7c8383	0.061648857
217	0xbd9baca6	-0.076012895
218	0xbc237024	-0.009975467
219	0xbaf7b665	-0.0018898962
220	0xbdcb62ce	-0.09930955
221	0xbdc4cde3	-0.09609582
222	0x3cdfdd13	0.027327096
223	0xbcfaaa52	-0.030598793
224	0x3d8f67e5	0.07002238
225	0xbd5ded65	-0.054181475
226	0xbd05025e	-0.03247296
227	0xbd9f95d7	-0.077922516
228	0x3d54d91d	0.051964868
229	0x3c9e1994	0.019299306
230	0x399d8989	0.00030047845
231	0xbac1ae5f	-0.0014776698
232	0xbd89fb3f	-0.067373745
233	0x3d4adb37	0.049525466
234	0x3d45644b	0.04819135
235	0xbd701ef3	-0.058623265
236	0x3d5800c7	0.052735116
237	0x3abca913	0.001439365
238	0xbda10db5	-0.078639425
239	0x3da58516	0.08082025
240	0x3d88c69b	0.06678506
241	0xbcd15d14	-0.025557078
242	0xbd9f1d97	-0.07769316
243	0x3c2eb653	0.010663587
244	0x3da18997	0.07887571
245	0x3db01788	0.08598238
246	0xbdc63cba	-0.096795514
247	0xbd78dfc9	-0.060760293
248	0x3da5f6fc	0.08103749
249	0x3d4a67c8	0.04941538
250	0x3d685fa4	0.056731835
251	0xbd89f4f6	-0.06736176
252	0x3dcc618c	0.09979543
253	0xbdc28646	-0.09498267
254	0xbc7623ab	-0.015023152
255	0xbb7b9ee0	-0.0038394257

conv1.bias f4 [64]
0	0x3c86c250	0.016450077
1	0xbdd78a4f	-0.10524427
2	0x3cc8da6a	0.02451821
3	0xbd3ffe43	-0.046873342
4	0x3d878fd4	0.0661923
5	0x3c497f97	0.012298486
6	0x3d57c2ac	0.052675888
7	0xbcb0d274	-0.021584727
8	0x3dee1a53	0.11626115
9	0xbd1dc653	-0.038519215
10	0x3b9275b7	0.004469599
11	0x3cbf387f	0.02334237
12	0xbe04dce5	-0.1297489
13	0x3e2e4733	0.17019348
14	0x3d813676	0.06309216
15	0x3c974524	0.018465586
16	0xbce6a95a	-0.028156925
17	0xbd6e7100	-0.058213234
18	0x3d818064	0.06323317
19	0x3cf41904	0.029797085
20	0x3cb0a421	0.021562638
21	0xbc40009e	-0.011718897
22	0xbd6d1f1e	-0.057891004
23	0x3d95da3b	0.07317015
24	0xbdb90aa8	-0.09035236
25	0x3d43203e	0.04763817
26	0xbc183e04	-0.009292129
27	0x3c3e8698	0.011628769
28	0x3cb3086c	0.021854602
29	0x3d2887f3	0.041145276
30	0x3dc4e6b5	0.096143164
31	0xbbe334f8	-0.0069338046
32	0x3d1a8936	0.03772851
33	0x3d90da9a	0.07072945
34	0xbaca101f	-0.0015416181
35	0xbd8e133f	-0.06937265
36	0xbb9f4fca	-0.0048618065
37	0x3d97a4d6	0.07404487
38	0xbd31d300	-0.043414116
39	0x3d26d458	0.04072985
40	0x3c957b66	0.018247318
41	0xbce150ca	-0.027504344
42	0x3dc6d6d8	0.09708947
43	0xbca2aea9	-0.019858675
44	0x3d0c81ac	0.034303352
45	0xbc881ca9	-0.016615229
46	0xbc69387c	-0.014234658
47	0xbc9c8725	-0.01910741
48	0x3c16db56	0.009207567
49	0xbd5ae81e	-0.05344402
50	0xbc878ea5	-0.01654751
51	0x3da01c15	0.07817856
52	0x3c71a0cd	0.014747811
53	0x3c2ddc17	0.010611556
54	0x3c37e6aa	0.011224428
55	0x3c9caf74	0.019126631
56	0x3db6b853	0.08921876
57	0xbccb5b96	-0.024823945
58	0xbc517263	-0.01278362
59	0x3d8e880e	0.06959544
60	0x3ce67167	0.028130246
61	0xbc3e61b1	-0.011619971
62	0xbd514714	-0.051093176
63	0xbdb6c0ae	-0.089234695

conv2.weight f4 [32, 64, 5, 5]
0	0x3b960bc9	0.0045790416
1	0x3aac9dcd	0.0013169587
2	0x3d495f60	0.049163222
3	0x3d9a66a8	0.075391114
4	0xbdd91d52	-0.106012955
5	0x3cefbda5	0.029265234
6	0xbd0d7420	-0.034534574
7	0xbc6a63dd	-0.014306036
8	0x3d335433	0.04378147
9	0xbc80b47e	-0.015711065
10	0x3d06f084	0.032944217
11	0xbc1dba9f	-0.0096270135
12	0xbc4f24ad	-0.0126430215
13	0x3bcc510d	0.006235248
14	0x3d3b3ff8	0.045715302
15	0xbc53235b	-0.012886847
16	0x3ca6e473	0.020372605
17	0x3c9ed618	0.019389197
18	0x3cd303f3	0.02575872
19	0x3d4d5538	0.0501301
20	0xbcab4b87	-0.020910038
21	0xbc5b8d3b	-0.013400371
22	0xbd2756a8	-0.040854126
23	0x3d0c31f3	0.034227323
24	0xbb4e6e10	-0.0031498708
25	0x3b910d5e	0.0044266423
26	0x3cf96cc8	0.030447379
27	0xbcb05e73	-0.021529412
28	0xbcf210f4	-0.0295491
29	0xbd009335	-0.031390388
30	0x398cb679	0.00026838834
31	0x3c77e711	0.015130774
32	0xbb8e9356	-0.00435106
33	0x3c1adf65	0.0094526755
34	0xba271689	-0.00063739024
35	0x3d932f07	0.07186704
36	0x3c8278a2	0.015926663
37	0x3b90ea2d	0.004422447
38	0x3d08064c	0.03320913
39	0x3db66b9b	0.08907243
40	0x3ced231e	0.02894741
41	0x3c3f717e	0.0116847735
42	0xbd513125	-0.05107226
43	0xbc69d892	-0.014272826
44	0x3d06d469	0.032917414
45	0xbdad356b	-0.08457454
46	0xbc5f8b41	-0.013644041
47	0xbcc320d4	-0.023819365
48	0xbcf40db9	-0.0297917
49	0x3b8ee596	0.004360865
50	0xbe2181ad	-0.15772124
51	0xbe2d6c9e	-0.16935965
52	0xbe5c9871	-0.21542527
53	0xbe32f58d	-0.17476483
54	0xbe82eb87	-0.25570318
55	0xbdcbfbe5	-0.099601544
56	0xbddc4050	-0.10754454
57	0xbd92ec89	-0.07174022
58	0xbcadb602	-0.021204952
59	0xbdadc666	-0.08485107
60	0x3d056819	0.03256998
61	0x3c539131	0.012913034
62	0xbc4acb4a	-0.012377569
63	0x3d4f07d4	0.050544575
64	0x3c7babf8	0.015360825
65	0x3d03677f	0.032081123
66	0x3da487b8	0.08033699
67	0x3d4ad5b0	0.049520195
68	0x3d8901f1	0.066898234
69	0x3d50a906	0.050942443
70	0xbc067763	-0.008207175
71	0x3aef0d4d	0.0018238217
72	0xbce70d21	-0.028204503
73	0xbc355fef	-0.011070236
74	0x3cab6fc0	0.02092731
75	0x3cd83b7d	0.026395554
76	0xbaa87db1	-0.0012854842
77	0x3bb85181	0.0056249504
78	0xbc160e1b	-0.009158636
79	0xbd1e01b5	-0.038575847
80	0x3cb03810	0.021511108
81	0x3cf35fad	0.029708708
82	0xbbf43317	-0.0074523794
83	0x3c236bdb	0.009974445
84	0x3c0c80e0	0.008575648
85	0x3c1780b9	0.0092469985
86	0xbc7d9aec	-0.015478831
87	0xbd20a63c	-0.039221033
88	0x3d1436ed	0.036185194
89	0x3ae8957a	0.0017744743
90	0xbb017881	-0.0019755664
91	0x3be62c7c	0.007024346
92	0xbc8d76ab	-0.0172685
93	0x3cc5f8e7	0.024166537
94	0x3b0a40df	0.0021095795
95	0x3cdc5274	0.026894785
96	0xbc050ae1	-0.0081202695
97	0xbc00949b	-0.00784793
98	0xbca6d910	-0.020367175
99	0x3b81559a	0.003946972
100	0xbd085c2e	-0.033291034
101	0xbd8938fa	-0.067003205
102	0xbcfcee82	-0.030875448
103	0xbc57fb32	-0.013182448
104	0xbcaca122	-0.021072928
105	0x3b5f1f3c	0.0034045717
106	0xbc373a90	-0.011183396
107	0xbba24cdf	-0.0049530114
108	0x3b2a77b1	0.0026011283
109	0x3c8939f3	0.016751265
110	0x3c77984d	0.015111995
111	0x3be553d7	0.00699852
112	0x3d6e6a67	0.058206942
113	0x3d0f8722	0.035040982
114	0x39f84f9b	0.00047361557
115	0xbc7709f0	-0.015078053
116	0x3bf6f8a9	0.007536967
117	0xbcac13ec	-0.021005593
118	0x3a78e6d0	0.0009494843
119	0x39cc4fb0	0.00038969284
120	0xbd161072	-0.036636777
121	0xbd18eaf0	-0.03733343
122	0xbd55ad2e	-0.05216711
123	0xbd8524ad	-0.06501136
124	0xbd280654	-0.04102166
125	0x3daaa93a	0.08333059
126	0xbcb0eaf5	-0.021596411
127	0x3da0b227	0.0784648
128	0x3cab0f08	0.02088119
129	0x3dcd58a6	0.10026674
130	0xbd4cd542	-0.050008066
131	0xbcf85b3f	-0.030316947
132	0xbd0289b3	-0.0318696
133	0xbc8d8b98	-0.017278478
134	0x3ba53be4	0.00504254
135	0xbc3e6b54	-0.011622269
136	0x3bcd0342	0.006256492
137	0x3cf5d6c2	0.030009631
138	0x3b8ad1db	0.0042364425
139	0x3a7f41f5	0.00097373064
140	0x3cb84c36	0.022497278
141	0x3d1ab7e0	0.037773013
142	0x3d18d8f9	0.037316296
143	0x3c55e406	0.013054853
144	0x3bd4367a	0.0064762207
145	0xbd590d5d	-0.05299126
146	0xbd59c5e3	-0.053167235
147	0xbcac875c	-0.021060638
148	0xbd7b6eec	-0.06138508
149	0xbdbf5db4	-0.09344044
150	0x3c14067f	0.009034752
151	0x3c7dd738	0.015493207
152	0xbbeb0496	-0.0071721775
153	0x3c22647e	0.0099116545
154	0xbd1a3eae	-0.037657432
155	0x3b167a16	0.0022960952
156	0xbc8a8ede	-0.016913828
157	0xbd05b698	-0.032644838
158	0xbcf7f45b	-0.030267885
159	0x3ab091ee	0.0013471225
160	0xbd0394c5	-0.0321243
161	0xbd3b3570	-0.04570526
162	0x3b60953a	0.0034268633
163	0x3a3978e9	0.0007075207
164	0xbcf95e22	-0.030440394
165	0x3c1057c6	0.008809989
166	0xbbcb4cd5	-0.0062042275
167	0x3c856453	0.01628319
168	0x3c25588a	0.01009191
169	0x3c552f5f	0.013011782
170	0x3b747131	0.0037298913
171	0x3bc870fd	0.006116985
172	0x3d0125b6	0.031530105
173	0x3cd641a7	0.026154352
174	0x3af918dd	0.0019004602
175	0x3d34dbe5	0.04415502
176	0x3d8e2d3e	0.06942223
177	0x3d32d7b2	0.043662734
178	0xbbba20c6	-0.0056801764
179	0x3d3e78c0	0.046501875
180	0x3c2fca8e	0.010729445
181	0xbcf464b9	-0.029833185
182	0x3d6608bd	0.056160677
183	0x3ca57063	0.020195192
184	0xbc727961	-0.014799447
185	0x3c427ad3	0.011870104
186	0xbca7f1d2	-0.020501051
187	0xbca774f5	-0.020441512
188	0x3d22b36a	0.039721884
189	0x3d4c7ee6	0.049925707
190	0x3c89b69f	0.016810713
191	0xbbacb6b0	-0.0052708015
192	0xbda87892	-0.08226122
193	0xbbfb153b	-0.007662443
194	0x3d851bfc	0.06499478
195	0x3d0f86ed	0.035040785
196	0x3de562c9	0.112004824
197	0xbc049346	-0.008091753
198	0xbd757597	-0.059926596
199	0x3d2b1942	0.041772135
200	0xbd812285	-0.06305412
201	0x3c81d265	0.015847394
202	0x3c21bbc2	0.009871425
203	0x3a46d604	0.00075849914
204	0xbc4b812e	-0.012420936
205	0x3d59911a	0.053116895
206	0x3d287329	0.04112545
207	0x3c584923	0.013201031
208	0xbd0842aa	-0.0332667
209	0xbcf19ef7	-0.029494746
210	0x3dbf484d	0.09339962
211	0xba50157e	-0.0007937773
212	0xbc9a3296	-0.01882295
213	0xba580d75	-0.00082417513
214	0xbd55881e	-0.052131765
215	0x3d253e14	0.040342405
216	0x3c9de628	0.019274786
217	0x3c121b37	0.008917621
218	0x3c2bdc45	0.010489528
219	0xbd1b39f6	-0.037897073
220	0xbd3a67de	-0.04550921
221	0x3cf24d14	0.02957777
222	0x3c334bfd	0.01094341
223	0xbb68981c	-0.0035491055
224	0xbb6abb31	-0.0035817141
225	0xb9c10b60	-0.00036820304
226	0x3c01d307	0.007923848
227	0x3b1f0dc2	0.0024269675
228	0x3c263f1c	0.010146882
229	0x3c425a95	0.011862417
230	0x3ca3a504	0.019976147
231	0x3b94e88b	0.004544323
232	0x3d15a601	0.036535267
233	0x3d14ab84	0.036296383
234	0xbb5c1b48	-0.0033585597
235	0xbcbf56ff	-0.023356913
236	0xbcb6fab7	-0.022336347
237	0xbc22bce8	-0.009932734
238	0x3b196d83	0.0023411221
239	0xbc7eda15	-0.0155549245
240	0xbd5e996a	-0.054345526
241	0xbd139c76	-0.036037885
242	0xbcce4ffc	-0.025184624
243	0xbcd8eb4e	-0.02647939
244	0xbcb1664f	-0.02165523
245	0xbd1f340a	-0.038867988
246	0xbd201a46	-0.039087556
247	0xbd2f9e0c	-0.042875335
248	0xbcddd1fb	-0.027077666
249	0xbc4206dd	-0.011842457
250	0xbcc8824e	-0.024476197
251	0xbd06b3a9	-0.03288618
252	0xbc8d6d86	-0.017264139
253	0x3c8ef759	0.017451929
254	0x3c75ea39	0.015009456
255	0xbd06540c	-0.032794997

conv2.bias f4 [32]
0	0xbc8bdbf7	-0.01707266
1	0xbc8df813	-0.017330205
2	0xbb44c730	-0.0030025952
3	0xbc3ec00c	-0.011642467
4	0x3cd31dc4	0.02577103
5	0x3c805aeb	0.015668353
6	0xbbda33a6	-0.006658989
7	0x3c133fe7	0.0089874035
8	0x3caa588b	0.020794174
9	0xbc2b7b2f	-0.010466381
10	0xba8cd4e4	-0.0010744599
11	0xbc0bb5f7	-0.0085272705
12	0x3ce66036	0.028122049
13	0x3c35e916	0.011102935
14	0x3d28fef5	0.04125877
15	0xbba6bd3d	-0.005088477
16	0xbc6c05e1	-0.0144056985
17	0xbc8f87e1	-0.017520847
18	0x3be0ae50	0.006856717
19	0x3cbf77e5	0.0233726
20	0x3cbe4b05	0.023229131
21	0x3c4f2d45	0.01264507
22	0xbc8406b7	-0.016116483
23	0xbb3fe4ed	-0.0029280738
24	0xbc04f3f8	-0.008114807
25	0x3d0b8af3	0.03406806
26	0x3cc4e92f	0.024036972
27	0x3ca8bde3	0.020598358
28	0x3c14f3f9	0.009091371
29	0xbabd70ca	-0.001445317
30	0xbc9afc8f	-0.018919257
31	0x3a61711a	0.00085999223

conv3.weight f4 [1, 32, 5, 5]
0	0x3c8ee45a	0.01744287
1	0x3c8fe995	0.017567435
2	0x375d17cb	1.3178166e-05
3	0x3cde582f	0.027141659
4	0x3d042d24	0.032269612
5	0xbcfa72b5	-0.030572275
6	0xba69c2e3	-0.0008917285
7	0xbd1e0e1d	-0.03858768
8	0xb930da55	-0.00016866003
9	0x3c29a492	0.010354178
10	0xbbc0e8fe	-0.00588715
11	0x3cce3f20	0.025176585
12	0x3b9ead1f	0.004842415
13	0xbd1c6de2	-0.03819073
14	0xbbf38db4	-0.007432664
15	0xbc9bbfc5	-0.019012341
16	0xbcf5d9d6	-0.030011099
17	0xbb2d78f5	-0.00264698
18	0xbd0ee3a5	-0.034885067
19	0x3c9a9e64	0.018874355
20	0x3b5300c5	0.0032196504
21	0x3c6f1a8b	0.014593731
22	0x3cc16a39	0.023610221
23	0x3d01ca8a	0.031687297
24	0xbc7ea537	-0.01554232
25	0x3ac6bde3	0.0015162792
26	0xbd0aef91	-0.033919875
27	0x3c04e9da	0.008112395
28	0x3cd70638	0.026248083
29	0xbcba7a4c	-0.022763394
30	0x3ca3987f	0.019970177
31	0xbc880fe3	-0.016609138
32	0x3c280884	0.0102559365
33	0xbc814998	-0.015782163
34	0x3bd27502	0.00642264
35	0xbd0ada2a	-0.033899464
36	0x3cd7fab5	0.026364664
37	0xbc02d330	-0.007984921
38	0x3d04b4d8	0.03239903
39	0xbc517a56	-0.012785515
40	0x3c7638a7	0.015028155
41	0xbc8e1c69	-0.017347531
42	0xbc7fc8e3	-0.01561186
43	0xbc212a00	-0.009836674
44	0x3c89d131	0.016823383
45	0x3c6985aa	0.014253059
46	0x3ca6f925	0.020382473
47	0xbbccc910	-0.0062495545
48	0x3b71fdc6	0.0036924942
49	0x3cb169f3	0.021656966
50	0xbc6267e7	-0.013818718
51	0xbc34daa8	-0.01103846
52	0x3cde0d7e	0.027106043
53	0xbcf5bb52	-0.029996548
54	0xbc8c6945	-0.01714004
55	0xbc9db45c	-0.019251041
56	0xbbe1fee6	-0.0068968413
57	0xbcd3a34a	-0.025834698
58	0x3c07fcb8	0.008299999
59	0xbcc7d19b	-0.02439194
60	0xbc79c215	-0.015244027
61	0xbd0b6c8b	-0.03403906
62	0x3cbf3c0d	0.023344064
63	0xbcb49dc3	-0.022047883
64	0xbb918dc9	-0.004441951
65	0xbca9c05b	-0.020721605
66	0xbb8faa83	-0.0043843403
67	0xbbeab97d	-0.007163225
68	0xbc3ff374	-0.011715759
69	0xba377fc5	-0.0006999935
70	0x3c780014	0.015136737
71	0x3cf01325	0.029306004
72	0x3cd36e42	0.025809411
73	0xbcd632fd	-0.02614736
74	0xbb88ddb8	-0.0041768216
75	0xbd6c9590	-0.05775982
76	0x3c794e62	0.015216442
77	0x3c95b476	0.018274527
78	0xbbad210c	-0.0052834805
79	0x3bafe872	0.005368286
80	0x3d223bf5	0.03960796
81	0x3d3ff572	0.046864934
82	0x3ac95361	0.0015359932
83	0xbc51ea92	-0.012812274
84	0x3ba8b7d6	0.005148868
85	0x3d40960f	0.047018107
86	0x3d158a9b	0.036509138
87	0x3c1c7d2b	0.009551327
88	0xbca3da47	-0.020001544
89	0xbb9556fd	-0.004557489
90	0x3bca198a	0.0061675953
91	0xbc9900f9	-0.018677222
92	0xbd8e4125	-0.06946019
93	0xbd21d539	-0.039509986
94	0xba4d0d5e	-0.0007822121
95	0xbbd7c66e	-0.006584934
96	0xbcce2d48	-0.025168076
97	0xbce799f2	-0.028271649
98	0x3b3b7493	0.002860342
99	0x3d2866bd	0.041113604
100	0x3bbbee2e	0.0057351803
101	0x3bf3a8d2	0.0074358964
102	0x3c687f5c	0.014190521
103	0xbb46a146	-0.0030308529
104	0x3b75e3e5	0.003751987
105	0xbc046efa	-0.0080830995
106	0x3d00d0e5	0.031449217
107	0xb9d2f062	-0.0004023342
108	0x3ccd2130	0.02504024
109	0xbca865b7	-0.020556314
110	0xbce5e5eb	-0.028063735
111	0x3b8acd42	0.0042358944
112	0xbd03d687	-0.03218701
113	0x3ca64a47	0.02029909
114	0x3ca6be9a	0.020354558
115	0x3ce82d61	0.02834195
116	0x3d00bde2	0.031431086
117	0x3c349260	0.011021227
118	0x3c54e980	0.012995124
119	0xbbbfe1b7	-0.0058557647
120	0x3d02fc4b	0.031978887
121	0x3c6cf166	0.014461851
122	0xbc1354ed	-0.008992416
123	0xbd0933fd	-0.033496846
124	0x3b5e283d	0.0033898496
125	0x3ba9aed6	0.005178313
126	0x3d0f5059	0.034988735
127	0x3cf4c892	0.029880796
128	0x3d049550	0.032368958
129	0x3b0d66cb	0.0021576162
130	0x3c38fcad	0.011290711
131	0xbcc1ea87	-0.023671402
132	0x3c09e359	0.00841602
133	0x3c399e45	0.011329238
134	0xbc7685ec	-0.015046578
135	0xbca3337c	-0.01992201
136	0x3c1d0eb0	0.009586021
137	0xbcdd12f2	-0.026986573
138	0xbc721245	-0.014774864
139	0x3cee67d1	0.029102238
140	0x3cb94b1f	0.022618828
141	0xbd1338a3	-0.035942685
142	0xbd138a17	-0.036020365
143	0x3cbe4efa	0.023231018
144	0xbb85152f	-0.004061363
145	0x3bdc466c	0.006722262
146	0xbcb17182	-0.02166057
147	0xbc55be0c	-0.013045799
148	0x3ce99a47	0.028515948
149	0xbcab6bbe	-0.020925399
150	0x3c48a844	0.012247149
151	0x3a9a2f56	0.0011763375
152	0x3c39324b	0.011303495
153	0x3ad77c9d	0.0016440336
154	0xbbe4601b	-0.0069694645
155	0x3c4e258c	0.012582194
156	0x3c1c3dc5	0.009536211
157	0xbb4c61cf	-0.0031186228
158	0x3cc6e49f	0.024278937
159	0x3d04a818	0.03238687
160	0x3c98b7dc	0.018642358
161	0xbc29cf43	-0.010364356
162	0xbcd6e4a2	-0.026232067
163	0xbcc760e9	-0.024338203
164	0xbc8db941	-0.01730025
165	0xbb56606c	-0.003271128
166	0x3c92ba8e	0.017911222
167	0x3c1d7e86	0.009612685
168	0x3d00eb70	0.03147453
169	0xbd0ffd62	-0.035153754
170	0xbca94f53	-0.020667708
171	0x3d03b3bf	0.03215384
172	0xbcccc3ed	-0.024995768
173	0x3cbc8407	0.023012174
174	0x3a5f7a1a	0.00085249695
175	0xbb85c064	-0.0040817726
176	0x3ccd74fe	0.0250802
177	0x3ce0fcb0	0.02746424
178	0xbc6aa95c	-0.014322605
179	0xbb00eba9	-0.0019671714
180	0x3d078738	0.03308794
181	0x3cf18eef	0.029487101
182	0x3c6b739b	0.014370824
183	0xbcad6052	-0.021164093
184	0xbcc1ef84	-0.02367378
185	0x3ccfca17	0.025364919
186	0x3ca697a3	0.020335978
187	0xbb749734	-0.003732157
188	0x3d0cee4e	0.034406953
189	0x3cccaa2b	0.024983486
190	0xbc005174	-0.00783192
191	0x3c7b0a7e	0.015322326
192	0x3d0cec70	0.034405172
193	0x3ca8e9f3	0.020619368
194	0xbc8b6e7a	-0.017020453
195	0xbd09267d	-0.03348397
196	0x3c2e923e	0.010654984
197	0x3c580308	0.013184316
198	0xbd0e79b1	-0.034784023
199	0x3bac03c8	0.005249474
200	0xbc35d12a	-0.011097232
201	0xbb7df0f4	-0.0038748356
202	0xbcde30b8	-0.02712284
203	0xbca207c6	-0.019779097
204	0x3d0459b5	0.032312114
205	0x3c34c85b	0.011034097
206	0xbc812aca	-0.015767474
207	0xbd45c1a1	-0.048280362
208	0xbaced9ac	-0.0015781424
209	0x3b14a2e4	0.0022680098
210	0xbc615546	-0.013753241
211	0x3d2df74b	0.042472165
212	0x3d74fd7f	0.059812065
213	0xbcd3f6d8	-0.02587454
214	0xbb502c0f	-0.0031764542
215	0xbd66f65b	-0.056387287
216	0x3d90611d	0.07049773
217	0x3d9b04db	0.075692855
218	0xbcf6fb00	-0.030148983
219	0xbcf9a2c0	-0.030473113
220	0xbcdd29b8	-0.026997432
221	0xbcd1950e	-0.02558377
222	0x3d11ba3d	0.035578
223	0xbabba017	-0.0014314678
224	0xbcd49aad	-0.025952661
225	0x3d0ca79d	0.034339536
226	0xbc5eaeed	-0.01359151
227	0x3c697134	0.014248181
228	0x3cafd826	0.021465372
229	0x3c33d0ac	0.010975044
230	0x3d077be7	0.033077147
231	0xbccf7351	-0.025323542
232	0x3b4c36ef	0.0031160673
233	0xbad62fc5	-0.0016341141
234	0x3c842b07	0.016133798
235	0xbc7d9d92	-0.015479462
236	0xbcb01f46	-0.021499287
237	0xbce2c023	-0.027679509
238	0x3cc626da	0.024188448
239	0x3c2c7fa7	0.010528482
240	0xbd0ac21a	-0.033876516
241	0xbb28f2f7	-0.0025779584
242	0xbcf698e1	-0.030102195
243	0xbcf9318b	-0.030419132
244	0x3cb4a67c	0.022052042
245	0xbc97b925	-0.018520901
246	0x3ca8b481	0.020593883
247	0x3d0511a3	0.032487523
248	0x3b96808e	0.0045929616
249	0x3c75ba9e	0.014998106
250	0xbcfcfff0	-0.03088376
251	0xbc773a06	-0.015089517
252	0xbaff27af	-0.0019466783
253	0x3bf78856	0.0075540943
254	0x3c6a2cf3	0.014292943
255	0x3c9bf982	0.019039873
