Lecture8_Image restoration (HuStar_4)/outputs/x3/epoch_46.pth (torch, 231589 bytes, 5 tensors)

conv1.weight f4 [64, 1, 9, 9]
000000 e7 2c 41 3c 5d e6 0d 3d aa 5e 19 bd 10 9a 88 3d
       0.011790491 0.03464352 -0.037443794 0.0667001
000010 4e 9a 91 bd e7 45 c7 3d aa 76 84 bd 34 c6 8f bd
       -0.071095094 0.0973013 -0.06467946 -0.07020226
000020 7f 74 ed bc 44 df 8b 3d 03 b4 3f bd 77 f0 f8 3c
       -0.028986214 0.06829694 -0.046802532 0.0303881
000030 6f 17 d6 bd 74 80 a2 bd b0 79 63 bd 7b 14 16 bd
       -0.10453688 -0.07934657 -0.055535972 -0.036640625
000040 18 62 db bd f0 ff 86 3d 99 38 6f bc fa 49 d7 3c
       -0.10712069 0.06591785 -0.014600896 0.026280392
000050 23 39 91 3d d6 14 b7 3c 33 76 30 3d fc 68 f0 3d
       0.07090976 0.022348803 0.043081474 0.11738774
000060 09 1f 58 bd 55 3d 43 3c 18 6a 96 bd 50 bf 5d 3d
       -0.052763972 0.011916478 -0.073444545 0.054137528
000070 f3 5d 33 3d f9 28 04 be f8 5a e3 3d 93 a7 d1 3d
       0.04379077 -0.12906255 0.11101335 0.1023704
000080 d0 e1 be 3d 5d c3 84 3d 4a d6 9c 3d 36 23 3a bd
       0.09320414 0.06482575 0.0765806 -0.045443736
000090 8c c7 fc bd f7 c4 94 bd e0 19 b0 bd a4 4a 81 3d
       -0.12342748 -0.072641306 -0.08598685 0.06313065
0000a0 ff 1d 75 3d 15 e6 a0 bb 45 e2 c8 3b 25 ca b8 3d
       0.05984306 -0.0049102404 0.006130489 0.09022931
0000b0 64 40 14 bd f0 fe 14 bc 9e 11 33 bd f7 68 a2 3c
       -0.03619422 -0.009093985 -0.043717973 0.019825442
0000c0 0e 8e 16 3e ec 89 ed 3d fc be 5e 3d c6 03 80 3c
       0.14702627 0.11598572 0.054381356 0.0156268
0000d0 f0 f9 3e 3c 4e d5 b9 3c 2b 58 2a b9 84 5b 06 be
       0.011656269 0.02268472 -0.00016245309 -0.13120848
0000e0 3a b7 ad bd 3a 17 c8 3d 9f be 61 3a 74 7e f0 bd
       -0.08482213 0.09770055 0.00086114736 -0.11742869
0000f0 e0 e2 69 bb 83 e7 c2 3d 40 10 d0 bd 15 ff 8e bc
       -0.0035688207 0.095168136 -0.101593494 -0.017455617
000100 3e 00 80 bd 1e 4b f1 bc ab c0 6e bd 5a 14 3f bd
       -0.06250046 -0.029454764 -0.05828921 -0.04665027
000110 9d b6 17 be 6d bc 36 3d 9b 0b 02 3e 2e f8 b4 3d
       -0.14815755 0.04461329 0.1269974 0.08836399
000120 9e ed 1e 3d a9 4c 9d bd a3 04 11 3c a3 22 20 bd
       0.03880083 -0.076806374 0.008851203 -0.039095532
000130 ea 8e ae 3c 7b a2 00 be f6 9f 3d 3b ba ed e0 3d
       0.021308381 -0.12561981 0.0028934455 0.10982843
000140 ae 5d 5d 3d 76 bd 84 3c 7a 48 e0 3c 68 5e 18 3c
       0.054044418 0.016203623 0.02737831 0.009299852
000150 65 d2 98 bd fc bb 9c bd ad a1 e6 bd 46 53 92 3d
       -0.074620046 -0.07653043 -0.11261306 0.071447894
000160 09 ec 04 3d 40 0e f0 3b 0d a4 b1 bd ab 2a aa 3d
       0.032451663 0.0073259175 -0.08673868 0.083089195
000170 bb e9 46 3d 2c d7 7f 3d 6d 47 9a bd 29 2e 24 bc
       0.048562746 0.062461063 -0.07533155 -0.010020771
000180 fe ff eb 3d 16 2c af 3d d3 45 bf 3d 87 6d 1e bd
       0.11523436 0.085533306 0.0933949 -0.038678672
000190 76 88 8b 3d 8d 9f a3 bd 67 88 8a 3b 30 61 a0 bd
       0.06813137 -0.07989416 0.004227686 -0.07831037
0001a0 5b 4b 35 bd 4b 31 30 bc 2a 55 d7 3c 5d 42 cf 3d
       -0.044261318 -0.01075394 0.026285727 0.1012008
0001b0 df 9a db 3c 87 6d c5 bc 90 a6 b7 3d 40 a8 41 bd
       0.026807247 -0.024100078 0.08967316 -0.047279596
0001c0 ef 1f 61 3d dd 6a 0c bd de 95 52 bc 1c 23 8a 3c
       0.054962095 -0.0342816 -0.012853114 0.016862445
0001d0 cb ac d6 bd 3a 54 1b bc 22 77 af 3c a0 50 f2 3d
       -0.104821764 -0.00948053 0.021419112 0.11831784
0001e0 b8 d8 2f bc 16 a3 34 3d 58 e6 a7 3d 0f 05 4e bd
       -0.010732822 0.044100843 0.081982315 -0.050297793
0001f0 b1 91 db 3d b5 8e 97 bd e1 aa d9 3c 4c fc a4 3c
       0.10721148 -0.07400266 0.02657074 0.020139836
000200 45 39 3c 3d 71 44 c5 3d c6 ef 74 bd 37 d3 98 bc
       0.045953054 0.09632195 -0.05979898 -0.018655403
000210 f1 04 64 bc d2 c8 a2 bd 9a 6e 1c bd 7d d5 cd bd
       -0.013917194 -0.0794846 -0.038191415 -0.10050485
000220 94 43 65 3c 04 cb 3b 3c 62 68 59 3b b1 f2 87 bd
       0.013993163 0.011461977 0.003317379 -0.066380866
000230 84 8f 77 bd 30 f2 52 bd f4 0f 35 3d 65 b2 d4 3d
       -0.0604396 -0.0515005 0.044204667 0.103855886
000240 f9 ad 7c 3c e5 72 82 bd 6d 96 5d bd ed bb 3b 3c
       0.015422338 -0.06369571 -0.054098535 0.011458379
000250 a5 41 cf bd 0a 43 fe bd 43 ff 95 bd af dd 3c bc
       -0.101199426 -0.124151304 -0.07324078 -0.011527463
000260 7b f9 1f 3c 52 ed c3 3d a4 16 44 3d 1e 65 f2 3d
       0.009764071 0.0956675 0.047873154 0.11835693
000270 01 1d 2c bd a7 2c c8 3c 22 1c c4 bd bf ea d0 3d
       -0.042019848 0.024435354 -0.095756784 0.10201024
000280 c7 b7 9e 3d f7 42 04 3e bc fa 7c bd 64 09 f2 3d
       0.077498965 0.1291617 -0.061762556 0.11818197
000290 7f 1c 0a 3e b4 18 1f 3e 5a 20 dc 3d 3b 14 3a 3e
       0.13487433 0.15536767 0.10748358 0.1817178
0002a0 63 ec fb 3d 07 d9 b0 3d 1e 52 1e bd 74 da d0 bd
       0.123009466 0.08635145 -0.03865253 -0.101979166
0002b0 41 0e e8 bc ac d2 cb bc f6 d6 00 be 0d 9c ba bd
       -0.02832711 -0.02488073 -0.12582001 -0.091117956
0002c0 a5 c9 02 be 8e 5e 81 bd e6 fb 42 3d d1 8d 5d bd
       -0.12772234 -0.06316863 0.04760351 -0.054090325
0002d0 94 a2 cb 39 93 e4 31 3b 80 1f 47 3d 70 9f 02 be
       0.00038840307 0.0027144297 0.048614025 -0.12756133
0002e0 f3 d3 c6 bd 4a f7 3d bd fe cc 96 bd 89 1a 17 3d
       -0.09708395 -0.04637841 -0.07363318 0.03689054
0002f0 7b 51 49 3d e5 04 9a bd ce 1e 78 bd 99 44 a3 bd
       0.04914997 -0.07520465 -0.060576253 -0.07972068
000300 8c 42 8b 3d 6c 66 07 3e 19 c5 50 bd ea 73 c3 bc
       0.06799802 0.13222665 -0.050969217 -0.023858983
000310 dc a6 7c 3d b2 dc 2d bd 3c 3b e4 3d fb d8 3e 3d
       0.061682567 -0.0424468 0.111441106 0.046593647
000320 e3 ad 82 bb 6b 88 31 3d 30 96 a2 3d 4c 54 7b bc
       -0.003988014 0.04334299 0.07938802 -0.015339922
000330 ca 72 9b bd 2b c2 83 3c d3 1e ca 3c 36 75 6a 3c
       -0.07590254 0.016083797 0.024672901 0.014310172
000340 61 bc 0b bc 71 56 b3 3d c7 8b c6 bb 57 bc a7 3c
       -0.0085288 0.08756722 -0.006059143 0.02047555
000350 39 16 7b 3d 04 c1 8c bd c8 c4 29 3d a5 d8 1d bc
       0.06130049 -0.06872752 0.04144743 -0.009634172
000360 15 e0 76 3d 16 52 9c bd 51 ca 0e bc cf e2 d2 ba
       0.060272295 -0.07632844 -0.008715228 -0.0016089323
000370 7e ad ca bd 78 0d c5 bd 12 e6 dc 3c 61 e0 f4 bc
       -0.09896372 -0.096217096 0.026965175 -0.029892148
000380 e5 fb 8d 3d c0 9a 78 bd 34 17 1a bd 0f 40 a6 bd
       0.06932811 -0.060694456 -0.037619784 -0.08117687
000390 7b 3c 44 3d d3 f2 6f 3c 3b 4b b1 bb 75 1c e1 bb
       0.04790924 0.014645296 -0.0054105795 -0.0068698474
0003a0 7b fd 90 bd 5d eb 37 3d 2e 66 45 3d 63 ce 6b bd
       -0.070795976 0.044902194 0.04819315 -0.057569873
0003b0 4f 58 64 3d b9 55 8b 3b b8 75 9d bd 16 3b aa 3d
       0.05574828 0.0042521623 -0.07688469 0.08312051
0003c0 99 6b 8f 3d 0c 5d a3 bc 69 e0 9b bd 19 f1 05 3c
       0.070029445 -0.01994183 -0.07611162 0.008175158
0003d0 3f b9 a3 3d c0 e9 b8 3d f1 d9 bf bd ae 29 6c bd
       0.07994317 0.09028959 -0.09367741 -0.057656936
0003e0 ff ec a8 3d f7 57 4e 3d 60 a3 72 3d 31 19 85 bd
       0.082483284 0.05037686 0.059237838 -0.064989455
0003f0 03 2f c8 3d ae df c1 bd 0d c4 51 bc 8d be 5f bb
       0.09774592 -0.09466492 -0.01280309 -0.0034140677

conv1.bias f4 [64]
000000 22 b6 7e 3c e8 1e dc bd 80 d8 b0 3c 44 57 50 bd
       0.0155463535 -0.107480824 0.02158761 -0.050864473
000010 1b 89 82 3d 76 7e 1b 3c d6 2e 54 3d d6 47 b7 bc
       0.06373807 0.0094906 0.05180248 -0.022373121
000020 d5 7a f2 3d bd 26 23 bd 28 83 a5 3b 8b a7 e6 3c
       0.118398346 -0.039831866 0.0050510354 0.028156063
000030 52 f3 fc bd 24 b1 1d 3e 66 e8 83 3d 91 dc 94 3c
       -0.12351097 0.15399605 0.06440811 0.01817158
000040 df 94 f3 bc 9b e4 81 bd f3 37 75 3d f7 1b 09 3d
       -0.029734073 -0.06342431 0.05986781 0.033473935
000050 54 87 a5 3c b3 cb 03 bc 8d 2b 78 bd 5d 71 96 3d
       0.020206131 -0.008044171 -0.06058841 0.07345841
000060 72 f7 af bd b0 7b 4d 3d d6 28 0d bc 63 7c 05 3c
       -0.08592118 0.050166786 -0.008615693 0.008147332
000070 16 25 b9 3c 62 1e 28 3d 73 dd bb 3d 39 72 c9 bb
       0.022600692 0.0410446 0.091730975 -0.0061476496
000080 39 e7 19 3d 7d 7d 94 3d 3c e2 b7 ba 41 4d 96 bd
       0.037574027 0.072504975 -0.0014029215 -0.07338954
000090 b0 0c 37 bb fb cc a2 3d fc fd 22 bd 96 b4 2f 3d
       -0.0027931146 0.07949253 -0.039793 0.04289683
0000a0 82 35 80 3c 17 2d df bc 60 cb c7 3d b4 cf b3 bc
       0.015650515 -0.02724318 0.097555876 -0.021949627
0000b0 9a 35 0c 3d bb 3e 76 bc 2e d5 6f bc a7 19 bb bc
       0.034230806 -0.015029605 -0.014638228 -0.02283938
0000c0 01 1e 1c 3c d4 7f 46 bd 67 c8 84 bc ca 35 9b 3d
       0.009528638 -0.04846175 -0.01620884 0.07578619
0000d0 99 e6 7f 3c 3a f6 0f 3c 35 ce d9 3b 59 9a 7f 3c
       0.015618944 0.008786732 0.0066468962 0.015600764
0000e0 0c 68 bb 3d 98 90 13 bd a9 17 68 bc 80 45 8f 3d
       0.09150705 -0.036026567 -0.014165797 0.06995678
0000f0 a8 71 11 3d ae 27 88 bc e0 92 69 bd a0 3d ab bd
       0.03550878 -0.016620483 -0.057024837 -0.083613634

conv2.weight f4 [32, 64, 5, 5]
000000 46 c3 9e 3b 67 01 36 38 77 a0 4b 3d 10 c9 95 3d
       0.0048450558 4.3393487e-05 0.049713578 0.0731374
000010 69 c1 c9 bd 95 e0 c4 3c 95 08 10 bd 79 b9 74 bc
       -0.09851343 0.02403287 -0.035164434 -0.014936798
000020 aa 06 1e 3d 38 1a 91 bc b7 ea 0b 3d 62 26 13 bc
       0.038580574 -0.017712697 0.03415939 -0.008981319
000030 6a 33 37 bc 51 39 6a 3b 34 db 32 3d e9 f5 3b bc
       -0.011181692 0.003573973 0.04366608 -0.011472204
000040 12 8e 98 3c aa 68 7b 3c a2 e1 a8 3c 19 8a 47 3d
       0.018622432 0.015344778 0.020615403 0.048715685
000050 b5 d0 9b bc 49 18 3f bc 31 be 31 bd a9 be d6 3c
       -0.019020418 -0.011663505 -0.04339427 0.02621396
000060 95 18 8d bb c8 f9 37 3b 53 02 de 3c 8d 1d 81 bc
       -0.004305909 0.0028072465 0.027100718 -0.015761161
000070 ca b0 ff bc 19 54 05 bd 24 e8 23 3c 1a 76 e9 3c
       -0.03121223 -0.032550905 0.010004077 0.028498698
000080 6b 33 f9 3b 08 26 63 3c 9e bf d5 3b d6 b8 8d 3d
       0.0076050065 0.013864048 0.0065230867 0.0692002
000090 53 9a b1 3c 96 94 83 3c b5 c2 14 3d 87 20 ba 3d
       0.021680033 0.016062062 0.0363185 0.09088235
0000a0 0b 12 84 3c 00 ab fb 3b 52 70 33 bd be dc 5a bc
       0.016121885 0.007680297 -0.04380829 -0.013358293
0000b0 8e 2f d7 3c 50 a3 a1 bd bd bc 26 bc b0 4e 5a bc
       0.026267793 -0.078924775 -0.010176835 -0.013324425
0000c0 61 18 be bc a0 50 b0 3b 75 eb 0d be ee ac 1c be
       -0.023204984 0.005380705 -0.13859351 -0.15300342
0000d0 b7 01 49 be f6 6a 20 be a2 be 77 be f1 c1 97 bd
       -0.1962956 -0.15665802 -0.24193814 -0.07410038
0000e0 74 56 b4 bd 3f 0b 81 bd e3 55 48 bc 91 29 99 bd
       -0.08805552 -0.06300973 -0.012227508 -0.07478631
0000f0 a8 dc de 3c 9d 54 ba 3b 8f b4 d2 bc d5 38 1e 3d
       0.027204826 0.005686356 -0.025720863 0.038628418
000100 ed fc 43 3c 7a e2 66 3c ec f4 7f 3d c9 78 0a 3d
       0.011962158 0.014092082 0.062489435 0.033806596
000110 d6 5c 47 3d 75 dd 1a 3d 8f 18 47 bc 70 36 37 3b
       0.04867252 0.037808854 -0.012151851 0.0027956031
000120 29 2b af bc c4 c7 2b bc ee 6a 90 3c 2c 0d 04 3d
       -0.021382885 -0.01048464 0.017629113 0.032239124
000130 1e 52 41 3b ef 49 ef 3b 4d 14 c7 bb c4 86 e9 bc
       0.0029498409 0.0073025147 -0.006075418 -0.028506644
000140 67 27 aa 3c 6a 3b f2 3c 3f 89 01 bc ad 6f 0c 3c
       0.020770742 0.029569346 -0.007906257 0.008571547
000150 ab a0 4f 3c 16 78 34 3c 8f 8f 54 bc 47 59 18 bd
       0.012672584 0.011014959 -0.01297368 -0.037194517
000160 94 14 17 3d a9 5b da 3b c6 a5 71 39 10 a2 16 3c
       0.03688486 0.006663759 0.00023045306 0.009193912
000170 ac b3 69 bc d0 f7 d4 3c 3e 14 dd 3b fa 6b eb 3c
       -0.0142640285 0.025997072 0.006746798 0.02873801
000180 29 a0 bc bb b9 b7 bc bb da 38 9a bc 1e 83 c9 3b
       -0.0057563973 -0.005759206 -0.018825937 0.0061496636
000190 8c 6b 19 bd a7 7a 86 bd 5e b0 da bc fb 0a 82 bc
       -0.03745608 -0.06566363 -0.026695427 -0.015874377
0001a0 9b 01 c2 bc 6a 41 0e 3b 78 f7 45 bc 66 9e 95 ba
       -0.023682406 0.002170647 -0.012082927 -0.0011415004
0001b0 c1 00 ae 3b 22 6d 85 3c 01 ff 16 3c e6 e4 12 3b
       0.0053101485 0.01628739 0.009216071 0.0022414266
0001c0 38 1c 65 3d b7 3b 09 3d 0c ea 3d bb 62 74 98 bc
       0.055935115 0.033504214 -0.0028978614 -0.018610183
0001d0 38 95 a9 3b 12 21 b8 bc 3d e8 b7 b8 f6 85 2d ba
       0.005175259 -0.022476707 -8.769378e-05 -0.0006619388
0001e0 a5 fb 0f bd e4 a6 0a bd ba 40 49 bd 97 b7 7d bd
       -0.035152096 -0.033850566 -0.049133994 -0.061942663
0001f0 bc 8a 1c bd f6 be 8f 3d f5 40 f0 bc d6 44 9b 3d
       -0.038218245 0.07018845 -0.029327849 0.07581489
000200 5a 84 fb 3c 0b 07 e5 3d a2 44 51 bd 27 36 f4 bc
       0.030702759 0.11182984 -0.051090844 -0.029810978
000210 85 7f e9 bc 19 2a 65 bc 50 77 15 3c 66 7e 49 bc
       -0.028503189 -0.013987088 0.009122685 -0.012298202
000220 92 72 b2 3b 3c eb f7 3c cb a1 55 3b 1a ca 5e 3a
       0.0054457868 0.030263536 0.0032597657 0.00084987434
000230 06 db cb 3c 0a e5 1d 3d 7a e1 16 3d e7 ef 55 3c
       0.024884712 0.038548507 0.036836125 0.013057685
000240 1d ea 00 3c 2c f2 3b bd 0b 60 39 bd ee bc 53 bc
       0.007868317 -0.04588525 -0.04525761 -0.012923462
000250 1e 10 5e bd 4a db ae bd 19 05 02 3c 70 24 70 3c
       -0.05421459 -0.0853792 0.007935786 0.014657125
000260 85 6a e6 bb fa a2 43 3c a8 a7 16 bd b5 9d ef 3b
       -0.007031741 0.011940712 -0.036780983 0.0073125013
000270 79 73 23 bc 86 00 f2 bc 4c 9d d9 bc 48 88 ce 3b
       -0.009976261 -0.029541265 -0.026564263 0.006302867
000280 59 77 dc bc 7a 4e 22 bd 42 4f 44 3b 24 40 06 39
       -0.026912378 -0.039625622 0.0029954468 0.0001280313
000290 27 ad cb bc cf ff 49 3c 23 92 b1 bb a1 d9 18 3c
       -0.024862839 0.012329056 -0.005419032 0.0093292305
0002a0 24 fd aa 3b 4d d2 3c 3c d8 d4 02 3c 37 48 39 3c
       0.005218165 0.011524749 0.007985316 0.011308721
0002b0 08 ac 00 3d 66 d1 d5 3c 49 2c 93 3b 95 ec 1e 3d
       0.03141406 0.026100826 0.004491363 0.03879984
0002c0 b4 31 86 3d 50 ae 20 3d 89 88 c2 bb f6 e0 44 3d
       0.06552449 0.039228737 -0.0059366864 0.048066102
0002d0 75 f1 b5 3b 9f 35 05 bd ee 87 58 3d d7 00 88 3c
       0.0055524656 -0.03252184 0.052864008 0.016601963
0002e0 ec 1c 4e bc 91 76 ce 3b e3 b0 c1 bc 6b 36 d1 bc
       -0.012580138 0.0063007553 -0.023643916 -0.025538644
0002f0 47 c4 f9 3c 06 38 2b 3d 59 c0 14 3c 05 b7 b3 bb
       0.0304891 0.041801475 0.009079062 -0.005484464
000300 f9 c3 ab bd da 2b 8b bc 25 95 6a 3d b7 34 b8 3c
       -0.08386988 -0.016988683 0.05727114 0.022486074
000310 dc 16 e9 3d 5c 91 73 ba 73 91 88 bd 9d 26 f5 3c
       0.11381313 -0.00092913746 -0.06668367 0.029925639
000320 31 49 8a bd 61 5a 55 3c e3 4a 16 3c 2c 98 3b 3b
       -0.067522414 0.013022036 0.009173128 0.0028624637
000330 7b 9a 17 bc e8 2a 49 3d 5a 99 1b 3d 2b 2b 51 3c
       -0.00925314 0.049113184 0.037988044 0.01276664
000340 4a 38 02 bd 8c b4 14 bd fd 6c b8 3d 03 3f 2f 3b
       -0.031791963 -0.036304995 0.09005163 0.0026740439
000350 96 92 57 bc 58 9d bc 3a 01 b7 62 bd 67 65 32 3d
       -0.013157507 0.0014390154 -0.055350307 0.043553736
000360 01 32 c9 3c 2f 2d 6b 3c 65 f7 86 3c 4b c2 f5 bc
       0.024559977 0.014354034 0.016475389 -0.029999873
000370 aa 9d 2e bd ba dd eb 3c 70 a5 13 3c 96 af a3 bb
       -0.04263083 0.02879225 0.009011611 -0.0049952967
000380 2b a8 9a ba 71 15 e6 bb e8 cd 04 3b 42 52 ee bb
       -0.0011799386 -0.007021599 0.0020264331 -0.0072729895
000390 f5 5b c3 b9 e3 e0 aa 3b 6a 14 83 3c 8a e1 07 3b
       -0.00037261812 0.005214797 0.016000945 0.0020733797
0003a0 7f 3c 03 3d fe 96 02 3d 3b 5e 8c bb 6e 28 b8 bc
       0.032040115 0.03188228 -0.004283694 -0.022480216
0003b0 bc ff 95 bc 22 a1 d9 bb de 1c 8f 3a 8d 66 99 bc
       -0.01831042 -0.006641523 0.0010918637 -0.018725658
0003c0 60 b9 57 bd 85 06 ff bc 97 5f 9f bc 9e 5a d1 bc
       -0.05266702 -0.031131038 -0.01945476 -0.025555905
0003d0 70 68 bf bc 9c e3 f8 bc 21 fe 03 bd 88 f9 15 bd
       -0.02336523 -0.03038197 -0.032224778 -0.036614925
0003e0 ef 8a b9 bc 56 71 30 bc 71 e5 d4 bc 00 2b 02 bd
       -0.022649257 -0.010769209 -0.025988312 -0.03177929
0003f0 b5 8d 78 bc 9e 63 8c 3c c6 d6 65 3c 64 9d 07 bd
       -0.015170504 0.017137345 0.014028257 -0.033109084

conv2.bias f4 [32]
000000 61 bb 7d bc 33 b8 94 bc 30 c7 44 bb 83 21 0e bc
       -0.015486569 -0.01815424 -0.0030025952 -0.008674982
000010 c0 a6 cd 3c 68 d0 79 3c 0e 1c f2 bb 46 50 0d 3c
       0.025103927 0.015247442 -0.0073885983 0.008625096
000020 3f 20 b3 3c 8e 11 23 bc 3c e7 a6 39 2f 19 ac bb
       0.021865962 -0.009952916 0.0003183427 -0.0052520256
000030 de 49 e4 3c 39 28 5d 3c 07 c8 f8 3c ab c7 0a bc
       0.027867254 0.013498359 0.030368818 -0.008470456
000040 42 8f 6c bc 47 eb 94 bc 2a 72 0a 3c a0 87 bb 3c
       -0.014438452 -0.018178595 0.00845007 0.02289182
000050 2d dd cc 3c b9 6c 53 3c 8a 07 69 bc 5c 06 45 bb
       0.025007809 0.0129043395 -0.014222989 -0.0030063605
000060 3c d3 f1 bb f8 13 0a 3d 11 8b bc 3c c2 01 a8 3c
       -0.0073799174 0.03371045 0.02301553 0.02050865
000070 83 52 0f 3c d7 92 7d bb 69 a1 86 bc 83 8a 0f b7
       0.0087477 -0.003869226 -0.016434388 -8.555714e-06

conv3.weight f4 [1, 32, 5, 5]
000000 35 8d 8c 3c 5c 62 90 3c 32 84 ed b8 e7 6f db 3c
       0.017157177 0.017625026 -0.00011325664 0.026786758
000010 ab 17 03 3d 2b 45 fb bc 12 7b d1 b9 98 b3 1a bd
       0.032004993 -0.03067263 -0.0003995528 -0.03776893
000020 1a 11 21 3a 52 d1 28 3c 17 37 ad bb 98 c0 d5 3c
       0.0006144211 0.010303812 -0.0052861082 0.026092812
000030 e8 28 d7 3b 78 6c 16 bd 88 28 e0 bb 52 2f 9d bc
       0.0065661557 -0.036724538 -0.006840769 -0.019187603
000040 99 65 f6 bc db af fb ba f8 74 0d bd ff 65 9e 3c
       -0.030077742 -0.0019202189 -0.03453538 0.019335745
000050 e7 44 17 3b bb bd 5c 3c 40 e4 bc 3c 92 69 fe 3c
       0.002308184 0.01347297 0.023058057 0.0310562
000060 78 20 86 bc d1 0e d7 3a 41 88 0a bd e5 af 04 3c
       -0.016372904 0.0016407614 -0.033821348 0.008098577
000070 9a 24 d7 3c 84 8e b9 bc f9 88 a4 3c 14 86 88 bc
       0.02626257 -0.022650965 0.020084845 -0.016665496
000080 26 1d 27 3c 5e 94 80 bc 98 6b d5 3b 9a 22 0a bd
       0.010199821 -0.015695747 0.0065130703 -0.033724405
000090 20 d5 d7 3c 86 70 03 bc 22 33 05 3d be d9 4f bc
       0.026346743 -0.008022433 0.032519467 -0.012686191
0000a0 6c 75 78 3c ec 30 8d bc b7 84 7d bc f6 b7 1d bc
       0.015164714 -0.017235242 -0.015473536 -0.009626379
0000b0 e5 86 8a 3c ec 97 69 3c 7c b4 a7 3c 1e 8b c8 bb
       0.016910026 0.014257412 0.020471804 -0.0061200997
0000c0 9f bd 7b 3b ba 9e b1 3c e7 67 62 bc a8 da 34 bc
       0.0038412584 0.021682132 -0.013818718 -0.01103846
0000d0 7e 0d de 3c 52 bb f5 bc 45 69 8c bc 5c b4 9d bc
       0.027106043 -0.029996548 -0.01714004 -0.019251041
0000e0 e6 fe e1 bb 4a a3 d3 bc b8 fc 07 3c 9b d1 c7 bc
       -0.0068968413 -0.025834698 0.008299999 -0.02439194
0000f0 15 c2 79 bc 8b 6c 0b bd 0d 3c bf 3c c3 9d b4 bc
       -0.015244027 -0.03403906 0.023344064 -0.022047883
000100 c9 8d 91 bb 5b c0 a9 bc 83 aa 8f bb 7d b9 ea bb
       -0.004441951 -0.020721605 -0.0043843403 -0.007163225
000110 74 f3 3f bc c5 7f 37 ba 14 00 78 3c 25 13 f0 3c
       -0.011715759 -0.0006999935 0.015136737 0.029306004
000120 42 6e d3 3c fd 32 d6 bc b8 dd 88 bb 35 d8 6b bd
       0.025809411 -0.02614736 -0.0041768216 -0.057579238
000130 77 ed 7c 3c b6 76 b0 3c 30 b0 5d bb ef 07 bb 3b
       0.015437475 0.02154098 -0.003382694 0.005707733
000140 8f 0f 27 3d 6d 46 31 3d b3 57 a4 ba 93 10 70 bc
       0.040786322 0.043280054 -0.0012538343 -0.014652389
000150 f1 6e 3c 3b f7 c7 38 3d 42 24 08 3d bf c0 3a 3c
       0.002875265 0.045112576 0.033237703 0.011398493
000160 64 b9 8c bc 01 29 dd bb 90 f4 a2 3b 2c 9e a1 bc
       -0.017178245 -0.006749273 0.004973002 -0.019728743
000170 61 60 89 bd c3 59 12 bd 48 e7 9f ba dc 5d d2 bb
       -0.06707836 -0.035730135 -0.0012199664 -0.0064198803
000180 61 f9 ce bc 75 49 d9 bc d7 de 6f 3b e6 0e 20 3d
       -0.025265398 -0.026524285 0.0036601329 0.03907671
000190 f5 e2 c1 3b 11 12 f8 3b 6a 9f 69 3c 8d 12 44 bb
       0.005916948 0.007570513 0.014259199 -0.0029918284
0001a0 68 cf 75 3b b9 13 01 bc 6b 7a 01 3d 1e 5b 98 b9
       0.0037507657 -0.007878237 0.031610887 -0.00029059587
0001b0 46 d2 cd 3c 2f 8d a8 bc 44 d7 e4 bc 35 e8 8d 3b
       0.02512468 -0.020575134 -0.027934678 0.0043306598
0001c0 5f 6f 03 bd 8a ec a6 3c 98 8b a6 3c 68 69 e9 3c
       -0.032088634 0.020376462 0.020330235 0.028492644
0001d0 c8 62 01 3d 1f fb 35 3c 50 00 56 3c af ad bd bb
       0.031588346 0.011107235 0.013061598 -0.005788527
0001e0 63 46 03 3d 13 2e 6f 3c 5c dd 11 bc cd e1 08 bd
       0.032049548 0.014598387 -0.008902874 -0.033418465
0001f0 43 04 67 3b c1 35 a6 3b 72 00 0c 3d 6a b7 ed 3c
       0.0035250343 0.005072326 0.034180112 0.029018123
000200 c3 98 04 3d ed f8 26 3b 45 e7 32 3c c8 50 c8 bc
       0.032372247 0.0025477961 0.010919397 -0.024452582
000210 a2 22 03 3c 80 d6 31 3c bd c8 84 bc 48 cd 9f bc
       0.008003863 0.010854363 -0.016209 -0.019507065
000220 f3 ce 2f 3c c4 81 d1 bc be 05 67 bc 8c 66 ec 3c
       0.010730493 -0.025574572 -0.01410049 0.028857492
000230 3c 8d c2 3c f8 42 0e bd da 75 0f bd 21 45 c0 3c
       0.023748986 -0.034731835 -0.0350245 0.023470463
000240 58 62 ae bb ba 8e d6 3b 7c a6 b2 bc 7b 72 57 bc
       -0.005321782 0.006547776 -0.021807902 -0.013149853
000250 50 fa e6 3c dd b2 b5 bc 93 02 4c 3c 2e 29 aa 3a
       0.02819553 -0.022180015 0.012451786 0.0012982243
000260 8e d7 3a 3c 14 cf e8 3a c9 31 e2 bb f4 5b 50 3c
       0.011403931 0.0017761909 -0.0069029075 0.012717236
000270 56 9c 1e 3c ec 60 47 bb 65 cd c6 3c 4c 87 04 3d
       0.009680828 -0.003042276 0.024267862 0.03235559
000280 46 e7 98 3c 9e 0b 28 bc 90 10 d6 bc c9 47 c7 bc
       0.018664967 -0.010256676 -0.026130944 -0.024326222
000290 de 98 8d bc c9 91 52 bb b9 53 93 3c b9 cc 1d 3c
       -0.017284807 -0.0032130352 0.017984258 0.009631329
0002a0 a5 d2 00 3d ad 74 0f bd 20 2b a8 bc e3 0f 04 3d
       0.031450886 -0.03502338 -0.020528376 0.032241713
0002b0 67 d3 cc bc da 4a bc 3c 19 6a 71 3a 9c e1 83 bb
       -0.025003148 0.02298491 0.000920923 -0.0040246975
0002c0 2b b2 cd 3c 19 ca e0 3c eb d4 6a bc 4f 9b 01 bb
       0.025109371 0.027440118 -0.01433299 -0.001977641
0002d0 c1 d3 07 3d 82 22 f2 3c f1 9a 6b 3c 81 70 ad bc
       0.03316093 0.02955747 0.014380203 -0.02117181
0002e0 f4 f7 c1 bc e2 73 d0 3c 13 66 a7 3c f0 9e 72 bb
       -0.023677804 0.025445882 0.020434415 -0.0037021004
0002f0 23 f3 0c 3d 10 9b cc 3c 11 42 fe bb aa 6c 7c 3c
       0.03441156 0.024976283 -0.0077593406 0.015406767
000300 44 15 0d 3d 65 fb a8 3c ea 8c 8b bc 2d dd 08 bd
       0.03444411 0.020627687 -0.017034966 -0.033414055
000310 54 98 2f 3c 3c 8f 58 3c 7c 6e 0e bd ac 6d ac 3b
       0.01071747 0.0132177435 -0.034773335 0.0052620973
000320 14 1f 4b bc 68 55 d6 b9 74 8f df bc bd 19 8c bc
       -0.012397546 -0.00040880893 -0.027290083 -0.017102117
000330 8a f8 15 3d 67 1f 45 3c 11 a8 8b bc e9 7d 4e bd
       0.03661398 0.012031413 -0.017047914 -0.050413046
000340 d0 3c 24 bb 17 c4 5d 3b 7c ca 3f bc 94 60 0c 3d
       -0.002506066 0.0033838802 -0.011705991 0.03427179
000350 04 a9 66 3d 91 bb e6 bc 26 69 37 ba 7b 6e 3b bd
       0.05631353 -0.02816561 -0.00069965643 -0.04575966
000360 97 de 8c 3d 4c bb 90 3d 36 02 06 bd 7d 3b fd bc
       0.06878393 0.07066974 -0.032716952 -0.030912155
000370 ba 9f 88 bc 1a 48 99 bc dc b5 0e 3d f2 86 5e bb
       -0.016677726 -0.018711139 0.034841403 -0.0033954945
000380 7d a4 c2 bc 0e b3 0c 3d 01 89 5a bc 75 3c 70 3c
       -0.023760075 0.034350447 -0.013338328 0.014662852
000390 0e 8e b2 3c d3 b0 35 3c 1f 4c 08 3d 60 aa cd bc
       0.021796253 0.011089521 0.03327572 -0.025105655
0003a0 63 f9 5a 3b 05 ac ad ba f6 b1 86 3c 2d 68 7b bc
       0.0033412806 -0.0013250118 0.01644228 -0.015344662
0003b0 b8 04 af bc e3 b7 e2 bc 1b 37 c6 3c ee 9a 2c 3c
       -0.021364555 -0.027675575 0.024196198 0.010534985
0003c0 f4 1c 0a bd 52 5f 22 bb 6b 27 f6 bc f7 79 f8 bc
       -0.033719018 -0.0024776054 -0.030048093 -0.030331595
0003d0 7b 4f b4 3c c5 96 97 bc e2 22 a9 3c 0b 55 05 3d
       0.022010555 -0.01850451 0.020646516 0.032551806
0003e0 0e 53 99 3b aa cb 74 3c ff ff fc bc f7 39 77 bc
       0.0046790903 0.014941135 -0.030883787 -0.0150895035
0003f0 fe 27 ff ba 77 88 f7 3b e5 2c 6a 3c 67 24 9c 3c
       -0.0019466875 0.0075541097 0.01429293 0.019060327
