Lecture8_Image restoration (HuStar_4)/outputs/x3/epoch_64.pth (torch, 231589 bytes, 5 tensors)

conv1.weight f4 [64, 1, 9, 9]
0.005246438 0.042596918 -0.032771245 0.07437521 -0.061573025 0.09748664 -0.059337903 -0.06364972
-0.0039573014 0.06689679 -0.03908889 0.029881548 -0.106653236 -0.08176822 -0.06717687 -0.04288132
-0.118444115 0.071208626 -0.012853565 0.032455556 0.068182096 0.019647466 0.04354597 0.110755675
-0.05541203 4.9137412e-05 -0.074607395 0.04276002 0.0323638 -0.1426411 0.10882099 0.110224456
0.094692625 0.06921375 0.07059342 -0.044361994 -0.13107382 -0.07702336 -0.08701894 0.07877065
0.08002842 -0.0012583251 0.0086807795 0.08668775 -0.032618675 -0.010217932 -0.040207148 0.024926012
0.16377585 0.12967661 0.047847748 0.010847199 0.007396498 0.023307756 -0.002714387 -0.13376622
-0.089565784 0.100556 -0.00038059926 -0.13410816 -0.011165477 0.094301865 -0.10013126 -0.01505745
-0.06548208 -0.04173382 -0.0642095 -0.050839346 -0.16167186 0.04183411 0.12853521 0.08673515
0.059308346 -0.06162135 0.006463568 -0.03972226 0.02688111 -0.12661049 0.005374832 0.10576374
0.042412363 0.01830909 0.029076561 0.023958908 -0.06419403 -0.07575571 -0.121692784 0.06949295
0.03149503 0.0090553155 -0.0865126 0.08060827 0.05374708 0.06164491 -0.086577006 -0.027084885
0.112268455 0.089590654 0.103035666 -0.038486514 0.063670285 -0.07868932 -0.00062831637 -0.09337303
-0.06316049 -0.012583589 0.034063913 0.11414263 0.026982361 -0.030045193 0.08941874 -0.052759916
0.038878426 -0.05679042 -0.01822188 0.020281428 -0.09774633 -0.004120092 0.021755824 0.12761346
-0.004671432 0.039090965 0.06777691 -0.050239023 0.11344794 -0.06551623 0.028320782 0.017610256
0.0565287 0.10595259 -0.05875283 -0.029031593 -0.013016825 -0.07202656 -0.028316664 -0.10122727
0.009290226 0.021050325 0.01236702 -0.064100526 -0.07058646 -0.050245635 0.05339635 0.1153093
0.00653291 -0.07649828 -0.05305659 0.012697897 -0.10355246 -0.13745348 -0.076630436 -0.008065225
0.016652456 0.08931135 0.03583974 0.11765849 -0.041457668 0.024867985 -0.10321018 0.10330868
0.08181213 0.13389058 -0.04750565 0.12640609 0.13761617 0.159325 0.11724403 0.18690248
0.119950294 0.076060705 -0.040085196 -0.10189388 -0.040525522 -0.049895067 -0.15568234 -0.11486602
-0.14841594 -0.08109548 0.028239008 -0.060250875 0.007110126 -0.0014722424 0.03196125 -0.14820163
-0.11116569 -0.057102025 -0.08102185 0.028812202 0.053372316 -0.063144445 -0.051940527 -0.0785324
0.068009466 0.13607822 -0.047646683 -0.021428641 0.0625314 -0.03276371 0.11565047 0.051652394
-0.00038130177 0.049557716 0.088264115 -0.009649345 -0.073475525 0.016247474 0.030929398 0.017696822
-0.0033539229 0.09201745 0.0017779161 0.029961837 0.06785367 -0.065683715 0.041850083 -0.005127357
0.05745957 -0.07958507 -0.01418591 -0.004637437 -0.10067284 -0.09864845 0.0236955 -0.03605327
0.06603821 -0.047299456 -0.02648082 -0.07365723 0.057412826 0.026743075 0.00687326 0.0036253824
-0.06487705 0.054046158 0.04912993 -0.0589652 0.050136924 -0.00070110697 -0.07831897 0.07859197
0.064637624 -0.030160863 -0.0764335 0.013431799 0.07716218 0.080374055 -0.09877044 -0.062012743
0.079557024 0.048886377 0.054351006 -0.069531105 0.10175993 -0.09604731 -0.018472226 -0.0030504204
00000000: 50ea ab3b 1b7a 2e3d 243b 06bd 0852 983d
00000010: ff33 7cbd 13a7 c73d 4d0c 73bd c95a 82bd
00000020: 40ac 81bb 2f01 893d ac1b 20bd 26ca f43c
00000030: 036d dabd 1976 a7bd 0794 89bd 53a4 2fbd
00000040: d492 f2bd d4d5 913d c297 52bc 1ef0 043d
00000050: 0ea3 8b3d b9f3 a03c 425d 323d dfd3 e23d
00000060: baf7 62bd e518 4e38 c3cb 98bd 2125 2f3d
00000070: e78f 043d 8210 12be 8add de3d 5cbd e13d
00000080: 35ee c13d f0bf 8d3d 4893 903d ecb4 35bd
00000090: 3738 06be 6cbe 9dbd fc36 b2bd 8252 a13d
000000a0: f1e5 a33d 62ee a4ba d439 0e3c 5989 b13d
000000b0: 299b 05bd 1d69 27bc 40b0 24bd a331 cc3c
000000c0: dbb4 273e f2c9 043e 00fc 433d 73b8 313c
000000d0: 535e f23b e8ef be3c dbe3 31bb 03fa 08be
000000e0: 446e b7bd 4ef0 cd3d 2b8b c7b9 a653 09be
000000f0: 68ef 36bc 5621 c13d 9e11 cdbd 86b3 76bc
00000100: 781b 86bd 15f1 2abd 4580 83bd eb3c 50bd
00000110: 4f8d 25be 3e5a 2b3d bc9e 033e 33a2 b13d
00000120: 4fed 723d ab66 7cbd 57cc d33b cfb3 22bd
00000130: c635 dc3c 2ea6 01be 5c1f b03b a99a d83d
00000140: 96b8 2d3d f2fc 953c f831 ee3c 7945 c43c
00000150: 2978 83bd cf25 9bbd 113a f9bd 5252 8e3d
00000160: ef00 013d bf5c 143c 852d b1bd f315 a53d
00000170: e625 5c3d 607f 7c3d 494f b1bd 1fe1 ddbc
00000180: 01ed e53d 4e7b b73d 5d04 d33d 09a4 1dbd
00000190: 9165 823d de27 a1bd 99b5 24ba 5c3a bfbd
000001a0: 495a 81bd 662b 4ebc 9a86 0b3d 9cc3 e93d
000001b0: 1d0a dd3c 5621 f6bc 2c21 b73d c81a 58bd
000001c0: fc3e 1f3d 129d 68bd 0d46 95bc 3d25 a63c
000001d0: 3a2f c8bd d601 87bb 4539 b23c 1aad 023e
000001e0: d012 99bb d91d 203d 9fce 8a3d 6fc7 4dbd
000001f0: 6557 e83d 602d 86bd fc00 e83c 6243 903c
00000200: a38a 673d acfd d83d cfa6 70bd aad3 edbc
00000210: 8544 55bc a982 93bd 59f8 e7bc 3e50 cfbd
00000220: 0836 183c bb71 ac3c 0b9f 4a3c 2347 83bd
00000230: a28f 90bd 5ece 4dbd 22b6 5a3d 4827 ec3d
00000240: 0512 d63b 21ab 9cbd de51 59bd d70a 503c
00000250: 5013 d4bd 9bc0 0cbe 6bf0 9cbd 0124 04bc
00000260: bb6a 883c dee8 b63d b1cc 123d eff6 f03d
00000270: 84cf 29bd f2b7 cb3c dc5f d3bd 8093 d33d
00000280: 1e8d a73d 9d1a 093e 4995 42bd 9970 013e
00000290: 41eb 0c3e 1826 233e a31d f03d 5d63 3f3e
000002a0: 80a8 f53d b7c5 9b3d 6030 24bd bdad d0bd
000002b0: 17fe 25bd c55e 4cbd 316b 1fbe e03e ebbd
000002c0: 59fa 17be 6315 a6bd 7e55 e73c 9fc9 76bd
000002d0: 0ffc e83b 42f8 c0ba cde9 023d 2bc2 17be
000002e0: d6aa e3bd d0e3 69bd c9ee a5bd 9107 ec3c
000002f0: ee9c 5a3d e051 81bd 97bf 54bd 98d5 a0bd
00000300: 8c48 8b3d 1758 0b3e 2b29 43bd 1e8b afbc
00000310: 7610 803d 3d33 06bd 27da ec3d 7691 533d
00000320: 75e9 c7b9 08fd 4a3d d1c3 b43d 4918 1ebc
00000330: 567a 96bd 6c19 853c a65f fd3c edf8 903c
00000340: 7dcd 5bbb a573 bc3d f708 e93a 8772 f53c
00000350: ddf6 8a3d 2f85 86bd fe6a 2b3d 6303 a8bb
00000360: ba5a 6b3d 7ffd a2bd 056c 68bc a4f5 97bb
00000370: 902d cebd 3308 cabd 111d c23c 98ac 13bd
00000380: 0b3f 873d 13bd 41bd 4eee d8bc 9ad9 96bd
00000390: b629 6b3d 4b14 db3c 1539 e13b d397 6d3b
000003a0: 42de 84bd 815f 5d3d 773c 493d 7e85 71bd
000003b0: 605c 4d3d 7eca 37ba b265 a0bd d4f4 a03d
000003c0: bb60 843d ea13 f7bc 2b89 9cbd 0c11 5c3c
000003d0: 3407 9e3d 279b a43d 2848 cabd 1301 7ebd
000003e0: cbee a23d 153d 483d 299f 5e3d 5366 8ebd
000003f0: 8367 d03d 74b4 c4bd 1153 97bc 90e9 47bb

conv1.bias f4 [64]
0.016805615 -0.10369479 0.024925578 -0.042371158 0.06723984 0.017140111 0.0503639 -0.01936262
0.11316629 -0.037389513 0.0040255156 0.019955968 -0.13630977 0.18838772 0.06150707 0.016264493
-0.026060939 -0.053220328 0.072637275 0.025835263 0.023386965 -0.013567206 -0.054853573 0.0728897
-0.095592074 0.042817626 -0.009289189 0.013664801 0.021415137 0.042335488 0.103051856 -0.0075356574
0.03773562 0.068970196 0.0006184708 -0.065122046 -0.008244288 0.06979558 -0.04496331 0.040956814
0.018114386 -0.027446907 0.09645744 -0.01735954 0.032685522 -0.016143572 -0.017440777 -0.019638892
0.009990392 -0.057234783 -0.016820937 0.08129091 0.013380767 0.010966982 0.016393002 0.024398966
0.082693726 -0.018906558 -0.009535991 0.06487766 0.02142859 -0.0062223445 -0.043987177 -0.09291866
00000000: eeab 893c ef5d d4bd ba30 cc3c 618d 2dbd
00000010: 0bb5 893d 6b69 8c3c 604a 4e3d 5b9e 9ebc
00000020: bac3 e73d bf25 19bd 79e8 833b b37a a33c
00000030: ca94 0bbe b6e8 403e d6ee 7b3d 1d3d 853c
00000040: c07d d5bc 8ffd 59bd dac2 943d 79a4 d33c
00000050: 0596 bf3c fd48 5ebc 24ae 60bd 3247 953d
00000060: c7c5 c3bd 8961 2f3d af31 18bc 54e2 5f3c
00000070: cc6e af3c fa67 2d3d da0c d33d aded f6bb
00000080: aa90 1a3d 3f40 8d3d df20 223a b55e 85bd
00000090: 0d13 07bc fcf0 8e3d 732b 38bd 55c2 273d
000000a0: 9f64 943c 56d8 e0bc 7a8b c53d 9835 8ebc
000000b0: 41e1 053d 863f 84bc f6df 8ebc bee1 a0bc
000000c0: beae 233c 056f 6abd 10cc 89bc d97b a63d
000000d0: 013b 5b3c dbae 333c 9e4a 863c 57e0 c73c
000000e0: 545b a93d ede1 9abc d83c 1cbc 94de 843d
000000f0: 038b af3c cfe4 cbbb e62b 34bd 234c bebd

conv2.weight f4 [32, 64, 5, 5]
0.005360331 0.001134116 0.04190465 0.07225792 -0.11277004 0.03660968 -0.029485893 -0.014313844
0.045034356 -0.014298235 0.030233696 -0.009509197 -0.013948745 0.005723729 0.04437424 -0.015335414
0.021085002 0.024010317 0.029931758 0.049580496 -0.022746079 -0.017083114 -0.03874026 0.04153805
-0.00231375 0.0018046831 0.024115056 -0.036135886 -0.030213607 -0.029196542 -0.0037771992 0.0035067303
-0.01693719 0.0053461296 -0.009542226 0.07398264 0.0040614484 -0.015729003 0.0274224 0.084397286
0.045655172 0.013529943 -0.06387485 -0.014911183 0.042505354 -0.08549388 -0.015599013 -0.038153652
-0.035940945 0.005483716 -0.16961977 -0.18162647 -0.23274103 -0.1899053 -0.26227707 -0.12180872
-0.12321479 -0.07973442 -0.029517828 -0.09168142 0.040856924 0.021988733 0.004509002 0.06486221
0.022217087 0.0498782 0.09550751 0.06523376 0.08473947 0.0606393 0.004881593 0.0056083556
-0.030922545 -0.005454191 0.027469076 0.019566871 -0.003600603 0.0047460534 -0.011390443 -0.048430957
0.024606898 0.033533685 -0.0029900444 0.016736103 0.008961187 0.0072604027 -0.016076215 -0.040610466
0.03578782 -0.0031872382 -0.0042083594 0.0058111786 -0.019956658 0.02196158 -0.003131913 0.025740733
-0.008668027 -0.007364627 -0.021915158 0.00012233644 -0.023637392 -0.0630277 -0.032720037 -0.00784576
-0.01604844 0.0046556694 -0.0080817165 -0.007868045 0.00020773699 0.016619548 0.017211525 0.009733666
0.057803247 0.033229817 0.0005138566 -0.011956395 0.009592619 -0.019654073 0.001958386 0.0020770698
-0.038814534 -0.041592218 -0.054694593 -0.06735211 -0.04175441 0.08782719 -0.019360812 0.07663979
0.008933676 0.08900581 -0.047518574 -0.031286765 -0.037473027 -0.02451096 -0.002526386 -0.010943951
0.0060105897 0.02824734 0.004052964 0.0008124143 0.018074082 0.034196086 0.035089243 0.0115597425
0.0040738466 -0.06102768 -0.062154062 -0.03007493 -0.06829649 -0.10128013 0.011049406 0.017977238
-0.0038922764 0.012886041 -0.036539637 -0.0009345707 -0.02346946 -0.03444814 -0.031721488 -0.005938972
-0.036122296 -0.052766506 0.0016613598 0.00028769622 -0.039136447 0.0023169161 -0.008880445 0.018589977
0.014475364 0.014616103 -0.0061187507 -0.0027159527 0.026352104 0.022803014 -0.0006864727 0.050636113
0.07404537 0.04731456 -0.0043376368 0.045436963 0.015077894 -0.025971165 0.059266713 0.024172269
-0.016469955 0.013722957 -0.018278062 -0.016174717 0.04526194 0.05668642 0.024607465 -0.0045093005
-0.07528519 0.00056221336 0.07280975 0.05586517 0.107510574 -0.010691783 -0.05160295 0.0510867
-0.060245823 0.015131209 0.010318383 -0.006711907 -0.025948875 0.060901176 0.044956155 0.012293347
-0.033672675 -0.019808486 0.09683269 -0.003384936 -0.027520904 -0.004075835 -0.04885356 0.03807939
0.018153353 0.006169262 0.006142295 -0.043692958 -0.05155172 0.031539135 0.015721202 6.3342372e-06
-0.004447058 0.006466118 0.014721402 0.012724966 0.01954905 0.019437995 0.02034006 0.004212127
0.039058372 0.038115084 -0.003713529 -0.027265755 -0.027560117 -0.014662316 0.0017735601 -0.0149666155
-0.056230307 -0.03940717 -0.029034266 -0.02504783 -0.015852293 -0.05077193 -0.04807939 -0.048296243
-0.030784538 -0.010228056 -0.021758042 -0.032572437 -0.018559609 0.016823804 0.01615392 -0.032957137
00000000: b7a5 af3b 9ea6 943a 36a4 2b3d f6fb 933d
00000010: fbf3 e6bd 08f4 153d 668c f1bc 9d84 6abc
00000020: f275 383d 2543 6abc a8ac f73c 77cc 1bbc
00000030: 4789 64bc 1e8e bb3b c3c1 353d 6341 7bbc
00000040: 74ba ac3c 49b1 c43c 7233 f53c eb14 4b3d
00000050: fc55 babc e3f1 8bbc 1bae 1ebd cd23 2a3d
00000060: 49a2 17bb 1e8b ec3a f08c c53c 3903 14bd
00000070: 8782 f7bc 962d efbc e38a 77bb 2cd1 653b
00000080: ddbf 8abc 962e af3b ff56 1cbc 3684 973d
00000090: e615 853b 1cda 80bc f1a4 e03c 7cd8 ac3d
000000a0: eb00 3b3d b2ac 5d3c d1d0 82bd 094e 74bc
000000b0: 181a 2e3d 6a17 afbd 0193 7fbc 0147 1cbd
000000c0: d036 13bd beb0 b33b ceb0 2dbe 4afc 39be
000000d0: aa53 6ebe 8976 42be 2e49 86be da76 f9bd
000000e0: 0958 fcbd cd4b a3bd 5fcf f1bc 78c3 bbbd
000000f0: 9759 273d b721 b43c 40c0 933b 7ad6 843d
00000100: 9c00 b63c 154d 4c3d 7199 c33d 4799 853d
00000110: e38b ad3d ea60 783d c5f5 9f3b 4cc6 b73b
00000120: 4751 fdbc 12b9 b2bb d406 e13c b44a a03c
00000130: 18f8 6bbb c884 9b3b fb9e 3abc 8a5f 46bd
00000140: 6894 c93c 9e5a 093d 9ff4 43bb 271a 893c
00000150: f1d1 123c ace8 ed3b 44b2 83bc 2957 26bd
00000160: 4096 123d fce0 50bb 47e6 89bb b36b be3b
00000170: 257c a3bc c5e8 b33c c840 4dbb 3bde d23c
00000180: 5704 0ebc f852 f1bb 6b87 b3bc 7047 0039
00000190: 34a3 c1bc ab14 81bd 7205 06bd 818b 00bc
000001a0: 0578 83bc 968e 983b 2d69 04bc f9e8 00bc
000001b0: f9d3 5939 b825 883c 2fff 8c3c f479 1f3c
000001c0: 19c3 6c3d fd1b 083d 55b4 063a c1e4 43bc
000001d0: 5c2a 1d3c 9401 a1bc 4458 003b 731f 083b
000001e0: fdfb 1ebd 9a5c 2abd 7007 60bd e7ef 89bd
000001f0: ac06 2bbd bede b33d 919a 9ebc 52f5 9c3d
00000200: 8e5e 123c ae48 b63d d6a2 42bd 8d26 00bd
00000210: 517d 19bd 35cb c8bc b991 25bb 424e 33bc
00000220: 7bf4 c43b f766 e73c bace 843b 33f8 543a
00000230: 1910 943c 3211 0c3d bdb9 0f3d 1365 3d3c
00000240: e77d 853b 29f8 79bd 4295 7ebd b35f f6bc
00000250: 08df 8bbd f56b cfbd 9108 353c 0045 933c
00000260: 9015 7fbb f91f 533c 96aa 15bd fafd 74ba
00000270: 0643 c0bc 7e19 0dbd 64ee 01bd b59b c2bb
00000280: f9f4 13bd b121 58bd fcc1 d93a efd5 9639
00000290: 8a4d 20bd 67d7 173b 497f 11bc 024a 983c
000002a0: 142a 6d3c 6178 6f3c cd7f c8bb 20fe 31bb
000002b0: 5ee0 d73c 63cd ba3c 67f4 33ba d067 4f3d
000002c0: 19a5 973d e9cc 413d bc22 8ebb 1c1c 3a3d
000002d0: 4509 773c 7bc1 d4bc a7c1 723d ec04 c63c
000002e0: 00ec 86bc 41d6 603c e0bb 95bc d780 84bc
000002f0: 9664 393d 0530 683d 9895 c93c c1c2 93bb
00000300: 1f2f 9abd 8061 133a 471d 953d e0d2 643d
00000310: 812e dc3d 972c 2fbc 9d5d 53bd 4a40 513d
00000320: 53c4 76bd e4e8 773c 6f0e 293c 8fef dbbb
00000330: bc92 d4bc 8373 793d f223 383d 096a 493c
00000340: 5cec 09bd 6845 a2bc 3850 c63d cdd5 5dbb
00000350: 8573 e1bc 958e 85bb ac1a 48bd 22f9 1b3d
00000360: 57b6 943c 8527 ca3b 4e45 c93b 63f7 32bd
00000370: e527 53bd 2e2f 013d c0c9 803c af8a d436
00000380: a0b8 91bb bbe1 d33b 0932 713c 607c 503c
00000390: 5425 a03c 6e3c 9f3c 33a0 a63c e205 8a3b
000003a0: acfb 1f3d 901e 1c3d ae5e 73bb 6f5c dfbc
000003b0: c1c5 e1bc 363a 70bc cd76 e83a 8936 75bc
000003c0: c051 66bd 6a69 21bd 45d9 edbc 1b31 cdbc
000003d0: abdc 81bc 3af6 4fbd e5ee 44bd 48d2 45bd
000003e0: db2f fcbc 9493 27bc ec3d b2bc ad6a 05bd
000003f0: 520a 98bc 13d2 893c 3a55 843c 10fe 06bd

conv2.bias f4 [32]
-0.020465486 -0.016608689 -0.0030025952 -0.014496059 0.026833985 0.0165026 -0.0057381764 0.009923528
0.017479785 -0.010188737 -0.0010744599 -0.013155549 0.029013228 0.008892821 0.04882909 -0.0015558959
-0.013908275 -0.016443636 0.0049540037 0.02436432 0.022186667 0.0130064795 -0.018346775 -0.0009022441
-0.008772467 0.034285724 0.025366217 0.020184785 0.010022344 -0.0005267849 -0.021629816 0.0023318226
00000000: 3ca7 a7bc f20e 88bc 30c7 44bb e180 6dbc
00000010: f2d2 db3c 7630 873c 5007 bcbb 4b96 223c
00000020: c431 8f3c a9ee 26bc e4d4 8cba 5f8a 57bc
00000030: 26ad ed3c 32b3 113c 0301 483d 34ef cbba
00000040: 89df 63bc ceb4 86bc 3255 a23b af97 c73c
00000050: d0c0 b53c 2119 553c fa4b 96bc 9484 6cba
00000060: 65ba 0fbc 306f 0c3d d0cc cf3c 905a a53c
00000070: c234 243c f017 0aba 0331 b1bc 7ed1 183b

conv3.weight f4 [1, 32, 5, 5]
0.018153997 0.017638844 0.00024621552 0.027362261 0.03222577 -0.030614484 -0.0015082483 -0.039289407
-0.0011921236 0.010013426 -0.0069685364 0.0239028 0.0028985846 -0.039945025 -0.008416276 -0.018517254
-0.029541558 -0.003141823 -0.0349723 0.01849902 0.0042815693 0.016061544 0.02455381 0.032627065
-0.01433518 0.0014387689 -0.03396962 0.00813506 0.02621006 -0.02294245 0.019867592 -0.016491443
0.010321061 -0.015928099 0.0062938016 -0.034113742 0.026424365 -0.00791258 0.032211218 -0.012948425
0.014901132 -0.017469041 -0.015787601 -0.010121976 0.016697703 0.014275935 0.020270074 -0.006440353
0.0034951419 0.021635432 -0.013818718 -0.01103846 0.027106043 -0.029996548 -0.01714004 -0.019251041
-0.0068968413 -0.025834698 0.008299999 -0.02439194 -0.015244027 -0.03403906 0.023344064 -0.022047883
-0.004441951 -0.020721605 -0.0043843403 -0.007163225 -0.011715759 -0.0006999935 0.015136737 0.029306004
0.025809411 -0.02614736 -0.0041768216 -0.057458375 0.014475448 0.014493668 -0.0069171553 0.005443362
0.03831452 0.050440203 0.0043692007 -0.011474458 0.007283319 0.05006591 0.040128317 0.00744175
-0.023050906 -0.0016400996 0.007093927 -0.018234923 -0.07228785 -0.042833112 0.00037949634 -0.0072650868
-0.024902374 -0.029991781 0.0022370117 0.04301675 0.005516029 0.0072584664 0.0141181005 -0.0030657875
0.0037474865 -0.008308271 0.03125214 -0.00051633123 0.024966484 -0.020534417 -0.028199542 0.0041189906
-0.03229162 0.020240506 0.020400587 0.0281617 0.031236686 0.0109269945 0.012944504 -0.0058977394
0.0319067 0.01430843 -0.009080225 -0.033549383 0.0032762343 0.0051284716 0.03564176 0.030622663
0.03223893 0.001679904 0.011893516 -0.02275981 0.008714806 0.011614391 -0.013762605 -0.020446148
0.008199865 -0.028659424 -0.01583552 0.02906814 0.021235477 -0.036986824 -0.036804523 0.023012849
-0.0027173292 0.0070156255 -0.02114384 -0.012863887 0.02898708 -0.019173771 0.011974905 0.0009498134
0.011110929 0.0014779135 -0.0070307394 0.012418657 0.009331452 -0.0032630092 0.024240721 0.03238605
0.018631967 -0.010501106 -0.026350666 -0.024347302 -0.017323421 -0.0033157566 0.01782316 0.009625779
0.031559046 -0.03526984 -0.02079717 0.032071467 -0.02496137 0.023050804 0.00078121206 -0.0041614426
0.025035989 0.027499283 -0.014292056 -0.0019518872 0.032990657 0.029391725 0.014355793 -0.021161504
-0.02368406 0.025280308 0.020209428 -0.0037706895 0.034408458 0.024988675 -0.007913655 0.0152181145
0.034363743 0.020629205 -0.016988492 -0.03356673 0.010593802 0.013156923 -0.034777418 0.005258349
-0.013130056 -0.007501167 -0.028130597 -0.022368563 0.028778963 0.005953477 -0.0141147515 -0.045926623
0.00042612205 0.00069552346 -0.015579218 0.04974193 0.06034832 -0.023241468 -0.0052019255 -0.063425995
0.06963439 0.079031006 -0.025338106 -0.028924488 -0.034845334 -0.031857144 0.03621469 0.0049675084
-0.028046038 0.034229696 -0.013903398 0.0137320245 0.021008296 0.010854063 0.03283904 -0.025490293
0.002851639 -0.0020423084 0.015828615 -0.015661858 -0.02161793 -0.027704976 0.024082782 0.010393941
-0.034101862 -0.0026490556 -0.030087598 -0.030478148 0.022026593 -0.018479494 0.020655803 0.03261114
0.0046819733 0.015161833 -0.03088376 -0.015089517 -0.0019466783 0.0075540943 0.014292943 0.019039873
00000000: b1b7 943c 567f 903c 7d16 8139 d226 e03c
00000010: 2bff 033d 3acb fabc 6ab0 c5ba eeed 20bd
00000020: 0841 9cba 5a0f 243c 5258 e4bb cecf c33c
00000030: 2ef6 3d3b 659d 23bd 6ce4 09bc 7fb1 97bc
00000040: 2301 f2bc 0be7 4dbb 1d3f 0fbd 428b 973c
00000050: 684c 8c3b 8093 833c 1225 c93c f5a3 053d
00000060: 1ade 6abc 1395 bc3a ba23 0bbd ea48 053c
00000070: 7bb6 d63c cef1 bbbc 5cc1 a23c 1019 87bc
00000080: ab19 293c a57b 82bc 3c3c ce3b daba 0bbd
00000090: e977 d83c c4a3 01bc e9ef 033d a125 54bc
000000a0: e123 743c 3c1b 8fbc 0055 81bc a5d6 25bc
000000b0: 9fc9 883c 9ce5 693c 6d0d a63c 9909 d3bb
000000c0: c00e 653b ca3c b13c e767 62bc a8da 34bc
000000d0: 7e0d de3c 52bb f5bc 4569 8cbc 5cb4 9dbc
000000e0: e6fe e1bb 4aa3 d3bc b8fc 073c 9bd1 c7bc
000000f0: 15c2 79bc 8b6c 0bbd 0d3c bf3c c39d b4bc
00000100: c98d 91bb 5bc0 a9bc 83aa 8fbb 7db9 eabb
00000110: 74f3 3fbc c57f 37ba 1400 783c 2513 f03c
00000120: 426e d33c fd32 d6bc b8dd 88bb 7959 6bbd
00000130: 6e2a 6d3c da76 6d3c 4ea9 e2bb 3b5e b23b
00000140: b0ef 1c3d 639a 4e3d 832b 8f3b 5dff 3bbc
00000150: e8a8 ee3b e911 4d3d 975d 243d ecd9 f33b
00000160: 41d5 bcbc 9cf8 d6ba 2c74 e83b 6861 95bc
00000170: a70b 94bd c671 2fbd 23f7 c639 f70f eebb
00000180: 1000 ccbc 53b1 f5bc d49a 123b 5532 303d
00000190: cebf b43b 6ed8 ed3b 9b4f 673c 61eb 48bb
000001a0: 6498 753b 6a1f 08bc 3e02 003d 675a 07ba
000001b0: 8386 cc3c cb37 a8bc ba02 e7bc 99f8 863b
000001c0: 3844 04bd 6bcf a53c 221f a73c 5eb3 e63c
000001d0: 14e4 ff3c 2307 333c 2f15 543c d341 c1bb
000001e0: 9ab0 023d e86d 6a3c 39c5 14bc 146b 09bd
000001f0: 17b6 563b bd0c a83b 18fd 113d 61dc fa3c
00000200: f80c 043d 3930 dc3a 06dd 423c c872 babc
00000210: 8cc8 0e3c 494a 3e3c 8d7c 61bc ae7e a7bc
00000220: ba58 063c 2bc7 eabc 7eb9 81bc 4f20 ee3c
00000230: 06f6 ad3c 7f7f 17bd 57c0 16bd 7185 bc3c
00000240: 3815 32bb 55e3 e53b d935 adbc 0dc3 52bc
00000250: 5076 ed3c 5012 9dbc 6432 443c e6fc 783a
00000260: 9d0a 363c 8cb6 c13a 1e62 e6bb 9f77 4b3c
00000270: f2e2 183c 36d8 55bb 7a94 c63c 3ca7 043d
00000280: 11a2 983c d50c 2cbc 5add d7bc fe73 c7bc
00000290: d9e9 8dbc 2a4d 59bb e001 923c 72b5 1d3c
000002a0: 0f44 013d 1c77 10bd d45e aabc 5f5d 033d
000002b0: c97b ccbc 0ad5 bc3c 41ca 4c3a b65c 88bb
000002c0: 4618 cd3c 2d46 e13c 3a29 6abc 77d6 ffba
000002d0: 3621 073d eac6 f03c 8f34 6b3c e45a adbc
000002e0: 1305 c2bc a618 cf3c 3e8e a53c ac1d 77bb
000002f0: e2ef 0c3d 0db5 cc3c 46a8 01bc 6655 793c
00000300: ffc0 0c3d 94fe a83c 732b 8bbc 447d 09bd
00000310: a091 2d3c 2390 573c c472 0ebd 3a4e ac3b
00000320: 721f 57bc 59cc f5bb 2372 e6bc 473e b7bc
00000330: dcc1 eb3c 6315 c33b 8f41 67bc 8e1d 3cbd
00000340: 2269 df39 ca53 363a fa3f 7fbc 32be 4b3d
00000350: cd2f 773d e464 bebc ea74 aabb 7de5 81bd
00000360: 7a9c 8e3d 02db a13d dc91 cfbc 0cf3 ecbc
00000370: fbb9 0ebd a37c 02bd db55 143d 7bc6 a23b
00000380: cec0 e5bc 7034 0c3d 14cb 63bc 49fc 603c
00000390: 9719 ac3c 3dd5 313c 3b82 063d 05d1 d0bc
000003a0: 90e2 3a3b 40d8 05bb 03ab 813c 4c4d 80bc
000003b0: 1618 b1bc 8cf5 e2bc 4149 c53c 594b 2a3c
000003c0: 65ae 0bbd c79b 2dbb 447a f6bc 4fad f9bc
000003d0: 1d71 b43c 4f62 97bc 5c36 a93c 4293 053d
000003e0: 3d6b 993b 5669 783c f0ff fcbc 063a 77bc
000003f0: af27 ffba 5688 f73b f32c 6a3c 82f9 9b3c
