Lecture8_Image restoration (HuStar_4)/outputs/x3/epoch_45.pth (torch, 231589 bytes, 5 tensors)

conv1.weight f4 [64, 1, 9, 9]
0	0x3c43d707	0.011953122
1	0x3d0be3df	0.03415286
2	0xbd1ac7ec	-0.037788317
3	0x3d87a8e0	0.06624007
4	0xbd933a72	-0.07188882
5	0x3dc67c7f	0.096917145
6	0xbd85b9d1	-0.06529582
7	0xbd91373e	-0.07090615
8	0xbcfafe31	-0.030638786
9	0x3d8c1f53	0.06841912
10	0xbd4107f0	-0.04712671
11	0x3cf82be2	0.030294362
12	0xbdd61990	-0.104540944
13	0xbda2e955	-0.07954661
14	0xbd62cd70	-0.0553717
15	0xbd166b55	-0.036723454
16	0xbddb23a9	-0.10700161
17	0x3d856199	0.06512756
18	0xbc701028	-0.014652289
19	0x3cd50cef	0.026007144
20	0x3d911759	0.07084531
21	0x3cb64fc6	0.022254836
22	0x3d2e689c	0.042580232
23	0x3df006be	0.11720036
24	0xbd59250c	-0.053013846
25	0x3c45b816	0.012067815
26	0xbd973275	-0.07382671
27	0x3d60802b	0.05480973
28	0x3d362cdb	0.04447637
29	0xbe03973d	-0.12850662
30	0x3de31a2f	0.110889785
31	0x3dcfb791	0.101424344
32	0x3dbdb097	0.092621975
33	0x3d83c557	0.06434124
34	0x3d9d08cc	0.076676935
35	0xbd3aae41	-0.045576338
36	0xbdfb88b9	-0.12281937
37	0xbd93c1fd	-0.07214735
38	0xbdafe628	-0.08588821
39	0x3d7ef95a	0.06224952
40	0x3d6f6bcd	0.058452416
41	0xbbadcf64	-0.005304264
42	0x3bc7e850	0.006100692
43	0x3db97bc4	0.090568095
44	0xbd142864	-0.036171332
45	0xbc14b64f	-0.009076669
46	0xbd337673	-0.043814134
47	0x3c9fb202	0.01949406
48	0x3e1572a9	0.1459452
49	0x3deb08d8	0.11476296
50	0x3d5edf9e	0.054412477
51	0x3c81f5fe	0.015864369
52	0x3c4206e4	0.011842463
53	0x3cb89be9	0.022535281
54	0xb9bf6cd9	-0.00036511457
55	0xbe063a82	-0.13108256
56	0xbdad3eab	-0.084592186
57	0x3dc788c4	0.09742883
58	0x39cc832b	0.0003900764
59	0xbdef6cb9	-0.11690659
60	0xbb5bee9d	-0.0033558973
61	0x3dc254f8	0.09488863
62	0xbdd164d8	-0.102243125
63	0xbc95b144	-0.018273003
64	0xbd7f90fa	-0.06239412
65	0xbcea95ff	-0.028635977
66	0xbd6ce1c1	-0.057832483
67	0xbd3f8288	-0.046755344
68	0xbe171e93	-0.14757757
69	0x3d36d6f6	0.044638596
70	0x3e019b2a	0.12656847
71	0x3db3dbc0	0.08782148
72	0x3d16f9a8	0.036859185
73	0xbd9f0a8e	-0.07765685
74	0x3c19c9c4	0.009386484
75	0xbd1e5e41	-0.038664106
76	0x3cab6188	0.02092053
77	0xbe0087ac	-0.12551755
78	0x3b3a26ba	0.002840443
79	0x3de15491	0.11002458
80	0x3d5f3196	0.05449065
81	0x3c880cc7	0.016607655
82	0x3ce06632	0.02739248
83	0x3c10899f	0.008821874
84	0xbd98f2c6	-0.0746818
85	0xbd9b54d9	-0.07584543
86	0xbde4510e	-0.111482725
87	0x3d937a20	0.07201028
88	0x3d072883	0.03299762
89	0x3c01c58b	0.007920633
90	0xbdb08f11	-0.08621038
91	0x3daa80d5	0.08325354
92	0x3d463fa6	0.048400544
93	0x3d80793d	0.06273124
94	0xbd984a2c	-0.07436022
95	0xbc11e5ef	-0.008904918
96	0x3dec1dde	0.11529134
97	0x3dae785a	0.08519049
98	0x3dbe81da	0.09302111
99	0xbd1bf76e	-0.038077764
100	0x3d8c2e2d	0.06844745
101	0xbda39138	-0.07986683
102	0x3b96a59b	0.0045973784
103	0xbd9e6198	-0.07733458
104	0xbd3190c2	-0.043350942
105	0xbc36418f	-0.011124029
106	0x3ccfa983	0.025349384
107	0x3dcd7d82	0.10033704
108	0x3cdb75a4	0.026789494
109	0xbcc717a5	-0.024303267
110	0x3db69c68	0.08916551
111	0xbd428749	-0.0474923
112	0x3d62f758	0.055411667
113	0xbd0a02f0	-0.033694208
114	0xbc5d193a	-0.013494784
115	0x3c809ff5	0.015701273
116	0xbdd8abc9	-0.105796404
117	0xbc1c2361	-0.009529919
118	0x3cadeadc	0.021230154
119	0x3df1014f	0.11767828
120	0xbc3725fc	-0.01117849
121	0x3d35c32d	0.044375587
122	0x3da91f20	0.0825789
123	0xbd4fc629	-0.05072609
124	0x3dd9de24	0.10638073
125	0xbd98d203	-0.074619316
126	0x3cd9277c	0.026508085
127	0x3ca4e3b4	0.020128109
128	0x3d399420	0.04530728
129	0x3dc3ffe3	0.09570291
130	0xbd753b13	-0.05987079
131	0xbc95d141	-0.018288257
132	0xbc6b5d26	-0.01436547
133	0xbda49e37	-0.080379896
134	0xbd1fc780	-0.039008617
135	0xbdcdff8f	-0.100585096
136	0x3c68ad4c	0.014201473
137	0x3c34f6fe	0.011045216
138	0x3b3db2f0	0.0028945766
139	0xbd87fff6	-0.066406175
140	0xbd75f2c2	-0.060045965
141	0xbd54912a	-0.05189625
142	0x3d3177a2	0.04332698
143	0x3dd2f311	0.103002675
144	0x3c7ec5cc	0.015550088
145	0xbd815f29	-0.063169785
146	0xbd5d706a	-0.054062285
147	0x3c3d42e0	0.011551589
148	0xbdce892a	-0.10084756
149	0xbdfce560	-0.12348437
150	0xbd963c1d	-0.073356844
151	0xbc46dec7	-0.012138075
152	0x3c15a266	0.009132957
153	0x3dc37607	0.09543996
154	0x3d45713d	0.048203696
155	0x3df2a3f5	0.118476786
156	0xbd2ae7c9	-0.041724954
157	0x3ccbd7ea	0.02488323
158	0xbdc3011f	-0.09521698
159	0x3dd04275	0.10168926
160	0x3d9d2860	0.076737165
161	0x3e0383f8	0.12843311
162	0xbd79edad	-0.06101768
163	0x3df39c4d	0.118950464
164	0x3e0ad6e2	0.13558534
165	0x3e1f461e	0.15554091
166	0x3ddb64f1	0.107126124
167	0x3e39ccde	0.18144557
168	0x3dfbecc6	0.1230102
169	0x3db2db09	0.08733184
170	0xbd19c921	-0.037545327
171	0xbdcf0075	-0.10107509
172	0xbcdc63dd	-0.026903087
173	0xbcbb9fd6	-0.022903364
174	0xbdfd9fbf	-0.12383985
175	0xbdb784a2	-0.089608446
176	0xbe01a046	-0.12658796
177	0xbd7fd6b1	-0.062460605
178	0x3d47ff03	0.048827183
179	0xbd594802	-0.053047188
180	0xb95a37df	-0.00020810914
181	0x3b383515	0.0028107811
182	0x3d4a4002	0.04937745
183	0xbe01d2dd	-0.12678094
184	0xbdc6289e	-0.09675716
185	0xbd3de5e0	-0.046361804
186	0xbd97bac3	-0.07408669
187	0x3d168439	0.03674719
188	0x3d47488f	0.04865318
189	0xbd9b7f41	-0.07592631
190	0xbd791515	-0.06081112
191	0xbda2df93	-0.079528
192	0x3d8b5677	0.06803601
193	0x3e0712f9	0.13190831
194	0xbd524721	-0.051337365
195	0xbcc7d9f3	-0.024395918
196	0x3d7bcaf7	0.06147286
197	0xbd306093	-0.04306085
198	0x3de33b16	0.11095254
199	0x3d3e3daf	0.046445545
200	0xbb8351e7	-0.0040075663
201	0x3d30334a	0.043017663
202	0x3da19299	0.078892894
203	0xbc801550	-0.015635163
204	0xbd9bfb13	-0.07616248
205	0x3c83758f	0.016047267
206	0x3cc6928d	0.024239803
207	0x3c625212	0.013813512
208	0xbc0e0c98	-0.008669995
209	0x3db33c8c	0.08751783
210	0xbbd350d9	-0.006448847
211	0x3ca4378a	0.020046014
212	0x3d79c77d	0.060981262
213	0xbd8d914d	-0.069124795
214	0x3d28a308	0.041171104
215	0xbc2718ff	-0.010198831
216	0x3d76d679	0.06026313
217	0xbd9b75f9	-0.07590861
218	0xbc055440	-0.008137763
219	0xbaa60b66	-0.0012668192
220	0xbdc9d8c1	-0.09855796
221	0xbdc47024	-0.095917016
222	0x3cdc3239	0.026879417
223	0xbcf59a90	-0.029980928
224	0x3d8d7de0	0.069087744
225	0xbd7b1f77	-0.061309304
226	0xbd1b23b2	-0.03787584
227	0xbda65f27	-0.081236176
228	0x3d434372	0.047671743
229	0x3c6bd81d	0.014394787
230	0xbbbe354e	-0.0058046943
231	0xbbf63992	-0.007514187
232	0xbd91e84d	-0.07124386
233	0x3d35dbdb	0.044399124
234	0x3d462245	0.048372526
235	0xbd6a0aee	-0.05713933
236	0x3d66fa5e	0.056391113
237	0x3b9da958	0.004811447
238	0xbd9c83e9	-0.07642347
239	0x3dab3ac3	0.08360817
240	0x3d906171	0.070498355
241	0xbc9c7dfc	-0.019103043
242	0xbd9ac98f	-0.075579755
243	0x3bff4226	0.007789868
244	0x3da3a0d8	0.07989663
245	0x3db97d74	0.090571314
246	0xbdbf53ca	-0.09342153
247	0xbd6abd1b	-0.05730925
248	0x3da994c5	0.08280329
249	0x3d4f238e	0.050571017
250	0x3d739cab	0.059475582
251	0xbd847e3d	-0.064693905
252	0x3dc7ed80	0.097620964
253	0xbdc1ae7c	-0.094571084
254	0xbc4d87b7	-0.012544564
255	0xbb5730c3	-0.003283546

conv1.bias f4 [64]
0	0x3c7533a4	0.014965925
1	0xbddd5401	-0.10807038
2	0x3cad8bc0	0.021184802
3	0xbd522965	-0.05130901
4	0x3d80cc82	0.06289007
5	0x3c12dbc0	0.008963525
6	0x3d549bdb	0.051906448
7	0xbcb74cc5	-0.022375474
8	0x3df35139	0.11880726
9	0xbd237789	-0.03990892
10	0x3ba8c1c5	0.0051500523
11	0x3ceb4819	0.028720902
12	0xbdfb7544	-0.12278226
13	0x3e1ba35e	0.15199038
14	0x3d8433e0	0.06455207
15	0x3c92e7e7	0.017932845
16	0xbcf4e023	-0.029892033
17	0xbd82e773	-0.06391802
18	0x3d7704b5	0.060307223
19	0x3d0b3a7c	0.033991322
20	0x3ca3c9ea	0.019993741
21	0xbbd4ac94	-0.0064902995
22	0xbd795b8f	-0.060878333
23	0x3d9657c5	0.073409595
24	0xbdad5e10	-0.084652066
25	0x3d50bdd0	0.05096227
26	0xbc03de44	-0.008048598
27	0x3bf87750	0.0075825825
28	0x3cbaa139	0.022781955
29	0x3d2842fb	0.041079503
30	0x3dba1541	0.09086085
31	0xbbcd727e	-0.006269752
32	0x3d1bde1e	0.038053624
33	0x3d9620c4	0.07330468
34	0xbab8d550	-0.0014101658
35	0xbd975cae	-0.07390724
36	0xbb4c2811	-0.003115181
37	0x3da28b60	0.0793674
38	0xbd212caf	-0.039349254
39	0x3d2ff893	0.04296167
40	0x3c75995a	0.014990175
41	0xbcde6d86	-0.027151834
42	0x3dc808a7	0.09767275
43	0xbcb3e1c7	-0.021958245
44	0x3d0c4d40	0.03425336
45	0xbc708cc3	-0.014681998
46	0xbc76fc7a	-0.015074844
47	0xbcbb8e6f	-0.022895066
48	0x3c1ead5a	0.009684885
49	0xbd468698	-0.048468202
50	0xbc88339f	-0.016626177
51	0x3d9ae187	0.07562547
52	0x3c80c472	0.015718672
53	0x3c09295a	0.008371675
54	0x3bc6253c	0.006046919
55	0x3c73090a	0.014833698
56	0x3dbc3a73	0.09190836
57	0xbd178515	-0.03699215
58	0xbc6348d8	-0.013872348
59	0x3d8f96a5	0.07011155
60	0x3d15146e	0.036396436
61	0xbc90e6ca	-0.017688174
62	0xbd6bdf4a	-0.057585992
63	0xbda9f485	-0.082985915

conv2.weight f4 [32, 64, 5, 5]
0	0x3bb56823	0.0055360957
1	0x39839357	0.00025096044
2	0x3d4a9ff3	0.049468946
3	0x3d93a8a5	0.07209901
4	0xbdc930ab	-0.09823736
5	0x3cbeaa5a	0.02327459
6	0xbd100266	-0.035158537
7	0xbc7df869	-0.01550112
8	0x3d173076	0.03691145
9	0xbc9e17c2	-0.019298438
10	0x3d0b5ae6	0.034022234
11	0xbc104606	-0.008805757
12	0xbc33ba85	-0.010969763
13	0x3b42f528	0.0029748175
14	0x3d2ea5ae	0.042638473
15	0xbc3a77d2	-0.011381106
16	0x3c978787	0.018497242
17	0x3c7685d2	0.015046554
18	0x3ca3f6c9	0.020015137
19	0x3d44f90d	0.048089076
20	0xbc98d685	-0.018656978
21	0xbc3ae14d	-0.011406255
22	0xbd31e0a5	-0.04342713
23	0x3cd158db	0.025555065
24	0xbb915238	-0.00443485
25	0x3b14410d	0.002262178
26	0x3cda60c1	0.026657464
27	0xbc6d2c4b	-0.014475892
28	0xbcfa1dd3	-0.0305318
29	0xbd012f43	-0.031539213
30	0x3c24c9f5	0.010057916
31	0x3cf1a7b9	0.029498922
32	0x3c1256cb	0.008931826
33	0x3c670b4a	0.014101813
34	0x3bf5e38a	0.0075039314
35	0x3d88ce9b	0.06680032
36	0x3ca9aa49	0.020711081
37	0x3c879554	0.016550697
38	0x3d138657	0.03601679
39	0x3db9dd53	0.09075417
40	0x3c5cd715	0.013479014
41	0x3bc46fbe	0.005994766
42	0xbd34014d	-0.043946553
43	0xbc67acbb	-0.014140303
44	0x3ccbaae5	0.024861762
45	0xbda167a5	-0.07881097
46	0xbc2bfeb9	-0.010497742
47	0xbc545199	-0.0129589075
48	0xbcbc5564	-0.022989936
49	0x3baa18fb	0.005190966
50	0xbe0c4499	-0.13698043
51	0xbe1aece7	-0.15129434
52	0xbe4715fd	-0.19441982
53	0xbe1f5875	-0.15561087
54	0xbe76d383	-0.24104123
55	0xbd941e92	-0.07232393
56	0xbdb0b953	-0.08629098
57	0xbd7f7bec	-0.06237404
58	0xbc44139f	-0.011967569
59	0xbd974f5c	-0.073881835
60	0x3cd77fd7	0.026306076
61	0x3b9d8ce5	0.0048080557
62	0xbcdb04ff	-0.02673578
63	0x3d1a305a	0.037643768
64	0x3c49faab	0.01232783
65	0x3c46524c	0.012104582
66	0x3d7796ab	0.060446423
67	0x3d04af61	0.032393817
68	0x3d3fe5c1	0.04684997
69	0x3d1645ef	0.036687788
70	0xbc4776a8	-0.012174286
71	0x3b4062fa	0.002935587
72	0xbca88292	-0.020570073
73	0xbc2d47ab	-0.010576169
74	0x3c8a6d1e	0.016897734
75	0x3cfbb6a0	0.03072673
76	0x3adc0a97	0.0016787824
77	0x3bc7eca4	0.006101208
78	0xbbf7dee3	-0.007564412
79	0xbcef418c	-0.02920606
80	0x3ca1bcca	0.019743342
81	0x3ced02b2	0.02893195
82	0xbc03f1b4	-0.008053232
83	0x3c0186a1	0.007905633
84	0x3c4d62eb	0.012535791
85	0x3c2f9831	0.010717438
86	0xbc53b638	-0.012921862
87	0xbd1782dd	-0.036990035
88	0x3d152b16	0.036418043
89	0x3bce3761	0.006293223
90	0xb9d6cfa2	-0.0004097196
91	0x3c0f9b42	0.008765044
92	0xbc6d9d7e	-0.014502881
93	0x3ccef882	0.025264982
94	0x3bc3cd9c	0.0059754383
95	0x3ce7c601	0.028292658
96	0xbbc5dc5d	-0.0060382322
97	0xbbc2f1ac	-0.0059492197
98	0xbc9f4667	-0.01944275
99	0x3ba73ed6	0.005103926
100	0xbd1c6d79	-0.03819034
101	0xbd8688ff	-0.06569099
102	0xbcd8198f	-0.026379375
103	0xbc83bc93	-0.01608113
104	0xbcc42750	-0.023944527
105	0x3aecc5a4	0.0018064273
106	0xbc4ae34c	-0.012383293
107	0xba803bf6	-0.0009783495
108	0x3baf8eea	0.005357613
109	0x3c81ca03	0.015843397
110	0x3c061c4a	0.008185456
111	0x3aad3149	0.0013213541
112	0x3d621b02	0.055201538
113	0x3d06f995	0.032952864
114	0xbb748d7d	-0.003731578
115	0xbc9a36c6	-0.018824946
116	0x3ba3af8a	0.004995291
117	0xbcb8ea74	-0.022572733
118	0xb82438fa	-3.915371e-05
119	0xba0f2008	-0.000545979
120	0xbd0c5194	-0.034257486
121	0xbd05de46	-0.03268268
122	0xbd44e408	-0.04806903
123	0xbd79bc24	-0.06097044
124	0xbd17e236	-0.037080966
125	0x3d8c12d0	0.06839526
126	0xbcfbbfc6	-0.030731093
127	0x3d9806c1	0.07423163
128	0x3cfd8198	0.030945584
129	0x3de7309b	0.11288568
130	0xbd5019e7	-0.050805952
131	0xbcf1eb57	-0.029531164
132	0xbce6d1b0	-0.028176159
133	0xbc5dee91	-0.013545648
134	0x3c1fa888	0.009744771
135	0xbc4839b6	-0.012220791
136	0x3bab7297	0.005232166
137	0x3cf4edd6	0.029898565
138	0x3b33017b	0.0027314115
139	0x39ce9bf3	0.00039407573
140	0x3ccbdfa6	0.024886917
141	0x3d1d7c98	0.0384489
142	0x3d15893b	0.036507826
143	0x3c53e987	0.012934095
144	0x3c025391	0.007954494
145	0xbd36e25c	-0.044649467
146	0xbd330051	-0.043701474
147	0xbc38577e	-0.0112513285
148	0xbd578694	-0.052618578
149	0xbdab463a	-0.08363004
150	0x3bfce0e6	0.0077172397
151	0x3c67f721	0.014158041
152	0xbbe726d1	-0.007054188
153	0x3c43a980	0.011942267
154	0xbd1694b0	-0.036762893
155	0x3c07c004	0.008285526
156	0xbc15cfad	-0.009143752
157	0xbcecb865	-0.02889652
158	0xbcd71d07	-0.026258959
159	0x3be05369	0.0068458808
160	0xbcd26a64	-0.025685497
161	0xbd1e5058	-0.03865084
162	0x3b68bfb2	0.003551465
163	0x399ab05f	0.00029504576
164	0xbcc3a321	-0.023881497
165	0x3c5253bb	0.012837346
166	0xbbb221a9	-0.0054361415
167	0x3c15a3eb	0.009133319
168	0x3baa20d8	0.0051919036
169	0x3c44f61e	0.01202157
170	0x3c0952a8	0.008381523
171	0x3c3f700f	0.011684432
172	0x3d032366	0.03201618
173	0x3cda68d1	0.026661308
174	0x3bbd3ec0	0.0057753026
175	0x3d1afa5d	0.03783642
176	0x3d853c15	0.065056
177	0x3d1e63ed	0.038669515
178	0xbbbd61ee	-0.0057794964
179	0x3d453cb3	0.04815359
180	0x3b97a82c	0.004628202
181	0xbd0633c7	-0.032764222
182	0x3d56e515	0.052464563
183	0x3c85a482	0.016313795
184	0xbc4364a2	-0.011925848
185	0x3bb08db9	0.0053879884
186	0xbcc474af	-0.02398142
187	0xbcd6bb3a	-0.026212323
188	0x3cee8b5e	0.02911919
189	0x3d284b38	0.04108736
190	0x3c09749c	0.008389618
191	0xbbaef0d1	-0.005338766
192	0xbdab7199	-0.083712764
193	0xbc94eb6a	-0.01817866
194	0x3d65d9fb	0.056116085
195	0x3cb52eae	0.022116985
196	0x3de9eaf3	0.11421766
197	0x39dab436	0.00041714468
198	0xbd88d2b6	-0.06680815
199	0x3ce7a6f8	0.02827786
200	0xbd898dfd	-0.06716535
201	0x3c54ff70	0.013000354
202	0x3c207b65	0.009795045
203	0x3b4ca483	0.0031225986
204	0xbc154151	-0.009109811
205	0x3d4b4052	0.049621888
206	0x3d1e3a9a	0.038630106
207	0x3c637c79	0.013884657
208	0xbd000b62	-0.031260855
209	0xbd172e62	-0.03690947
210	0x3db8f0f3	0.090303324
211	0x3b8aa5bd	0.0042311833
212	0xbc377069	-0.011196234
213	0x3b0938fc	0.0020938506
214	0xbd6315bb	-0.055440646
215	0x3d360de4	0.04444684
216	0x3cd4f18c	0.025994085
217	0x3c850117	0.016235871
218	0x3c8f64ee	0.017504182
219	0xbceeb2f2	-0.029138062
220	0xbd2c2028	-0.042022854
221	0x3cf277fd	0.02959823
222	0x3c24fac0	0.010069549
223	0xbb961083	-0.004579605
224	0xba5e961b	-0.00084909954
225	0xbc0955c2	-0.008382263
226	0x3a2c8bed	0.000658213
227	0xbc138270	-0.009003267
228	0xbb170f29	-0.0023049808
229	0x3b7101bd	0.0036774718
230	0x3c77b761	0.0151194045
231	0x3aae3e0d	0.0013293639
232	0x3cfde0e5	0.030991027
233	0x3cfb4bd0	0.030675799
234	0xbba5134a	-0.0050377
235	0xbcb86ecd	-0.022513771
236	0xbc92dfa0	-0.017928898
237	0xbbd0f431	-0.006376766
238	0x3a357ad9	0.0006922908
239	0xbc9cfd2e	-0.019163694
240	0xbd53dae4	-0.051722422
241	0xbcf55d46	-0.029951703
242	0xbc95935e	-0.018258747
243	0xbcce61b6	-0.025193077
244	0xbcbc5c86	-0.022993337
245	0xbced07a1	-0.028934302
246	0xbcfe554c	-0.031046532
247	0xbd110d4e	-0.03541308
248	0xbcb3e0f6	-0.021957856
249	0xbc2646a0	-0.010148674
250	0xbcdb7640	-0.026789784
251	0xbd04929a	-0.032366373
252	0xbc809a6b	-0.015698632
253	0x3c83ad4e	0.016073849
254	0x3c55d56e	0.013051374
255	0xbd0a51b2	-0.033769317

conv2.bias f4 [32]
0	0xbc763cd9	-0.015029156
1	0xbc95328a	-0.018212575
2	0xbb44c730	-0.0030025952
3	0xbc0c6335	-0.008568575
4	0x3ccd5e19	0.025069283
5	0x3c77e066	0.015129184
6	0xbbf556ac	-0.0074871387
7	0x3c0ca333	0.008583832
8	0x3cb47bf9	0.022031771
9	0xbc20feeb	-0.009826402
10	0x39a6e73c	0.0003183427
11	0xbba49ebd	-0.005023806
12	0x3ce3fcbc	0.027830474
13	0x3c5894f0	0.013219103
14	0x3cef4735	0.029208759
15	0xbc1064bf	-0.008813082
16	0xbc6e84e5	-0.014558052
17	0xbc954d78	-0.018225417
18	0x3c0d699e	0.008631138
19	0x3cbb09dc	0.02283185
20	0x3ccdc6f7	0.025119288
21	0x3c50ca27	0.012743509
22	0xbc659f93	-0.014015096
23	0xbb41576b	-0.0029501568
24	0xbbe56302	-0.007000328
25	0x3d09abe5	0.033611197
26	0x3cbad87a	0.022808302
27	0x3ca80be9	0.020513492
28	0x3c0f134b	0.008732627
29	0xbb853512	-0.0040651644
30	0xbc8192e1	-0.015817108
31	0xb87b8b13	-5.9972586e-05

conv3.weight f4 [1, 32, 5, 5]
0	0x3c8cb276	0.01717494
1	0x3c90ab00	0.017659664
2	0xb8f18bc1	-0.00011517807
3	0x3cdafd43	0.026732093
4	0x3d02f05d	0.03196751
5	0xbcfb567f	-0.030680893
6	0xb9b2e713	-0.0003412297
7	0xbd1a3b50	-0.03765422
8	0x3a3b56c4	0.0007146413
9	0x3c28be3a	0.01029926
10	0xbbaab190	-0.0052091554
11	0x3cd69ea0	0.026198685
12	0x3bde515d	0.0067846016
13	0xbd15970c	-0.036521003
14	0xbbdcf9aa	-0.0067436295
15	0xbc9ce009	-0.019149797
16	0xbcf631be	-0.030053016
17	0xbaf004d6	-0.0018311988
18	0xbd0d466f	-0.034491
19	0x3c9f00f5	0.019409636
20	0x3b1394a1	0.002251901
21	0x3c5b0111	0.0133669535
22	0x3cbc4175	0.022980431
23	0x3cfd9f1f	0.030959664
24	0xbc86f24e	-0.016472962
25	0x3ad859cd	0.0016506255
26	0xbd0a8631	-0.03381938
27	0x3c0482a5	0.008087789
28	0x3cd72780	0.026263952
29	0xbcb97262	-0.02263755
30	0x3ca4989a	0.020092297
31	0xbc88a715	-0.016681233
32	0x3c26e4ae	0.010186357
33	0xbc807cb5	-0.015684465
34	0x3bd5e029	0.006526966
35	0xbd0a0e5b	-0.033705097
36	0x3cd7cb34	0.026342012
37	0xbc037c81	-0.0080252895
38	0x3d054875	0.032539804
39	0xbc4f8774	-0.012666572
40	0x3c78c552	0.015183764
41	0xbc8d15e4	-0.017222352
42	0xbc7d449e	-0.015458254
43	0xbc1d44de	-0.009598939
44	0x3c8aa8ca	0.016926188
45	0x3c69a008	0.014259346
46	0x3ca7c201	0.02047825
47	0xbbc85afc	-0.006114362
48	0x3b7c994c	0.003854352
49	0x3cb1a577	0.021685345
50	0xbc6267e7	-0.013818718
51	0xbc34daa8	-0.01103846
52	0x3cde0d7e	0.027106043
53	0xbcf5bb52	-0.029996548
54	0xbc8c6945	-0.01714004
55	0xbc9db45c	-0.019251041
56	0xbbe1fee6	-0.0068968413
57	0xbcd3a34a	-0.025834698
58	0x3c07fcb8	0.008299999
59	0xbcc7d19b	-0.02439194
60	0xbc79c215	-0.015244027
61	0xbd0b6c8b	-0.03403906
62	0x3cbf3c0d	0.023344064
63	0xbcb49dc3	-0.022047883
64	0xbb918dc9	-0.004441951
65	0xbca9c05b	-0.020721605
66	0xbb8faa83	-0.0043843403
67	0xbbeab97d	-0.007163225
68	0xbc3ff374	-0.011715759
69	0xba377fc5	-0.0006999935
70	0x3c780014	0.015136737
71	0x3cf01325	0.029306004
72	0x3cd36e42	0.025809411
73	0xbcd632fd	-0.02614736
74	0xbb88ddb8	-0.0041768216
75	0xbd6b8821	-0.05750287
76	0x3c7c9391	0.015416042
77	0x3cb42715	0.021991292
78	0xbb484b4e	-0.0030562463
79	0x3bbc6b4a	0.0057500945
80	0x3d27fdcd	0.041013528
81	0x3d2f548a	0.042805232
82	0xbad4d6da	-0.0016238347
83	0xbc74847a	-0.014924163
84	0x3b284197	0.002567386
85	0x3d380c4f	0.044933613
86	0x3d063383	0.03276397
87	0x3c3eb00a	0.011638651
88	0xbc8969a9	-0.016774016
89	0xbbe452a8	-0.006967861
90	0x3b9b104d	0.004732168
91	0xbca3bdff	-0.019988058
92	0xbd88d30f	-0.06680881
93	0xbd103f9b	-0.03521691
94	0xbaa98d1e	-0.0012935733
95	0xbbd427ef	-0.006474487
96	0xbccefb31	-0.025266262
97	0xbcd72015	-0.026260415
98	0x3b7592ee	0.003747161
99	0x3d1ec5d9	0.0387629
100	0x3bc27dcc	0.0059354063
101	0x3bf86fc8	0.0075816847
102	0x3c69b180	0.014263511
103	0xbb440d69	-0.002991522
104	0x3b759070	0.0037470125
105	0xbc00bbbd	-0.00785726
106	0x3d018b05	0.03162672
107	0xb99295f6	-0.0002795902
108	0x3ccdde4f	0.025130419
109	0xbca89d92	-0.020582948
110	0xbce4c033	-0.027923679
111	0x3b8e2fb1	0.0043391814
112	0xbd036461	-0.03207815
113	0x3ca6f955	0.020382563
114	0x3ca67c85	0.020323047
115	0x3ce9860a	0.028506298
116	0x3d017490	0.031605303
117	0x3c36238b	0.011116873
118	0x3c561b4b	0.013068031
119	0xbbbd7bb3	-0.0057825684
120	0x3d034aaa	0.032053627
121	0x3c6f6537	0.014611534
122	0xbc11b80e	-0.00889398
123	0xbd08d981	-0.033410553
124	0x3b67cd82	0.0035370295
125	0x3ba66bd5	0.0050787725
126	0x3d0b8d24	0.03407015
127	0x3cecd408	0.028909698
128	0x3d04aa77	0.03238913
129	0x3b2a03ce	0.002594221
130	0x3c326833	0.010889101
131	0xbcc91891	-0.024547847
132	0x3c024c75	0.007952799
133	0x3c30aeca	0.01078386
134	0xbc863fd8	-0.016387865
135	0xbc9f2f00	-0.019431591
136	0x3c329fed	0.010902387
137	0xbccfe078	-0.02537559
138	0xbc65d627	-0.014028109
139	0x3cebf33d	0.028802508
140	0x3cc3f6d7	0.023921413
141	0xbd0d7a5e	-0.034540527
142	0xbd0ee68e	-0.034887843
143	0x3cc0605a	0.023483444
144	0xbbb427c6	-0.0054979054
145	0x3bd670d4	0.006544212
146	0xbcb2a202	-0.021805767
147	0xbc57fb9d	-0.013182548
148	0x3ce65e56	0.028121155
149	0xbcb718b3	-0.022350645
150	0x3c4c5b51	0.012472943
151	0x3aabb778	0.0013100943
152	0x3c3af83e	0.011411725
153	0x3aea436f	0.001787288
154	0xbbe1f9d3	-0.0068962364
155	0x3c509584	0.01273096
156	0x3c1ed8fa	0.009695286
157	0xbb4722bf	-0.00303857
158	0x3cc6b95e	0.024258312
159	0x3d047be8	0.03234473
160	0x3c98deb7	0.018660886
161	0xbc27f3dc	-0.010251012
162	0xbcd60ac1	-0.026128175
163	0xbcc75cd1	-0.02433625
164	0xbc8da43a	-0.017290223
165	0xbb52824f	-0.0032121127
166	0x3c935b7d	0.017987961
167	0x3c1dcbad	0.00963108
168	0x3d00cb92	0.03144414
169	0xbd0f630e	-0.035006575
170	0xbca81500	-0.020517826
171	0x3d04183f	0.032249685
172	0xbccccd18	-0.02500014
173	0x3cbc452d	0.022982204
174	0x3a7411e9	0.000931053
175	0xbb83c91d	-0.0040217773
176	0x3ccdb256	0.025109451
177	0x3ce0c361	0.027436914
178	0xbc6adb52	-0.014334517
179	0xbb01aee7	-0.0019788088
180	0x3d07d83e	0.03316521
181	0x3cf22db0	0.029562801
182	0x3c6b9fcc	0.01438136
183	0xbcad736d	-0.021173203
184	0xbcc1f857	-0.023677988
185	0x3cd081ae	0.025452461
186	0x3ca77837	0.020443065
187	0xbb72855e	-0.0037005763
188	0x3d0cf1ef	0.034410413
189	0x3ccc9a20	0.024975836
190	0xbbfe0980	-0.0077525973
191	0x3c7c8d16	0.015414497
192	0x3d0d175e	0.034446113
193	0x3ca8f6b8	0.020625457
194	0xbc8b909f	-0.017036734
195	0xbd08d6b4	-0.03340788
196	0x3c2fadc6	0.010722583
197	0x3c589517	0.01321914
198	0xbd0e70cd	-0.034775544
199	0x3bac752d	0.005262992
200	0xbc4e1eb0	-0.012580559
201	0x394bcb1d	0.00019435254
202	0xbcde1c20	-0.02711302
203	0xbc8914c0	-0.016733527
204	0x3d187cfe	0.037228577
205	0x3c46e979	0.012140625
206	0xbc8a7387	-0.01690079
207	0xbd4e4b8c	-0.050365016
208	0xbb1d8582	-0.0024035876
209	0x3b69b65e	0.0035661678
210	0xbc3f63a0	-0.011681467
211	0x3d084ad1	0.033274475
212	0x3d643ba9	0.05572096
213	0xbce6d97a	-0.028179873
214	0xb94c84e8	-0.00019504467
215	0xbd3790e4	-0.044815913
216	0x3d8bf8c9	0.068345614
217	0x3d8f3f19	0.06994457
218	0xbd06418b	-0.03277735
219	0xbcfbe276	-0.030747633
220	0xbc8217f8	-0.01588057
221	0xbc94bd71	-0.018156739
222	0x3d0e7daa	0.03478781
223	0xbb614395	-0.0034372557
224	0xbcbf11de	-0.02332395
225	0x3d0cbe3c	0.03436111
226	0xbc5a0126	-0.013305938
227	0x3c70ea04	0.014704231
228	0x3cb2d25e	0.021828827
229	0x3c3613b2	0.011113094
230	0x3d08684f	0.0333026
231	0xbccd7105	-0.025078306
232	0x3b5c490a	0.003361287
233	0xbaaa16bc	-0.0012976746
234	0x3c87012d	0.016480053
235	0xbc7b3f10	-0.0153348595
236	0xbcaef1a6	-0.021355461
237	0xbce2bded	-0.027678454
238	0x3cc62828	0.02418907
239	0x3c2c7bb3	0.010527539
240	0xbd0a0e85	-0.033705253
241	0xbb220151	-0.0024720023
242	0xbcf61fb8	-0.030044422
243	0xbcf870a1	-0.030327143
244	0x3cb4334c	0.021997117
245	0xbc978781	-0.01849723
246	0x3ca9358d	0.020655418
247	0x3d0557c2	0.032554395
248	0x3b992bd6	0.004674415
249	0x3c747a28	0.014921702
250	0xbcfcffff	-0.030883787
251	0xbc7739f7	-0.0150895035
252	0xbaff27fe	-0.0019466875
253	0x3bf78877	0.0075541097
254	0x3c6a2ce5	0.01429293
255	0x3c9c2467	0.019060327
