Lecture8_Image restoration (HuStar_4)/outputs/x3/epoch_50.pth (torch, 231589 bytes, 5 tensors)

conv1.weight f4 [64, 1, 9, 9]
000000 a0 ae 3e 3c 6d 62 19 3d 04 99 14 bd f1 2d 8b 3d
       0.0116383135 0.03744738 -0.03627874 0.06795872
000010 f2 bb 8d bd e3 ce c5 3d 16 a7 83 bd 81 3b 8d bd
       -0.06920613 0.09658601 -0.064283535 -0.06896115
000020 68 72 bc bc eb 2e 8c 3d 40 2d 37 bd e0 99 f7 3c
       -0.023003772 0.068448864 -0.04472089 0.03022474
000030 af 85 d7 bd 49 4a a3 bd 00 e6 6f bd ab 4e 1e bd
       -0.10523545 -0.07973153 -0.058568954 -0.038649242
000040 e1 b0 e0 bd fc 86 8a 3d 43 44 6c bc 74 18 e1 3c
       -0.10971237 0.067640275 -0.014420572 0.02747748
000050 90 af 8f 3d 3c 40 b3 3c 09 b7 33 3d d6 c8 ec 3d
       0.07015908 0.021881215 0.043875728 0.11561744
000060 db 25 5e bd 75 b3 12 3c c7 8d 96 bd bb 95 4f 3d
       -0.05423532 0.008953919 -0.07351261 0.050679903
000070 62 48 27 3d 3f 3d 07 be a8 a8 e3 3d e9 df d7 3d
       0.040840514 -0.13206957 0.11116153 0.10540754
000080 90 84 bf 3d 1c be 84 3d 27 9d 98 3d 20 26 3b bd
       0.09351456 0.06481573 0.074518494 -0.045690656
000090 0a 4f 01 be 74 d3 97 bd ba 78 b0 bd 23 fd 89 3d
       -0.12627807 -0.07413378 -0.08616777 0.06737735
0000a0 00 64 86 3d f0 2d 8f bb 86 c0 ad 3b 75 b1 b4 3d
       0.06562042 -0.00436949 0.0053024916 0.0882291
0000b0 b9 80 14 bd 68 7b 27 bc b2 3f 31 bd c4 09 ac 3c
       -0.036255572 -0.010222293 -0.043273635 0.02100075
0000c0 12 1e 1b 3e b1 a9 f6 3d 2d c9 57 3d d5 12 59 3c
       0.1514819 0.12044085 0.05268209 0.013249119
0000d0 4c 01 1e 3c b8 25 b7 3c c2 50 ae ba 01 6a 07 be
       0.009643864 0.022356853 -0.0013299214 -0.13224031
0000e0 88 c3 b0 bd 44 8a c9 3d a9 6b e0 3a b4 05 f9 bd
       -0.086310446 0.09840825 0.0017121929 -0.12159291
0000f0 79 20 d3 bb fc dd c0 3d 6f 5e cf bd f3 67 87 bc
       -0.00644308 0.0941734 -0.10125434 -0.016529059
000100 7f 79 81 bd 0d d5 05 bd cb 2f 75 bd 99 0f 3f bd
       -0.06322002 -0.032673884 -0.059860032 -0.046645734
000110 1b 70 1b be 3c 27 30 3d 97 ff 01 3e 34 0c b5 3d
       -0.15179484 0.043006167 0.12695156 0.08840218
000120 48 bf 38 3d b6 88 94 bd cd f7 07 3c 33 cb 20 bd
       0.045104295 -0.07252638 0.008298826 -0.039256286
000130 a2 1f c0 3c 7e 8a 01 be 8e 52 2a 3b 3e 8c de 3d
       0.023452584 -0.12650487 0.0025989148 0.10866593
000140 d8 ea 53 3d f1 ff 8b 3c c3 cc f0 3c d5 18 65 3c
       0.051737636 0.017089816 0.029394513 0.013982971
000150 14 d5 92 bd 73 50 9d bd 91 b8 eb bd cd 71 90 3d
       -0.07169548 -0.0768136 -0.115098126 0.07052956
000160 35 76 00 3d c7 6d cb 3b 55 0c b2 bd b1 80 ab 3d
       0.03136273 0.006208155 -0.086937584 0.08374155
000170 f3 a3 50 3d 63 32 81 3d fe 4a 9f bd 64 c9 5e bc
       0.050937604 0.06308439 -0.077779755 -0.01359782
000180 05 7c eb 3d d2 4d b1 3d 94 48 c2 3d 0b 4d 21 bd
       0.11498264 0.08657421 0.094864994 -0.039380115
000190 dc d0 8a 3d 49 7c a1 bd 42 ea 7b 3b da b9 a6 bd
       0.06778118 -0.07885034 0.003843919 -0.08140917
0001a0 14 70 43 bd 93 2d 25 bc 59 1f ed 3c de 41 d5 3d
       -0.047714308 -0.0100816665 0.028945612 0.10412954
0001b0 11 2a da 3c fd bc c7 bc 0c 05 ba 3d dc c5 41 bd
       0.026631387 -0.024382109 0.09082994 -0.047307834
0001c0 78 7b 55 3d f0 75 1c bd 3d 0e 51 bc 96 75 9a 3c
       0.052119702 -0.03819841 -0.012759742 0.018854897
0001d0 9a 71 d2 bd 78 c5 15 bc b5 b3 b0 3c fe d2 f6 3d
       -0.10275574 -0.0091413185 0.021570066 0.12051962
0001e0 2b 8e 17 bc 02 92 2e 3d 48 55 a1 3d 68 b2 4d bd
       -0.009250204 0.042619713 0.07877594 -0.05021897
0001f0 df c7 de 3d 91 6b 94 bd 4d 2d db 3c c3 51 a2 3c
       0.10877966 -0.07247079 0.026755 0.019814378
000200 80 78 46 3d d6 32 ca 3d 51 4e 74 bd 40 f3 a9 bc
       0.04845476 0.098729774 -0.059645 -0.020745873
000210 93 e5 5d bc 00 ad 9e bd 9e 82 13 bd 75 93 ce bd
       -0.013543504 -0.07747841 -0.036013238 -0.10086719
000220 df 0f 50 3c 13 8f 56 3c bf a8 a3 3b c7 1a 88 bd
       0.012699096 0.013095635 0.0049944813 -0.066457324
000230 86 e5 80 bd 61 d4 52 bd a5 9d 3c 3d 2f 90 d8 3d
       -0.06293778 -0.05147207 0.04604878 0.10574376
000240 4a 0c 62 3c 39 f2 87 bd 81 2f 5e bd fa 06 3a 3c
       0.013796875 -0.06637997 -0.054244522 0.011354202
000250 0b 9f d1 bd ea 3c 02 be 34 47 97 bd 69 d7 2b bc
       -0.10235413 -0.1271855 -0.07386628 -0.0104883695
000260 37 66 31 3c a9 5a c3 3d ba c3 3c 3d 14 13 f2 3d
       0.010827593 0.095387764 0.046085097 0.11820045
000270 ef fb 2c bd b5 c5 c3 3c 85 0a c7 bd 23 33 d3 3d
       -0.04223245 0.023897985 -0.09718803 0.10312488
000280 8e 3d a3 3d e8 ee 05 3e 5c 05 7d bd f2 26 f0 3d
       0.07970725 0.13079417 -0.06177269 0.11726178
000290 9a 80 08 3e a2 0c 1f 3e 47 c9 df 3d 54 f5 3b 3e
       0.13330308 0.15532163 0.109270625 0.18355304
0002a0 e8 4d fc 3d 01 1e a9 3d b7 f4 2d bd 0e e5 d5 bd
       0.12319547 0.08257676 -0.042469706 -0.10444079
0002b0 53 26 09 bd 5b 2b 06 bd 31 3b 09 be bb fa c7 bd
       -0.033483814 -0.03275619 -0.13401486 -0.0976462
0002c0 0d a8 07 be 9c f5 88 bd 1d b5 2a 3d f4 16 71 bd
       -0.132477 -0.06687471 0.04167663 -0.05885978
0002d0 eb 67 bd 3a 8d e6 3d 3a ba fb 32 3d 09 d4 07 be
       0.0014450526 0.00072441326 0.043697096 -0.13264479
0002e0 8f 8d cd bd e6 11 45 bd 9a f1 97 bd 99 f4 0e 3d
       -0.10036766 -0.048112772 -0.07419129 0.034901235
0002f0 bf 58 48 3d 71 43 93 bd 89 6a 71 bd 05 fa a3 bd
       0.04891276 -0.07190598 -0.05893949 -0.08006672
000300 3b 11 8b 3d 9a 55 08 3e 1a 34 4b bd e3 72 b7 bc
       0.06790396 0.13313904 -0.049610235 -0.02239365
000310 fc a7 7d 3d 32 e3 25 bd 8f 72 e9 3d dd 4d 46 3d
       0.06192778 -0.040499873 0.113988034 0.0484141
000320 85 bf 34 bb 72 09 3a 3d d6 62 a7 3d d2 2a 5f bc
       -0.0027579975 0.045419164 0.08173148 -0.013621049
000330 ba 29 99 bd 90 22 85 3c bf bd d7 3c f9 b0 8d 3c
       -0.07478662 0.016251832 0.026335595 0.017296301
000340 17 55 c9 bb 93 1d b7 3d f8 9f 61 bb 67 28 bb 3c
       -0.0061441767 0.08941188 -0.0034427624 0.022846414
000350 08 b0 81 3d 7d 2f 89 bd 6d 2c 2e 3d bf 94 f6 bb
       0.063324034 -0.06698511 0.042522836 -0.007525056
000360 88 aa 7b 3d b5 e0 9b bd c8 25 18 bc c3 d6 ea ba
       0.06144193 -0.07611219 -0.0092863515 -0.0017916787
000370 66 fb cb bd af 20 c5 bd d3 96 e3 3c 97 e0 f0 bc
       -0.0996006 -0.096253745 0.02778188 -0.029403968
000380 bd 1d 90 3d 20 4e 6a bd a7 a1 0f bd b3 c4 a2 bd
       0.07036922 -0.057203412 -0.035066273 -0.07947674
000390 6e 66 4c 3d 59 ba 87 3c 7c a7 27 bb 81 34 65 bb
       0.049902372 0.01656835 -0.0025582006 -0.0034973922
0003a0 e5 ca 8b bd ac 1d 44 3d 5c 30 45 3d e7 e7 6e bd
       -0.068258084 0.04787986 0.048141822 -0.058326628
0003b0 ad cb 5d 3d bb 6c 2c 3b e4 6f a0 bd a6 6f a7 3d
       0.05414932 0.0026309926 -0.078338414 0.08175592
0003c0 fa 49 8c 3d a3 ee b9 bc a5 e6 9d bd 20 c9 11 3c
       0.068500474 -0.022696799 -0.077100076 0.00889805
0003d0 99 4d a2 3d c5 69 b4 3d 2e 2c c3 bd 99 8d 72 bd
       0.07924957 0.088092364 -0.09529911 -0.05921707
0003e0 7c 4e a7 3d ea f2 4c 3d a2 12 6e 3d 02 23 87 bd
       0.081692666 0.05003635 0.05812324 -0.06598474
0003f0 fc 2e c9 3d 79 a8 c2 bd f7 50 66 bc de 25 74 bb
       0.09823415 -0.0950479 -0.014057389 -0.0037254016

conv1.bias f4 [64]
000000 49 be 85 3c 27 20 d9 bd ff 61 bf 3c 9c 26 48 bd
       0.016326087 -0.10601836 0.023362158 -0.048864946
000010 eb c9 85 3d 05 d1 34 3c 68 13 56 3d 68 14 ba bc
       0.065326534 0.011036162 0.0522646 -0.022714809
000020 65 14 f0 3d b4 48 22 bd 18 8d 9c 3b a5 a7 d2 3c
       0.1172264 -0.039620116 0.004777562 0.025714705
000030 f6 cc 01 be c3 bc 25 3e fe 99 82 3d 9b 03 96 3c
       -0.12675843 0.16185288 0.06377028 0.018312266
000040 50 5e ed bc 91 e4 79 bd 8b 5c 79 3d b3 6b 00 3d
       -0.028975636 -0.061008994 0.06087927 0.03135271
000050 84 39 ab 3c aa 03 2b bc a5 4b 72 bd a1 58 96 3d
       0.020901449 -0.010437885 -0.05915417 0.07341123
000060 fc 95 b4 bd 6d 72 46 3d f8 1b 14 bc 39 fc 20 3c
       -0.0881767 0.04844897 -0.009039871 0.00982576
000070 b9 8b b5 3c 68 c0 29 3d de 01 c0 3d cc 71 d6 bb
       0.022161352 0.04144326 0.09375356 -0.0065443274
000080 87 3f 19 3d 34 ef 92 3d 14 0f d6 ba 94 0e 92 bd
       0.0374141 0.071745306 -0.0016331398 -0.07131687
000090 be 68 82 bb 3d 80 9e 3d f5 dc 2a bd 51 7d 2a 3d
       -0.0039797714 0.07739303 -0.041714627 0.041623417
0000a0 66 3b 87 3c 96 1c e4 bc 48 13 c7 3d 04 fe a7 bc
       0.016507816 -0.027845662 0.097204745 -0.020506866
0000b0 5d c5 0c 3d 3a 5b 7e bc fe c1 5f bc 1a 3b aa bc
       0.034367908 -0.01552468 -0.013657091 -0.020780135
0000c0 78 a2 24 3c 65 e7 4f bd dc 33 85 bc 6a 4c 9d 3d
       0.010048501 -0.050757784 -0.01626008 0.076805905
0000d0 6a 28 75 3c d6 00 23 3c 24 9f 11 3c 2b 9b 90 3c
       0.014963249 0.00994893 0.00888804 0.017652115
0000e0 c4 ab b9 3d 44 c4 f9 bc 9a 9b 54 bc 1a bb 8f 3d
       0.09065965 -0.030489095 -0.012976551 0.07018109
0000f0 9f 61 01 3d de 35 68 bc 27 c5 5e bd 31 6f b1 bd
       0.03158724 -0.014172999 -0.054387238 -0.08663786

conv2.weight f4 [32, 64, 5, 5]
000000 47 7c 84 3b 21 2e 85 38 ac 35 49 3d 75 d7 97 3d
       0.0040431353 6.3505264e-05 0.04912345 0.07414142
000010 1a 5c d3 bd c4 83 d9 3c 82 61 10 bd 57 60 73 bc
       -0.10320301 0.026552089 -0.03524924 -0.014854512
000020 f7 17 2a 3d 48 36 8a bc 24 70 0b 3d 0e 2d 13 bc
       0.04152676 -0.016871586 0.034042493 -0.00898291
000030 40 d3 44 bc c2 ef a2 3b 32 bb 36 3d 9c 2d 3d bc
       -0.012013257 0.004972429 0.044612117 -0.011546519
000040 69 43 a5 3c 19 51 90 3c 2a a4 be 3c b4 74 4b 3d
       0.020173745 0.017616795 0.023271639 0.049671844
000050 fa 49 a1 bc ed c4 44 bc 1a 06 2c bd 5c 2e f6 3c
       -0.019688595 -0.012009841 -0.041998006 0.030051403
000060 37 a7 78 bb e1 b4 51 3b ab 9f e8 3c 88 85 9a bc
       -0.0037941465 0.0031998681 0.028396448 -0.0188625
000070 13 ea fa bc 6d 88 02 bd 14 d2 90 3b 84 53 ae 3c
       -0.030629193 -0.031868387 0.0044195745 0.021280058
000080 64 6f a9 3a c1 1c 3e 3c 56 45 83 3b eb 85 91 3d
       0.0012926874 0.011603535 0.004006068 0.07105621
000090 89 b7 9f 3c fe 42 36 3c e0 f7 0d 3d 25 dc b8 3d
       0.019496696 0.011124371 0.03466022 0.09026364
0000a0 d4 d5 b7 3c 7c 0a 1f 3c bd 95 3f bd ce 98 64 bc
       0.022440828 0.0097070895 -0.04677366 -0.013952447
0000b0 65 72 ef 3c bc 2f a9 bd b5 16 4a bc f1 8d 92 bc
       0.029229352 -0.08261058 -0.012334515 -0.017889949
0000c0 d3 22 d7 bc d8 77 96 3b df 11 18 be a3 30 25 be
       -0.026261723 0.004591923 -0.14850567 -0.16131835
0000d0 09 05 53 be 09 a0 29 be de 27 7f be bf 3d b4 bd
       -0.2060739 -0.16564955 -0.24917552 -0.0880084
0000e0 a9 f2 ca bd fe ca 8b bd 6f eb 89 bc e5 60 a4 bd
       -0.09909565 -0.06825827 -0.016835896 -0.08026294
0000f0 59 fe e9 3c 4c 21 00 3c ec a4 aa bc 5b 2d 31 3d
       0.028563665 0.007820439 -0.020830594 0.043256145
000100 53 42 44 3c e5 08 bc 3c ce e5 91 3d 6f 0d 28 3d
       0.011978704 0.02295346 0.0712391 0.041028436
000110 46 1f 6a 3d 11 01 33 3d b2 16 38 bc 44 4d ec 3a
       0.05715873 0.04370219 -0.01123588 0.0018028398
000120 0c a0 d0 bc 09 de 41 bc 90 7f 95 3c b0 b6 eb 3c
       -0.025466941 -0.011832722 0.018249303 0.028773636
000130 fc 93 26 3a 4c 41 ca 3b 32 53 f9 bb 27 db 09 bd
       0.0006354449 0.006172335 -0.0076087946 -0.033656266
000140 25 c4 ab 3c 66 70 f0 3c bf d0 08 bc e9 f8 09 3c
       0.020967552 0.02935047 -0.00835055 0.008421161
000150 b4 55 1f 3c 0c 18 29 3c 71 14 6d bc f1 38 1f bd
       0.009725023 0.010320675 -0.014470206 -0.038872663
000160 24 8d 13 3d 09 3f 72 3b e0 9a 1c ba fc 54 04 3c
       0.036023274 0.0036963841 -0.0005974006 0.0080769025
000170 3d f5 84 bc 5a f0 ca 3c 78 b0 8a 3b 87 79 e5 3c
       -0.01623022 0.024772812 0.0042324625 0.02801205
000180 3d 5a db bb 54 63 e2 bb 95 af 9e bc e1 b6 b3 3b
       -0.006694107 -0.0069088135 -0.019370833 0.0054844473
000190 79 d3 14 bd 35 41 8a bd fe 20 f4 bc 32 db 80 bc
       -0.03633449 -0.067507185 -0.029800888 -0.01572952
0001a0 35 e7 bb bc 2b 27 32 3b b2 a9 45 bc 69 ed 6b bb
       -0.022937397 0.002718399 -0.012064384 -0.0035999662
0001b0 3b dd 45 3b 6c 3c 84 3c c3 90 50 3c cf c5 a2 3b
       0.0030191678 0.016142093 0.012729826 0.0049674283
0001c0 e2 68 6b 3d c4 ba 0c 3d 4e 9f 65 ba e7 9e 87 bc
       0.05747307 0.0343578 -0.0008759395 -0.016555263
0001d0 57 ce dc 3b a5 71 af bc e9 44 f1 39 dc a3 19 b9
       0.006738465 -0.021416495 0.00046018444 -0.0001465226
0001e0 7d 37 13 bd 56 6c 11 bd 0f c9 4f bd 86 2c 82 bd
       -0.03594159 -0.035503708 -0.050728854 -0.063561484
0001f0 c6 88 22 bd f8 17 9e 3d 81 f4 d2 bc 16 91 9e 3d
       -0.03968122 0.077194154 -0.025751354 0.07742517
000200 ca 14 d6 3c 15 f2 d8 3d 4c 5c 50 bd ff 6d f7 bc
       0.02613296 0.105930485 -0.05086927 -0.030203817
000210 d5 80 f6 bc 5d ad 7b bc 36 10 e7 3b 37 0b 42 bc
       -0.030090729 -0.015361157 0.007051493 -0.011843494
000220 e0 16 ce 3b e8 1c fa 3c 57 c2 86 3b d8 1b 9c 3a
       0.006289348 0.030531362 0.0041125226 0.0011910154
000230 55 92 c4 3c 25 e0 1d 3d 87 f6 17 3d 52 75 51 3c
       0.023995558 0.03854384 0.03710034 0.012784319
000240 c4 2c e8 3b fc 85 49 bd b1 e8 48 bd cf de 8c bc
       0.0070854146 -0.049200043 -0.049050037 -0.017196087
000250 53 27 6f bd 8d bb b7 bd 39 75 07 3c 76 c3 7c 3c
       -0.058387112 -0.08971319 0.008267694 0.015427461
000260 a6 81 e1 bb fd 93 2b 3c f1 2f 19 bd 03 dc 94 3b
       -0.0068819104 0.010472295 -0.037399236 0.004542829
000270 85 19 58 bc d3 e2 fa bc a1 98 e8 bc d4 4e 7c 3b
       -0.013189678 -0.030625736 -0.028393092 0.0038499134
000280 87 7f f7 bc fb 2c 30 bd 82 9f 56 3b e4 16 73 39
       -0.030212177 -0.043011647 0.0032748883 0.00023182813
000290 35 d2 e2 bc ca 59 25 3c fd 3f cd bb 05 a8 4f 3c
       -0.027688125 0.010092208 -0.0062637315 0.012674336
0002a0 3f cd ed 3b 4e b6 47 3c 69 5b bc 3b 25 93 0d 3c
       0.0072571333 0.012189461 0.0057482016 0.008641039
0002b0 50 36 01 3d e6 95 d6 3c 90 46 58 3b bc 79 2a 3d
       0.031545937 0.026194524 0.0033001043 0.04162
0002c0 83 13 8a 3d ae c3 2a 3d 42 7c c9 bb 88 d6 3e 3d
       0.06742003 0.04169052 -0.006148846 0.04659131
0002d0 5a 6e 0c 3c ee 94 00 bd 10 b4 5f 3d 23 06 98 3c
       0.008571232 -0.03139203 0.05461508 0.018557614
0002e0 f8 6c 68 bc 9c 99 23 3c b9 87 b2 bc 9e bb b9 bc
       -0.014186136 0.009985354 -0.021793233 -0.02267247
0002f0 ba 6f 14 3d 0d a9 3d 3d c5 a5 60 3c 62 6e 9d bb
       0.036239363 0.046303798 0.013711398 -0.0048044184
000300 13 a8 aa bd 41 44 3b bc 71 da 7d 3d 2e d5 eb 3c
       -0.08332839 -0.011429847 0.0619759 0.028788175
000310 7b 6e e8 3d 66 27 b3 bb 78 b0 82 bd 9e 0d 15 3d
       0.113491975 -0.005467343 -0.06381315 0.03638994
000320 cd e9 85 bd 1e d3 76 3c d0 f6 13 3c be 98 0a 3b
       -0.065387346 0.015064983 0.009031013 0.002114817
000330 b5 cc 2d bc 97 b2 50 3d 91 73 22 3d 88 50 45 3c
       -0.010607888 0.050951567 0.039660994 0.012043126
000340 06 67 09 bd fe 47 0a bd f1 d3 bb 3d d3 ef 8e 3a
       -0.033545516 -0.033760063 0.09171284 0.0010905213
000350 eb 15 87 bc dc 40 aa b9 f4 2e 5e bd 23 65 2b 3d
       -0.016489943 -0.0003247325 -0.054243997 0.0418445
000360 95 25 b5 3c 3c c9 38 3c a7 8f 54 3c ea 8b 0c bd
       0.022112647 0.011278447 0.0129737025 -0.03431312
000370 16 97 35 bd 8b 44 f1 3c 03 cc 24 3c 70 b1 92 bb
       -0.04433354 0.02945163 0.010058406 -0.0044767186
000380 b8 78 2a bb ea 72 4b bb d1 df ad 3b 00 a9 0e bb
       -0.0026011895 -0.0031043836 0.005306222 -0.0021768212
000390 1f ce a1 3b 2f 50 0a 3c 1d 68 98 3c 6c ac 73 3b
       0.0049379016 0.008441969 0.018604333 0.003718163
0003a0 0c 4f 0d 3d 96 e1 0a 3d bf 45 8a bb e4 be b7 bc
       0.034499213 0.03390654 -0.00421974 -0.02242989
0003b0 4f 50 a4 bc 44 69 03 bc 47 88 e8 3a 91 88 8c bc
       -0.020057825 -0.008020703 0.0017740809 -0.017154964
0003c0 1c 04 5c bd dc 1e 0a bd ff 73 b8 bc 17 72 d7 bc
       -0.053714857 -0.033720836 -0.022516249 -0.02629952
0003d0 3f 2a be bc 94 d7 0f bd 4e b5 12 bd 6d ef 24 bd
       -0.023213504 -0.0351177 -0.035817437 -0.040267397
0003e0 db bb ce bc ba b7 43 bc 41 51 cf bc a8 ed 04 bd
       -0.02523606 -0.011945659 -0.0253073 -0.03245321
0003f0 8e 5e 87 bc 33 9e 8b 3c d8 45 6b 3c 22 57 06 bd
       -0.01652458 0.017043209 0.014359914 -0.03279794

conv2.bias f4 [32]
000000 ac f8 86 bc 87 ad 91 bc 30 c7 44 bb 72 62 22 bc
       -0.016475998 -0.01778294 -0.0030025952 -0.0099111665
000010 e5 27 d0 3c 16 f6 79 3c 68 e4 e4 bb b8 c9 0f 3c
       0.025409648 0.015256425 -0.006985236 0.008776121
000020 26 ac b0 3c 9f b7 23 bc e4 d4 8c ba 2b 5e da bb
       0.021566462 -0.009992509 -0.0010744599 -0.0066640577
000030 81 3b e5 3c 9b 77 43 3c 0c b3 13 3d b1 d7 e6 bb
       0.027982475 0.011930372 0.036059424 -0.0070447554
000040 ab 16 6e bc cc 80 92 bc 40 71 f7 3b 5e d8 bc 3c
       -0.014531772 -0.01788368 0.0075513422 0.02305239
000050 ee b5 c6 3c d4 45 56 3c 43 10 77 bc f0 f3 4e bb
       0.024256673 0.013078172 -0.015079561 -0.0031578504
000060 7f d7 f8 bb 68 13 0c 3d d8 03 c1 3c 63 1c a9 3c
       -0.0075940485 0.034198195 0.023561403 0.020643419
000070 6e 56 12 3c 85 26 1c bb f4 05 90 bc ba 3d c0 39
       0.008931739 -0.002382667 -0.017580964 0.00036667084

conv3.weight f4 [1, 32, 5, 5]
000000 97 59 8d 3c 84 c0 8f 3c eb 5b 90 b8 28 df dc 3c
       0.017254634 0.017547853 -6.883576e-05 0.026961878
000010 52 b5 03 3d 56 63 fa bc 22 24 26 ba 57 69 1c bd
       0.032155342 -0.030564945 -0.00063377817 -0.038186397
000020 be b9 80 39 b0 39 2a 3c bb 2e b4 bb 91 44 d2 3c
       0.0002455245 0.01038973 -0.005498735 0.02566746
000030 89 32 bb 3b 42 5a 19 bd e0 37 e8 bb 0a 95 9c bc
       0.0057128114 -0.037439592 -0.007086739 -0.019114036
000040 b3 91 f6 bc 51 10 18 bb 29 55 0e bd 84 55 9c 3c
       -0.030098772 -0.0023203085 -0.034749184 0.019083746
000050 da eb 34 3b a5 50 65 3c cb e6 be 3c e8 67 00 3d
       0.0027606399 0.013996278 0.02330341 0.031349093
000060 39 cc 82 bc ac 58 cf 3a e0 c2 0a bd d7 a8 04 3c
       -0.015966522 0.0015819273 -0.033877254 0.008096895
000070 08 13 d7 3c 1c f8 b9 bc ec 13 a4 3c 48 53 88 bc
       0.026254192 -0.022701316 0.02002903 -0.016641274
000080 6c 73 27 3c 13 ee 80 bc b5 11 d4 3b a6 7c 0a bd
       0.01022039 -0.015738523 0.0064718374 -0.03381028
000090 4d e1 d7 3c 71 40 03 bc 2e f5 04 3d c5 a2 50 bc
       0.026352549 -0.0080109695 0.032460384 -0.01273412
0000a0 ba 29 77 3c d1 b2 8d bc d0 bc 7e bc 1a 7b 1f bc
       0.015085632 -0.01729718 -0.015547946 -0.00973394
0000b0 49 28 8a 3c 0c 71 69 3c 04 5a a7 3c ce 97 ca bb
       0.016864913 0.014248144 0.020428665 -0.0061826473
0000c0 0a c5 76 3b 14 81 b1 3c e7 67 62 bc a8 da 34 bc
       0.0037654066 0.021667995 -0.013818718 -0.01103846
0000d0 7e 0d de 3c 52 bb f5 bc 45 69 8c bc 5c b4 9d bc
       0.027106043 -0.029996548 -0.01714004 -0.019251041
0000e0 e6 fe e1 bb 4a a3 d3 bc b8 fc 07 3c 9b d1 c7 bc
       -0.0068968413 -0.025834698 0.008299999 -0.02439194
0000f0 15 c2 79 bc 8b 6c 0b bd 0d 3c bf 3c c3 9d b4 bc
       -0.015244027 -0.03403906 0.023344064 -0.022047883
000100 c9 8d 91 bb 5b c0 a9 bc 83 aa 8f bb 7d b9 ea bb
       -0.004441951 -0.020721605 -0.0043843403 -0.007163225
000110 74 f3 3f bc c5 7f 37 ba 14 00 78 3c 25 13 f0 3c
       -0.011715759 -0.0006999935 0.015136737 0.029306004
000120 42 6e d3 3c fd 32 d6 bc b8 dd 88 bb 8a 9f 6c bd
       0.025809411 -0.02614736 -0.0041768216 -0.057769336
000130 f6 d2 7b 3c f0 53 a3 3c 55 a1 93 bb c3 6b aa 3b
       0.015370121 0.019937485 -0.0045053163 0.0052008345
000140 0c 8a 24 3d 3f 12 39 3d b7 bd 45 39 c4 65 62 bc
       0.040170714 0.045183416 0.00018858058 -0.013818208
000150 8c d2 78 3b 3e 7c 3c 3d a9 1c 0f 3d 71 47 2a 3c
       0.0037967293 0.046016924 0.03493944 0.0103930095
000160 09 7d 99 bc d2 c9 bc bb c0 46 ba 3b 45 44 9c bc
       -0.01873638 -0.0057613635 0.0056847036 -0.019075522
000170 d9 e4 8b bd 29 4c 1a bd ba 3e 73 ba 9e 6c d2 bb
       -0.068307586 -0.03767029 -0.00092790613 -0.0064216396
000180 05 6b ce bc 96 20 e0 bc b7 2e 63 3b 22 e9 24 3d
       -0.025197515 -0.027359288 0.0034665295 0.040261395
000190 ab 07 bf 3b 15 f0 f5 3b a1 15 69 3c c5 1e 45 bb
       0.0058297715 0.0075054266 0.014226348 -0.0030078155
0001a0 2e 3e 76 3b fa c1 02 bc 60 24 01 3d 75 b7 b5 b9
       0.0037573683 -0.007980818 0.03152883 -0.00034659696
0001b0 f2 7b cd 3c d8 7a a8 bc ba 62 e5 bc 18 28 8c 3b
       0.025083516 -0.020566389 -0.028001178 0.0042772405
0001c0 02 a6 03 bd b4 9a a6 3c f5 9f a6 3c e7 c9 e8 3c
       -0.03214074 0.02033744 0.020339945 0.028416587
0001d0 b8 0a 01 3d cf 38 35 3c 69 76 55 3c 0c c2 be bb
       0.031504363 0.0110609075 0.013028719 -0.005821472
0001e0 26 1f 03 3d 5c f8 6d 3c 7c a9 12 bc 27 0d 09 bd
       0.032012127 0.0145245455 -0.008951541 -0.03345981
0001f0 87 92 62 3b 5d ca a7 3b c1 b7 0d 3d e6 5f f1 3c
       0.00345722 0.005120559 0.03459907 0.029464673
000200 15 b2 04 3d 3c 04 1a 3b 59 80 35 3c d1 19 c5 bc
       0.032396395 0.002350106 0.011077964 -0.024060162
000210 00 d0 06 3c 72 75 36 3c d1 0c 80 bc b3 77 a1 bc
       0.008228302 0.0111364 -0.015631111 -0.019710397
000220 0a 57 26 3c cb 77 d7 bc cf 36 6c bc 92 8a ed 3c
       0.010152588 -0.026302239 -0.014417364 0.02899674
000230 ca ab bd 3c 94 17 11 bd ac e5 11 bd dc d6 be 3c
       0.023153204 -0.035422876 -0.035619423 0.023295812
000240 0e 7b 9a bb 93 01 d8 3b bb bc b2 bc 69 6d 57 bc
       -0.0047143763 0.0065919845 -0.02181851 -0.013148644
000250 69 eb e7 3c 4c eb b0 bc 8b 47 4a 3c ce 2a a2 3a
       0.028310494 -0.021596573 0.012346159 0.0012372376
000260 d0 16 3a 3c 79 e2 df 3a 28 70 e3 bb a5 2e 4f 3c
       0.011357978 0.0017081044 -0.0069408603 0.012645398
000270 36 6b 1d 3c 22 97 49 bb 47 d9 c6 3c 15 96 04 3d
       0.009608081 -0.0030760248 0.024273528 0.032369692
000280 a2 c4 98 3c e3 ee 28 bc 50 6d d6 bc 65 4d c7 bc
       0.01864845 -0.010310861 -0.026175171 -0.024328897
000290 9c a6 8d bc dd e2 54 bb 70 fb 92 3c 82 9d 1d 3c
       -0.01729136 -0.0032483854 0.01794216 0.009620072
0002a0 c0 dd 00 3d 90 bc 0f bd 80 c7 a8 bc 37 da 03 3d
       0.031461477 -0.035091937 -0.020602942 0.032190528
0002b0 d4 d3 cc bc 58 65 bc 3c b6 af 67 3a 99 d2 84 bb
       -0.025003351 0.022997543 0.00088381337 -0.0040534255
0002c0 28 8b cd 3c 6c df e0 3c ad b8 6a bc cf 40 01 bb
       0.025090769 0.027450286 -0.014326257 -0.0019722467
0002d0 c1 ab 07 3d 9c d2 f1 3c 48 81 6b 3c 3e 65 ad bc
       0.03312278 0.029519372 0.014374085 -0.02116644
0002e0 15 f5 c1 bc d5 18 d0 3c a8 fd a6 3c e6 8e 73 bb
       -0.023676435 0.025402466 0.020384625 -0.0037164032
0002f0 dd f1 0c 3d 06 9f cc 3c 6a 81 ff bb 36 b5 7b 3c
       0.034410346 0.024978172 -0.00779741 0.015363028
000300 06 00 0d 3d a2 f3 a8 3c 4b 83 8b bc a8 02 09 bd
       0.03442385 0.020623986 -0.017030379 -0.0334498
000310 d6 07 2f 3c dc 40 58 3c 4b 73 0e bd c0 2b ac 3b
       0.010683021 0.013199057 -0.03477792 0.005254239
000320 d5 cf 3b bc a0 b7 0c bb bf d7 de bc b6 3d 98 bc
       -0.011463125 -0.0021471754 -0.027202485 -0.018584114
000330 ad b5 0c 3d f2 23 44 3c 59 6c 87 bc 41 8b 4b bd
       0.034352947 0.011971461 -0.016531156 -0.04969335
000340 6b c1 1a bb 2d 8e 49 3b 93 d3 4e bc 33 fa 1c 3d
       -0.0023613821 0.003075491 -0.012623685 0.038324546
000350 cc f3 6e 3d d6 6f e0 bc 8f 71 0e bb 63 f1 50 bd
       0.05833797 -0.027397078 -0.0021735167 -0.051011454
000360 b9 8f 8f 3d f5 ac 96 3d 77 8a 01 bd be cb fd bc
       0.07009835 0.07357208 -0.03162619 -0.03098094
000370 e4 6c b2 bc a8 b4 b0 bc 4a b5 10 3d 51 b0 30 bb
       -0.021780439 -0.021570519 0.03532914 -0.0026960562
000380 b1 80 cc bc bf 9b 0c 3d 33 1c 5d bc 62 b1 6c 3c
       -0.024963709 0.03432822 -0.013495493 0.014446588
000390 07 29 b1 3c a5 75 34 3c 02 de 07 3d 4f c3 ce bc
       0.021626009 0.011014377 0.033170708 -0.025239615
0003a0 a6 61 53 3b d8 b9 c0 ba 6c 79 85 3c 49 54 7c bc
       0.0032254248 -0.0014703823 0.01629325 -0.0154009545
0003b0 02 97 af bc 79 b4 e2 bc c8 56 c6 3c 45 00 2d 3c
       -0.02143431 -0.027673947 0.024211302 0.010559146
0003c0 65 74 0a bd ea 48 26 bb 37 78 f6 bc 83 ea f8 bc
       -0.03380241 -0.002537305 -0.03008662 -0.030385261
0003d0 be 8b b4 3c 34 cb 97 bc 70 cd a8 3c ba 22 05 3d
       0.02203929 -0.018529512 0.020605773 0.03250382
0003e0 bb 26 97 3b 44 f3 74 3c f0 ff fc bc 06 3a 77 bc
       0.0046127713 0.014950577 -0.03088376 -0.015089517
0003f0 af 27 ff ba 56 88 f7 3b f3 2c 6a 3c 82 f9 9b 3c
       -0.0019466783 0.0075540943 0.014292943 0.019039873
