Lecture8_Image restoration (HuStar_4)/outputs/x3/epoch_23.pth (torch, 231589 bytes, 5 tensors)

conv1.weight f4 [64, 1, 9, 9]
00000000: 2c7f 32bc 6904 623c 3619 52bd 2610 583d
00000010: 53cd adbd d284 be3d 1319 92bd 4399 a9bd
00000020: 2470 74bd 83f5 7f3d 8ee3 3ebd d876 143d
00000030: 97ba c1bd 0074 8bbd c926 1fbd 0bdd bbbc
00000040: d172 bbbd 4287 8b3d 2351 9bbc 64c5 fb3c
00000050: c058 9e3d a04a ea3c aba2 363d f37f fb3d
00000060: e65a 36bd 31a2 f33c 98ea 71bd 1ed7 893d
00000070: 03b9 893d 4f3f e7bd 25a1 e33d 45d0 b03d
00000080: a8b3 a43d edde 723d c2a2 b23d 8a9c ebbc
00000090: 6733 e1bd 9f6f 5ebd ed9c a6bd be78 363d
000000a0: bfa0 ff3c 7eb2 8fbc 0d5a cd3b 4180 d13d
000000b0: 269c a1bc 5a8f 3bbc ba29 20bd f1fc 813c
000000c0: 39a1 013e 990e c13d d981 583d 5dab b23c
000000d0: 89c7 9b3c b44f ff3c 200e 27bc d693 f6bd
000000e0: 1ad2 98bd 3a6f ce3d d70a 343b b9ae cfbd
000000f0: 9994 d33b 1abf bf3d 786d d6bd 000e 41bd
00000100: b67e 58bd 07b6 f4bb d2c8 20bd 746c 11bd
00000110: daf3 04be ec79 433d 3781 ef3d c06a a53d
00000120: 1a35 b0bc a902 b0bd cb93 e93c 5bac a9bc
00000130: a50c be3c b6e1 f8bd 0b0d 1039 72a7 da3d
00000140: 52cb 7e3d 7e32 ae3b 7dd5 6e3c d5ce 6bbc
00000150: abcc a2bd 3ad0 79bd 2c37 acbd 63e4 af3d
00000160: b2e8 453d cac4 e93c 4125 b7bd 71da 9d3d
00000170: cef8 083d 5e83 823d 1002 66bd bb4e 7b3c
00000180: 9d95 ec3d 383b a23d ad41 be3d 508f 0fbd
00000190: 10df 8e3d 9aeb b4bd aaaa e33b b90f 7abd
000001a0: 659e cebc b8c4 a4bc 16d5 073c 9151 c13d
000001b0: d2c0 fc3c 4069 afbc e9db a33d 4dbb 4abd
000001c0: 8376 8a3d 7721 6cbc 9e32 b1bc e25b 9536
000001d0: 5199 dabd 7712 bebb 7e4e cb3c 87d1 d93d
000001e0: cda9 94bc c428 593d 46e5 d23d af2a 64bd
000001f0: 5cc2 bc3d 3fc7 9abd ec64 fb3c d08b ef3c
00000200: f900 193d 476f b83d 8c1f 4ebd 57fe b23b
00000210: 8a9f 72bc 858a c2bd 92b2 38bd 0c8e c0bd
00000220: 9aba fa3c 54e9 3e3c de2f a83b 31a8 4ebd
00000230: c2c1 f4bc e749 41bd 8e7a fb3c 2968 c73d
00000240: 6b82 2f3c 72e5 65bd be2f 72bd ab34 1e3c
00000250: 231c b9bd d58d ccbd 510e 95bd 1810 e5bc
00000260: 2e20 543b 7c73 a63d 4203 433d 7d33 e03d
00000270: 8b93 3ebd f622 f03c b723 aabd 9a46 b83d
00000280: dfed 4e3d 887c e63d fc35 76bd 38f0 e93d
00000290: 520c 033e 83e5 073e adc1 893d 59d7 143e
000002a0: 9c36 dd3d aaad cd3d 2df4 3abc 8746 b7bd
000002b0: 242c bdbb 6c99 733c 851f a9bd fd18 80bd
000002c0: 6b62 d9bd ea96 1cbd 9d69 b93d 3a33 89bb
000002d0: 2969 14bc b4f2 bc3b 4fa6 8b3d 5c7e d4bd
000002e0: 5f46 b2bd d82b 2abd d416 85bd fb1c 6b3d
000002f0: 0b6c 8d3d 74cd cabd cbff 99bd 5798 adbd
00000300: 3ff6 7e3d f67c e43d 482c 97bd 0b9d 1cbd
00000310: aeb6 5d3d 7940 6bbd d738 d73d 7cea 3f3d
00000320: 1367 57bb 0a09 193d b382 833d f70e d3bc
00000330: 875e 9bbd 4dcc 8f3c f9a0 933c 9d85 ea3b
00000340: 61c2 efbb fae4 b73d 81af 15bc 02b5 383c
00000350: 2d7c 5a3d 2032 8dbd 054b 1c3d ec31 9bbc
00000360: e40f 6a3d 513b 8bbd 725e 963b 0b6a 5a3c
00000370: ceb7 b0bd 3c7c b4bd beb8 023d e6a4 0bbd
00000380: 1394 7c3d 1079 a9bd 2cda 44bd 7124 acbd
00000390: 2595 4a3d 7358 303c 206e 6dbc 6997 8cbc
000003a0: df6f a6bd c4e7 0a3d 2717 1b3d 475f 78bd
000003b0: 9534 6b3d 7e55 263c 7267 a4bd 39c6 a33d
000003c0: 15ba 973d ca29 edbb 3360 87bd 3c93 4a3b
000003d0: d635 a73d 2ed3 c93d 8ffc b2bd 28e6 56bd
000003e0: 96c3 ad3d 0546 523d 4587 813d c33c 7dbd
000003f0: 208d c03d e841 bfbd 63fe f9bb fefc a0ba
-0.010894578 0.013794997 -0.051293574 0.052749775 -0.08486428 0.09302677 -0.07133689 -0.082811855
-0.059677258 0.062489998 -0.04660373 0.03624615 -0.09459417 -0.068092346 -0.038855348 -0.02293255
-0.09152759 0.06812908 -0.018959587 0.030733772 0.077317715 0.028600037 0.044588726 0.12280264
-0.04452028 0.029740425 -0.059061617 0.067304835 0.06724741 -0.11291372 0.1111472 0.08633474
0.08042079 0.05929463 0.0872245 -0.028761167 -0.10996132 -0.05430567 -0.081354 0.044548742
0.03120458 -0.017541166 0.0062668384 0.102295406 -0.019727778 -0.011447752 -0.039102294 0.015867682
0.12659158 0.094266124 0.052858207 0.021810228 0.019016044 0.031165935 -0.010196239 -0.12039916
-0.07461949 0.100798085 0.0027472281 -0.101407476 0.006456923 0.093626216 -0.10470098 -0.047132492
-0.052855216 -0.0074679884 -0.039254017 -0.03550382 -0.12983647 0.047723696 0.11694568 0.080770016
-0.021509696 -0.085942574 0.028512856 -0.020712068 0.023199389 -0.12152426 0.00013737769 0.10676469
0.06220562 0.0053160777 0.014577267 -0.014392574 -0.079491936 -0.060989596 -0.08408961 0.08588483
0.04831762 0.02853622 -0.089426525 0.0770768 0.033440404 0.063727126 -0.05615431 0.015338595
0.11551974 0.07921451 0.092898704 -0.035048783 0.069761395 -0.08834 0.006947835 -0.06105015
-0.025222013 -0.020113334 0.00829055 0.09439386 0.030853663 -0.021412492 0.08000929 -0.04949503
0.067608856 -0.0144122755 -0.021630581 4.4512426e-06 -0.10673774 -0.005800541 0.024817701 0.10635667
-0.018147374 0.053017393 0.10297637 -0.05570477 0.092167586 -0.075575344 0.030687772 0.029241472
0.037354443 0.090055995 -0.050323054 0.0054624486 -0.014808545 -0.09499077 -0.045092173 -0.09402093
0.030606557 0.011652309 0.0051326593 -0.05045337 -0.029877547 -0.04718962 0.030698087 0.09736664
0.010712246 -0.05612702 -0.05912756 0.009656112 -0.0903857 -0.0998799 -0.07278121 -0.027961776
0.0032367813 0.08127496 0.04761053 0.109473206 -0.046527427 0.029313546 -0.08307593 0.08997841
0.05051982 0.11254221 -0.060110077 0.11422771 0.12797669 0.13271146 0.06726394 0.14535274
0.108014315 0.100428894 -0.011410755 -0.08948999 -0.0057730842 0.014868122 -0.08257965 -0.06254766
-0.10614475 -0.03822986 0.09053347 -0.004187015 -0.009058275 0.005766237 0.0681883 -0.10375664
-0.087048285 -0.04154572 -0.06498495 0.057400685 0.06905373 -0.09902468 -0.07519492 -0.08476322
0.062246557 0.11156647 -0.07381493 -0.038235705 0.054129295 -0.057434533 0.10508888 0.04685448
-0.0032867834 0.037362136 0.06421413 -0.025763972 -0.07586389 0.017553473 0.018021094 0.007157041
-0.007316873 0.08979221 -0.009136082 0.011273624 0.05334108 -0.06894326 0.03815748 -0.018944703
0.05714406 -0.06798423 0.0045888955 0.013330947 -0.08628808 -0.08812758 0.031914465 -0.034092806
0.061664652 -0.08275044 -0.048059627 -0.08405388 0.04945864 0.010763275 -0.014491588 -0.017162042
-0.081268065 0.033912435 0.037863877 -0.06063774 0.057423193 0.010152219 -0.08027543 0.07996792
0.07408539 -0.0072376477 -0.066101454 0.0030910512 0.08164565 0.098547325 -0.08739578 -0.052465588
0.08484571 0.051336307 0.06324629 -0.061825525 0.094019175 -0.093387425 -0.007629202 -0.0012282429

conv1.bias f4 [64]
00000000: 9815 13bc 0d49 d9bd cbda 253c f36f 83bd
00000010: 0d0d 1f3d 43a9 fe3a e603 643d a151 64bc
00000020: aa6d 023e df29 3abd 4963 f83b 1582 1f3d
00000030: de6f dbbd 57d0 df3d 8ed9 8d3d f22d ec3c
00000040: 94fd 09bd d046 99bd 5b7b 583d da57 1f3d
00000050: cdab 873c f10d b53b ce04 8cbd c459 943d
00000060: 606d 89bd 30be 853d 63f9 4a3a 6eab 3fbb
00000070: 8f0d e13c 9df7 493d 4e41 b53d 49d0 0cbc
00000080: 02e6 353d da42 973d 9e17 853b 32af b8bd
00000090: 0ad3 53bc 7273 a83d 7eda 46bc 6f4f 5a3d
000000a0: c7e3 873b da8e 97bc dd9f c83d 1e82 fabc
000000b0: c577 123d 6158 a0bb 9985 96bc ef66 8bbc
000000c0: 3461 55bc f208 1abd 6467 b2bc 7aa9 883d
000000d0: 7f16 cf3c 75c5 90ba 9fe2 4a3a dea1 a73b
000000e0: f513 c13d 482d 3dbd 831f 3abc 5959 893d
000000f0: f183 6b3d 456d ecbc 00c7 86bd 4bc8 a1bd
-0.008977316 -0.106096365 0.010122965 -0.06417837 0.038830806 0.0019429106 0.05566778 -0.0139354775
0.12737146 -0.045450088 0.007580195 0.038942415 -0.10714696 0.109284095 0.06926261 0.028830502
-0.033689097 -0.074842095 0.052852016 0.03890214 0.016561413 0.0055253436 -0.06836854 0.07243684
-0.06710315 0.06530416 0.000774285 -0.0029246467 0.027472286 0.049308408 0.088503465 -0.008594581
0.044408806 0.07385798 0.0040616533 -0.09017791 -0.012928734 0.082251444 -0.012137054 0.05329841
0.004147026 -0.018500734 0.097961165 -0.030579623 0.035758752 -0.004893348 -0.018374251 -0.017016856
-0.013023663 -0.037606187 -0.021777816 0.0667295 0.025279282 -0.0011045175 0.00077394577 0.0051157316
0.094276346 -0.04618576 -0.011360052 0.06706495 0.057498876 -0.028860698 -0.06580925 -0.07899531

conv2.weight f4 [32, 64, 5, 5]
00000000: 7414 14bb ea01 2fbc 79c3 873c 1053 d83c
00000010: 6800 90bd 31f3 543c dbb0 c6bc f26f e9bc
00000020: f067 fbbb 847f f7bc 75d2 cc3c ed16 fdbb
00000030: ae29 05bc 47b6 98bc 4c66 a43c 537e 62bc
00000040: fbb9 253c 5e76 823b 2cf8 fbba b812 de3c
00000050: 7d03 eaba e6f2 313b 147c 08bd d9f4 fa3b
00000060: b578 86bc 171e 01bc f2e9 a23c f8e1 953c
00000070: 0dc8 2bbc 1116 97bc 767a 373c 1b80 383d
00000080: 77b7 2d3d 9656 fe3c 2a42 4d3c 1f59 af3c
00000090: e382 09bb b7c6 ca3c 85a7 f23c beee 683d
000000a0: 5b6f 23bc d6e8 14bc d7cb e6bc 4390 27ba
000000b0: 7a0f 103c 6a33 49bd f2fe 173b 0d53 ac3b
000000c0: 8e35 a73b 8dca 773c 6543 b8bd 9596 c8bd
000000d0: 653d 10be 31a6 e1bd abf3 1cbe 5b44 00bd
000000e0: 9012 cfbc 61ea cfbc 509f 233c 4962 c1bc
000000f0: a3a5 953c 940e ceb8 779c cabc fd37 ba3c
00000100: 85cf 633c 541f cfbb f34b 0e3d 571f ed3c
00000110: d665 d83c ca5a 8d3c 6d3b b2b9 7923 7f3c
00000120: 9598 d83b dca5 473b dbda 113c c877 9e3c
00000130: 34e7 ddbb 1a94 b7bb 2cb7 83bc 0521 5fbc
00000140: ca22 d23b f8d7 d63c 62f0 30bc cfd9 f9bb
00000150: c223 c63c 2222 f93b c8b3 3e3b bca1 c6bc
00000160: 88dc e13c d89f 513c 747e 3bbb 46c5 a53c
00000170: 66ba 963a 6179 913c daeb 913a b273 ab3c
00000180: aa08 28bb e6fd d03b 4429 9fbc fd99 d5bb
00000190: c708 d5bc 8d84 eebc 9c36 0d3c 0823 473c
000001a0: 6431 313b 1b85 2bbb d06c 60bb f339 473c
000001b0: ad84 c93c 94e9 713c 4849 82bc 75f1 7ebc
000001c0: 0caa ff3c 8f67 ca3c ac3a cfbc 82f9 babc
000001d0: f06c 8c3b 38b5 c9bc 53b0 713c 3b17 0a3c
000001e0: aeba 7bbc e40d cfbb 95c6 d2bc 3231 1abd
000001f0: 4de3 28bc f750 ac3c 2efa 4cbd 008d 793d
00000200: 69d4 213d 2905 f23d 9c24 34bd 5fbd a1bc
00000210: 15bf 69bc 14a5 093a f28f b63c 161e 5bbc
00000220: c1de 1ebb b23c be3c 332b b939 067b 603b
00000230: b15e d73c 10eb 083d c0ae ed3c 9909 683c
00000240: 44e2 9a3c a3cb acbc e3b2 8fbc c755 b23c
00000250: aca2 96bc 485d 33bd 1929 73bb d275 85b9
00000260: 7ac4 35bc 2adc c33c b81c efbc 4007 b53c
00000270: 7280 c63b 4008 b0bc 6fbe 7bbc 4e43 a33c
00000280: b00c 0abc b32f d6bc 925d 3a3a 5448 a6bb
00000290: 78f2 ecbb 6860 803c 0465 6cbc 8f7b 0dbc
000002a0: 6763 1dbb 543a 8b3c b9ae dfbb 28c8 07bb
000002b0: 1c6e 9a3c 513e b33c b77a b03b bc7f ac3c
000002c0: 1057 583d 9af1 d73c 5921 2c3c 31aa 6c3d
000002d0: f405 10bc 8f1b 01bd 4c9f 283d 7096 833c
000002e0: c9d4 833b 20e3 6cbc 8ba1 d9bc eba3 0dbd
000002f0: 3ea9 603b 227f ce3c 5691 88bc e80c 83bc
00000300: abdd 90bd d03a fabc 605f ea3c 34a8 8cbc
00000310: ab8d 8d3d 89ea cd3b 7657 6fbd b6a2 e9bb
00000320: a39b a0bd 17c1 85b9 6bf5 e43a b1dd 07bc
00000330: d2db dfbb ce5f f83c 61ab 0b3d 92a7 9c3c
00000340: e5ac 8ebc 9388 e5bc f678 823d 825a ce3c
00000350: ad1d 823c 2840 d03b a39e 39bd d9f8 133d
00000360: 570a 3d3d d38f 323d e0e7 bd3c 68e6 31bc
00000370: 23a8 68bd 7735 b03c 01f3 213c d440 4fbc
00000380: 6e81 423c d3f8 e7bb 23bf 563b e910 2fbc
00000390: 88e8 48bc 8533 10bb f833 303c 65c2 e73a
000003a0: 2a4a ca3c 1f2e c33c 9234 a9bb 9ed2 4cbc
000003b0: fd5c a0bb b84f ddba d560 bcbb 1ffc d7bc
000003c0: e26f 14bd 3f7e 51bc cb21 92bb e535 c6bc
000003d0: be60 87bc ba06 1437 629c 09bc 11f3 49bc
000003e0: 0999 0dbc 847b 8db9 0c69 01bd ccbc c8bc
000003f0: c860 eabb db46 1e3c f52b 353c 6c3a 15bd
-0.0022595199 -0.010681609 0.0165727 0.026406795 -0.070313275 0.0129974345 -0.024254253 -0.028495762
-0.0076723024 -0.030212171 0.025002697 -0.00772368 -0.008127613 -0.018641604 0.02006831 -0.013824063
0.010115142 0.0039813956 -0.0019223741 0.027108535 -0.0017853823 0.0027152835 -0.033321455 0.0076585826
-0.01641498 -0.007880709 0.019886944 0.018296227 -0.010484708 -0.01844314 0.011198631 0.045044046
0.042411294 0.031047147 0.012527982 0.021404801 -0.0020982556 0.024752958 0.029620895 0.056868307
-0.00997528 -0.009088716 -0.02817337 -0.0006392041 0.008792752 -0.049121298 0.002319273 0.005258924
0.0051028198 0.015123975 -0.089972295 -0.09794346 -0.1408592 -0.110180266 -0.15327327 -0.03131519
-0.025277406 -0.025380315 0.0099867135 -0.023606436 0.018267458 -9.825561e-05 -0.024732811 0.022731775
0.013904457 -0.0063208733 0.0347404 0.028945608 0.026415747 0.017255206 -0.0003399508 0.015572422
0.006609986 0.003046385 0.008902277 0.019344226 -0.0067719463 -0.005602372 -0.016078554 -0.013618712
0.0064128386 0.026226029 -0.010799499 -0.0076248418 0.024186973 0.007602946 0.0029098857 -0.024247043
0.027570978 0.012794457 -0.0028609307 0.020235669 0.0011499643 0.017758073 0.0011132911 0.020929191
-0.002563993 0.0063779233 -0.019428857 -0.006518601 -0.026005162 -0.02911594 0.008618977 0.012154348
0.0027037496 -0.0026171866 -0.0034244545 0.012159812 0.024599398 0.014765162 -0.015904084 -0.0155604975
0.031209014 0.024707584 -0.025296532 -0.022824053 0.0042854473 -0.024622545 0.014751512 0.00842839
-0.015364332 -0.0063187946 -0.025729457 -0.037644573 -0.010308099 0.0210347 -0.050043277 0.060925484
0.03950921 0.118173905 -0.043980226 -0.01974362 -0.014266749 0.0005250734 0.022285435 -0.013373872
-0.0024241658 0.023222301 0.00035318136 0.0034253015 0.02629027 0.033427298 0.029013991 0.0141624445
0.01890672 -0.021093195 -0.017541355 0.021769417 -0.018388115 -0.04379013 -0.0037103354 -0.0002545552
-0.011094207 0.023908693 -0.029188499 0.022098184 0.0060577923 -0.021488309 -0.015365227 0.019929554
-0.0084258765 -0.026145792 0.000710928 -0.00507454 -0.007231053 0.01567097 -0.014428381 -0.008635416
-0.0024015547 0.016995586 -0.0068262485 -0.0020718668 0.018851332 0.0218803 0.0053857225 0.021057002
0.052817404 0.026360322 0.010505998 0.057779495 -0.008790482 -0.031520423 0.041167542 0.016062945
0.0040231687 -0.014458448 -0.026566288 -0.034580152 0.0034280564 0.025207106 -0.016670864 -0.015997365
-0.0707353 -0.030545622 0.028609931 -0.01717005 0.06911787 0.0062840623 -0.05843302 -0.0071299924
-0.07842185 -0.000255116 0.001746816 -0.008292601 -0.0068316245 0.03031912 0.034098987 0.019122873
-0.017416427 -0.028019225 0.06370728 0.025189642 0.015883291 0.0063553043 -0.045317303 0.03612599
0.04615244 0.043594193 0.023181856 -0.010858156 -0.056800973 0.021509869 0.009884597 -0.012649734
0.011871679 -0.0070792227 0.0032767735 -0.010685184 -0.012262471 -0.0022003364 0.010754578 0.0017681835
0.024693567 0.023825703 -0.0051637376 -0.012501387 -0.0048938976 -0.001688472 -0.005748848 -0.026365338
-0.036239512 -0.012786447 -0.004459595 -0.02419562 -0.016525622 8.823054e-06 -0.008399101 -0.012326018
-0.008642443 -0.00026985642 -0.03159432 -0.024504088 -0.0071526505 0.009660448 0.011057843 -0.03643267

conv2.bias f4 [32]
00000000: 47f5 56bc 8476 b7bc 30c7 44bb 9068 c33b
00000010: a9b7 ce3c f2c2 943c aa38 35bc 8c4f 033c
00000020: dc43 7d3c ed6e 26bc 3ce7 a639 8d24 863b
00000030: ba31 d63c f9c1 8b3c b656 86bb c0d9 43bc
00000040: 5afd 70bc 902b 9bbc baa1 523c 1d36 b73c
00000050: efc2 ed3c c9f6 073c dd93 16bc 76aa e93a
00000060: 0e58 a63a ce83 ce3c 3043 943c e1e9 a03c
00000070: 3b43 063c e32a 58bc 51da d6bb 4f5f 1bbb
-0.013120002 -0.02239538 -0.0030025952 0.0059633926 0.02523406 0.018159363 -0.011060873 0.008014571
0.0154580735 -0.010158283 0.0003183427 0.0040937127 0.026146758 0.017060267 -0.004099692 -0.011953771
-0.014708841 -0.01894167 0.012855941 0.02236467 0.029023616 0.008298584 -0.009190527 0.001782729
0.0012691037 0.025209334 0.018098444 0.019642772 0.00819474 -0.013193819 -0.006556787 -0.0023707931

conv3.weight f4 [1, 32, 5, 5]
00000000: 1ccf 8f3c b9ab 913c 4dc2 b8ba 3822 cd3c
00000010: 93e2 fb3c bded fcbc 3a4f f339 7a86 11bd
00000020: 75dc 363b 09df 213c 24af 82bb a2c2 e03c
00000030: 1032 313c 9d1a 02bd 8679 8abb b57c 90bc
00000040: 1301 f1bc c96c 0cba 3d5b 06bd be74 b43c
00000050: d150 343b 44c7 483c 3f76 ab3c 21b8 eb3c
00000060: 19e1 90bc f271 0a3b 1214 09bd c89b 043c
00000070: 45dc d73c f1fb b6bc b405 a83c e0c0 87bc
00000080: 4701 263c 6e6a 7dbc e4b8 dc3b b0e2 08bd
00000090: ded0 d73c 6656 03bc a468 063d e82f 4dbc
000000a0: e04b 7d3c 33b1 8abc cfa3 75bc fb72 13bc
000000b0: d22c 8c3c 04d8 6a3c 18ee a83c d718 bdbb
000000c0: 8ac0 8e3b b21f b33c e767 62bc a8da 34bc
000000d0: 7e0d de3c 52bb f5bc 4569 8cbc 5cb4 9dbc
000000e0: e6fe e1bb 4aa3 d3bc b8fc 073c 9bd1 c7bc
000000f0: 15c2 79bc 8b6c 0bbd 0d3c bf3c c39d b4bc
00000100: c98d 91bb 5bc0 a9bc 83aa 8fbb 7db9 eabb
00000110: 74f3 3fbc c57f 37ba 1400 783c 2513 f03c
00000120: 426e d33c fd32 d6bc b8dd 88bb ed48 41bd
00000130: 2e98 8b3c 88bd e43c 7aa7 9c3b 7ee6 0f3c
00000140: 4d5b 353d 6c3a c03c 44e6 6fbc 46b0 9abc
00000150: d2a8 d6bb 48de 1d3d a7f6 a63c 9294 b13c
00000160: fb94 00bb e10d 56bc 8ca4 10bb d7d9 9fbc
00000170: 46cf 5ebd 5d27 bdbc 496e c0bb 7068 eebb
00000180: 2abb 9ebc 07f8 aebc 69f1 2db8 8035 ff3c
00000190: 3f61 cc3b 2206 fc3b 0384 6a3c 6314 42bb
000001a0: 547b 773b 7d69 f1bb 719d 023d b171 dfb8
000001b0: 10de ce3c d11e a9bc d15d e2bc 1405 943b
000001c0: 5b8f 02bd dca4 a83c 05a2 a63c 3316 ec3c
000001d0: dad0 023d 9f00 3a3c bf31 5a3c 6658 b4bb
000001e0: 6630 043d aa93 743c 61c3 0dbc 603b 07bd
000001f0: 635e 843b 69e3 953b 2ba5 f73c e28c c83c
00000200: 7e5e 003d b9c5 5f3b ddbb 2d3c 0beb dabc
00000210: cdf8 d13b e232 183c 3806 9cbc 3b60 92bc
00000220: 6353 7c3c b0d1 a2bc 079a 39bc 80a6 e43c
00000230: 4a4f e43c 1664 ecbc 19d5 f8bc caec cf3c
00000240: c4c0 02bc ad24 d03b 7d61 acbc 4c68 5abc
00000250: 9c93 e73c 8aa9 bcbc 4443 513c 150d bd3a
00000260: 268a 3b3c 1266 fc3a 3afa e3bb eb65 543c
00000270: a604 223c 2d4e 44bb 9804 c53c dfd4 023d
00000280: c936 993c 92b1 25bc 3fad d4bc 823f c7bc
00000290: 2ac6 8ebc 07e6 45bb 37a0 943c 7931 1f3c
000002a0: 020f 013d 6fa9 0dbd 70fc a4bc 1803 053d
000002b0: 5137 ccbc 34de bb3c 5ee7 953a a572 7cbb
000002c0: 3577 ce3c f292 e03c 0421 6bbc eab9 f9ba
000002d0: 7552 083d e2f2 f23c 663e 6b3c b00b aebc
000002e0: 43fe c1bc 2d06 d23c 8f94 a83c 29f7 75bb
000002f0: 8faa 0c3d bd6c cc3c b9d8 f7bb 2386 7f3c
00000300: 2750 0d3d a50a a93c 475d 8bbc 162e 08bd
00000310: a642 323c cb29 5a3c 2e44 0ebd 9e05 b03b
00000320: a5b4 3dbc 2d53 1b3c 7d4c ccbc fd59 7dbc
00000330: 24f6 393d 2e84 923c 452a 82bc 15e4 2bbd
00000340: edbc 203c b801 82bb 4ccc 68bc 3c3b 213c
00000350: 893b 243d a8de 86bc fccb 093c 5960 f3bc
00000360: 3359 603d 5a6f 3c3d c14b f5bc 3e61 e0bc
00000370: b280 983b c65a 83bc fc4d f03c 7a29 573b
00000380: d2f0 5ebc ed9b 0d3d 0fb9 4fbc d380 7a3c
00000390: 9f6b b73c f0de 3d3c 00d6 0a3d a54e c6bc
000003a0: 76c6 7a3b f69e 3aba 9428 8d3c 7f74 74bc
000003b0: d6ef abbc ddf6 e0bc b7f7 c63c 3bcd 283c
000003c0: 4fd4 07bd 98c0 12bb b51a f2bc 50b8 f3bc
000003d0: 6d99 b43c f5c2 92bc 0bd2 ac3c 83de 063d
000003e0: 3724 a63b 19d5 7a3c ffff fcbc f739 77bc
000003f0: fe27 ffba 7788 f73b e52c 6a3c 6724 9c3c
0.017554812 0.017782079 -0.0014095992 0.02504073 0.030747687 -0.030875081 0.000464076 -0.035528637
0.0027902399 0.009879836 -0.0039881635 0.027436558 0.0108151585 -0.03176366 -0.0042259125 -0.01763759
-0.029419458 -0.00053567864 -0.032801855 0.022028323 0.002751399 0.01225454 0.020930408 0.028774323
-0.01768546 0.0021125046 -0.033466406 0.008093782 0.02635015 -0.022336932 0.020510532 -0.016571462
0.0101321405 -0.015467269 0.006735908 -0.03341931 0.026344713 -0.008016204 0.032814637 -0.012523629
0.015459985 -0.016930198 -0.014992668 -0.008999581 0.017111216 0.014333729 0.020621344 -0.0057707834
0.0043564485 0.0218657 -0.013818718 -0.01103846 0.027106043 -0.029996548 -0.01714004 -0.019251041
-0.0068968413 -0.025834698 0.008299999 -0.02439194 -0.015244027 -0.03403906 0.023344064 -0.022047883
-0.004441951 -0.020721605 -0.0043843403 -0.007163225 -0.011715759 -0.0006999935 0.015136737 0.029306004
0.025809411 -0.02614736 -0.0041768216 -0.047188688 0.017040338 0.027922407 0.004780707 0.008782981
0.044276524 0.023465358 -0.014642302 -0.018882882 -0.0065508867 0.038542062 0.020381285 0.02167729
-0.001962005 -0.013064832 -0.0022070734 -0.019513054 -0.05439689 -0.023090059 -0.005872522 -0.0072756335
-0.019376356 -0.021358503 -4.1471245e-05 0.03115344 0.0062371786 0.007691161 0.014313701 -0.0029614202
0.0037762718 -0.0073673115 0.03188843 -0.00010654645 0.025252372 -0.020644577 -0.027632626 0.004517207
-0.031874996 0.020586424 0.020340929 0.02881918 0.031937458 0.011352687 0.013317524 -0.005503702
0.03227272 0.014927784 -0.008652539 -0.03301561 0.004039572 0.0045742285 0.030230125 0.02448124
0.031340115 0.0034144951 0.010603872 -0.026723405 0.006407833 0.009289475 -0.019045934 -0.017868152
0.01540074 -0.019875377 -0.011328227 0.027911425 0.02786984 -0.028856318 -0.03037505 0.025381465
-0.007980529 0.0063520283 -0.02104258 -0.01333053 0.028268628 -0.023030061 0.012772385 0.0014423454
0.011446511 0.0019256494 -0.0069573196 0.012963752 0.009888804 -0.0029953823 0.024050042 0.03194129
0.018702881 -0.010113137 -0.025961516 -0.024322275 -0.017428476 -0.0030196921 0.018142803 0.009716385
0.031508453 -0.034585413 -0.020139903 0.032473654 -0.02492872 0.022933103 0.0011436751 -0.0038520482
0.025203327 0.027413819 -0.014351133 -0.0019052599 0.033281762 0.029656831 0.014358139 -0.021245807
-0.023680812 0.02563771 0.02057865 -0.0037531352 0.034342345 0.024954194 -0.007563677 0.0155959455
0.034500267 0.020634959 -0.017012252 -0.033247076 0.010880148 0.013315628 -0.03473299 0.0053717634
-0.011578714 0.00948028 -0.024938816 -0.015463349 0.045400754 0.017885294 -0.015889296 -0.041965563
0.009810668 -0.00396749 -0.014208864 0.009840783 0.04009584 -0.016463593 0.00841045 -0.029709028
0.054772567 0.04600463 -0.029943349 -0.027390119 0.0046540136 -0.016034495 0.02933406 0.0032831118
-0.013607221 0.03457253 -0.012678399 0.015289503 0.022390185 0.011588797 0.033895493 -0.024207423
0.0038265265 -0.0007119024 0.017231263 -0.014920353 -0.020988386 -0.027461464 0.024288042 0.010302837
-0.033161458 -0.0022392627 -0.02955375 -0.029750973 0.022045815 -0.017915228 0.02109625 0.032927047
0.005070235 0.0153095955 -0.030883787 -0.0150895035 -0.0019466875 0.0075541097 0.01429293 0.019060327
