Lecture8_Image restoration (HuStar_4)/outputs/x3/epoch_65.pth (torch, 231589 bytes, 5 tensors)

conv1.weight f4 [64, 1, 9, 9]
0.0040286556 0.042467095 -0.03294593 0.074438564 -0.061348997 0.09725205 -0.059413984 -0.06366174
-0.0031748137 0.06666416 -0.038547434 0.030011808 -0.106571294 -0.0816991 -0.06757714 -0.043100316
-0.11896908 0.071409866 -0.012857831 0.032992586 0.06815332 0.019566191 0.04362753 0.11061338
-0.05537186 -0.0005081396 -0.07478121 0.041983455 0.031785667 -0.14352639 0.1083949 0.11033554
0.094692156 0.069397636 0.07016458 -0.044547472 -0.13173805 -0.07734459 -0.087297164 0.07923261
0.080727756 -0.0011834893 0.008753797 0.086405315 -0.03264654 -0.0106136855 -0.040093902 0.025080806
0.16435438 0.12995194 0.047271337 0.010439436 0.007026549 0.023064468 -0.0030802768 -0.1337469
-0.08969562 0.10059127 -0.00084282435 -0.13518071 -0.011707383 0.09411123 -0.10040063 -0.01526101
-0.06559753 -0.042431027 -0.06477244 -0.051570993 -0.16265129 0.04145248 0.12840784 0.08626115
0.05983291 -0.061068166 0.0059721656 -0.040264715 0.026572017 -0.12692808 0.005272909 0.105388105
0.041577853 0.018737433 0.029402453 0.024965825 -0.06320307 -0.0749863 -0.12154385 0.0698181
0.031679314 0.009230966 -0.0861978 0.080634706 0.054138843 0.061821874 -0.08671766 -0.027653815
0.112282515 0.08981685 0.1034066 -0.038269572 0.0635233 -0.07862555 -0.0008888425 -0.09400372
-0.064135864 -0.0127901705 0.034206856 0.11439607 0.02728752 -0.030199 0.08937345 -0.05314184
0.038103245 -0.05797784 -0.018558037 0.020264287 -0.09775651 -0.0033505014 0.022062503 0.1281575
-0.004413684 0.038931843 0.0670761 -0.05019292 0.11364647 -0.06542325 0.028803151 0.017731657
0.05708689 0.1062747 -0.05873535 -0.029653747 -0.01298261 -0.07181611 -0.028192176 -0.100542866
0.00975416 0.022066664 0.013130285 -0.063628 -0.07092266 -0.04996178 0.053969525 0.11591693
0.006504952 -0.076645605 -0.05260366 0.012958962 -0.10350024 -0.13828506 -0.07702116 -0.008206801
0.016748963 0.08934988 0.0357701 0.11820272 -0.040977996 0.025224026 -0.103814386 0.102896765
0.081398815 0.1336259 -0.04657836 0.12714767 0.13825741 0.16010879 0.11834696 0.18763466
0.12021301 0.07624056 -0.03934611 -0.10176687 -0.040887535 -0.0506991 -0.15659061 -0.1153749
-0.14883964 -0.08139031 0.028095463 -0.059657615 0.0069651618 -0.001891407 0.031151863 -0.14912695
-0.1116887 -0.057489034 -0.08117138 0.028734066 0.053820487 -0.06311379 -0.05179044 -0.07851786
0.0680481 0.13638625 -0.04734224 -0.021049542 0.06283934 -0.03224613 0.11503692 0.051377848
-0.0004895461 0.049669355 0.08863381 -0.009365262 -0.07323682 0.016308535 0.030986756 0.017021507
-0.0035549388 0.0920664 0.0021122457 0.030519899 0.06828547 -0.06536935 0.04192843 -0.005160138
0.056435358 -0.0802456 -0.014689847 -0.0049072662 -0.10075517 -0.0988274 0.023481797 -0.03652683
0.06550134 -0.047077697 -0.02607906 -0.073283955 0.057972897 0.02752332 0.0076192436 0.0043569435
-0.064415246 0.0546277 0.048900593 -0.05904899 0.049946044 -0.0007670595 -0.0780801 0.07868156
0.06491548 -0.030124703 -0.07588504 0.0131155 0.07624919 0.079057634 -0.099537075 -0.06245756
0.07927954 0.048925973 0.054146513 -0.06973003 0.10155702 -0.096726 -0.019474283 -0.0034587912
00000000: d002 843b faf1 2d3d 50f2 06bd 3f73 983d
00000010: 1649 7bbd 152c c73d 145c 73bd 1661 82bd
00000020: 8910 50bb 3887 883d eae3 1dbd 53db f53c
00000030: 0d42 dabd dc51 a7bd e265 8abd f589 30bd
00000040: 10a6 f3bd 563f 923d a7a9 52bc 3c23 073d
00000050: f893 8b3d 4749 a03c c8b2 323d 4589 e23d
00000060: 9acd 62bd ac34 05ba e426 99bd d8f6 2b3d
00000070: b031 023d 95f8 12be 25fe dd3d 99f7 e13d
00000080: f6ed c13d 5920 8e3d 73b2 8f3d 6977 36bd
00000090: 57e6 06be d766 9ebd dbc8 b2bd b544 a23d
000000a0: 9854 a53d 501f 9bba 166c 0f3c 45f5 b03d
000000b0: 61b8 05bd 06e5 2dbc 8139 24bd 4376 cd3c
000000c0: 844c 283e 1f12 053e 979f 413d 2b0a 2b3c
000000d0: f73e e63b b2f1 bc3c 78de 49bb f3f4 08be
000000e0: 56b2 b7bd cc02 ce3d fcf0 5cba d06c 0abe
000000f0: 53d0 3fbc 63bd c03d d89e cdbd 5109 7abc
00000100: ff57 86bd 28cc 2dbd 6aa7 84bd 1b3c 53bd
00000110: 0f8e 26be 13ca 293d 587d 033e b0a9 b03d
00000120: 5a13 753d 9d22 7abd 28b2 c33b 9dec 24bd
00000130: 8fad d93c 6ff9 01be 5ec8 ac3b b8d5 d73d
00000140: 8a4d 2a3d 3f7f 993c 6add f03c 2185 cc3c
00000150: 9c70 81bd 6b92 99bd fbeb f8bd cbfc 8e3d
00000160: 2bc2 013d 7a3d 173c 7988 b0bd cf23 a53d
00000170: b1c0 5d3d ef38 7d3d 0799 b1bd 418a e2bc
00000180: 60f4 e53d e6f1 b73d d7c6 d33d 8ec0 1cbd
00000190: 8118 823d 6f06 a1bd 3601 69ba 0685 c0bd
000001a0: aa59 83bd dd8d 51bc 7d1c 0c3d 7d48 ea3d
000001b0: 148a df3c e563 f7bc 6d09 b73d 42ab 59bd
000001c0: 2612 1c3d 2c7a 6dbd 0607 98bc 4a01 a63c
000001d0: 9134 c8bd 1694 5bbb 6cbc b43c b83b 033e
000001e0: aaa0 90bb ff76 1f3d 325f 893d 1797 4dbd
000001f0: 7bbf e83d a0fc 85bd 96f4 eb3c fb41 913c
00000200: f1d3 693d 8da6 d93d 7a94 70bd 6aec f2bc
00000210: 03b5 54bc 5314 93bd 47f3 e6bc 6be9 cdbd
00000220: eacf 1f3c 26c5 b43c 6820 573c 664f 82bd
00000230: e63f 91bd b9a4 4cbd 260f 5d3d db65 ed3d
00000240: 7e27 d53b 5ff8 9cbd ef76 57bd d351 543c
00000250: eff7 d3bd 999a 0dbe 45bd 9dbd d175 06bc
00000260: 1f35 893c 12fd b63d ab83 123d 4514 f23d
00000270: 8bd8 27bd 9ea2 ce3c a39c d4bd 8abb d23d
00000280: 6cb4 a63d 3ad5 083e f3c8 3ebd 0033 023e
00000290: 5a93 0d3e 8ff3 233e e45f f23d 4d23 403e
000002a0: 3d32 f63d 0324 9c3d 6329 21bd 266b d0bd
000002b0: b079 27bd dca9 4fbd 4a59 20be ad49 ecbd
000002c0: 6b69 18be f6af a6bd 7528 e63c 8b5b 74bd
000002d0: 033c e43b 16e9 f7ba 3132 ff3c bcb4 18be
000002e0: 0cbd e4bd 9f79 6bbd 2e3d a6bd b463 eb3c
000002f0: df72 5c3d cd41 81bd 3622 54bd f9cd a0bd
00000300: cd5c 8b3d d6a8 0b3e f0e9 41bd 1770 acbc
00000310: e9b1 803d 8514 04bd 7a98 eb3d 9471 523d
00000320: e254 00ba 1872 4b3d a585 b53d c270 19bc
00000330: 30fd 95bd 7a99 853c f0d7 fd3c b070 8b3c
00000340: faf9 68bb 4f8d bc3d 9a6d 0a3b de04 fa3c
00000350: 41d9 8b3d 5ee0 85bd 25bd 2b3d 6016 a9bb
00000360: c328 673d ce57 a4bd afad 70bc 22cd a0bb
00000370: ba58 cebd 0566 cabd e65c c03c 289d 15bd
00000380: 9125 863d 8bd4 40bd c1a3 d5bc e615 96bd
00000390: fd74 6d3d 9678 e13c d9aa f93b b1c4 8e3b
000003a0: 24ec 83bd 4cc1 5f3d fd4b 483d 5bdd 71bd
000003b0: 3994 4c3d 7e14 49ba 76e8 9fbd cc23 a13d
000003c0: 68f2 843d 15c8 f6bc 9e69 9bbd 65e2 563c
000003d0: 8928 9c3d f8e8 a13d 18da cbbd 80d3 7fbd
000003e0: 505d a23d 9a66 483d bcc8 5d3d 9ece 8ebd
000003f0: 20fd cf3d 4818 c6bd 8888 9fbc e3ac 62bb

conv1.bias f4 [64]
0.016790252 -0.10358559 0.025195621 -0.04192835 0.0668567 0.017913321 0.049501237 -0.019060919
0.11301934 -0.037513822 0.0040701167 0.019762518 -0.13670295 0.19005266 0.06130595 0.016792336
-0.025841128 -0.052209314 0.074165285 0.025682876 0.023894545 -0.013448435 -0.054506376 0.07267642
-0.095603 0.042727366 -0.009144077 0.013573554 0.021409247 0.042436857 0.10351783 -0.00768557
0.03722077 0.0689326 0.0011607709 -0.06464569 -0.008733065 0.06954322 -0.045299474 0.041016795
0.017787302 -0.027684754 0.09624401 -0.016823899 0.03246623 -0.016048256 -0.017745426 -0.019499406
0.009635893 -0.056646742 -0.016540015 0.08132386 0.012610377 0.010974104 0.016930113 0.024838248
0.081806585 -0.018369097 -0.009205448 0.064563334 0.020854283 -0.006141951 -0.04347402 -0.093354166
00000000: b68b 893c af24 d4bd 0c67 ce3c 10bd 2bbd
00000010: 2aec 883d f5be 923c cfc1 4a3d a525 9cbc
00000020: af76 e73d 18a8 19bd 9d5e 853b 01e5 a13c
00000030: dcfb 0bbe 2a9d 423e f31b 7b3d 1590 893c
00000040: c6b0 d3bc 6fd9 55bd f8e3 973d e564 d23c
00000050: 7ebe c33c d356 5cbc 1442 5fbd 60d7 943d
00000060: 81cb c3bd e402 2f3d 0ad1 15bc 9d63 5e3c
00000070: 7262 af3c 45d2 2d3d 2801 d43d 3cd7 fbbb
00000080: ce74 183d 892c 8d3d 0225 983a f664 84bd
00000090: 2115 0fbc ad6c 8e3d f18b 39bd 3a01 283d
000000a0: adb6 913c 23cb e2bc 941b c53d 46d2 89bc
000000b0: 4ffb 043d a277 83bc db5e 91bc 38bd 9fbc
000000c0: dddf 1d3c 6a06 68bd ed7e 87bc 208d a63d
000000d0: c19b 4e3c bacc 333c 05b1 8a3c 9579 cb3c
000000e0: 368a a73d ca7a 96bc 73d2 16bc c839 843d
000000f0: 9ad6 aa3c 6b42 c9bb d011 32bd 7830 bfbd

conv2.weight f4 [32, 64, 5, 5]
0.0052537885 0.00089463044 0.04114081 0.07179675 -0.11304157 0.03719092 -0.02904896 -0.01435253
0.04498214 -0.013875756 0.029746583 -0.009758944 -0.014304884 0.0054774145 0.044533506 -0.015999384
0.020698301 0.02400872 0.029870564 0.04958374 -0.02314468 -0.017626608 -0.038808007 0.041770466
-0.0022292347 0.0013174955 0.02389561 -0.037091125 -0.030188436 -0.029862177 -0.004981949 0.0026202302
-0.017595496 0.005264623 -0.010905524 0.07373446 0.0035186068 -0.016550822 0.028292349 0.0847146
0.046803717 0.013834355 -0.06478073 -0.014083448 0.04406631 -0.084794655 -0.014534663 -0.038542286
-0.03557393 0.0060501047 -0.17035262 -0.18273123 -0.23402315 -0.19071077 -0.26218322 -0.12387555
-0.12514722 -0.080954954 -0.030738417 -0.092521876 0.04127904 0.02202579 0.0050255065 0.065140635
0.021911312 0.051301107 0.0965529 0.06608897 0.08585078 0.060799856 0.0069488855 0.007253548
-0.030054592 -0.0038210002 0.028617727 0.018520338 -0.0042492403 0.004253597 -0.011979443 -0.04964057
0.024251487 0.03323629 -0.003101587 0.017037189 0.008944657 0.006624927 -0.016407471 -0.04111469
0.0355689 -0.0034085265 -0.0048943604 0.0054798904 -0.02073437 0.021253379 -0.003596806 0.02518568
-0.008922057 -0.008068302 -0.02319339 -0.0008931628 -0.022867758 -0.062525935 -0.03279072 -0.0073796986
-0.01519458 0.0049874918 -0.0074439268 -0.0078338105 3.8377053e-05 0.016883807 0.017516743 0.010250654
0.057937898 0.032905545 0.0005074173 -0.01164901 0.010038048 -0.019352557 0.0018702381 0.0022272882
-0.039512478 -0.042285606 -0.05505333 -0.06796443 -0.04213038 0.087747 -0.019103592 0.07591379
0.007014568 0.08809476 -0.0473886 -0.031287476 -0.038066845 -0.025622834 -0.0034242745 -0.011226779
0.005839068 0.028045168 0.003690337 0.0006246863 0.017520446 0.033882678 0.035223395 0.011506771
0.0038734546 -0.062040154 -0.06342768 -0.030950312 -0.06910306 -0.10223863 0.010316987 0.017774915
-0.0038355011 0.012629499 -0.0365346 -0.0014247186 -0.023888543 -0.03429512 -0.031965505 -0.0067201243
-0.03647886 -0.053099804 0.001852263 0.00047753984 -0.03944255 0.001039779 -0.009032621 0.018898083
0.015072809 0.01582852 -0.007927688 -0.0037105398 0.02529797 0.021813098 -0.0006799727 0.051692463
0.07486831 0.04786893 -0.0037634177 0.045795027 0.015914708 -0.02517085 0.059717257 0.024799088
-0.016263688 0.014227957 -0.017632604 -0.015581786 0.045877393 0.057530258 0.02538895 -0.0043012807
-0.07458319 0.0014155741 0.07392286 0.058180045 0.10710003 -0.011135758 -0.050973978 0.052323103
-0.0608503 0.015183947 0.010306169 -0.008360135 -0.02855106 0.061903935 0.04610824 0.012475164
-0.033980988 -0.01905693 0.09766143 -0.0024780645 -0.0278927 -0.004641173 -0.04877644 0.038161986
0.019025484 0.006491827 0.005613346 -0.043976225 -0.052142847 0.032687813 0.016910866 8.008582e-05
-0.0044552917 0.0072754123 0.015415157 0.013631336 0.020356597 0.020213693 0.020355895 0.004033921
0.038931444 0.037756253 -0.0041754725 -0.02726843 -0.02778732 -0.015023626 0.0014008223 -0.015509319
-0.055930223 -0.039382234 -0.029207466 -0.024985166 -0.015694184 -0.051233053 -0.04862072 -0.048672944
-0.031148054 -0.01050343 -0.021472197 -0.03245591 -0.018673183 0.016548345 0.016318003 -0.03297948
00000000: f927 ac3b a285 6a3a 4483 283d 2d0a 933d
00000010: 5782 e7bd 8255 183d 16f8 edbc e026 6bbc
00000020: 313f 383d 2457 63bc 1baf f33c fae3 1fbc
00000030: 085f 6abc e27b b33b c468 363d 2411 83bc
00000040: 7c8f a93c efad c43c 1db3 f43c 5218 4b3d
00000050: e999 bdbc ad65 90bc 25f5 1ebd 8217 2b3d
00000060: 5a18 12bb d0af ac3a bac0 c33c ddec 17bd
00000070: bd4d f7bc 86a1 f4bc 9e3f a3bb 2bb8 2b3b
00000080: 6e24 90bc dc82 ac3b 15ad 32bc 1802 973d
00000090: 6d98 663b 9795 87bc 5bc5 e73c d97e ad3d
000000a0: 41b5 3f3d 7ea9 623c c2ab 84bd 43be 66bc
000000b0: e07e 343d d2a8 adbd cc22 6ebc 84de 1dbd
000000c0: f8b5 11bd f53f c63b eb70 2ebe e51d 3bbe
000000d0: c4a3 6fbe af49 43be e13c 86be 77b2 fdbd
000000e0: 9826 00be b6cb a5bd 22cf fbbc 1c7c bdbd
000000f0: 3614 293d 6e6f b43c 01ad a43b 7468 853d
00000100: 5a7f b33c 1c21 523d 87bd c53d a759 873d
00000110: 89d2 af3d 4509 793d 7ab3 e33b 2caf ed3b
00000120: 0c35 f6bc bf69 7abb b96f ea3c f7b7 973c
00000130: 363d 8bbb c261 8b3b 6d45 44bc e953 4bbd
00000140: 0eab c63c c722 083d ff43 4bbb 9391 8b3c
00000150: 9c8c 123c ea15 d93b f668 86bc e167 28bd
00000160: b2b0 113d 9661 5fbb df60 a0bb a790 b33b
00000170: 20db a9bc 911b ae3c 64b8 6bbb 3352 ce3c
00000180: d22d 12bc e930 04bc 1000 bebc 2423 6aba
00000190: 2a55 bbbc 990d 80bd 904f 06bd 66d1 f1bb
000001a0: b0f2 78bc 1d6e a33b 2fec f3bb 6259 00bc
000001b0: 0cf7 2038 e94f 8a3c 467f 8f3c 5cf2 273c
000001c0: 4a50 6d3d f7c7 063d 3304 053a 7ddb 3ebc
000001d0: a076 243c 4189 9ebc c722 f53a b2f7 113b
000001e0: d6d7 21bd ac33 2dbd 9a7f 61bd ef30 8bbd
000001f0: e890 2cbd b3b4 b33d 237f 9cbc b078 9b3d
00000200: 76da e53b 076b b43d 8c1a 42bd 4c27 00bd
00000210: fbeb 1bbd fae6 d1bc cb69 60bb 86f0 37bc
00000220: a755 bf3b fbbe e53c 95d9 713b fdc1 233a
00000230: 0a87 8f3c 90c8 0a3d 6846 103d e586 3c3c
00000240: c9d9 7d3b d11d 7ebd 5fe6 81bd 828b fdbc
00000250: e885 8dbd 7d62 d1bd 9408 293c b39c 913c
00000260: 085d 7bbb f5eb 4e3c 4ea5 15bd a0bd baba
00000270: e8b1 c3bc 0a79 0cbd 43ee 02bd 7d34 dcbb
00000280: db6a 15bd 2e7f 59bd a2c7 f23a 505e fa39
00000290: 838e 21bd 3249 883a 8ffd 13bc 27d0 9a3c
000002a0: f1f3 763c d0aa 813c 22e3 01bc 872c 73bb
000002b0: b03d cf3c 62b1 b23c 3240 32ba 7abb 533d
000002c0: 8e54 993d 3612 443d aca3 76bb 9193 3b3d
000002d0: 905f 823c 1933 cebc 159a 743d 7527 cb3c
000002e0: 6d3b 85bc 611c 693c 4072 90bc bf4a 7fbc
000002f0: efe9 3b3d d9a4 6b3d 7dfc cf3c c2f1 8cbb
00000300: 12bf 98bd c98a b93a de64 973d 334e 6e3d
00000310: 4357 db3d c172 36bc 17ca 50bd c050 563d
00000320: 2a3e 79bd 17c6 783c 35db 283c f3f8 08bc
00000330: eae3 e9bc fb8e 7d3d fedb 3c3d a164 4c3c
00000340: a62f 0bbd 471d 9cbc b702 c83d 0667 22bb
00000350: 3b7f e4bc fb14 98bb cec9 47bd be4f 1c3d
00000360: 55db 9b3c 64b9 d43b 29f0 b73b 6a20 34bd
00000370: bd93 55bd a8e3 053d a888 8a3c bff3 a738
00000380: b2fd 91bb 9566 ee3b db8f 7c3c f855 5f3c
00000390: e1c2 a63c 3097 a53c 68c1 a63c fb2e 843b
000003a0: 9476 1f3d 4da6 1a3d 67d2 88bb 0b62 dfbc
000003b0: 3ca2 e3bc a825 76bc cc9b b73a cc1a 7ebc
000003c0: 1717 65bd 444f 21bd 7f44 efbc b1ad ccbc
000003d0: 1791 80bc c0d9 51bd 8526 47bd 485d 47bd
000003e0: 342a ffbc 9416 2cbc 76e6 afbc 7df0 04bd
000003f0: 81f8 98bc 6590 873c 55ad 853c 7e15 07bd

conv2.bias f4 [32]
-0.020906081 -0.016615262 -0.0030025952 -0.015072949 0.026992178 0.016664455 -0.005587114 0.0101243425
0.016996758 -0.0103472965 -0.0010744599 -0.013411625 0.02915043 0.008759859 0.04928652 -0.0016746473
-0.013955536 -0.016346643 0.0045557 0.02455299 0.02202007 0.013151408 -0.018555328 -0.0005547171
-0.00857327 0.034225926 0.025489444 0.020219106 0.010163874 -0.00025133445 -0.021665387 0.0025441267
00000000: 3b43 abbc bb1c 88bc 30c7 44bb 88f4 76bc
00000010: b31e dd3c e583 883c 1c14 b7bb 92e0 253c
00000020: c93c 8b3c b587 29bc e4d4 8cba 6fbc 5bbc
00000030: e2cc ee3c 8385 0f3c a9e0 493d d77f dbba
00000040: c3a5 64bc 65e9 85bc fb47 953b 5a23 c93c
00000050: 6f63 b43c 0179 573c 5801 98bc 6f6a 11ba
00000060: e776 0cbc 7c30 0c3d 3dcf d03c 8aa2 a53c
00000070: 6186 263c 8ac5 83b9 9c7b b1bc 5dbb 263b

conv3.weight f4 [1, 32, 5, 5]
0.018219903 0.017618682 0.00029080606 0.02738545 0.032170612 -0.030628806 -0.0015954277 -0.039334588
-0.0012795806 0.009967495 -0.007084382 0.023747982 0.0027074856 -0.04011699 -0.008516167 -0.018451003
-0.029496733 -0.0031967126 -0.034984224 0.018444847 0.004377844 0.016168991 0.024627877 0.03273141
-0.014224766 0.001435077 -0.033973206 0.008141769 0.026215421 -0.022959292 0.01985635 -0.016482424
0.010326635 -0.015943522 0.00627574 -0.03413349 0.026430583 -0.007907472 0.032187123 -0.012965379
0.01489983 -0.017474558 -0.015806332 -0.010149954 0.016692683 0.014294611 0.020269321 -0.0064551868
0.0034781657 0.021638079 -0.013818718 -0.01103846 0.027106043 -0.029996548 -0.01714004 -0.019251041
-0.0068968413 -0.025834698 0.008299999 -0.02439194 -0.015244027 -0.03403906 0.023344064 -0.022047883
-0.004441951 -0.020721605 -0.0043843403 -0.007163225 -0.011715759 -0.0006999935 0.015136737 0.029306004
0.025809411 -0.02614736 -0.0041768216 -0.057369724 0.014443672 0.014152569 -0.0070675705 0.005484654
0.038163427 0.05077176 0.0046329307 -0.011347958 0.007504829 0.050387956 0.04049699 0.007265686
-0.023286091 -0.0013774293 0.007211107 -0.018184505 -0.07254799 -0.043057922 0.0004858074 -0.0073382584
-0.024883622 -0.030206434 0.0022012708 0.04318312 0.0054962053 0.0072395424 0.014114937 -0.003065753
0.0037495568 -0.008328317 0.031230574 -0.00052435143 0.024965087 -0.02052921 -0.028208315 0.0041065095
-0.032299433 0.02024175 0.020407297 0.028149819 0.031217238 0.010920023 0.012946532 -0.005899291
0.03190049 0.014287621 -0.00909377 -0.033553097 0.0032672733 0.0051255324 0.03570096 0.030662391
0.0322068 0.0016324181 0.012014545 -0.022613456 0.008756355 0.011652773 -0.013600214 -0.020477546
0.008089285 -0.028833976 -0.015957333 0.029066648 0.02107502 -0.03708726 -0.036905084 0.022948753
-0.0026130243 0.0070340997 -0.021091055 -0.012867251 0.029026307 -0.018966684 0.011955 0.0009324326
0.011099187 0.0014665563 -0.007027834 0.012410677 0.00932029 -0.0032695243 0.024242258 0.032395132
0.0186358 -0.010507602 -0.02635496 -0.02434526 -0.01732502 -0.00331811 0.017815512 0.009628922
0.031564828 -0.03528902 -0.02080288 0.03206746 -0.024954248 0.023055535 0.0007732091 -0.004169689
0.025028229 0.027503427 -0.014283216 -0.0019461092 0.032979734 0.029377135 0.014352738 -0.021155689
-0.023679744 0.02527277 0.020194424 -0.003773232 0.034415662 0.024993926 -0.007920024 0.01520681
0.034360405 0.020634009 -0.01698451 -0.033575322 0.010585282 0.01315171 -0.03477568 0.005260022
-0.013498441 -0.007937245 -0.02827204 -0.022392895 0.028608993 0.005595755 -0.014023372 -0.045958
0.00064620393 0.00080206816 -0.015468076 0.05049558 0.060321335 -0.022990787 -0.0053255847 -0.0638455
0.06973101 0.0794706 -0.02488643 -0.029024323 -0.035477187 -0.0323042 0.03621513 0.0056080013
-0.028348349 0.034219954 -0.013932009 0.013686071 0.020970652 0.010832144 0.03282522 -0.025496857
0.0028390319 -0.0020643177 0.015806172 -0.015668215 -0.021619894 -0.027695173 0.024090698 0.010388568
-0.03412714 -0.0026618545 -0.030090755 -0.030472599 0.02203329 -0.018478256 0.020655563 0.03262493
0.004707934 0.015196335 -0.03088376 -0.015089517 -0.0019466783 0.0075540943 0.014292943 0.019039873
00000000: e841 953c 0e55 903c 5477 9839 7457 e03c
00000010: 55c5 033d 43e9 fabc ac1d d1ba 4e1d 21bd
00000020: 9ab7 a7ba b44e 233c 1b24 e8bb 218b c23c
00000030: 1270 313b b751 24bd 6587 0bbc 8f26 97bc
00000040: 22a3 f1bc f07f 51bb 9e4b 0fbd a619 973c
00000050: 0474 8f3b d574 843c 67c0 c93c 5f11 063d
00000060: fe0e 69bc 3219 bc3a 7d27 0bbd 0e65 053c
00000070: b9c1 d63c 2015 bcbc c9a9 a23c 2606 87bc
00000080: 0c31 293c fd9b 82bc b9a4 cd3b 8fcf 0bbd
00000090: f384 d83c 578e 01bc a5d6 033d be6c 54bc
000000a0: 6b1e 743c ce26 8fbc 487c 81bc fe4b 26bc
000000b0: 18bf 883c f233 6a3c d90b a63c 0886 d3bb
000000c0: f0f1 633b 5742 b13c e767 62bc a8da 34bc
000000d0: 7e0d de3c 52bb f5bc 4569 8cbc 5cb4 9dbc
000000e0: e6fe e1bb 4aa3 d3bc b8fc 073c 9bd1 c7bc
000000f0: 15c2 79bc 8b6c 0bbd 0d3c bf3c c39d b4bc
00000100: c98d 91bb 5bc0 a9bc 83aa 8fbb 7db9 eabb
00000110: 74f3 3fbc c57f 37ba 1400 783c 2513 f03c
00000120: 426e d33c fd32 d6bc b8dd 88bb 84fc 6abd
00000130: 27a5 6c3c 2de0 673c 1497 e7bb 9db8 b33b
00000140: 4151 1c3d 0df6 4f3d d7cf 973b c9ec 39bc
00000150: 12eb f53b 9a63 4e3d 2ce0 253d fe14 ee3b
00000160: 79c2 bebc dc8a b4ba 264b ec3b acf7 94bc
00000170: 0a94 94bd 815d 30bd f7b3 fe39 c675 f0bb
00000180: bdd8 cbbc 7c73 f7bc 3243 103b c9e0 303d
00000190: 8319 b43b af39 ed3b 5642 673c cdea 48bb
000001a0: 20bb 753b 7e73 08bc 43d7 ff3c a174 09ba
000001b0: 9583 cc3c e02c a8bc 2015 e7bc e68f 863b
000001c0: 694c 04bd 07d2 a53c 342d a73c 739a e63c
000001d0: 4bbb ff3c e5e9 323c b11d 543c d74e c1bb
000001e0: 17aa 023d a016 6a3c 09fe 14bc f96e 09bd
000001f0: c01f 563b 15f4 a73b 2b3b 123d b22f fb3c
00000200: 47eb 033d ddf6 d53a a7d8 443c db3f b9bc
00000210: d176 0f3c 46eb 3e3c 6fd3 5ebc 87c0 a7bc
00000220: ec88 043c 3b35 ecbc f4b8 82bc 2e1d ee3c
00000230: 85a5 ac3c d0e8 17bd c929 17bd 06ff bb3c
00000240: 463f 2bbb 4e7e e63b 26c7 acbc 2ad1 52bc
00000250: 94c8 ed3c 0560 9bbc e8de 433c 7e6e 743a
00000260: 5dd9 353c 7739 c03a bf49 e6bb 2756 4b3c
00000270: 21b4 183c 8445 56bb b397 c63c c2b0 043d
00000280: 1baa 983c 1428 2cbc 5be6 d7bc b66f c7bc
00000290: 33ed 8dbc a674 59bb d6f1 913c a0c2 1d3c
000002a0: 1f4a 013d 388b 10bd cd6a aabc 2b59 033d
000002b0: da6c ccbc f6de bc3c 2fb1 4a3a e3a1 88bb
000002c0: 0008 cd3c de4e e13c 2604 6abc 9714 ffba
000002d0: c215 073d 51a8 f03c bf27 6b3c b24e adbc
000002e0: 06fc c1bc d708 cf3c c76e a53c 5448 77bb
000002f0: 70f7 0c3d 10c0 cc3c fdc2 01bc fc25 793c
00000300: 7fbd 0c3d a708 a93c 1923 8bbc 4786 09bd
00000310: e46d 2d3c 457a 573c f270 0ebd 435c ac3b
00000320: 9128 5dbc 380b 02bc c49a e7bc 4e71 b7bc
00000330: 685d ea3c 985c b73b 49c2 65bc 753e 3cbd
00000340: 0366 293a e241 523a d06d 7dbc 74d4 4e3d
00000350: 8113 773d 2d57 bcbc 3e82 aebb 6ec1 82bd
00000360: 22cf 8e3d 7bc1 a23d a0de cbbc 6bc4 edbc
00000370: 8750 11bd 6951 04bd 5156 143d 53c3 b73b
00000380: cc3a e8bc 392a 0c3d 1543 64bc 8b3b 603c
00000390: a5ca ab3c 4e79 313c bd73 063d c9de d0bc
000003a0: 0d0f 3a3b 8149 07bb f27b 813c a15a 80bc
000003b0: 341c b1bc fde0 e2bc db59 c53c d034 2a3c
000003c0: e6c8 0bbd 8272 2ebb e380 f6bc aca1 f9bc
000003d0: 287f b43c b65f 97bc db35 a93c b8a1 053d
000003e0: 0345 9a3b 0cfa 783c f0ff fcbc 063a 77bc
000003f0: af27 ffba 5688 f73b f32c 6a3c 82f9 9b3c
