Lecture8_Image restoration (HuStar_4)/outputs/x3/epoch_31.pth (torch, 231589 bytes, 5 tensors)

conv1.weight f4 [64, 1, 9, 9]
000000 77 5d 8a 3b d9 80 af 3c 74 24 3e bd 67 fd 6f 3d
       0.0042225677 0.021423744 -0.046421483 0.058591273
000010 fc 24 a4 bd 0f c6 c2 3d 34 5a 8d bd 46 7f a0 bd
       -0.08014867 0.09510433 -0.069019705 -0.078367755
000020 c9 04 47 bd 61 40 8d 3d eb ba 44 bd 7b c4 09 3d
       -0.048588548 0.06897045 -0.04802982 0.033634644
000030 9b 95 c8 bd 30 71 95 bd a4 86 37 bd 86 d4 e9 bc
       -0.0979416 -0.072969794 -0.044806138 -0.028543722
000040 cc d2 c8 bd 56 67 86 3d 16 c4 74 bc 51 d3 dc 3c
       -0.09805831 0.065626785 -0.014939329 0.026956232
000050 3f d4 97 3d 74 af d6 3c a4 65 31 3d fb d6 f7 3d
       0.074135296 0.02620671 0.043309823 0.12101551
000060 0c 56 45 bd ad 4b b5 3c 95 fc 88 bd a3 c2 82 3d
       -0.048177764 0.022130812 -0.06688801 0.0638478
000070 66 2e 67 3d c6 72 f5 bd 10 7f e2 3d 8d 97 bb 3d
       0.056440733 -0.11984782 0.110593915 0.091597654
000080 bb ee af 3d 52 df 7b 3d ce c2 a9 3d 0a 24 18 bd
       0.08590456 0.06149227 0.08289109 -0.037143745
000090 87 b6 e8 bd 68 c2 81 bd 95 a2 ac bd 7e e6 4f 3d
       -0.11362939 -0.06335908 -0.084294476 0.050756924
0000a0 2b 45 2a 3d 2f 1c 33 bc ef 39 02 3c a9 ae ca 3d
       0.04156987 -0.010932012 0.007948383 0.09896595
0000b0 29 85 d9 bc 8e 7e 1f bc 3d a1 34 bd 98 39 7c 3c
       -0.026552754 -0.009734763 -0.04409908 0.015394591
0000c0 b2 c9 07 3e 5c 1b cf 3d 74 76 60 3d 64 ac aa 3c
       0.13260534 0.1011264 0.054800466 0.020834155
0000d0 9e 3c 8c 3c 66 f2 e0 3c d0 67 6f bb 39 dd 01 be
       0.017118748 0.027459335 -0.0036530383 -0.12682046
0000e0 63 d2 a2 bd b5 8c c8 3d c9 cd 97 38 f4 eb da bd
       -0.07950284 0.09792463 7.2385716e-05 -0.10689536
0000f0 a9 7a 65 3b 83 8b c2 3d ce 0a d4 bd 5a 8f 01 bd
       0.0035015738 0.09499266 -0.10353623 -0.03163085
000100 66 ac 6f bd d0 d6 87 bc 53 71 47 bd 0a 4c 2f bd
       -0.05851402 -0.016581923 -0.04869206 -0.042797126
000110 a3 68 0c be a5 d1 42 3d 73 fa fa 3d cd 48 ae 3d
       -0.1371179 0.047563214 0.12254801 0.085099794
000120 13 0e 89 3b 48 3c b3 bd ae 61 8e 3c 3f 85 02 bd
       0.004182586 -0.08751732 0.017380562 -0.031865355
000130 c8 da 94 3c b4 a2 fe bd 93 69 18 3b 65 da e3 3d
       0.01817073 -0.12433377 0.0023256287 0.1112564
000140 f4 19 7e 3d 10 37 26 3c fe 49 a2 3c 4c 03 da bb
       0.06203647 0.010144964 0.019810673 -0.006653225
000150 bf 6c a4 bd 28 5f 8c bd fe 3d c3 bd e4 04 a4 3d
       -0.08028554 -0.06854087 -0.095333084 0.08008745
000160 cd dd 2b 3d c9 d0 9e 3c fb ab b2 bd a7 36 a4 3d
       0.041959573 0.019386666 -0.08724209 0.080182366
000170 78 9b 1e 3d 0e c6 7c 3d e6 60 82 bd cd 0e ca 3b
       0.038722485 0.061712317 -0.06366138 0.006166315
000180 6b fd eb 3d 4f b6 a5 3d 03 1b bb 3d 30 6d 0d bd
       0.11522945 0.08091413 0.091360115 -0.034527957
000190 04 eb 90 3d e6 9c ac bd 22 9c cd 3b ee 97 86 bd
       0.07076076 -0.084283635 0.006274716 -0.06571947
0001a0 05 cb f8 bc 1a 7e 83 bc 17 58 69 3c ae a6 c1 3d
       -0.030370245 -0.01605134 0.014242194 0.0945562
0001b0 f6 e3 e6 3c 2d e7 bd bc ec 52 a9 3d ca 7a 4b bd
       0.028184872 -0.023181522 0.08267769 -0.049677648
0001c0 98 00 82 3d 2c 75 ad bc e5 1d 9b bc f9 c0 8a 3b
       0.063477695 -0.021174036 -0.018935153 0.00423443
0001d0 f5 15 e1 bd ef 46 ff bb f5 3a c5 3c 23 d3 e3 3d
       -0.10990516 -0.0077904384 0.024075964 0.111242555
0001e0 87 d5 78 bc c4 94 51 3d 67 e8 c5 3d c8 c2 58 bd
       -0.015187628 0.051167265 0.09663468 -0.052920133
0001f0 cc 1f c8 3d 89 ea 9c bd e5 d0 e4 3c 2d 24 d7 3c
       0.0977169 -0.076619215 0.02793164 0.026262367
000200 2b ef 25 3d 11 fd ba 3d 63 49 5f bd 1e b8 85 bb
       0.04051129 0.091303 -0.054513346 -0.0040807864
000210 0f 08 71 bc 92 49 b7 bd 8e fd 35 bd db 30 c9 bd
       -0.014711394 -0.08949579 -0.04443126 -0.098237716
000220 6c ab c9 3c 2b d7 34 3c ab 95 31 3b a8 1b 6f bd
       0.024617873 0.011037628 0.0027097266 -0.058375984
000230 cb 6a 30 bd 3c 16 4b bd a8 43 11 3d f0 fc c7 3d
       -0.043070596 -0.04958175 0.035464913 0.09765041
000240 ed 84 45 3c cb 7b 6a bd ef 65 67 bd d3 86 27 3c
       0.012055618 -0.057246964 -0.056493696 0.010225016
000250 0d 2f c2 bd ea 92 df bd 93 34 94 bd 87 21 ab bc
       -0.094816305 -0.109166935 -0.0723659 -0.02089001
000260 77 50 80 3b a5 88 ae 3d f7 2e 48 3d 0e b2 e9 3d
       0.003915842 0.085221566 0.048872914 0.11410914
000270 09 ce 32 bd 81 e0 e9 3c b5 92 b1 bd 2d bf c4 3d
       -0.04365352 0.028549435 -0.0867056 0.096067764
000280 c8 91 7f 3d 63 7e f1 3d b2 8d 66 bd aa 47 f7 3d
       0.062394887 0.117916845 -0.056287475 0.12074216
000290 71 49 0a 3e 17 45 15 3e 3d 1f b6 3d 8d f8 29 3e
       0.13504578 0.14577137 0.08892677 0.16598721
0002a0 a4 fe ec 3d d9 fb c6 3d ab 20 ad bc b9 d7 be bd
       0.11572006 0.09716005 -0.021133741 -0.093184896
0002b0 c3 0a 57 bc 7d 56 2a ba 5b 40 ce bd 71 93 95 bd
       -0.013125124 -0.0006497873 -0.100708686 -0.07303513
0002c0 80 63 e7 bd f0 26 50 bd b3 b5 91 3d 95 58 e3 bc
       -0.11298275 -0.050818384 0.071147345 -0.0277522
0002d0 68 21 df bb e5 be 9d 3b ec 38 78 3d e5 91 ea bd
       -0.0068094023 0.004814016 0.06060116 -0.114536084
0002e0 aa d2 b9 bd 29 1d 2d bd 8e 6b 93 bd 4a 4b 3b 3d
       -0.09073384 -0.042264137 -0.07198249 0.045726098
0002f0 29 24 66 3d dc 20 ba bd b6 14 8b bd a3 e4 a2 bd
       0.05618683 -0.09088299 -0.0679106 -0.07953765
000300 2f a0 88 3d 37 b8 fe 3d 08 39 71 bd 48 fc 01 bd
       0.066711776 0.1243748 -0.05889228 -0.031734735
000310 e6 18 6b 3d b0 93 57 bd 02 55 d6 3d 49 25 3a 3d
       0.057396792 -0.05263108 0.10465433 0.045445714
000320 08 ba 65 bb 28 12 20 3d bc 4e 94 3d a4 44 94 bc
       -0.003505351 0.039079815 0.0724158 -0.018099137
000330 79 bb 9c bd c2 d2 80 3c bc 7e 97 3c 0a 70 fa 3b
       -0.07652945 0.015725497 0.018493049 0.0076427506
000340 ea 5e 1d bc ac 50 b4 3d 76 98 21 bc 41 b2 85 3c
       -0.009605149 0.088044494 -0.00986301 0.01632035
000350 43 f2 73 3d 8b b8 8f bd 5f 1a 1d 3d b1 16 8b bc
       0.05955721 -0.07017621 0.038355228 -0.016978594
000360 33 55 70 3d 7b 8b 92 bd 00 8a 4b ba 82 4a b1 3b
       0.058675002 -0.0715551 -0.0007764399 0.0054104934
000370 98 08 b8 bd b2 5d b5 bd c1 80 eb 3c 75 41 05 bd
       -0.08986014 -0.088557616 0.028747918 -0.032533128
000380 54 3c 84 3d e5 98 96 bd ae d9 36 bd 63 2f ac bd
       0.06456819 -0.07353381 -0.04464119 -0.08407476
000390 65 73 3a 3d 9c 35 4f 3c 32 6b 1f bc ad 00 7e bc
       0.045520205 0.012647059 -0.009730147 -0.015503091
0003a0 27 1c a1 bd b1 60 17 3d 6c 50 2e 3d 6a e4 73 bd
       -0.07866698 0.036957446 0.042557165 -0.059544004
0003b0 30 11 68 3d dd 51 ce 3b b7 83 9c bd 08 6f ad 3d
       0.056657016 0.00629638 -0.0764231 0.08468443
0003c0 59 d4 94 3d a8 d7 3e bc 40 a5 8f bd 89 41 8e 3b
       0.072670646 -0.011648096 -0.07013941 0.0043413085
0003d0 13 19 a6 3d 01 85 c5 3d d1 87 b5 bd 51 c6 5a bd
       0.08110251 0.09644509 -0.088637955 -0.053411786
0003e0 0f ec ac 3d 76 44 50 3d 0e f0 7a 3d 0e 35 82 bd
       0.08443462 0.05084654 0.06126409 -0.06357776
0003f0 2d 7a c2 3d da e1 bf bd cf 19 0f bc ce f5 bb ba
       0.094959594 -0.0936925 -0.008734181 -0.0014340223

conv1.bias f4 [64]
000000 b5 19 14 3b 94 ef e0 bd 16 bb 48 3c 4a cf 76 bd
       0.002259833 -0.10983196 0.012251636 -0.06025628
000010 f2 9b 50 3d c3 01 af 3b 34 4b 60 3d 8c 96 a0 bc
       0.05092997 0.005340786 0.05475922 -0.019603036
000020 99 fc 00 3e f7 f0 32 bd db 03 dd 3b 99 66 1d 3d
       0.12596358 -0.043686833 0.0067448444 0.038427923
000030 59 e6 e6 bd a0 fa 01 3e f7 38 8a 3d 3e 92 a2 3c
       -0.11274404 0.12693262 0.067491464 0.019845124
000040 91 50 03 bd 3e 91 95 bd 98 2b 65 3d 1e 55 1b 3d
       -0.032059256 -0.073030934 0.055949777 0.03792297
000050 7e cc 8d 3c 34 66 6b 3b ab 0e 85 bd 2e 87 95 3d
       0.017309424 0.0035919072 -0.06496938 0.07301174
000060 37 1c 90 bd e4 53 73 3d e6 30 40 bb ae 5b 02 3a
       -0.070366316 0.059406176 -0.002932602 0.0004972768
000070 aa 32 d2 3c fa 0c 30 3d 56 15 b4 3d 73 f3 f2 bb
       0.025658924 0.042981125 0.08793132 -0.0074142753
000080 b8 3e 27 3d 74 93 9b 3d 6f 27 dc 3a 4c d3 a9 bd
       0.040831298 0.07596484 0.001679642 -0.08292255
000090 df 7c 0e bc a3 7e a8 3d 33 20 d3 bc 02 f7 50 3d
       -0.008696764 0.08227279 -0.02577219 0.051016815
0000a0 55 b5 33 3c 9d 1d b9 bc 87 56 c9 3d 92 f2 f4 bc
       0.010968526 -0.022597129 0.09830957 -0.029900823
0000b0 63 69 0f 3d cb 42 1f bc e6 32 8a bc 72 a2 95 bc
       0.035012614 -0.0097205145 -0.016869973 -0.018265937
0000c0 32 c1 be ba 89 1f 32 bd bb 2f a3 bc fb 4e 96 3d
       -0.0014553426 -0.043487106 -0.01992022 0.07339283
0000d0 05 3b a1 3c 98 c3 f3 3a 3c e8 32 3b 6f 8f 03 3c
       0.019681463 0.001859772 0.0027299067 0.008029803
0000e0 90 4d c2 3d c7 e3 2e bd d5 4b 63 bc 00 75 89 3d
       0.0948745 -0.042697694 -0.01387306 0.06711769
0000f0 18 ab 4e 3d 9e 7f d6 bc e9 09 82 bd bf 1d a0 bd
       0.050456136 -0.0261839 -0.063495465 -0.078181736

conv2.weight f4 [32, 64, 5, 5]
000000 3b 42 0a 3b 88 41 07 bc 6d 61 0a 3d 14 89 55 3d
       0.0021096605 -0.00825537 0.03378432 0.05213268
000010 69 f7 a2 bd 60 04 95 3c aa 02 f8 bc 32 aa be bc
       -0.07957346 0.018190563 -0.030274708 -0.023274515
000020 f0 fa 57 3c c3 9b cd bc a9 d4 03 3d d7 5c bd bb
       0.013182387 -0.025098687 0.03218523 -0.0057788896
000030 ce 2a 0d bc b7 a3 0d bc df e0 f9 3c 5f de 51 bc
       -0.008616162 -0.00864499 0.030502735 -0.012809365
000040 6d cf 58 3c 4e 2f d4 3b fe fe c9 3b ad 14 12 3d
       0.013233048 0.0064753657 0.0061644306 0.03566425
000050 dd 6d 34 bc 33 0f f6 bb 55 40 31 bd 6a bc 2f 3c
       -0.011012522 -0.007509136 -0.043274242 0.010726074
000060 45 4a 5c bc b6 19 07 3a 4e 23 b3 3c e2 5c f1 3b
       -0.013445442 0.00051536725 0.02186742 0.007365809
000070 29 55 b6 bc f3 05 ea bc 81 d6 7b 3c 54 9b 2a 3d
       -0.022257404 -0.02856729 0.015370966 0.04165204
000080 9d 22 fa 3c 28 7e b9 3c f1 ac 2f 3c b2 18 29 3d
       0.030534083 0.022643164 0.010722385 0.041283317
000090 e6 c9 16 3c da 8d d6 3c 99 ed 13 3d d9 76 9c 3d
       0.00920341 0.026190687 0.036115263 0.07639856
0000a0 cd 07 3f bb 70 89 7f bb 75 cd 08 bd 14 cc f2 bb
       -0.0029148937 -0.0038991831 -0.033399064 -0.007409582
0000b0 6c 0a 5e 3c 39 bc 80 bd 67 8d 71 bb 37 5d 8d ba
       0.013552289 -0.062859006 -0.0036857964 -0.0010785226
0000c0 3c 4a dc bb 8c 4b 40 3c 7a af e1 bd 47 ca fd bd
       -0.0067227166 0.011736762 -0.110197976 -0.12392097
0000d0 a7 b0 2c be c9 43 05 be b9 7f 4a be 81 cd 3e bd
       -0.16864263 -0.13014139 -0.19775285 -0.046582703
0000e0 b1 e8 53 bd c0 2e 40 bd a6 c9 e2 ba 62 8a 44 bd
       -0.051735584 -0.046919584 -0.0017302528 -0.047983535
0000f0 1e 60 9b 3c 6d 66 ac ba fc d9 06 bd c1 ed cf 3c
       0.01896673 -0.0013153084 -0.03292273 0.025381925
000100 02 f5 71 3c dc 3d cd bb 31 00 1d 3d 7a 74 b0 3c
       0.014767887 -0.0062634777 0.03833026 0.021539915
000110 6a aa e0 3c b9 df c3 3c 88 2c b9 bb 63 d5 33 3c
       0.02742501 0.02391039 -0.0056510605 0.010976168
000120 6e 1c 98 bb a3 3d 30 bb cf 24 7b 3c a5 ff b5 3c
       -0.004642061 -0.0026892207 0.0153286 0.022216627
000130 eb 82 ad bb 77 9a 90 bb 18 c3 59 bc 0b ab a2 bc
       -0.0052951477 -0.004412945 -0.013291143 -0.01985695
000140 63 4d 2e 3c 3f 77 d2 3c 3d 6a 46 bc db 2d 9a 3a
       0.010638568 0.025691627 -0.01211029 0.0011762934
000150 7a 8d ae 3c 70 42 ef 3b de 34 b8 bb 09 a3 05 bd
       0.021307696 0.007301621 -0.0056215366 -0.032626186
000160 a6 f0 05 3d 5f 97 43 3c a8 fc c7 ba 85 48 79 3c
       0.032700203 0.011937945 -0.0015257793 0.015215044
000170 e5 cc f7 bb 1b de b9 3c f3 85 f1 3b 3c 7d d2 3c
       -0.007562267 0.022688916 0.0073707043 0.025694482
000180 bd 3f f8 ba 3f 38 58 b8 4a 84 93 bc 5a 35 03 3b
       -0.0018939894 -5.1550796e-05 -0.018007416 0.0020020814
000190 0d 74 01 bd f0 64 43 bd 57 aa db bb 55 7a 83 b9
       -0.031604815 -0.047703683 -0.0067036557 -0.00025077412
0001a0 d4 36 24 bc a1 eb 5b 3a f7 12 0f bc 82 e3 09 3c
       -0.010022838 0.00083892985 -0.008732549 0.0084160585
0001b0 21 b9 99 3c 2c a1 8e 3c c1 8b d0 bb e1 78 1d bc
       0.018765034 0.017410837 -0.006364316 -0.009611339
0001c0 27 52 30 3d 19 70 f0 3c 68 e9 78 bc ba 9d b9 bc
       0.043047097 0.029350327 -0.015192367 -0.022658218
0001d0 ab ad f2 3a 04 4c cd bc 4c 94 ee 3b 68 50 46 3b
       0.0018514892 -0.025060661 0.007280862 0.0030260328
0001e0 38 4f c5 bc 3c c6 9e bc db 1c 18 bd fe d3 41 bd
       -0.024085626 -0.019381635 -0.037136894 -0.047321312
0001f0 00 28 c8 bc 75 8f 2f 3d 86 01 22 bd 0a f6 8d 3d
       -0.024433136 0.04286142 -0.039552234 0.06931694
000200 92 58 37 3d bf 02 04 3e 09 02 3c bd f8 d7 d0 bc
       0.0447622 0.12891673 -0.04590038 -0.025493607
000210 5a 0a ad bc 7e ca da bb 1d 11 94 3c f8 86 64 bc
       -0.0211231 -0.006676971 0.018074566 -0.013948195
000220 13 37 03 ba c4 a0 c3 3c 70 1f e1 ba e1 1d 64 ba
       -0.000500546 0.02388037 -0.0017175507 -0.0008701962
000230 f1 59 c9 3c 80 b1 0c 3d 80 8e fd 3c 59 36 47 3c
       0.02457902 0.034348965 0.030951738 0.012158954
000240 66 32 37 3c e5 41 f5 bc b2 4d e4 bc 0c c0 2b 3c
       0.0111814495 -0.029938648 -0.02786908 0.010482799
000250 6f 31 f9 bc 45 1f 73 bd f7 b4 6d 3b 6a 47 b3 3b
       -0.03041908 -0.059355993 0.0036271194 0.0054711597
000260 f8 4f da bb 4b 9b a6 3c 8e c9 00 bd 94 3f 8f 3c
       -0.006662365 0.020337721 -0.031442218 0.017486371
000270 87 99 02 bb ca 6a c6 bc 5a 29 a8 bc 82 8a 75 3c
       -0.0019927935 -0.024220843 -0.02052753 0.014986636
000280 9c f7 78 bc 2e 77 07 bd 1c 92 ff 3a 80 c0 83 bb
       -0.015195753 -0.033072643 0.00194985 -0.0040207505
000290 39 30 4e bc 69 e0 7c 3c e2 66 40 bc 5a bc bb ba
       -0.012584739 0.015434363 -0.011743279 -0.0014323101
0002a0 e5 9d e7 b9 c2 52 85 3c b7 f0 45 3b 79 2e b9 3b
       -0.00044177394 0.016274814 0.0030203292 0.005651292
0002b0 2c cd de 3c 0f ae cc 3c 32 27 31 3c 8d aa db 3c
       0.027197443 0.024985341 0.010812568 0.026814723
0002c0 cb 32 69 3d 57 79 ee 3c 66 2d a5 3a 6c 44 5c 3d
       0.056933206 0.029110594 0.0012602031 0.05377619
0002d0 f0 b7 a3 bb 92 30 0b bd 17 93 38 3d 2b 0d 63 3c
       -0.0049962923 -0.033981867 0.04506215 0.01385812
0002e0 d3 05 7f bb 5f 93 1a bc f4 c7 f3 bc 44 21 13 bd
       -0.0038913384 -0.00943455 -0.029758431 -0.035920396
0002f0 27 10 27 3c 93 04 e3 3c c7 70 0f bc 88 ca 47 bc
       0.010196722 0.027712142 -0.008754916 -0.012194283
000300 a7 25 a6 bd 82 ae fb bc 95 de 16 3d 44 75 5e bb
       -0.0811265 -0.03072286 0.036833365 -0.0033944407
000310 6e 7e c1 3d d4 3d 0b 3c 9f 7a 87 bd 6c a2 04 3a
       0.09447943 0.008498628 -0.06615185 0.0005059603
000320 7e 26 90 bd 84 fc 2c 3c fe c9 56 3b b0 44 8a bb
       -0.07038592 0.010558251 0.0032774205 -0.004219614
000330 77 65 e0 bb e7 31 38 3d 4c b5 4e 3d 62 73 a7 3c
       -0.006848033 0.044969466 0.050465867 0.020440761
000340 3c f1 a5 bc c0 25 ee bc 09 53 9f 3d 7f 18 b3 3c
       -0.020256631 -0.029070735 0.077795096 0.021862267
000350 c2 45 a6 3b 29 31 e2 3b 3d f5 44 bd 0f ad 31 3d
       0.0050742337 0.006902833 -0.04808544 0.043377932
000360 f6 fd 2d 3d ec f1 0a 3d ba ca e0 3c f0 7e 3c bc
       0.042478524 0.03392212 0.027440418 -0.011504874
000370 96 ca 43 bd 5d 3e e1 3c 16 ec c7 3b d5 9b ee bb
       -0.047800623 0.027495557 0.0061011417 -0.00728176
000380 7a bb 24 3c a4 00 23 bc 4e 8d 01 ba 52 bf 65 bc
       0.0100544635 -0.009948883 -0.00049420155 -0.014022665
000390 a9 63 41 bc 84 ce 07 bb 7e 66 35 3c ea 05 15 3a
       -0.011803546 -0.0020722458 0.011071799 0.000568478
0003a0 2b 0d d4 3c a1 c0 d4 3c 96 5c 9d bb 64 ba 92 bc
       0.025885185 0.025970759 -0.004802297 -0.017911144
0003b0 1d ef 18 bc ee d2 15 bb 61 36 24 bb c4 f7 c3 bc
       -0.009334353 -0.002286132 -0.0025056826 -0.023921855
0003c0 5d 42 30 bd ae 02 9a bc 15 10 00 bc 58 6e be bc
       -0.04303204 -0.018800106 -0.007816334 -0.023245975
0003d0 b5 91 9e bc 09 91 17 bc a1 15 82 bc fb 95 9f bc
       -0.019356588 -0.009250888 -0.015879454 -0.019480696
0003e0 63 1c 43 bc ec fc 9b bb b0 75 f0 bc fe e5 e2 bc
       -0.011908623 -0.0047603752 -0.029352993 -0.02769756
0003f0 82 17 2d bc 16 ed 5a 3c f5 44 4b 3c 74 65 11 bd
       -0.010564687 0.01336219 0.012406577 -0.035497144

conv2.bias f4 [32]
000000 3a 79 6d bc 80 2d a9 bc 30 c7 44 bb 98 28 76 ba
       -0.014494235 -0.020651579 -0.0030025952 -0.0009390204
000010 70 fc cc 3c 27 2c 87 3c 57 fd 17 bc 62 81 0b 3c
       0.025022715 0.016500546 -0.0092767095 0.008514734
000020 72 b8 a0 3c 6e 80 19 bc 3c e7 a6 39 bb 08 f1 b8
       0.0196192 -0.009368999 0.0003183427 -0.00011493402
000030 05 cf dc 3c ef a7 8c 3c b6 56 86 bb 3d 3e 48 bc
       0.026954183 0.01716992 -0.004099692 -0.01222187
000040 1f f6 72 bc 5c 02 9a bc 17 3c 36 3c 82 58 ba 3c
       -0.014829188 -0.018799953 0.011122725 0.022747282
000050 2b 68 df 3c 56 cc 30 3c 12 fb 31 bc 0e fe 39 39
       0.02727135 0.010790905 -0.0108630825 0.00017737618
000060 7c b3 47 bb 45 30 ea 3c 5d 16 a8 3c 2e 88 a2 3c
       -0.0030471971 0.02858747 0.020518476 0.019840326
000070 27 c7 09 3c f2 c7 27 bc 1d 9a 2b bc 72 b3 b3 ba
       0.008409298 -0.010240542 -0.010473755 -0.0013710095

conv3.weight f4 [1, 32, 5, 5]
000000 a5 f3 8d 3c 33 df 91 3c 00 d6 58 ba 2a 83 d2 3c
       0.017328093 0.017806625 -0.00082716346 0.02569731
000010 95 a2 ff 3c 1f 1a fe bc 6e 0c 13 39 57 82 14 bd
       0.031205455 -0.031018315 0.00014023643 -0.036257114
000020 a2 27 09 3b f3 96 22 3c 9c 8e 95 bb 67 d4 dd 3c
       0.0020928164 0.009923684 -0.0045641195 0.02707882
000030 b1 e3 1c 3c 9a 80 08 bd 39 01 ab bb 70 6d 97 bc
       0.00957577 -0.03332577 -0.0052186516 -0.018484801
000040 04 d7 f3 bc 54 88 64 ba 0a a3 08 bd cd fa ab 3c
       -0.029765613 -0.0008717824 -0.03335861 0.020993615
000050 22 9e 05 3b 05 ab 49 3c 51 e9 b1 3c ac 64 f2 3c
       0.0020388444 0.012308841 0.0217177 0.02958902
000060 9d 6a 8f bc 3c d7 fe 3a b2 97 09 bd 18 60 04 3c
       -0.017506892 0.0019442807 -0.033591934 0.008079551
000070 8a 8d d7 3c 82 c0 b7 bc 1d d0 a6 3c d6 28 88 bc
       0.026312608 -0.022430662 0.020362908 -0.016621035
000080 a6 12 26 3c a9 d0 7e bc 4f aa da 3b 8d 3b 09 bd
       0.010136282 -0.015552678 0.0066731344 -0.033504058
000090 b5 b5 d7 3c 96 ae 03 bc e6 03 06 3d f8 bb 4d bc
       0.026331762 -0.00803723 0.03271856 -0.012557022
0000a0 ea 03 7c 3c c0 7f 8b bc ad 91 78 bc 87 d5 16 bc
       0.015381793 -0.01702869 -0.015171451 -0.009206182
0000b0 d1 c5 8b 3c ee 78 6a 3c 97 ab a8 3c 6d 59 c1 bb
       0.0170621 0.014311058 0.020589633 -0.005900553
0000c0 de 9d 88 3b d7 7b b2 3c e7 67 62 bc a8 da 34 bc
       0.00416921 0.021787567 -0.013818718 -0.01103846
0000d0 7e 0d de 3c 52 bb f5 bc 45 69 8c bc 5c b4 9d bc
       0.027106043 -0.029996548 -0.01714004 -0.019251041
0000e0 e6 fe e1 bb 4a a3 d3 bc b8 fc 07 3c 9b d1 c7 bc
       -0.0068968413 -0.025834698 0.008299999 -0.02439194
0000f0 15 c2 79 bc 8b 6c 0b bd 0d 3c bf 3c c3 9d b4 bc
       -0.015244027 -0.03403906 0.023344064 -0.022047883
000100 c9 8d 91 bb 5b c0 a9 bc 83 aa 8f bb 7d b9 ea bb
       -0.004441951 -0.020721605 -0.0043843403 -0.007163225
000110 74 f3 3f bc c5 7f 37 ba 14 00 78 3c 25 13 f0 3c
       -0.011715759 -0.0006999935 0.015136737 0.029306004
000120 42 6e d3 3c fd 32 d6 bc b8 dd 88 bb d9 71 57 bd
       0.025809411 -0.02614736 -0.0041768216 -0.052598808
000130 cd b3 85 3c c3 0b dc 3c 24 24 07 3b 07 26 fd 3b
       0.016321087 0.026861077 0.0020620907 0.0077254805
000140 a4 f7 34 3d fc 5e 03 3d 06 7c 13 bc 5d 88 93 bc
       0.04418148 0.032073006 -0.009001737 -0.018009359
000150 2d 51 1e bb 39 62 2a 3d d7 e5 ca 3c ac 07 8d 3c
       -0.0024157271 0.04159758 0.0247678 0.017215572
000160 a0 8d 0f bc 78 92 31 bc 8a 38 d3 39 0d fb ae bc
       -0.008761793 -0.0108381435 0.0004028718 -0.021359945
000170 72 6e 77 bd 20 81 e4 bc bf 7a 47 bb 97 81 f0 bb
       -0.060408063 -0.027893603 -0.0030438153 -0.007339667
000180 44 df bd bc ae 3d bf bc 5a bc 4d 3b 2d 95 12 3d
       -0.02317775 -0.02334484 0.0031392784 0.035786796
000190 b8 71 c9 3b ab 67 fb 3b 1a 2f 6a 3c c4 81 43 bb
       0.0061475895 0.0076722703 0.014293456 -0.0029831985
0001a0 a7 78 75 3b 95 31 f7 bb e6 49 02 3d b5 08 2e b9
       0.0037455948 -0.0075437524 0.031808756 -0.00016597177
0001b0 b4 8a ce 3c 41 f3 a8 bc f3 29 e3 bc e3 18 92 3b
       0.025212623 -0.020623805 -0.027729964 0.004458533
0001c0 fe d4 02 bd b4 fa a7 3c 00 60 a6 3c e0 48 eb 3c
       -0.031941406 0.020505287 0.020309448 0.028721273
0001d0 0a 62 02 3d 88 91 38 3c e1 69 58 3c d4 af b8 bb
       0.03183178 0.011265166 0.013208837 -0.0056361947
0001e0 34 db 03 3d 97 f2 72 3c 79 46 0f bc ee fc 07 bd
       0.03219147 0.014828346 -0.008744829 -0.033200197
0001f0 33 21 7a 3b 61 b1 9a 3b a8 34 02 3d c5 b3 d7 3c
       0.003816676 0.0047208522 0.0317885 0.026330838
000200 60 34 02 3d 30 5c 51 3b fc e0 2d 3c db 47 d4 bc
       0.03178823 0.0031945817 0.0106127225 -0.02591317
000210 3b 46 e1 3b 0f 22 1c 3c 64 99 97 bc f6 f0 96 bc
       0.006874827 0.009529605 -0.01850576 -0.018425446
000220 40 06 5f 3c 5c 43 b5 bc b9 7e 4f bc dc 92 e5 3c
       0.01361233 -0.022126846 -0.01266449 0.02802413
000230 3d 74 d8 3c 24 5a ff bc 84 d6 03 bd b0 00 c8 3c
       0.026422614 -0.031170912 -0.032187 0.02441439
000240 bb 2b f3 bb 9e ed d5 3b cb 32 af bc 48 54 59 bc
       -0.0074209846 0.0065285703 -0.021386525 -0.013264723
000250 2b 35 e5 3c 81 05 bf bc 1b ae 4f 3c bc b1 b8 3a
       0.027979454 -0.023318054 0.012675787 0.0014091055
000260 b1 b3 3b 3c c8 d3 f7 3a b8 e5 e2 bb c8 d4 52 3c
       0.011456416 0.001890772 -0.0069243573 0.012868114
000270 87 ec 20 3c ee d5 44 bb ad a5 c5 3c 1f 78 03 3d
       0.0098220175 -0.0030034739 0.024126852 0.03209698
000280 38 19 99 3c 95 59 26 bc 0f 20 d5 bc 83 6e c7 bc
       0.018688783 -0.010153194 -0.026016263 -0.024344688
000290 bc 65 8e bc 46 a0 49 bb d6 45 94 3c 25 b0 1e 3c
       -0.017382495 -0.0030765696 0.018099707 0.009685551
0002a0 d1 df 00 3d 94 60 0e bd 39 28 a6 bc f0 bc 04 3d
       0.031463448 -0.034760073 -0.020282852 0.032406747
0002b0 6a 60 cc bc a4 fa bb 3c 8e 38 8a 3a 1c a3 80 bb
       -0.024948318 0.022946663 0.0010545419 -0.003925694
0002c0 ff 2c ce 3c c1 9f e0 3c c3 0b 6b bc 11 4a 00 bb
       0.02516794 0.027419927 -0.014346066 -0.0019575397
0002d0 8b 2b 08 3d 52 cb f2 3c 92 98 6b 3c d2 bc ad bc
       0.03324465 0.029637966 0.014379637 -0.0212082
0002e0 31 06 c2 bc 30 91 d1 3c f5 59 a8 3c 03 c6 72 bb
       -0.023684593 0.025581926 0.020550707 -0.0037044294
0002f0 af da 0c 3d b5 76 cc 3c 70 f6 f9 bb 53 7b 7e 3c
       0.03438824 0.024958948 -0.0076282546 0.0155323325
000300 c7 44 0d 3d 7d 07 a9 3c 22 a4 8b bc bd 69 08 bd
       0.03448942 0.020633454 -0.017046038 -0.033303965
000310 2d 3e 31 3c c3 78 59 3c ee 64 0e bd 9e a2 ad 3b
       0.0108180465 0.013273421 -0.034764223 0.0052989265
000320 47 06 4e bc 90 0a cd 3b 1e 31 d8 bc b2 e9 72 bc
       -0.012574739 0.0062573627 -0.026390608 -0.014826225
000330 99 85 32 3d 88 39 82 3c 42 0d 83 bc 6e cf 41 bd
       0.04358444 0.015896574 -0.015997533 -0.04731696
000340 17 29 5f 3b 24 5f 9c 37 f8 f9 4b bc 72 5b a3 3c
       0.003405159 1.8640952e-05 -0.012449734 0.019941065
000350 17 8b 40 3d ff 16 b8 bc ec da a0 3b 71 62 12 bd
       0.047007646 -0.022471903 0.00490891 -0.035738412
000360 e4 a1 77 3d 96 e6 67 3d 84 03 01 bd 0b b2 e6 bc
       0.060457125 0.05661639 -0.031497493 -0.02816107
000370 bb a4 a3 bb e8 13 8d bc c9 1b 04 3d d6 e4 1d 3a
       -0.0049940026 -0.017221406 0.03225306 0.0006023174
000380 03 6d 86 bc 57 26 0d 3d 34 ac 52 bc c8 96 78 3c
       -0.016409403 0.03446039 -0.012858439 0.015172668
000390 d2 24 b6 3c 4f d2 3a 3c bf d1 09 3d 94 0c c9 bc
       0.022234354 0.011402681 0.033647295 -0.02454213
0003a0 3b 01 70 3b 1e 02 6f ba 72 08 8b 3c 36 69 77 bc
       0.0036621827 -0.0009117442 0.0169718 -0.015100768
0003b0 48 0f ad bc 9e fc e1 bc fa 50 c6 3c a3 ea 29 3c
       -0.02112545 -0.027586278 0.024208535 0.010370883
0003c0 fd b2 08 bd 19 12 18 bb c9 e7 f3 bc 37 a1 f5 bc
       -0.03337382 -0.0023204146 -0.02977361 -0.0299841
0003d0 b2 32 b4 3c 75 08 95 bc f3 5b ab 3c 0c 4e 06 3d
       0.02199683 -0.01819251 0.020917868 0.032789275
0003e0 fd 93 a2 3b 50 06 78 3c ff ff fc bc f7 39 77 bc
       0.0049614892 0.015138224 -0.030883787 -0.0150895035
0003f0 fe 27 ff ba 77 88 f7 3b e5 2c 6a 3c 67 24 9c 3c
       -0.0019466875 0.0075541097 0.01429293 0.019060327
