Lecture8_Image restoration (HuStar_4)/outputs/x3/epoch_67.pth (torch, 231589 bytes, 5 tensors)

conv1.weight f4 [64, 1, 9, 9]
0	0x3b310dbb	0.002701624
1	0x3d2eb436	0.04265233
2	0xbd061ab7	-0.03274032
3	0x3d9a8300	0.075445175
4	0xbd770906	-0.06031134
5	0x3dc85c14	0.097831875
6	0xbd70a5b4	-0.058751777
7	0xbd8199d7	-0.06328171
8	0xba9f141c	-0.001213673
9	0x3d88d876	0.06681912
10	0xbd1a11d5	-0.037614662
11	0x3cf7b3d4	0.030237116
12	0xbdd95e77	-0.10613721
13	0xbda6f623	-0.081524156
14	0xbd8add16	-0.0678045
15	0xbd30f0dd	-0.043198455
16	0xbdf5ff54	-0.120115906
17	0x3d927749	0.07151658
18	0xbc4c4270	-0.012467012
19	0x3d09445e	0.033512466
20	0x3d8a8371	0.06763352
21	0x3c9d9f13	0.019240892
22	0x3d31a812	0.043373175
23	0x3de241ed	0.110477306
24	0xbd62c891	-0.055367056
25	0xbb06bd7d	-0.002055972
26	0xbd9b1eec	-0.07574257
27	0x3d2754d0	0.040852368
28	0x3cf6f9e2	0.03014845
29	0xbe15268f	-0.1456549
30	0x3ddc2e40	0.10751009
31	0x3de1c564	0.110239774
32	0x3dc28fa9	0.09500057
33	0x3d8f57c4	0.06999162
34	0x3d8de04c	0.06927547
35	0xbd38eb40	-0.045146227
36	0xbe07a855	-0.13247807
37	0xbda03a09	-0.07823569
38	0xbdb4219d	-0.08795474
39	0x3da49e43	0.080379985
40	0x3da82a21	0.082111605
41	0xb99c51ae	-0.00029815495
42	0x3c1e9c9a	0.009680891
43	0x3db10ba9	0.08644802
44	0xbd03fa3e	-0.03222107
45	0xbc30197b	-0.0107482625
46	0xbd24066c	-0.040045187
47	0x3ccf0908	0.025272861
48	0x3e29b3e8	0.16572535
49	0x3e05be8b	0.13060968
50	0x3d40d4f7	0.0470781
51	0x3c2f8f72	0.010715352
52	0x3bebe80a	0.007199292
53	0x3cbf3ff9	0.023345934
54	0xbb61e764	-0.0034470195
55	0xbe0957bc	-0.13412374
56	0xbdb8c5d1	-0.090221055
57	0x3dce84fc	0.100839585
58	0xbad8c5d1	-0.0016538446
59	0xbe0b924d	-0.13630028
60	0xbc3f4900	-0.011675119
61	0x3dc1a9ca	0.09456213
62	0xbdcd4a65	-0.10023955
63	0xbc7f7711	-0.0155923525
64	0xbd878e73	-0.06618967
65	0xbd33366e	-0.04375308
66	0xbd85cad5	-0.06532828
67	0xbd57abb8	-0.052653998
68	0xbe276384	-0.16346556
69	0x3d2b28f5	0.041787107
70	0x3e03e69e	0.12880942
71	0x3dafd5d3	0.085857056
72	0x3d76d0e6	0.060257815
73	0xbd7819fa	-0.06057165
74	0x3ba6c11f	0.00508894
75	0xbd26eb4d	-0.040751744
76	0x3cd6b4aa	0.026209194
77	0xbe01c966	-0.12674484
78	0x3bbc8c3f	0.0057540233
79	0x3dd6c8f4	0.104875475
80	0x3d241c0a	0.040065803
81	0x3c9811e9	0.018563228
82	0x3cee2e75	0.029074887
83	0x3cd4a88d	0.025959278
84	0xbd7e1215	-0.062028963
85	0xbd97fad7	-0.07420891
86	0xbdf98900	-0.12184334
87	0x3d8fc0f1	0.070192225
88	0x3d03ebf0	0.03220743
89	0x3c2462e9	0.010033348
90	0xbdb0b4b8	-0.08628219
91	0x3da39aa2	0.07988478
92	0x3d5d0734	0.053961948
93	0x3d7bd985	0.06148674
94	0xbdb35573	-0.087565325
95	0xbceec7cc	-0.029148005
96	0x3de5c5e2	0.11219384
97	0x3db973a9	0.090552635
98	0x3dd69851	0.10478271
99	0xbd1bc552	-0.038029976
100	0x3d80c98e	0.062884435
101	0xbda1dc03	-0.07903292
102	0xbaddf9cc	-0.0016935407
103	0xbdc3751d	-0.09543822
104	0xbd8735f8	-0.066020906
105	0xbc5400a0	-0.012939602
106	0x3d100442	0.03516031
107	0x3ded84c4	0.11597589
108	0x3ce541c7	0.027985467
109	0xbcfa7724	-0.030574389
110	0x3db65c64	0.08904341
111	0xbd5ccb20	-0.053904653
112	0x3d1601ba	0.03662274
113	0xbd75c5fc	-0.060003266
114	0xbc99b424	-0.018762656
115	0x3cac7100	0.021049976
116	0xbdc5bdab	-0.09655317
117	0xbac980a0	-0.0015373416
118	0x3cbbc765	0.022922227
119	0x3e0471b1	0.12933995
120	0xbb68f6ca	-0.0035547488
121	0x3d1fb55a	0.03899131
122	0x3d87ba5c	0.06627342
123	0xbd4ac434	-0.04950352
124	0x3deb3dcb	0.114863954
125	0xbd83449c	-0.064095706
126	0x3cf684eb	0.030092677
127	0x3c961dc2	0.018324737
128	0x3d6ef090	0.058334887
129	0x3ddbc907	0.10731702
130	0xbd6ec374	-0.058291867
131	0xbcf85601	-0.030314447
132	0xbc4c7603	-0.012479308
133	0xbd91309b	-0.07089349
134	0xbcde68f6	-0.027149659
135	0xbdcbf3aa	-0.099585846
136	0x3c278c58	0.010226332
137	0x3cbed64b	0.023295542
138	0x3c67bdc5	0.014144366
139	0xbd81423c	-0.06311461
140	0xbd92f7df	-0.07176184
141	0xbd4b83dd	-0.0496863
142	0x3d60b56f	0.05486053
143	0x3defa685	0.11701683
144	0x3bcbce58	0.0062196665
145	0xbd9e52ac	-0.07730612
146	0xbd5651be	-0.05232405
147	0x3c5903c7	0.0132455295
148	0xbdd3c22e	-0.10339771
149	0xbe0ee54c	-0.13954657
150	0xbd9ea07c	-0.07745454
151	0xbc05884a	-0.00815017
152	0x3c8d9bcb	0.017286202
153	0x3db6320d	0.08896265
154	0x3d0f1ef3	0.034941625
155	0x3df2550c	0.11832628
156	0xbd261edd	-0.040556777
157	0x3cd30c42	0.02576268
158	0xbdd62d8d	-0.10457907
159	0x3dd21fcd	0.10259972
160	0x3da61410	0.08109295
161	0x3e08b4fc	0.1335029
162	0xbd387187	-0.045030143
163	0x3e03207a	0.12805358
164	0x3e0e4c55	0.13896306
165	0x3e24a0df	0.16076992
166	0x3df42743	0.11921551
167	0x3e403fac	0.18774289
168	0x3df45416	0.119301006
169	0x3d9a3a1c	0.07530615
170	0xbd20b244	-0.039232507
171	0xbdcffaae	-0.10155235
172	0xbd2bbf35	-0.041930396
173	0xbd5757c9	-0.052573953
174	0xbe22b752	-0.15890244
175	0xbdf02fe5	-0.11727885
176	0xbe1a3406	-0.15058908
177	0xbdaa0646	-0.08301978
178	0x3cdc341a	0.026880313
179	0xbd7397c8	-0.05947092
180	0x3bf3a3c2	0.007435293
181	0xbb197818	-0.0023417529
182	0x3cf5375a	0.02993362
183	0xbe1a74b2	-0.15083578
184	0xbde78c3d	-0.11306045
185	0xbd700da3	-0.058606755
186	0xbda7f222	-0.0820048
187	0x3ce6834f	0.028138785
188	0x3d5e132f	0.054217514
189	0xbd800f9b	-0.062529765
190	0xbd526fe6	-0.051376246
191	0xbda09246	-0.078403994
192	0x3d8b3734	0.067976385
193	0x3e0bba0d	0.13645191
194	0xbd41dfc0	-0.047332525
195	0xbcac41a6	-0.021027397
196	0x3d80cd39	0.06289143
197	0xbd01e1b8	-0.031709403
198	0x3dea8b24	0.1145232
199	0x3d51ab4b	0.05118875
200	0xb9dc8a5f	-0.00042064764
201	0x3d4c8385	0.049930114
202	0x3db63800	0.088974
203	0xbc1804b4	-0.009278465
204	0xbd963533	-0.07334366
205	0x3c83221a	0.016007472
206	0x3cfc3faf	0.030792085
207	0x3c858204	0.016297348
208	0xbb71e00a	-0.003690722
209	0x3dbd0e37	0.09231227
210	0x3b2ec7d6	0.0026669404
211	0x3cfe5ea3	0.031050986
212	0x3d8c4bcf	0.06850397
213	0xbd860b64	-0.06545141
214	0x3d2a342d	0.041553665
215	0xbbb63c90	-0.005561419
216	0x3d6157cd	0.055015374
217	0xbda6892b	-0.081316315
218	0xbc7ee34e	-0.015557123
219	0xbbb44956	-0.0055019064
220	0xbdcfa1f4	-0.10138312
221	0xbdcc1fcb	-0.099670015
222	0x3cb88055	0.022522131
223	0xbd1b161b	-0.03786288
224	0x3d836f63	0.0641773
225	0xbd3deef0	-0.046370447
226	0xbcd005f2	-0.02539346
227	0xbd94e451	-0.072701104
228	0x3d70f3e1	0.05882633
229	0x3ce9f722	0.028560225
230	0x3c0bd481	0.008534552
231	0x3ba983af	0.0051731686
232	0xbd83123e	-0.06399964
233	0x3d62b529	0.05534855
234	0x3d466635	0.048437316
235	0xbd745375	-0.059649903
236	0x3d491f68	0.049102217
237	0xbabe3cb6	-0.0014513943
238	0xbda08ad5	-0.0783898
239	0x3d9f989e	0.07792781
240	0x3d83f1be	0.06442593
241	0xbcfd7111	-0.030937703
242	0xbd9adf13	-0.07562079
243	0x3c618a65	0.013765906
244	0x3d9b1f18	0.0757429
245	0x3d9fa945	0.077959575
246	0xbdccb80a	-0.0999604
247	0xbd80ebba	-0.06294961
248	0x3da0673d	0.07832191
249	0x3d49fc61	0.049312953
250	0x3d5d3d54	0.054013565
251	0xbd9039a5	-0.07042245
252	0x3dd13123	0.1021445
253	0xbdc69d97	-0.096980266
254	0xbca4bdce	-0.020110037
255	0xbb58d0a6	-0.0033083349

conv1.bias f4 [64]
0	0x3c8ad7b0	0.016948551
1	0xbdd3acf2	-0.10335721
2	0x3cc9fbb3	0.024656152
3	0xbd252cb1	-0.040325824
4	0x3d881af5	0.06645767
5	0x3c9a0e3e	0.01880562
6	0x3d46e5ed	0.048559118
7	0xbc970b54	-0.018438019
8	0x3de6512e	0.112459525
9	0xbd1a8133	-0.03772087
10	0x3b81cbe7	0.0039610746
11	0x3ca3cef7	0.01999615
12	0xbe0d6591	-0.13808276
13	0x3e4597c4	0.19296175
14	0x3d796c4f	0.060894307
15	0x3c80bd9f	0.015715418
16	0xbcd0065d	-0.02539366
17	0xbd532c8a	-0.051556148
18	0x3d9c54cc	0.07633361
19	0x3cce627a	0.025193442
20	0x3cc4659c	0.023974232
21	0xbc6921f7	-0.014229289
22	0xbd5cfa34	-0.05394955
23	0x3d94dd96	0.07268827
24	0xbdc56d0d	-0.096399404
25	0x3d2c7673	0.04210515
26	0xbc19a581	-0.009377838
27	0x3c62d159	0.013843858
28	0x3caf1dba	0.02137648
29	0x3d2e58b5	0.042565066
30	0x3dd71063	0.105011724
31	0xbbef7953	-0.007308164
32	0x3d15c4ef	0.036564764
33	0x3d8d9f28	0.06915122
34	0x3ac26cd2	0.0014833456
35	0xbd82b83e	-0.06382798
36	0xbc15cfe9	-0.009143808
37	0x3d8d94cb	0.06913146
38	0xbd3bd74b	-0.045859616
39	0x3d2a05c1	0.041509394
40	0x3c91e1f2	0.017807934
41	0xbcde75cf	-0.027155785
42	0x3dc50082	0.096192375
43	0xbc900f15	-0.017585317
44	0x3d051f2c	0.03250043
45	0xbc7d38ad	-0.015455407
46	0xbc940cf8	-0.01807259
47	0xbca22f3d	-0.019797916
48	0x3c264b16	0.010149738
49	0xbd6813d0	-0.05665952
50	0xbc885d91	-0.016646178
51	0x3da8a359	0.08234281
52	0x3c483f1b	0.012222077
53	0x3c2e6431	0.010644005
54	0x3c8e9fb8	0.017410144
55	0x3cd00f89	0.025398033
56	0x3da3f7d0	0.08006251
57	0xbc92f859	-0.017940687
58	0xbc0bbc22	-0.008528741
59	0x3d8311c7	0.06399875
60	0x3ca59e5c	0.020217113
61	0xbbca36ac	-0.006171068
62	0xbd2f34b6	-0.04277488
63	0xbdc0bd0c	-0.09411058

conv2.weight f4 [32, 64, 5, 5]
0	0x3b9cd7dc	0.0047864746
1	0xb84d9f0a	-4.9023925e-05
2	0x3d229319	0.039691065
3	0x3d91c69a	0.07117958
4	0xbdeafe1c	-0.11474249
5	0x3d1d699d	0.0384308
6	0xbce8cd64	-0.02841825
7	0xbc630a44	-0.013857428
8	0x3d3a2d8f	0.045453604
9	0xbc679aa1	-0.0141359875
10	0x3ce89152	0.028389607
11	0xbc376340	-0.011193097
12	0xbc7bd363	-0.015370223
13	0x3b9b8600	0.0047461987
14	0x3d304808	0.043037444
15	0xbc88b267	-0.016686631
16	0x3ca2fc38	0.019895658
17	0x3cc603c1	0.024171712
18	0x3cf5a868	0.029987529
19	0x3d4699e8	0.04848662
20	0xbcc04552	-0.023470555
21	0xbc99adc8	-0.018759623
22	0xbd1f3b01	-0.03887463
23	0x3d2de28c	0.04245238
24	0xbb4548ea	-0.0030103275
25	0xbb0dfc8a	-0.0021665418
26	0x3ca1d006	0.019752514
27	0xbd27446d	-0.04083674
28	0xbcfa9fd8	-0.030593798
29	0xbcf3a38f	-0.029741077
30	0xbc080eb4	-0.008304287
31	0xbad5a016	-0.001629832
32	0xbca82564	-0.020525642
33	0x3b8dcf46	0.0043276874
34	0xbc528eac	-0.012851398
35	0x3d93df5f	0.07220339
36	0xba1760c6	-0.0005774613
37	0xbcae19e3	-0.021252578
38	0x3cd785be	0.02630889
39	0x3daa7b55	0.08324305
40	0x3d47d365	0.048785586
41	0x3c48b645	0.012250488
42	0xbd8ca089	-0.06866557
43	0xbc7c2d5e	-0.015391676
44	0x3d37dc97	0.044888105
45	0xbdadcc30	-0.08486211
46	0xbc83290f	-0.01601079
47	0xbd2c1e04	-0.042020813
48	0xbd18b1c2	-0.037278898
49	0x3bb752cb	0.0055945865
50	0xbe30a6df	-0.17251156
51	0xbe3da26b	-0.18518989
52	0xbe7266bd	-0.23672004
53	0xbe453c21	-0.19261219
54	0xbe864a78	-0.2622869
55	0xbe02af68	-0.12762225
56	0xbe037fff	-0.12841795
57	0xbda94cb1	-0.08266581
58	0xbd0538df	-0.03252494
59	0xbdc02aff	-0.09383201
60	0x3d2f2095	0.042755682
61	0x3cbf681d	0.023365075
62	0x3bfde245	0.0077479207
63	0x3d89e36b	0.0673283
64	0x3cbd8d66	0.023138713
65	0x3d5b2913	0.05350597
66	0x3dc95a4b	0.09831675
67	0x3d8bac17	0.06819933
68	0x3db4b5ad	0.088237144
69	0x3d7ccc5e	0.061718337
70	0x3c11b282	0.008892657
71	0x3bfcbf33	0.0077132224
72	0xbcf5e81c	-0.030017905
73	0xbb184bfd	-0.0023238652
74	0x3cf2e0c1	0.029648187
75	0x3c8b16fb	0.016978731
76	0xbbaa425c	-0.005195899
77	0x3b79d9b4	0.0038124146
78	0xbc482b39	-0.012217336
79	0xbd55700c	-0.05210881
80	0x3cc6a167	0.024246885
81	0x3d0883e9	0.033328924
82	0xbb38c8b4	-0.00281958
83	0x3c94036e	0.018068042
84	0x3c00b954	0.007856686
85	0x3bc4ef48	0.00600997
86	0xbc8a9a03	-0.016919142
87	0xbd2b632e	-0.041842632
88	0x3d0f87ee	0.035041742
89	0xbbb9f18a	-0.0056745457
90	0xbbd0982e	-0.0063657975
91	0x3b83b8b4	0.004019821
92	0xbcb3cd67	-0.02194853
93	0x3ca85ffa	0.020553578
94	0xbbb86491	-0.005627223
95	0x3ccaad99	0.024740981
96	0xbc237b0e	-0.009978069
97	0xbc0d6224	-0.008629356
98	0xbcc04e89	-0.023474948
99	0xbb1d49a7	-0.00240002
100	0xbcaf02d7	-0.021363659
101	0xbd7d342f	-0.061817344
102	0xbd071a52	-0.032984085
103	0xbbcd6b2c	-0.0062688794
104	0xbc6446e7	-0.01393292
105	0x3bacac6f	0.005269579
106	0xbbdda4e7	-0.0067640427
107	0xbc073d7f	-0.008254408
108	0xb9dc323f	-0.00041999106
109	0x3c8809d3	0.016606247
110	0x3c8f4a36	0.017491441
111	0x3c29c395	0.010361572
112	0x3d6af40a	0.05736164
113	0x3d02f9b5	0.03197642
114	0xb96fb7a4	-0.00022861228
115	0xbc3ba701	-0.011453391
116	0x3c24fd3d	0.010070142
117	0xbca04a6b	-0.019566735
118	0x3ae601d2	0.001754815
119	0x3b1ded95	0.0024097909
120	0xbd2290dc	-0.03968893
121	0xbd2fe062	-0.042938598
122	0xbd633a4c	-0.055475518
123	0xbd8b5565	-0.06803397
124	0xbd2947cd	-0.04132824
125	0x3db933d1	0.09043086
126	0xbc8962ce	-0.016770747
127	0x3da04b01	0.07826806
128	0x3c06433e	0.008194743
129	0x3db72115	0.08941857
130	0xbd429af5	-0.04751106
131	0xbd03434d	-0.032046605
132	0xbd2134fe	-0.039357178
133	0xbcdd787b	-0.027034989
134	0xbbaa4cf4	-0.005197162
135	0xbc2f38b4	-0.010694671
136	0x3bc60d3b	0.0060440577
137	0x3ce5916c	0.028023444
138	0x3b87e221	0.0041468297
139	0x3a882e1c	0.0010389718
140	0x3c8beee0	0.017081678
141	0x3d08ec61	0.033428553
142	0x3d0f5b52	0.0349992
143	0x3c3ea43e	0.011635838
144	0x3b84bfc9	0.004051183
145	0xbd81b4e6	-0.06333332
146	0xbd84aa0b	-0.064777456
147	0xbd04d667	-0.032431033
148	0xbd8fc2f2	-0.07019605
149	0xbdd37834	-0.10325661
150	0x3c234774	0.009965766
151	0x3c987772	0.018611643
152	0xbb2364b7	-0.0024931857
153	0x3c63d37c	0.013905402
154	0xbd134b76	-0.035960637
155	0xba6a4f5b	-0.00089382165
156	0xbcc0b2c5	-0.023522744
157	0xbd069787	-0.03285935
158	0xbcfe21e7	-0.031022025
159	0xbc020cdd	-0.007937637
160	0xbd11c98f	-0.035592612
161	0xbd5918ab	-0.05300204
162	0x3b492983	0.003069491
163	0x3ac48c18	0.0014995364
164	0xbd27ebc3	-0.040996324
165	0x37392294	1.103491e-05
166	0xbc149cfd	-0.009070632
167	0x3ca3ee29	0.020011025
168	0x3c87b2f5	0.016564826
169	0x3c86e36b	0.016465863
170	0xbc29b204	-0.010357384
171	0xbbb55eb5	-0.0055349716
172	0x3cc83cac	0.024442993
173	0x3cae670e	0.021289375
174	0xba6c79ee	-0.00090208545
175	0x3d59c200	0.05316353
176	0x3d9b1e5a	0.075741485
177	0x3d47761a	0.048696615
178	0xbb4be742	-0.0031113182
179	0x3d3d34de	0.046192996
180	0x3c8910ab	0.01673158
181	0xbcc96b9c	-0.024587445
182	0x3d75e9c9	0.060037408
183	0x3cd01efd	0.025405401
184	0xbc84ac11	-0.016195329
185	0x3c6e2d32	0.014537143
186	0xbc8e64a5	-0.017381975
187	0xbc78fe9f	-0.015197425
188	0x3d3d9172	0.046281286
189	0x3d6f0a64	0.05835952
190	0x3ce1b91e	0.027554091
191	0xbb69c6e9	-0.0035671538
192	0xbd9539ce	-0.07286416
193	0x3b40b45a	0.0029404373
194	0x3d9a6476	0.07538693
195	0x3d82215a	0.063540176
196	0x3ddbb5f0	0.10728061
197	0xbc2a80ee	-0.010406716
198	0xbd4a55e1	-0.049398307
199	0x3d5d7138	0.054063052
200	0xbd7d7404	-0.06187822
201	0x3c6c5273	0.014423954
202	0x3c2a3336	0.010388186
203	0xbc14c603	-0.009080413
204	0xbd043a47	-0.03228214
205	0x3d833e5f	0.06408381
206	0x3d445d98	0.04794082
207	0x3c551cbb	0.013007338
208	0xbd040396	-0.032229982
209	0xbc8e60f8	-0.017380223
210	0x3dc7e7c8	0.09761006
211	0xbb4c0cb6	-0.0031135506
212	0xbcf2b869	-0.02962895
213	0xbb926d00	-0.00446856
214	0xbd49e592	-0.0492912
215	0x3d1a2a6c	0.037638113
216	0x3c9ad435	0.018900016
217	0x3bbda93a	0.0057879956
218	0x3ba4cf04	0.005029561
219	0xbd3b301e	-0.045700185
220	0xbd5d250c	-0.05399041
221	0x3d04f6b7	0.032461848
222	0x3c8e9161	0.017403306
223	0x3aa78143	0.0012779612
224	0xbb9500bb	-0.004547206
225	0x3bfd24b7	0.007725324
226	0x3c817632	0.01580343
227	0x3c7306fc	0.014833208
228	0x3cb19b8a	0.021680612
229	0x3caf3427	0.021387173
230	0x3ca5edb5	0.02025495
231	0x3b72abe9	0.0037028736
232	0x3d20ab5b	0.039225917
233	0x3d1c4e36	0.038160525
234	0xbb85224c	-0.0040629264
235	0xbce56dd5	-0.028006474
236	0xbcece490	-0.02891758
237	0xbc8492e5	-0.016183326
238	0x3a90d198	0.0011048792
239	0xbc824566	-0.015902232
240	0xbd63f049	-0.055649076
241	0xbd22be5e	-0.03973233
242	0xbcf35f4d	-0.029708529
243	0xbcc73128	-0.024315432
244	0xbc674abb	-0.014116938
245	0xbd577284	-0.052599445
246	0xbd4eacea	-0.050457872
247	0xbd4b9bf4	-0.049709275
248	0xbd0327e6	-0.032020472
249	0xbc25c8cb	-0.010118674
250	0xbcb00628	-0.02148731
251	0xbd055cbc	-0.03255914
252	0xbc9ceda2	-0.01915628
253	0x3c848fc0	0.016181827
254	0x3c84e44e	0.016222145
255	0xbd07fa2a	-0.03319756

conv2.bias f4 [32]
0	0xbcb31b9e	-0.021863755
1	0xbc877227	-0.016533924
2	0xbb44c730	-0.0030025952
3	0xbc7f0f48	-0.015567608
4	0x3cdf26af	0.027240125
5	0x3c8c1dc7	0.017104043
6	0xbbaef30c	-0.005339032
7	0x3c29f007	0.010372168
8	0x3c87ce3a	0.016577829
9	0xbc26dba9	-0.010184207
10	0xba8cd4e4	-0.0010744599
11	0xbc690fc5	-0.014224951
12	0x3cf0a094	0.029373445
13	0x3c0e45aa	0.008683601
14	0x3d4f1b59	0.05056319
15	0xba47c5a0	-0.0007620696
16	0xbc5df78b	-0.013547788
17	0xbc84aba9	-0.016195135
18	0x3b88423d	0.004158287
19	0x3ccab84b	0.02474608
20	0x3cb5ca86	0.022191297
21	0x3c56d551	0.013112382
22	0xbc9cd4df	-0.019144474
23	0xb94aea3a	-0.00019351477
24	0xbc0cc98e	-0.008592976
25	0x3d0c9ae8	0.034327418
26	0x3cd403f6	0.025880795
27	0x3ca4d27e	0.020119902
28	0x3c2a91f9	0.010410779
29	0xba09fa59	-0.000526344
30	0xbcb81fe5	-0.022476146
31	0x3b3c13bd	0.0028698288

conv3.weight f4 [1, 32, 5, 5]
0	0x3c96bfbf	0.018401979
1	0x3c90ac67	0.017660333
2	0x39bf1879	0.00036448592
3	0x3ce0f982	0.027462725
4	0x3d0406fe	0.03223323
5	0xbcfb2df9	-0.03066157
6	0xbae3cb8b	-0.0017379386
7	0xbd21bb11	-0.03948504
8	0xbac1376a	-0.0014741246
9	0x3c229a65	0.009924506
10	0xbbf1a1d3	-0.0073740273
11	0x3cc03856	0.023464363
12	0x3b15c378	0.0022852104
13	0xbd25ce9c	-0.04048024
14	0xbc0e7385	-0.008694534
15	0xbc9630f3	-0.018333888
16	0xbcf05a40	-0.02933991
17	0xbb55503f	-0.003254905
18	0xbd0f4217	-0.034975138
19	0x3c96bf7a	0.01840185
20	0x3b953edb	0.004554612
21	0x3c86d912	0.016460929
22	0x3ccb5a33	0.024823284
23	0x3d06dea3	0.032927167
24	0xbc64d3de	-0.013966529
25	0x3ab95b89	0.001414166
26	0xbd0b3e48	-0.033994943
27	0x3c057fee	0.008148177
28	0x3cd6aa4c	0.02620425
29	0xbcbc719e	-0.023003396
30	0x3ca294b5	0.0198463
31	0xbc86d1d9	-0.016457485
32	0x3c297fe9	0.010345438
33	0xbc82e910	-0.015980273
34	0x3bcc7af3	0.0062402426
35	0xbd0bf7dc	-0.034171924
36	0x3cd8ad64	0.026449867
37	0xbc0126ff	-0.007882833
38	0x3d03a445	0.03213908
39	0xbc553ebe	-0.013015447
40	0x3c73cd01	0.01488042
41	0xbc8f541b	-0.01749616
42	0xbc81c1ae	-0.015839424
43	0xbc274aac	-0.010210674
44	0x3c88777c	0.016658537
45	0x3c6a7109	0.014309176
46	0x3ca5ea23	0.020253247
47	0xbbd4e3ce	-0.006496883
48	0x3b617e7a	0.0034407661
49	0x3cb14fd9	0.02164452
50	0xbc6267e7	-0.013818718
51	0xbc34daa8	-0.01103846
52	0x3cde0d7e	0.027106043
53	0xbcf5bb52	-0.029996548
54	0xbc8c6945	-0.01714004
55	0xbc9db45c	-0.019251041
56	0xbbe1fee6	-0.0068968413
57	0xbcd3a34a	-0.025834698
58	0x3c07fcb8	0.008299999
59	0xbcc7d19b	-0.02439194
60	0xbc79c215	-0.015244027
61	0xbd0b6c8b	-0.03403906
62	0x3cbf3c0d	0.023344064
63	0xbcb49dc3	-0.022047883
64	0xbb918dc9	-0.004441951
65	0xbca9c05b	-0.020721605
66	0xbb8faa83	-0.0043843403
67	0xbbeab97d	-0.007163225
68	0xbc3ff374	-0.011715759
69	0xba377fc5	-0.0006999935
70	0x3c780014	0.015136737
71	0x3cf01325	0.029306004
72	0x3cd36e42	0.025809411
73	0xbcd632fd	-0.02614736
74	0xbb88ddb8	-0.0041768216
75	0xbd6a2a36	-0.05716916
76	0x3c6aaf13	0.0143239675
77	0x3c5cec90	0.013484135
78	0xbbecf680	-0.0072315335
79	0x3bb3df04	0.005489232
80	0x3d1b8d62	0.03797663
81	0x3d524b40	0.051341295
82	0x3ba7b2c5	0.0051177465
83	0xbc365de8	-0.011130787
84	0x3bfe0dc2	0.007753105
85	0x3d514e5b	0.051100116
86	0x3d283385	0.041064758
87	0x3bdf5ef1	0.006816738
88	0xbcc3b464	-0.023889728
89	0xba763df2	-0.0009393386
90	0x3bf2e623	0.0074126883
91	0xbc95684e	-0.018238213
92	0xbd95bc33	-0.07311287
93	0xbd3239eb	-0.043512266
94	0x3a4fc7a0	0.000792617
95	0xbbf43d07	-0.007453564
96	0xbccb5d4c	-0.02482476
97	0xbcfa0309	-0.030519025
98	0x3b10a69b	0.002207196
99	0x3d32595b	0.043542247
100	0x3bb2cc79	0.005456504
101	0x3bec129f	0.0072043682
102	0x3c66fb14	0.014097948
103	0xbb4929fc	-0.003069519
104	0x3b760ed2	0.0037545455
105	0xbc093197	-0.00837364
106	0x3cff88e4	0.031193204
107	0xba0f33d7	-0.0005462742
108	0x3ccc71aa	0.024956543
109	0xbca822fe	-0.020524498
110	0xbce75718	-0.028239772
111	0x3b85c38d	0.0040821494
112	0xbd0462d9	-0.03232083
113	0x3ca5cc12	0.02023891
114	0x3ca7441a	0.020418216
115	0x3ce6598c	0.028118871
116	0x3cff7722	0.031184737
117	0x3c32ad2c	0.010905545
118	0x3c542722	0.012948783
119	0xbbc13506	-0.0058962135
120	0x3d02a764	0.031897917
121	0x3c69c3cb	0.014267872
122	0xbc1529c6	-0.009104198
123	0xbd096e70	-0.033552587
124	0x3b559c2c	0.0032594306
125	0x3ba6d9d0	0.0050918832
126	0x3d12aa1a	0.035806753
127	0x3cfc5863	0.030803865
128	0x3d0396b9	0.032126162
129	0x3ac5aa36	0.0015080634
130	0x3c462ac6	0.012095159
131	0xbcb7ea75	-0.022450665
132	0x3c1066c9	0.008813568
133	0x3c3ec69a	0.01164403
134	0xbc5b96dd	-0.013402668
135	0xbca91642	-0.020640496
136	0x3bfef06c	0.0077801254
137	0xbcef1709	-0.029185789
138	0xbc84e69b	-0.016223243
139	0x3ceddda2	0.029036347
140	0x3caa62b8	0.020799026
141	0xbd189196	-0.037248217
142	0xbd17a631	-0.037023727
143	0x3cbb88be	0.022892352
144	0xbb18de5c	-0.0023325896
145	0x3be8f755	0.0071095624
146	0xbcaba09f	-0.020950614
147	0xbc520a48	-0.012819834
148	0x3ceea91d	0.029133374
149	0xbc98155f	-0.018564878
150	0x3c430fe6	0.011905646
151	0x3a69005f	0.00088883
152	0x3c354863	0.011064622
153	0x3abdb19a	0.0014472485
154	0xbbe63e02	-0.007026435
155	0x3c4ab285	0.012371664
156	0x3c17eaef	0.009272321
157	0xbb58a793	-0.0033058866
158	0x3cc67fc8	0.024230853
159	0x3d04b441	0.032398466
160	0x3c9899ec	0.018628083
161	0xbc2cb28b	-0.010540615
162	0xbcd8159c	-0.026377492
163	0xbcc769da	-0.024342466
164	0xbc8de6fb	-0.017322054
165	0xbb59d532	-0.0033238647
166	0x3c91d127	0.017799927
167	0x3c1df316	0.009640476
168	0x3d016d90	0.031598628
169	0xbd109722	-0.03530038
170	0xbcaa8bc5	-0.0208186
171	0x3d03503e	0.032058947
172	0xbccc49a2	-0.024937455
173	0x3cbd10e6	0.023079347
174	0x3a49cbb1	0.0007697894
175	0xbb892ac4	-0.0041860063
176	0x3cccf47a	0.02501892
177	0x3ce15cf8	0.027510151
178	0xbc69daa7	-0.014273322
179	0xbafdbcce	-0.0019358636
180	0x3d070272	0.032961316
181	0x3cf0862d	0.029360855
182	0x3c6b2269	0.014351466
183	0xbcad4908	-0.021152988
184	0xbcc1f50a	-0.023676414
185	0x3ccedf30	0.025252908
186	0x3ca537ff	0.020168303
187	0xbb77b093	-0.0037794455
188	0x3d0cfd49	0.03442124
189	0x3ccccdb8	0.025000438
190	0xbc02178b	-0.007940183
191	0x3c78c689	0.015184053
192	0x3d0cb6bd	0.03435396
193	0x3ca91d42	0.020643834
194	0xbc8b0680	-0.016970873
195	0xbd0993e2	-0.033588298
196	0x3c2d4c23	0.010577234
197	0x3c577bf3	0.01315211
198	0xbd0e61e7	-0.034761336
199	0x3bacdf59	0.0052756486
200	0xbc697c28	-0.014250793
201	0xbc0aea49	-0.0084787095
202	0xbce9afe5	-0.028526256
203	0xbcba5204	-0.022744186
204	0x3ce7bfd3	0.028289711
205	0x3b93cac4	0.0045102555
206	0xbc60d773	-0.013723242
207	0xbd3c10af	-0.04591435
208	0x3a31255f	0.0006757583
209	0x3a24e9ae	0.00062909245
210	0xbc804a56	-0.015660446
211	0x3d53a4b1	0.051670734
212	0x3d76e717	0.06027898
213	0xbcba5d14	-0.022749461
214	0xbbbbf022	-0.005735413
215	0xbd84536f	-0.06461226
216	0x3d8ec833	0.06971779
217	0x3da4971e	0.08036636
218	0xbcc3d25d	-0.02390402
219	0xbcedf103	-0.029045587
220	0xbd169b39	-0.036769126
221	0xbd07793c	-0.033074602
222	0x3d154b01	0.036448482
223	0x3bea4557	0.0071493792
224	0xbcec3625	-0.028834412
225	0x3d0c1ce3	0.034207236
226	0xbc655662	-0.013997646
227	0x3c5e88a6	0.013582384
228	0x3cab07eb	0.020877799
229	0x3c311eec	0.010810595
230	0x3d065483	0.03279544
231	0xbcd11566	-0.025522899
232	0x3b36be48	0.0027884413
233	0xbb0b66cb	-0.0021270986
234	0x3c814404	0.015779503
235	0xbc809b48	-0.015699044
236	0xbcb14485	-0.021639118
237	0xbce2f5a6	-0.027705025
238	0x3cc538da	0.02407496
239	0x3c2a000a	0.010375986
240	0xbd0bf3e8	-0.034168154
241	0xbb2e89e1	-0.0026632475
242	0xbcf6620a	-0.030076046
243	0xbcf999c6	-0.030468833
244	0x3cb47f8c	0.022033475
245	0xbc9740c0	-0.018463492
246	0x3ca971a3	0.020684069
247	0x3d05e126	0.03268542
248	0x3b9bfb9c	0.004760219
249	0x3c79bf4d	0.015243364
250	0xbcfcfff0	-0.03088376
251	0xbc773a06	-0.015089517
252	0xbaff27af	-0.0019466783
253	0x3bf78856	0.0075540943
254	0x3c6a2cf3	0.014292943
255	0x3c9bf982	0.019039873
