Lecture8_Image restoration (HuStar_4)/outputs/x3/epoch_43.pth (torch, 231589 bytes, 5 tensors)

conv1.weight f4 [64, 1, 9, 9]
0.011583396 0.03256731 -0.03889483 0.065372296 -0.07302424 0.09688844 -0.065530084 -0.07137709
-0.032616217 0.06829291 -0.047947016 0.030218665 -0.10399662 -0.07917551 -0.05410459 -0.035694435
-0.10555322 0.06520003 -0.015025475 0.025480544 0.070946805 0.022620583 0.04232952 0.11767053
-0.05236609 0.013616274 -0.07297683 0.056020275 0.04579092 -0.12743321 0.110851794 0.09995587
0.09190427 0.06413089 0.077749275 -0.04458635 -0.121696085 -0.071348935 -0.08597003 0.060425937
0.055898447 -0.005845371 0.0065869344 0.09190357 -0.03507502 -0.009299241 -0.04429311 0.018543694
0.14378175 0.11265603 0.054836072 0.016937152 0.012865114 0.023238659 -0.00076923857 -0.13086599
-0.08419361 0.09714221 6.141438e-05 -0.115183786 -0.00204066 0.095231205 -0.1021678 -0.019372484
-0.06179884 -0.026846057 -0.056639697 -0.046465248 -0.145819 0.04550057 0.12648875 0.088082954
0.033058852 -0.079354525 0.010180428 -0.038028046 0.020178504 -0.12512186 0.0031909666 0.11072255
0.056287743 0.015958594 0.02671507 0.006970861 -0.07549944 -0.07491962 -0.10941681 0.0730275
0.033938497 0.008830259 -0.085938044 0.083410785 0.047679517 0.0629223 -0.072528936 -0.006530115
0.11567005 0.084758766 0.09250544 -0.037286878 0.06929554 -0.07985646 0.005247415 -0.07525598
-0.041136112 -0.011314396 0.02402326 0.0991599 0.027186096 -0.023604982 0.088964395 -0.047228865
0.057134163 -0.03141628 -0.013584074 0.014505781 -0.10663746 -0.009010518 0.022171909 0.11749604
-0.011139446 0.045899045 0.08503175 -0.05033174 0.10578075 -0.07484808 0.02676157 0.021201001
0.045055557 0.09535613 -0.0590445 -0.016317727 -0.014075459 -0.08123134 -0.039806947 -0.10040351
0.015556299 0.011123411 0.0028220594 -0.06557841 -0.05804855 -0.051507324 0.042569503 0.10229209
0.015508765 -0.062048674 -0.05407883 0.011479534 -0.10026712 -0.12188802 -0.073239 -0.013072283
0.008393365 0.09458747 0.04860788 0.1181891 -0.041908044 0.02510354 -0.094417065 0.100939356
0.07516803 0.12727657 -0.06057048 0.1193485 0.13591841 0.15478347 0.10532321 0.17998427
0.1226056 0.08920686 -0.03502618 -0.10017767 -0.025102988 -0.01996662 -0.12082946 -0.08743333
-0.12489716 -0.061004296 0.05173731 -0.05003298 -0.0018379508 0.0024132046 0.05032503 -0.12569194
-0.096444525 -0.04630245 -0.07428007 0.03752543 0.0489613 -0.07767425 -0.06162643 -0.07933855
0.06819035 0.13145982 -0.051567666 -0.024446366 0.06206351 -0.04333306 0.10964968 0.045813598
-0.004296696 0.042412672 0.07805455 -0.01583927 -0.07596275 0.016526818 0.02372363 0.012334532
-0.009430836 0.087132595 -0.007114507 0.019375581 0.060705956 -0.069225244 0.041183893 -0.010944101
0.059766993 -0.07560988 -0.007401423 -0.00061269046 -0.0978016 -0.095342636 0.026928172 -0.030002588
0.06871612 -0.06289328 -0.038798902 -0.081755444 0.047059886 0.013606992 -0.0069927163 -0.009056883
-0.07239696 0.043107957 0.047804974 -0.05726082 0.05657747 0.005030043 -0.07649472 0.08350163
0.070550784 -0.018276006 -0.075427346 0.007333496 0.08001625 0.09149437 -0.09244174 -0.056380417
0.08337161 0.050975464 0.060090914 -0.06418859 0.09718698 -0.09469269 -0.012192474 -0.0030935837
00000000: 49c8 3d3c 4d65 053d 2f50 1fbd e9e1 853d
00000010: bc8d 95bd 726d c63d a334 86bd 272e 92bd
00000020: 9598 05bd 27dd 8b3d 1764 44bd 228d f73c
00000030: 2efc d4bd c526 a2bd c69c 5dbd 5434 12bd
00000040: 492c d8bd 9887 853d 692d 76bc 93bc d03c
00000050: 8f4c 913d cd4e b93c b861 2d3d 3ffd f03d
00000060: d37d 56bd cb16 5f3c e074 95bd 8475 653d
00000070: 428f 3b3d da7d 02be 4406 e33d aab5 cc3d
00000080: 4e38 bc3d 0e57 833d 033b 9f3d 2da0 36bd
00000090: cc3b f9bd 641f 92bd 0e11 b0bd 3081 773d
000000a0: c5f5 643d 878a bfbb 36d7 d73b f037 bc3d
000000b0: d3aa 0fbd d85b 18bc b16c 35bd f2e8 973c
000000c0: 863b 133e 34b8 e63d ca9b 603d c8bf 8a3c
000000d0: 33c8 523c 005f be3c baa6 49ba bc01 06be
000000e0: b36d acbd 7ff2 c63d 98cb 8038 7ae5 ebbd
000000f0: 98bc 05bb 9408 c33d 5a3d d1bd 0bb3 9ebc
00000100: c820 7dbd 43ec dbbc 07ff 67bd 5852 3ebd
00000110: 9351 15be ce5e 3a3d 4486 013e d664 b43d
00000120: b868 073d a084 a2bd cfcb 263c 4cc3 1bbd
00000130: 644d a53c f21f 00be 891f 513b 81c2 e23d
00000140: fa8d 663d 99bb 823c 90d9 da3c d26b e43b
00000150: 739f 9abd 756f 99bd ec15 e0bd 718f 953d
00000160: 1803 0b3d caac 103c 4900 b0bd 46d3 aa3d
00000170: 994b 433d 68dd 803d 0d8a 94bd 93fa d5bb
00000180: 6be4 ec3d 0196 ad3d 7e73 bd3d 20ba 18bd
00000190: d2ea 8d3d c98b a3bd 82f2 ab3b cf1f 9abd
000001a0: 577e 28bd 0460 39bc 6ecc c43c 5814 cb3d
000001b0: 60b5 de3c 3c5f c1bc f732 b63d 0e73 41bd
000001c0: 8305 6a3d 5bae 00bd bc8f 5ebc a8a9 6d3c
000001d0: be64 dabd daa0 13bc dda1 b53c c4a1 f03d
000001e0: 3982 36bc a300 3c3d 2025 ae3d a828 4ebd
000001f0: 94a3 d83d f349 99bd 143b db3c b9ad ad3c
00000200: 2d8c 383d 134a c33d a5d8 71bd c1ac 85bc
00000210: c19c 66bc 9e5c a6bd 9c0c 23bd 5ba0 cdbd
00000220: d9df 7e3c f83e 363c 4df2 383b f94d 86bd
00000230: 51c4 6dbd 58f9 52bd 5c5d 2e3d 847e d13d
00000240: 7a18 7e3c c026 7ebd c381 5dbd a814 3c3c
00000250: d958 cdbd 6da0 f9bd 54fe 95bd 212d 56bc
00000260: 5384 093c 13b7 c13d 0e19 473d 200d f23d
00000270: c5a7 2bbd f0a5 cd3c bc5d c1bd 4bb9 ce3d
00000280: b2f1 993d ca54 023e c018 78bd fd6c f43d
00000290: 322e 0b3e 8f7f 1e3e b2b3 d73d cc4d 383e
000002a0: a518 fb3d 16b2 b63d 9d77 0fbd f329 cdbd
000002b0: c8a4 cdbc 0991 a3bc 7075 f7bd 3f10 b3bd
000002c0: 15ca ffbd a4df 79bd 80ea 533d 62ef 4cbd
000002d0: 65e7 f0ba db26 1e3b 9e21 4e3d 63b5 00be
000002e0: b584 c5bd a3a7 3dbd 2620 98bd 44b4 193d
000002f0: a58b 483d ad13 9fbd ff6b 7cbd 407c a2bd
00000300: 62a7 8b3d 679d 063e 9e38 53bd bf43 c8bc
00000310: 4f36 7e3d 027e 31bd 0390 e03d 0aa7 3b3d
00000320: 4ccb 8cbb e9b8 2d3d 10db 9f3d 5bc1 81bc
00000330: 5c92 9bbd 4063 873c 0f58 c23c c716 4a3c
00000340: cb83 1abc 9372 b23d cf20 e9bb 8ab9 9e3c
00000350: cfa6 783d f7c5 8dbd 71b0 283d e34e 33bc
00000360: 3cce 743d 5ad9 9abd a387 f2bb f69c 20ba
00000370: 354c c8bd 0043 c3bd 7898 dc3c fdc7 f5bc
00000380: 0abb 8c3d 31ce 80bd 99eb 1ebd 666f a7bd
00000390: dec1 403d dcef 5e3c 2823 e5bb 5263 14bc
000003a0: db44 94bd f891 303d 26cf 433d 528a 6abd
000003b0: c7bd 673d 0fd3 a43b 44a9 9cbd e702 ab3d
000003c0: ee7c 903d 90b7 95bc a779 9abd d34d f03b
000003d0: 8fdf a33d 6661 bb3d 1852 bdbd 27ef 66bd
000003e0: bcbe aa3d a6cb 503d e421 763d 4f75 83bd
000003f0: f809 c73d 3eee c1bd f1c2 47bc b9bd 4abb

conv1.bias f4 [64]
0.013588483 -0.108333796 0.02006893 -0.052595943 0.062480245 0.008122211 0.05217815 -0.022591654
0.12077873 -0.040593725 0.0053618867 0.029977843 -0.120894715 0.14828162 0.065013535 0.018257644
-0.030215632 -0.06548663 0.060089037 0.03445652 0.019797465 -0.005636983 -0.061552476 0.073192246
-0.08366175 0.05238249 -0.0074384203 0.006480982 0.023106977 0.041020922 0.090180844 -0.0062819663
0.03923649 0.072863154 -0.0008541807 -0.074986555 -0.0030016205 0.08075672 -0.0380419 0.043599743
0.014087563 -0.02693305 0.09753913 -0.022370044 0.034299783 -0.013763383 -0.014967107 -0.023176808
0.008887566 -0.04783568 -0.016818648 0.075745955 0.016077306 0.0073550185 0.005714113 0.013877839
0.092402495 -0.038837828 -0.014038705 0.06980084 0.038497563 -0.019063683 -0.0577853 -0.08166482
00000000: 3ba2 5e3c 1cde ddbd 9967 a43c d86e 57bd
00000010: 49eb 7f3d 0613 053c c1b8 553d 2212 b9bc
00000020: d75a f73d 9b45 26bd c4b2 af3b 1894 f53c
00000030: a697 f7bd 23d7 173e d125 853d 0e91 953c
00000040: c686 f7bc db1d 86bd ec1f 763d 4822 0d3d
00000050: 4b2e a23c 71b6 b8bb 731e 7cbd d1e5 953d
00000060: da56 abbd 068f 563d febd f3bb 6b5e d43b
00000070: d84a bd3c 8e05 283d bcb0 b83d f4d8 cdbb
00000080: 71b6 203d 4739 953d 19eb 5fba 8d92 99bd
00000090: d6b6 44bb c763 a53d d3d1 1bbd a595 323d
000000a0: 86cf 663c b3a2 dcbc 98c2 c73d 6241 b7bc
000000b0: ee7d 0c3d d07f 61bc 9938 75bc 4add bdbc
000000c0: 279d 113c 59ef 43bd 43c7 89bc b220 9b3d
000000d0: 8eb4 833c 5e02 f13b 743d bb3b e05f 633c
000000e0: 853d bd3d 6a14 1fbd 9902 66bc bef3 8e3d
000000f0: 9faf 1d3d 712b 9cbc 47b0 6cbd e33f a7bd

conv2.weight f4 [32, 64, 5, 5]
0.0050909747 -0.0007507032 0.04864282 0.07077292 -0.095550634 0.022759885 -0.034717854 -0.015847595
0.035078447 -0.019348789 0.034741774 -0.008234219 -0.010348501 0.0021116396 0.041702416 -0.011152554
0.017995184 0.014201679 0.018671414 0.04700288 -0.018027011 -0.011470602 -0.04405181 0.023255091
-0.0055366396 0.0024116863 0.025753843 -0.012607477 -0.031261656 -0.03261769 0.012661465 0.032070514
0.011371591 0.014108831 0.008146368 0.065392956 0.021280535 0.01916573 0.037007455 0.09138197
0.010916404 0.005224661 -0.042181827 -0.013274233 0.0238432 -0.07722657 -0.009707395 -0.011269812
-0.021326268 0.0060281167 -0.13345578 -0.14806555 -0.19079155 -0.15209801 -0.23731966 -0.06799873
-0.08219931 -0.06098015 -0.011279273 -0.07216807 0.025091698 0.0032016207 -0.029112095 0.03498497
0.011956513 0.008825918 0.056785386 0.029829826 0.043592684 0.0346122 -0.011588316 0.003915337
-0.018261574 -0.009274781 0.017314823 0.03075715 0.001217717 0.0051312484 -0.007711869 -0.027468579
0.01904632 0.028366685 -0.008574319 0.0075212847 0.013631055 0.010399619 -0.012579805 -0.036653377
0.036408022 0.0073384317 -0.0002474936 0.009453183 -0.0136313895 0.025530105 0.0071705584 0.028408775
-0.0055610323 -0.0053969338 -0.01953096 0.005117839 -0.037914112 -0.06392242 -0.024310874 -0.015174142
-0.022855861 0.002140088 -0.011699704 0.00072377344 0.007407714 0.0168793 0.006858868 0.00039157234
0.05473793 0.033120252 -0.0042967703 -0.019350924 0.0045159347 -0.022557784 0.0005494475 -0.00015578432
-0.032928064 -0.031150278 -0.046529025 -0.059324212 -0.035595015 0.06588376 -0.030872632 0.07343636
0.034728263 0.118589014 -0.050408017 -0.029117227 -0.027389605 -0.012768949 0.01089393 -0.012322148
0.0046176314 0.029444315 0.002337315 0.000301593 0.025458679 0.038215574 0.036204915 0.013337099
0.008607813 -0.042981442 -0.04208518 -0.009187331 -0.05015639 -0.08105495 0.007738666 0.013961108
-0.006711234 0.0130735235 -0.03617202 0.009570851 -0.007949712 -0.028392902 -0.025427004 0.008067589
-0.024383415 -0.037518606 0.0032694088 4.912469e-05 -0.02243191 0.012911461 -0.006094838 0.007011705
0.004176011 0.011961524 0.007899612 0.011437348 0.030976254 0.026179954 0.00601998 0.036012847
0.0633882 0.036968052 -0.005482983 0.048884492 0.0033815908 -0.03342558 0.05121824 0.015223945
-0.0113769295 0.003756595 -0.024850858 -0.02771407 0.026114581 0.038797744 0.006481519 -0.005250966
-0.08295553 -0.01978511 0.054514296 0.01830834 0.11327126 0.002868185 -0.06742103 0.025056727
-0.068205655 0.011086518 0.00753308 0.0018684386 -0.009477448 0.05001472 0.039647065 0.014015194
-0.029891815 -0.0362464 0.08974887 0.005602977 -0.010137152 0.0023904932 -0.055653177 0.045637902
0.027873326 0.017951231 0.01927191 -0.026178658 -0.04151166 0.02915087 0.009120136 -0.005076033
0.0002109144 -0.009742413 -0.00060753344 -0.010952674 -0.004477673 0.0023741135 0.014080195 0.00079123554
0.030211696 0.030300284 -0.004463046 -0.022317074 -0.016935559 -0.005657388 0.000668765 -0.01967168
-0.050864685 -0.028600587 -0.016876847 -0.024968691 -0.023039056 -0.026273612 -0.028880706 -0.033125706
-0.02049881 -0.009474665 -0.026796434 -0.03176455 -0.014964543 0.016218299 0.013093526 -0.033642877
00000000: 31d2 a63b d7ca 44ba b23d 473d 65f1 903d
00000010: 0db0 c3bd f072 ba3c 4f34 0ebd d1d2 81bc
00000020: 6bae 0f3d 5a81 9ebc 644d 0e3d d1e8 06bc
00000030: c28c 29bc 6f63 0a3b 27d0 2a3d 34b9 36bc
00000040: a36a 933c 29ae 683c cbf4 983c 1886 403d
00000050: 62ad 93bc 31ef 3bbc ac6f 34bd 7681 be3c
00000060: b36c b5bb 620d 1e3b b9f9 d23c 978f 4ebc
00000070: 390c 00bd 209a 05bd 0972 4f3c 5f5c 033d
00000080: e94f 3a3c ba28 673c 5878 053c beec 853d
00000090: 8454 ae3c 7301 9d3c 2195 173d 7826 bb3d
000000a0: b8da 323c a233 ab3b dac6 2cbd 2b7c 59bc
000000b0: d152 c33c f728 9ebd c40b 1fbc 04a5 38bc
000000c0: 6db4 aebc 8287 c53b a2a8 08be 7f9e 17be
000000d0: dc5e 43be 95bf 1bbe ed03 73be eb42 8bbd
000000e0: 1d58 a8bd 52c6 79bd b3cc 38bc dacc 93bd
000000f0: 1b8d cd3c 48d2 513b 7d7c eebc 664c 0f3d
00000100: 40e5 433c 959a 103c cb97 683d ae5d f43c
00000110: 3e8e 323d 86c5 0d3d ecdc 3dbc 3a4c 803b
00000120: 4c99 95bc 40f5 17bc d1d7 8d3c 6bf6 fb3c
00000130: cd9b 9f3a 0824 a83b d9b3 fcbb c905 e1bc
00000140: 0707 9c3c 4061 e83c 4d7b 0cbc 1c75 f63b
00000150: ca54 5f3c 2a63 2a3c 871b 4ebc da21 16bd
00000160: 9420 153d 3a77 f03b 07c2 81b9 86e1 1a3c
00000170: 3156 5fbc 8324 d13c 01f7 ea3b 85b9 e83c
00000180: 5239 b6bb c3d8 b0bb 64ff 9fbc 8cb3 a73b
00000190: d44b 1bbd c2e9 82bd 9927 c7bc f79c 78bc
000001a0: 373c bbbc b840 0c3b 1eb0 3fbc 9dbb 3d3a
000001b0: 69bc f23b 7546 8a3c 5bc0 e03b f34b cd39
000001c0: e134 603d 1aa9 073d eccb 8cbb d485 9ebc
000001d0: 68fa 933b 1acb b8bc cc08 103a 095a 23b9
000001e0: 94df 06bd de2e ffbc 3895 3ebd f2fd 72bd
000001f0: 14cc 11bd 11ee 863d 9ae8 fcbc cd65 963d
00000200: 393f 0e3d ccde f23d a378 4ebd 4087 eebc
00000210: 2a60 e0bc db34 51bc 747c 323c d6e2 49bc
00000220: 804f 973b 3435 f13c a32d 193b 211f 9e39
00000230: b88e d03c ef87 1c3d 9b4b 143d d983 5a3c
00000240: c907 0d3c 4f0d 30bd 8261 2cbd 7686 16bc
00000250: c970 4dbd 2300 a6bd a394 fd3b 22bd 643c
00000260: e9e9 dbbb 5532 563c 1d29 14bd 0fcf 1c3c
00000270: 823f 02bc 3b98 e8bc 4b4c d0bc ec2d 043c
00000280: babf c7bc 1cad 19bd 9443 563b 3c0b 4e38
00000290: 20c3 b7bc 988a 533c 35b7 c7bb 72c2 e53b
000002a0: ebd6 883b 45fa 433c 606d 013c b763 3b3c
000002b0: eac1 fd3c 5877 d63c 4143 c53b 3582 133d
000002c0: acd1 813d d06b 173d 98aa b3bb 1b3b 483d
000002d0: ae9d 5d3b 43e9 08bd 38ca 513d da6d 793c
000002e0: 4d66 3abc 3531 763b 0794 cbbc 9e08 e3bc
000002f0: 3fee d53c 62ea 1e3d ec62 d43b 4c10 acbb
00000300: 97e4 a9bd 6214 a2bc 624a 5f3d 5ffb 953c
00000310: c3fa e73d 29f8 3b3b 0914 8abd c443 cd3c
00000320: 68af 8bbd 3aa4 353c 0ed8 f63b 65e6 f43a
00000330: 4c47 1bbc 3cdc 4c3d f664 223d fc9f 653c
00000340: aedf f4bc 1b77 14bd 41ce b73d 2d99 b73b
00000350: 4c16 26bc d2a9 1c3b 96f4 63bd cfee 3a3d
00000360: 9a56 e43c 760e 933c 20e0 9d3c a074 d6bc
00000370: 2108 2abd cecd ee3c 9f6c 153c da54 a6bb
00000380: e728 5d39 a49e 1fbc e142 1fba d872 33bc
00000390: 72b9 92bb 0497 1b3b 9eb0 663c eb6a 4f3a
000003a0: 857e f73c 4d38 f83c be3e 92bb 4cd2 b6bc
000003b0: 71bc 8abc 9c61 b9bb 0f50 2f3a 8126 a1bc
000003c0: 7d57 50bd c74b eabc 5041 8abc 248b ccbc
000003d0: 67bc bcbc c23b d7bc 3b97 ecbc d2ae 07bd
000003e0: 1fed a7bc a03b 1bbc 3284 dbbc 8b1b 02bd
000003f0: d82d 75bc 3ddc 843c 3a86 563c 1dcd 09bd

conv2.bias f4 [32]
-0.01507903 -0.018495008 -0.0030025952 -0.008081441 0.025046889 0.015083096 -0.007589801 0.008678442
0.022350807 -0.00974607 0.0003183427 -0.004158502 0.02778108 0.014242005 0.02506505 -0.010359637
-0.01449916 -0.018359952 0.008804894 0.022832794 0.025613114 0.0127026085 -0.013551291 -0.0028052058
-0.006744913 0.033138428 0.022570644 0.020415232 0.008684245 -0.004434866 -0.0148877315 -0.00018859644
00000000: 090e 77bc d882 97bc 30c7 44bb 0568 04bc
00000010: 222f cd3c 171f 773c deb3 f8bb 0630 0e3c
00000020: 0a19 b73c fbad 1fbc 3ce7 a639 0b44 88bb
00000030: 2695 e33c 4c57 693c 3855 cd3c 78bb 29bc
00000040: e38d 6dbc 9c67 96bc 6742 103c d70b bb3c
00000050: 98d2 d13c 9a1e 503c 3c06 5ebc 8bd7 37bb
00000060: 6e04 ddbb 29bc 073d 12e6 b83c d83d a73c
00000070: 5d48 0e3c 5a52 91bb aceb 73bc f9c1 45b9

conv3.weight f4 [1, 32, 5, 5]
0.017161796 0.017688924 -0.00017611835 0.026623985 0.031895254 -0.030758368 -0.0002764832 -0.037465297
0.0009070564 0.0102469325 -0.005148605 0.026324583 0.0071556265 -0.036134455 -0.0065998975 -0.019134317
-0.030048026 -0.0016724888 -0.03435309 0.019583495 0.0021164506 0.013151479 0.022849752 0.03079272
-0.016648281 0.0016981377 -0.033785503 0.008089488 0.026271071 -0.022606678 0.02013 -0.016682066
0.010179408 -0.015663585 0.006551279 -0.033667773 0.026338425 -0.008026469 0.032572497 -0.012638996
0.015218722 -0.017195903 -0.015418224 -0.009537136 0.016960233 0.014269595 0.020498363 -0.006085124
0.0038970402 0.021702811 -0.013818718 -0.01103846 0.027106043 -0.029996548 -0.01714004 -0.019251041
-0.0068968413 -0.025834698 0.008299999 -0.02439194 -0.015244027 -0.03403906 0.023344064 -0.022047883
-0.004441951 -0.020721605 -0.0043843403 -0.007163225 -0.011715759 -0.0006999935 0.015136737 0.029306004
0.025809411 -0.02614736 -0.0041768216 -0.057266902 0.0154229645 0.022868983 -0.0023463909 0.006058028
0.04132772 0.041690648 -0.0024130202 -0.015479178 0.0019725414 0.044459637 0.03166642 0.012052115
-0.016065158 -0.007618424 0.00421881 -0.020528154 -0.06623348 -0.03428235 -0.0014971917 -0.006519101
-0.025307722 -0.025868224 0.003753366 0.038200006 0.005979302 0.007610295 0.014277947 -0.002984322
0.0037461969 -0.0078050634 0.031664763 -0.00025334605 0.02514853 -0.020590397 -0.027890416 0.0043639173
-0.032051332 0.020402897 0.02031695 0.028542683 0.031646345 0.011140708 0.01308656 -0.005767818
0.032075576 0.014650654 -0.008869347 -0.033384807 0.0035732696 0.005057664 0.03382895 0.02864606
0.03234001 0.002698423 0.010842049 -0.02472934 0.007817116 0.0105754975 -0.016715026 -0.019312851
0.011203524 -0.02501786 -0.0139291445 0.02865884 0.024230408 -0.034177434 -0.034593847 0.023538314
-0.0058249906 0.0065733986 -0.021768114 -0.013183265 0.028063057 -0.022583056 0.012515303 0.0013361133
0.01143503 0.0018156822 -0.006891261 0.012761105 0.00972685 -0.0030186954 0.024250781 0.03232321
0.01866565 -0.010230201 -0.026106825 -0.024340339 -0.017298289 -0.0031943906 0.018007511 0.00964108
0.031441893 -0.034971524 -0.020482637 0.032280248 -0.024987075 0.022985691 0.0009567848 -0.0040044067
0.02512459 0.02744136 -0.014330122 -0.0019747964 0.033180766 0.029580671 0.014388982 -0.021171745
-0.023678072 0.025472477 0.020463519 -0.0036925331 0.03441323 0.024973562 -0.007734324 0.015432504
0.03445619 0.020628951 -0.017040865 -0.033393066 0.010736264 0.013228001 -0.03477217 0.0052682613
-0.012756858 0.0012702446 -0.027100543 -0.016074456 0.03843616 0.012150667 -0.01683295 -0.050429013
-0.0020660034 0.0034263963 -0.011759649 0.03137354 0.054608557 -0.027847704 0.0007015667 -0.043168258
0.06718048 0.068256624 -0.032869045 -0.030461362 -0.014053144 -0.01747763 0.03451692 -0.0032398049
-0.022489678 0.03439089 -0.013238433 0.014788516 0.021898277 0.011150527 0.03336506 -0.025018673
0.0034030394 -0.001238306 0.016550034 -0.0153062735 -0.021337826 -0.027687456 0.024172133 0.01049667
-0.03366208 -0.0024563752 -0.030020079 -0.030295903 0.021979777 -0.018461738 0.020684132 0.032591406
0.004710441 0.014928862 -0.030883787 -0.0150895035 -0.0019466875 0.0075541097 0.01429293 0.019060327
00000000: e596 8c3c 5de8 903c 69ac 38b9 8b1a da3c
00000010: 99a4 023d f9f8 fbbc f2f4 90b9 3675 19bd
00000020: 86c7 6d3a c0e2 273c a1b5 a8bb a7a6 d73c
00000030: bf79 ea3b b901 14bd f443 d8bb 92bf 9cbc
00000040: 4727 f6bc 6937 dbba d3b5 0cbd 916d a03c
00000050: 26b4 0a3b 4d79 573c 672f bb3c 0441 fc3c
00000060: fa61 88bc 0c94 de3a ab62 0abd c689 043c
00000070: 6e36 d73c a431 b9bc abe7 a43c d4a8 88bc
00000080: 88c7 263c eb50 80bc 1dac d63b 38e7 09bd
00000090: aec3 d73c 7381 03bc bd6a 053d cb13 4fbc
000000a0: f257 793c 6cde 8cbc b89c 7cbc a641 1cbc
000000b0: 30f0 8a3c 05cb 693c 2fec a73c b865 c7bb
000000c0: 7c65 7f3b 18ca b13c e767 62bc a8da 34bc
000000d0: 7e0d de3c 52bb f5bc 4569 8cbc 5cb4 9dbc
000000e0: e6fe e1bb 4aa3 d3bc b8fc 073c 9bd1 c7bc
000000f0: 15c2 79bc 8b6c 0bbd 0d3c bf3c c39d b4bc
00000100: c98d 91bb 5bc0 a9bc 83aa 8fbb 7db9 eabb
00000110: 74f3 3fbc c57f 37ba 1400 783c 2513 f03c
00000120: 426e d33c fd32 d6bc b8dd 88bb b390 6abd
00000130: 9ab0 7c3c bc57 bb3c e8c5 19bb 6c82 c63b
00000140: 4147 293d d0c3 2a3d c323 1ebb 619c 7dbc
00000150: c145 013b 4f1b 363d a6b4 013d 3c76 453c
00000160: 149b 83bc f9a3 f9bb f13d 8a3b a92a a8bc
00000170: 6ba5 87bd a66b 0cbd 6b3d c4ba 2f9e d5bb
00000180: 2452 cfbc 99e9 d3bc 08fb 753b 9c77 1c3d
00000190: 05ee c33b c85f f93b 0dee 693c 9d94 43bb
000001a0: c182 753b 9ec1 ffbb e9b2 013d 88d3 84b9
000001b0: 4a04 ce3c 31ad a8bc 717a e4bc 31ff 8e3b
000001c0: 4248 03bd fa23 a73c bb6f a63c 58d2 e93c
000001d0: 999f 013d 8487 363c 0369 563c f7ff bcbb
000001e0: ae61 033d 4c09 703c bd50 11bc 82be 08bd
000001f0: 842d 6a3b c3ba a53b 3a90 0a3d 24ab ea3c
00000200: f576 043d 07d8 303b d9a2 313c 2f95 cabc
00000210: 5c13 003c da44 2d3c f3ed 88bc fc35 9ebc
00000220: fc8e 373c 41f2 ccbc 1137 64bc f2c5 ea3c
00000230: d97e c63c a3fd 0bbd 47b2 0dbd 6cd3 c03c
00000240: 90df bebb aa65 d73b 0b53 b2bc 9ffe 57bc
00000250: 7fe4 e53c 1a00 b9bc fc0c 4d3c 8620 af3a
00000260: fe59 3b3c 2ffc ed3a 16d0 e1bb f413 513c
00000270: 5e5d 1f3c 4ed5 45bb 93a9 c63c 5865 043d
00000280: b5e8 983c 939c 27bc fbdd d5bc 6465 c7bc
00000290: 24b5 8dbc fb58 51bb 7d84 933c 9ff5 1d3c
000002a0: 37c9 003d 4d3e 0fbd 34cb a7bc 4b38 043d
000002b0: b2b1 ccbc 7d4c bc3c bed0 7a3a 6637 83bb
000002c0: 16d2 cd3c b4cc e03c e3c8 6abc 966b 01bb
000002d0: 8ee8 073d 2a53 f23c c4bf 6b3c 5e70 adbc
000002e0: 84f8 c1bc a8ab d03c 1ca3 a73c 6dfe 71bb
000002f0: e3f4 0c3d 5b95 cc3c 3670 fdbb 9dd8 7c3c
00000300: ef21 0d3d 0cfe a83c 4999 8bbc 2bc7 08bd
00000310: 28e7 2f3c 42ba 583c 436d 0ebd 61a1 ac3b
00000320: 2402 51bc 567e a63a f501 debc 94ae 83bc
00000330: 3c6f 1d3d 9713 473c 41e5 89bc a78e 4ebd
00000340: c965 07bb 648d 603b 8bab 40bc 8b81 003d
00000350: 39ad 5f3d de20 e4bc 58e9 373a 33d1 30bd
00000360: eb95 893d 21ca 8b3d b1a1 06bd 1b8a f9bc
00000370: 283f 66bc 3f2d 8fbc 9d61 0d3d e852 54bb
00000380: 463c b8bc 76dd 0c3d 03e6 58bc 884b 723c
00000390: 0464 b33c b3b0 363c cda9 083d f6f3 ccbc
000003a0: 8705 5f3b a84e a2ba f093 873c 2ac7 7abc
000003b0: aacc aebc ced0 e2bc a304 c63c 3afa 2b3c
000003c0: 40e1 09bd 23fb 20bb abec f5bc 1d2f f8bc
000003d0: ef0e b43c 123d 97bc c571 a93c 917e 053d
000003e0: 0b5a 9a3b 3098 743c ffff fcbc f739 77bc
000003f0: fe27 ffba 7788 f73b e52c 6a3c 6724 9c3c
