Lecture8_Image restoration (HuStar_4)/outputs/x3/epoch_19.pth (torch, 231589 bytes, 5 tensors)

conv1.weight f4 [64, 1, 9, 9]
-0.019432642 0.011137177 -0.05201233 0.050689247 -0.085855074 0.093113944 -0.07160996 -0.08352672
-0.06452947 0.057663374 -0.04622388 0.03755675 -0.09318383 -0.06504853 -0.03545532 -0.019947646
-0.087614164 0.06885604 -0.023231622 0.031074762 0.07773014 0.02844683 0.044601038 0.12310047
-0.043460626 0.03330636 -0.056345712 0.068119906 0.07192573 -0.10985991 0.110707134 0.0831928
0.07698222 0.057143707 0.08877293 -0.025793353 -0.108214244 -0.049912296 -0.07985782 0.04079537
0.0250878 -0.022063337 0.0039254553 0.10299316 -0.017791567 -0.011368572 -0.036026794 0.016179156
0.12320625 0.090377696 0.05094626 0.020972997 0.01908662 0.031608295 -0.013514696 -0.11748852
-0.07261252 0.102044806 0.0044250335 -0.09882411 0.007423073 0.09281187 -0.10600091 -0.054893706
-0.050187226 -0.003435592 -0.034137458 -0.030623559 -0.12570862 0.047506034 0.11412168 0.07825563
-0.0340829 -0.084589876 0.033822015 -0.014730207 0.026838506 -0.1197519 -0.0016695465 0.10355482
0.06135123 0.002685393 0.012300546 -0.017585913 -0.07826472 -0.057625517 -0.07959867 0.088011265
0.050894592 0.031087678 -0.09046148 0.07642353 0.031798158 0.06589319 -0.052400034 0.019492298
0.11596187 0.07903642 0.09296238 -0.03577047 0.069621824 -0.090309165 0.0071588377 -0.060011826
-0.02391292 -0.021848798 0.00660838 0.09435559 0.032733932 -0.019599859 0.07894408 -0.049471438
0.06854074 -0.011698793 -0.021778513 0.00022930553 -0.10409271 -0.004829243 0.024888165 0.102834895
-0.02079765 0.0520202 0.10497776 -0.05648572 0.09093756 -0.07473266 0.032473568 0.03024411
0.034450665 0.08843464 -0.049628846 0.009425026 -0.01453695 -0.09679503 -0.045287535 -0.091606185
0.032696832 0.009813124 0.004671379 -0.048219267 -0.024600193 -0.04658399 0.028222593 0.09687267
0.010963276 -0.05589585 -0.06190665 0.008285492 -0.08925782 -0.09615545 -0.073254846 -0.031110253
0.0031980334 0.08102556 0.04715811 0.10565609 -0.049655866 0.027758315 -0.08297486 0.0862147
0.044815697 0.11022628 -0.06551206 0.10836687 0.122572586 0.12536183 0.055625554 0.13591897
0.103836864 0.101022184 -0.005805526 -0.0875389 -0.0019361195 0.023007203 -0.07260732 -0.056709047
-0.100455225 -0.030493949 0.10097388 0.009904896 -0.0077737737 0.007456734 0.07294072 -0.09659491
-0.083354056 -0.037445206 -0.05911742 0.064800724 0.078379385 -0.10085251 -0.078606434 -0.08802931
0.05976685 0.10525467 -0.078564145 -0.04012544 0.053304728 -0.057582114 0.105212115 0.046234544
-0.0045902305 0.035160337 0.058208507 -0.029166855 -0.07589673 0.01851983 0.019117625 0.007194525
-0.0064460984 0.09066238 -0.008980518 0.0073548104 0.051166568 -0.0678003 0.038481772 -0.01800143
0.05518276 -0.066992015 0.007155069 0.017006079 -0.086271204 -0.087146714 0.034046173 -0.03480142
0.061647743 -0.08888908 -0.05025678 -0.08367939 0.0516932 0.008467781 -0.015535317 -0.016963786
-0.08260077 0.03314758 0.035237696 -0.060763415 0.058664 0.012489013 -0.08359566 0.07844053
0.074164964 -0.0071528275 -0.065699324 0.0028103837 0.081788056 0.09892513 -0.08721633 -0.05245422
0.084915124 0.051891357 0.06465568 -0.060201686 0.0937332 -0.09338353 -0.0076608816 -0.0013671957
00000000: 3431 9fbc b578 363c e20a 55bd 879f 4f3d
00000010: c9d4 afbd 86b2 be3d 3ea8 92bd 0f10 abbd
00000020: 0728 84bd 6e30 6c3d 4055 3dbd 1bd5 193d
00000030: 2ad7 bebd 2a38 85bd 9939 11bd 3f69 a3bc
00000040: 0e6f b3bd 6504 8d3d 3e50 bebc 8090 fe3c
00000050: fb30 9f3d 5409 e93c 94af 363d 191c fc3d
00000060: c503 32bd 406c 083d c3ca 66bd 7382 8b3d
00000070: cc4d 933d 3cfe e0bd 6cba e23d fd60 aa3d
00000080: dba8 9d3d 850f 6a3d 95ce b53d 954c d3bc
00000090: 6e9f ddbd d670 4cbd 7f8c a3bd 0c19 273d
000000a0: ee84 cd3c 2cbe b4bc 1ba1 803b 14ee d23d
000000b0: 9fbf 91bc 3f43 3abc d590 13bd 268a 843c
000000c0: 8f53 fc3d f117 b93d 07ad 503d 90cf ab3c
000000d0: 8b5b 9c3c b377 013d be6c 5dbc d29d f0bd
000000e0: dfb5 94bd defc d03d dfff 903b 4c64 cabd
000000f0: 403d f33b 2614 be3d 0117 d9bd 39d8 60bd
00000100: 1f91 4dbd ab27 61bb b8d3 0bbd 42de fabc
00000110: c3b9 00be b095 423d a1b8 e93d 7d44 a03d
00000120: 839a 0bbd 753d adbd f488 0a3d f756 71bc
00000130: 6ddc db3c 7c40 f5bd afd4 daba 8d14 d43d
00000140: 6d4b 7b3d 6bfd 2f3b 3b88 493c 5510 90bc
00000150: 4149 a0bd bc08 6cbd a104 a3bd 403f b43d
00000160: d976 503d 96ab fe3c de43 b9bd f183 9c3d
00000170: c93e 023d 02f3 863d 6ba1 56bd 50ae 9f3c
00000180: 6b7d ed3d d9dd a13d 0f63 be3d 0e84 12bd
00000190: e395 8e3d 03f4 b8bd af94 ea3b f6ce 75bd
000001a0: 07e5 c3bc 40fc b2bc 1c8b d83b 813d c13d
000001b0: 0414 063d e28f a0bc 6fad a13d 90a2 4abd
000001c0: 165f 8c3d 4bac 3fbc da68 b2bc bc71 7039
000001d0: 8f2e d5bd a03e 9ebb 44e2 cb3c 1a9b d23d
000001e0: d55f aabc 2213 553d 94fe d63d 925d 67bd
000001f0: 793d ba3d 700d 99bd 0103 053d 7fc2 f73c
00000200: 241c 0d3d 381d b53d 9e47 4bbd 6d6b 1a3c
00000210: 632c 6ebc 793c c6bd 6c7f 39bd 069c bbbd
00000220: 1ded 053d 3ac7 203c 5e12 993b 9181 45bd
00000230: 5886 c9bc dbce 3ebd 1133 e73c 2e65 c63d
00000240: 509f 333c 0cf3 64bd d491 7dbd dfbf 073c
00000250: cecc b6bd 26ed c4bd a306 96bd eeda febc
00000260: 1996 513b bbf0 a53d dd28 413d 3862 d83d
00000270: f363 4bbd 6865 e33c b9ee a9bd 5591 b03d
00000280: aa90 373d 51be e13d 302b 86bd 73ef dd3d
00000290: 5607 fb3d da5e 003e 9fd7 633d 582e 0b3e
000002a0: 6ca8 d43d b8e4 ce3d 483c bebb 9847 b3bd
000002b0: 64c5 fdba 9a79 bc3c 26b3 94bd bf47 68bd
000002c0: 78bb cdbd 72ce f9bc 65cb ce3d 2548 223c
000002d0: 24bb febb 9e57 f43b f261 953d 8dd3 c5bd
000002e0: 88b5 aabd 2560 19bd 1c25 72bd 3eb6 843d
000002f0: 5f85 a03d c38b cebd 69fc a0bd b648 b4bd
00000300: 16ce 743d c38f d73d 3de6 a0bd 935a 24bd
00000310: 0f56 5a3d 39db 6bbd 7379 d73d 6f60 3d3d
00000320: a569 96bb 4904 103d 0b6c 6e3d 54ef eebc
00000330: bf6f 9bbd e6b6 973c 919c 9c3c 0dc0 eb3b
00000340: cb39 d3bb 33ad b93d 0623 13bc 9f00 f13b
00000350: 0994 513d e2da 8abd 109f 1d3d bc77 93bc
00000360: 5107 623d 1c33 89bd 1275 ea3b 5550 8b3c
00000370: f5ae b0bd fa79 b2bd 0074 0b3d ef8b 0ebd
00000380: 5882 7c3d 7a0b b6bd 0eda 4dbd 1a60 abbd
00000390: 40bc 533d 73bc 0a3c d887 7ebc a3f7 8abc
000003a0: 982a a9bd c2c5 073d 6755 103d 0fe3 78bd
000003b0: aa49 703d b89e 4c3c 3434 abbd 6ea5 a03d
000003c0: cde3 973d 4462 eabb 5e8d 86bd 6a2e 383b
000003d0: 7f80 a73d 4299 ca3d 7a9e b2bd 3cda 56bd
000003e0: fbe7 ad3d 088c 543d 326a 843d 0b96 76bd
000003f0: 31f7 bf3d dd3f bfbd 2208 fbbb 7a33 b3ba

conv1.bias f4 [64]
-0.017615274 -0.10371817 0.009226272 -0.06525164 0.036757056 0.0020857495 0.056158867 -0.010298056
0.12733062 -0.0470785 0.008009505 0.031012755 -0.103348024 0.103078105 0.07007121 0.03798531
-0.033872288 -0.07241112 0.052099735 0.03830801 0.016315637 0.0042523877 -0.07022205 0.07215626
-0.067787886 0.07124756 0.0023936995 -0.007032935 0.0284498 0.056327257 0.08993502 -0.00933131
0.046174098 0.07045816 0.0051713097 -0.0940489 -0.016446028 0.08375345 -0.0016309811 0.05201883
-0.0024454328 -0.012901704 0.09792091 -0.024638139 0.03657256 -0.00042007203 -0.0198547 -0.01637158
-0.021772265 -0.032135226 -0.022992402 0.0623446 0.027643256 -0.0018311508 0.0002747051 0.0048834197
0.093923286 -0.047723763 -0.008255007 0.06801672 0.06262393 -0.029332941 -0.06682769 -0.079327315
00000000: e84d 90bc 316a d4bd ca29 173c a7a2 85bd
00000010: 918e 163d 12b1 083b d706 663d 2db9 28bc
00000020: f562 023e 63d5 40bd 4d3a 033c 760e fe3c
00000030: 21a8 d3bd 9d1a d33d 7f81 8f3d 7c96 1b3d
00000040: abbd 0abd 484c 94bd 8866 553d dce8 1c3d
00000050: 5fa8 853c 9d57 8b3b 94d0 8fbd a9c6 933d
00000060: 60d4 8abd 3eea 913d 9ddf 1c3b 8974 e6bb
00000070: 8e0f e93c 69b7 663d da2f b83d 5ae2 18bc
00000080: 0d21 3d3d 5e4c 903d 1774 a93b b69c c0bd
00000090: d2b9 86bc ee86 ab3d a5c6 d5ba b211 553d
000000a0: 8e43 20bb ab61 53bc c28a c83d ecd5 c9bc
000000b0: 1ccd 153d 1d3d dcb9 53a6 a2bc b11d 86bc
000000c0: c05b b2bc 3aa0 03bd 905a bcbc 0d5d 7f3d
000000d0: 1c74 e23c 3a03 f0ba 4b06 9039 1805 a03b
000000e0: da5a c03d fe79 43bd 0240 07bc 5a4c 8b3d
000000f0: fa40 803d a34b f0bc f5dc 88bd 5c76 a2bd

conv2.weight f4 [32, 64, 5, 5]
-0.0032630034 -0.0076468787 0.008493795 0.014092732 -0.062407516 0.010134273 -0.018485112 -0.02844123
-0.015207138 -0.030003643 0.020294279 -0.009087671 -0.0075196363 -0.022602044 0.013977316 -0.013153575
0.008449416 0.0036002288 -0.003744089 0.023355052 0.00373656 0.007578091 -0.02769739 0.009360385
-0.016347094 -0.013946171 0.01647582 0.018732306 -0.005780162 -0.01575421 0.0047035078 0.040495913
0.041411046 0.03300904 0.01169578 0.015602927 -0.0055244775 0.02314821 0.027498592 0.047126826
-0.01118738 -0.009068145 -0.024321107 0.0043509733 0.0077275224 -0.041642074 0.005413575 0.0075379224
0.01045633 0.014454157 -0.07513782 -0.07915215 -0.12188847 -0.09882015 -0.13084659 -0.027352499
-0.014136503 -0.014187097 0.012719491 -0.017113155 0.014492243 -0.0017334898 -0.019803599 0.021023065
0.010302724 -0.006053779 0.031549 0.033836044 0.029895421 0.01387731 0.0029141672 0.014966766
0.008756329 0.005488165 0.0027425853 0.01737943 -0.007830102 -0.007537327 -0.017849883 -0.013494321
0.0035511197 0.024372693 -0.01276007 -0.013673954 0.021373998 0.008437853 0.0057137883 -0.021555254
0.024930164 0.011808121 -0.0011786586 0.022562815 0.004712634 0.016704539 -0.0015922233 0.01950048
-0.0035575633 0.007774354 -0.01914161 -0.0107605355 -0.024182914 -0.02095346 0.012780278 0.017303664
0.006807992 -0.0037740672 0.00027394923 0.012319105 0.027015228 0.01495169 -0.018133651 -0.015267277
0.02826733 0.02445105 -0.02608971 -0.023432707 0.0055705444 -0.02346257 0.017212015 0.010445613
-0.013987143 -0.0023217765 -0.020596802 -0.03410442 -0.0038040287 0.013274521 -0.036904093 0.052404817
0.011550247 0.09519951 -0.04424424 -0.0124573475 -0.010118891 0.0016808591 0.021880614 -0.012851763
-0.0009820974 0.024989266 0.0023804894 0.0063162143 0.029117024 0.035413753 0.031301565 0.016994812
0.025904652 -0.019512208 -0.0130989365 0.026284197 -0.013853553 -0.036704935 -0.00931483 -0.002833652
-0.013662239 0.023971213 -0.029158114 0.022136051 0.009732318 -0.020667782 -0.013588725 0.021368165
-0.0073055835 -0.023177654 0.0006658842 -0.004600888 -0.0047089695 0.01289523 -0.017056113 -0.01192148
-0.0024822094 0.017563507 -0.0128422445 -0.006410373 0.015385076 0.021472603 0.0030549495 0.01917702
0.05098474 0.02583912 0.016299263 0.0584174 -0.009162601 -0.029571548 0.03975971 0.018557403
0.0070221857 -0.01593812 -0.02310457 -0.030880151 0.0024260173 0.024489144 -0.015929407 -0.015079986
-0.058925953 -0.025593378 0.02276174 -0.01716788 0.052538157 0.0042266827 -0.051119998 -0.012011365
-0.08183827 -0.008360236 -0.0024059406 -0.009586839 -0.0066919248 0.024064602 0.02171067 0.013504175
-0.014530945 -0.027166886 0.05038639 0.02196698 0.013084616 0.004216683 -0.04518641 0.03157909
0.04658956 0.041939106 0.019327058 -0.010938401 -0.058257654 0.020829216 0.010421319 -0.014515335
0.012366221 -0.0041840794 0.0065611405 -0.0073330402 -0.010981399 -0.0014663182 0.013072647 0.004255675
0.02636505 0.024183003 -0.005310152 -0.007753528 -0.0016624349 9.735996e-05 -0.0059166607 -0.027603474
-0.03196134 -0.009830383 -0.0031841008 -0.024429815 -0.016361088 0.0045640683 -0.004945016 -0.009263051
-0.006568204 0.0019815639 -0.031820036 -0.022610458 -0.0057550664 0.007884318 0.010488819 -0.036099255
00000000: 1dd8 55bb ab92 fabb 8f29 0b3c 34e5 663c
00000010: 069f 7fbd 390a 263c 176e 97bc 95fd e8bc
00000020: 5c27 79bc 33ca f5bc 3040 a63c 74e4 14bc
00000030: 4867 f6bb ec27 b9bc 1d01 653c 1882 57bc
00000040: 6b6f 0a3c d1f1 6b3b 645f 75bb 1853 bf3c
00000050: 13e1 743b a351 f83b a3e5 e2bc 4d5c 193c
00000060: 57ea 85bc 7b7e 64bc 4df8 863c 7e74 993c
00000070: 8367 bdbb f90e 81bc e21f 9a3b 0bdf 253d
00000080: a19e 293d 7d34 073d a89f 3f3c 6ba3 7f3c
00000090: ad06 b5bb 51a1 bd3c ba44 e13c 0f08 413d
000000a0: 464b 37bc 8f92 14bc 0f3d c7bc 9c92 8e3b
000000b0: 2837 fd3b e190 2abd 5c64 b13b ad00 f73b
000000c0: 0751 2b3c 21d1 6c3c dbe1 99bd 861a a2bd
000000d0: aaa0 f9bd 3862 cabd a6fc 05be 5912 e0bc
000000e0: cb9c 67bc ff70 68bc 6965 503c e330 8cbc
000000f0: df70 6d3c 4436 e3ba 283b a2bc 9038 ac3c
00000100: c2cc 283c c75e c6bb 8639 013d aa97 0a3d
00000110: 3ee7 f43c a85d 633c 9dfb 3e3b 2b37 753c
00000120: b576 0f3c 11d6 b33b f2bc 333b 4e5f 8e3c
00000130: d449 00bc aefb f6bb eb39 92bc 4917 5dbc
00000140: e7b9 683b 3ea9 c73c 9d0f 51bc b808 60bc
00000150: 8618 af3c ec3e 0a3c bb3a bb3b a594 b0bc
00000160: 583a cc3c d976 413c 387d 9aba a7d5 b83c
00000170: 706c 9a3b f5d7 883c 26b2 d0ba 78bf 9f3c
00000180: 0226 69bb 02c0 fe3b dece 9cbc f54c 30bc
00000190: 3f1b c6bc 97a6 abbc 5f64 513c 6ac0 8d3c
000001a0: 9315 df3b 5756 77bb d8a0 8f39 12d6 493c
000001b0: 0a4f dd3c eff7 743c 068d 94bc 9a23 7abc
000001c0: e390 e73c 924d c83c 16ba d5bc f3f5 bfbc
000001d0: 1d89 b63b 9334 c0bc 3600 8d3c 1424 2b3c
000001e0: 542a 65bc f228 18bb a0ba a8bc 14b1 0bbd
000001f0: 034d 79bb 607d 593c bf28 17bd 6fa6 563d
00000200: 3f3d 3d3c f6f7 c23d 7339 35bd e719 4cbc
00000210: b4c9 25bc 4650 dc3a f93e b33c 3390 52bc
00000220: b8b9 80ba 4ab6 cc3c fc01 1c3b 3ff8 ce3b
00000230: d386 ee3c 030e 113d 1236 003d b438 8b3c
00000240: fe35 d43c 11d8 9fbc ec9c 56bc f551 d73c
00000250: 03fa 62bc ea57 16bd 3b9d 18bc cbb4 39bb
00000260: 95d7 5fbc 475f c43c ffdc eebc aa56 b53c
00000270: 4d74 1f3c 7b4f a9bc 3ea3 5ebc 4a0c af3c
00000280: ad63 efbb 10df bdbc bb8e 2e3a 0cc3 96bb
00000290: b34d 9abb 8446 533c 43b9 8bbc 5052 43bc
000002a0: 90ac 22bb 58e1 8f3c 4768 52bc 1b0e d2bb
000002b0: b011 7c3c 50e7 af3c 8c35 483b 2019 9d3c
000002c0: 60d5 503d 90ac d33c 0886 853c 1547 6f3d
000002d0: bc1e 16bc 0840 f2bc 14db 223d b205 983c
000002e0: 5d1a e63b a990 82bc cc45 bdbc 5ff8 fcbc
000002f0: d1fd 1e3b 759d c83c 637e 82bc 0c12 77bc
00000300: 575c 71bd 34a9 d1bc d476 ba3c a7a3 8cbc
00000310: 4032 573d fc7f 8a3b 3463 51bd 51cb 44bc
00000320: d39a a7bd 5ff9 08bc fcac 1dbb 1e12 1dbc
00000330: ef47 dbbb 2123 c53c 93da b13c 9d40 5d3c
00000340: 3313 6ebc 178d debc f661 4e3d 19f4 b33c
00000350: db60 563c 1a2c 8a3b 6315 39bd 1359 013d
00000360: b2d4 3e3d 57c8 2b3d c753 9e3c fb36 33bc
00000370: 949f 6ebd 08a2 aa3c 2ebe 2a3c bad1 6dbc
00000380: b19b 4a3c 9a1a 89bb d6fe d63b 004a f0bb
00000390: 53eb 33bc 7931 c0ba a82e 563c 3073 8b3b
000003a0: 84fb d73c 6f1b c63c c900 aebb 4f11 febb
000003b0: 0fe6 d9ba bb2d cc38 8ce0 c1bb ae20 e2bc
000003c0: e5e9 02bd 9d0f 21bc 59ac 50bb 0921 c8bc
000003d0: b007 86bc 2e8e 953b cd09 a2bb 0dc4 17bc
000003e0: 173a d7bb 20dd 013b ba55 02bd 9139 b9bc
000003f0: ff94 bcbb 3a2d 013c 4cd9 2b3c d0dc 13bd

conv2.bias f4 [32]
-0.012469848 -0.023179514 -0.0030025952 0.0102262655 0.025471985 0.018619768 -0.011564542 0.007574104
0.013545555 -0.010232054 0.0003183427 0.0059938026 0.025830055 0.016352883 -0.004099692 -0.01144112
-0.014509567 -0.018896852 0.0134420805 0.022286205 0.02858 0.006676036 -0.008193542 0.0013698895
0.004390231 0.023607353 0.016888335 0.019517155 0.008189167 -0.016081048 -0.0048784483 -0.0026647644
00000000: 554e 4cbc f7e2 bdbc 30c7 44bb 118c 273c
00000010: a0aa d03c 7c88 983c 3479 3dbc 3030 f83b
00000020: 2dee 5d3c 58a4 27bc 3ce7 a639 a967 c43b
00000030: 8d99 d33c 7bf6 853c b656 86bb 8973 3bbc
00000040: 89b9 6dbc 92cd 9abc 2c3c 5c3c 8f91 b63c
00000050: 9b20 ea3c a6c2 da3b 353e 06bc dd8d b33a
00000060: eddb 8f3b 3564 c13c 6859 8a3c 71e2 9f3c
00000070: db2b 063c 67bc 83bc 64db 9fbb 54a3 2ebb

conv3.weight f4 [1, 32, 5, 5]
0.017718662 0.017825129 -0.0015932505 0.02486172 0.030644208 -0.03072009 0.0006734181 -0.035142697
0.0031542475 0.009953538 -0.003695199 0.027573384 0.011287076 -0.031190183 -0.0038781154 -0.017145468
-0.02920946 -0.0004084291 -0.032624025 0.022372643 0.0032267899 0.012333788 0.020575112 0.028367748
-0.017739316 0.002189814 -0.033409882 0.008096761 0.026375357 -0.022295006 0.020576412 -0.016529528
0.010134547 -0.015426056 0.006762636 -0.0333818 0.026366774 -0.00801142 0.032851793 -0.012515468
0.015498854 -0.01688125 -0.0149035845 -0.008899724 0.017127011 0.014353413 0.02062993 -0.0056971116
0.004460438 0.021915084 -0.013818718 -0.01103846 0.027106043 -0.029996548 -0.01714004 -0.019251041
-0.0068968413 -0.025834698 0.008299999 -0.02439194 -0.015244027 -0.03403906 0.023344064 -0.022047883
-0.004441951 -0.020721605 -0.0043843403 -0.007163225 -0.011715759 -0.0006999935 0.015136737 0.029306004
0.025809411 -0.02614736 -0.0041768216 -0.04373177 0.017256148 0.02778433 0.0063323197 0.009753843
0.04343331 0.018405385 -0.018037083 -0.018951982 -0.008859318 0.036181934 0.017924063 0.023932606
0.0022406955 -0.014036494 -0.0035725222 -0.018019436 -0.05044179 -0.020346908 -0.007869478 -0.0074483007
-0.017226068 -0.020290887 -0.0032350537 0.026979119 0.006269629 0.007703943 0.014321002 -0.0029379607
0.0037882717 -0.0072812787 0.031926513 -8.03847e-05 0.025273383 -0.020659607 -0.02757713 0.0045565213
-0.031835098 0.02063462 0.020362645 0.028874682 0.032012988 0.011414689 0.013385274 -0.005424819
0.03231992 0.014996027 -0.00857961 -0.0328994 0.004161763 0.004392155 0.029535824 0.02356369
0.031194627 0.0035438274 0.010660095 -0.026950307 0.0061535784 0.009350957 -0.01899225 -0.017547525
0.016136775 -0.018976565 -0.010704544 0.028029788 0.028412875 -0.027890157 -0.02959762 0.025798833
-0.008079495 0.005919553 -0.021032661 -0.013322789 0.028446062 -0.02280275 0.0128087085 0.0014627799
0.011424135 0.001938837 -0.006971169 0.012995407 0.009945681 -0.0029732103 0.024035735 0.03187022
0.018690435 -0.010067855 -0.025903858 -0.02429182 -0.017466778 -0.002985697 0.01818257 0.009755948
0.031564362 -0.034485944 -0.020052392 0.032511268 -0.024915267 0.022953108 0.0012056824 -0.0038044117
0.02522588 0.027419928 -0.014335226 -0.0018499827 0.03331042 0.029670652 0.014353187 -0.021256221
-0.02366767 0.02565844 0.02058556 -0.0037849515 0.034317274 0.024953805 -0.0075320853 0.01563296
0.034506597 0.020636126 -0.016993497 -0.033219714 0.010914771 0.0133379325 -0.034715235 0.0054109115
-0.0121223265 0.01109096 -0.023660703 -0.017270166 0.044944264 0.01828215 -0.01549388 -0.037946973
0.013562847 -0.0070824153 -0.01504254 0.0035222252 0.034943268 -0.01276865 0.010918269 -0.025978329
0.050740253 0.038597926 -0.028535359 -0.026457373 0.009911401 -0.0144522255 0.027131056 0.004113663
-0.014077914 0.03460862 -0.012640311 0.015288472 0.022448089 0.011696086 0.034000285 -0.024070488
0.0038880978 -0.0006186692 0.01735914 -0.014827563 -0.020917274 -0.027380608 0.024356775 0.010293426
-0.03304253 -0.0021981695 -0.029418923 -0.029603772 0.0220991 -0.017769856 0.021156399 0.03298949
0.0051369667 0.01542055 -0.030883787 -0.0150895035 -0.0019466875 0.0075541097 0.01429293 0.019060327
00000000: ba26 913c 0106 923c 9ed4 d0ba ceaa cb3c
00000010: 9009 fb3c b3a8 fbbc 5388 303a caf1 0fbd
00000020: 7eb7 4e3b 2a14 233c 272b 72bb 94e1 e13c
00000030: 6eed 383c 8e82 ffbc fb27 7ebb a774 8cbc
00000040: ad48 efbc 6d22 d6b9 c5a0 05bd d546 b73c
00000050: 8d78 533b a813 4a3c 238d a83c 7b63 e83c
00000060: 0b52 91bc fc82 0f3b cdd8 08bd 47a8 043c
00000070: 2211 d83c 04a4 b6bc dd8f a83c ef68 87bc
00000080: 5f0b 263c 92bd 7cbc 1a99 dd3b 5bbb 08bd
00000090: 22ff d73c 5542 03bc 9a8f 063d ad0d 4dbc
000000a0: e8ee 7d3c 8c4a 8abc 2a2e 74bc 26d0 11bc
000000b0: f24d 8c3c 942a 6b3c 1900 a93c d6ae babb
000000c0: de28 923b 4387 b33c e767 62bc a8da 34bc
000000d0: 7e0d de3c 52bb f5bc 4569 8cbc 5cb4 9dbc
000000e0: e6fe e1bb 4aa3 d3bc b8fc 073c 9bd1 c7bc
000000f0: 15c2 79bc 8b6c 0bbd 0d3c bf3c c39d b4bc
00000100: c98d 91bb 5bc0 a9bc 83aa 8fbb 7db9 eabb
00000110: 74f3 3fbc c57f 37ba 1400 783c 2513 f03c
00000120: 426e d33c fd32 d6bc b8dd 88bb 1620 33bd
00000130: c45c 8d3c f79b e33c 597f cf3b 95ce 1f3c
00000140: 20e7 313d e4c6 963c 81c2 93bc 3041 9bbc
00000150: ac26 11bc 8233 143d 7cd5 923c 500e c43c
00000160: a2d8 123b 53f9 65bc fa20 6abb 7f9d 93bc
00000170: 0d9c 4ebd 8fae a6bc fcee 00bc e010 f4bb
00000180: af1d 8dbc 1339 a6bc 3203 54bb 5003 dd3c
00000190: 7671 cd3b 5c71 fc3b a3a2 6a3c cd8a 40bb
000001a0: a744 783b cb97 eebb 60c5 023d 3594 a8b8
000001b0: 200a cf3c 563e a9bc 6fe9 e1bc df4e 953b
000001c0: 8565 02bd ef09 a93c 90cf a63c 998a ec3c
000001d0: 0d20 033d ad04 3b3c e94d 5b3c aec2 b1bb
000001e0: e461 043d e5b1 753c 7e91 0cbc 85c1 06bd
000001f0: 665f 883b 11ec 8f3b 1df5 f13c a408 c13c
00000200: e08b ff3c 8f3f 683b aea7 2e3c e4c6 dcbc
00000210: f5a3 c93b c234 193c a395 9bbc d4bf 8fbc
00000220: 4531 843c be74 9bbc 1d62 2fbc ba9e e53c
00000230: 1ec2 e83c e679 e4bc b576 f2bc 1358 d33c
00000240: dc5f 04bc cff8 c13b b04c acbc d447 5abc
00000250: b707 e93c d5cc babc 9edb 513c c0ba bf3a
00000260: 4c2c 3b3c 9320 fe3a 676e e4bb b0ea 543c
00000270: 36f3 223c 31da 42bb 97e6 c43c 598a 023d
00000280: af1c 993c a5f3 24bc 5434 d4bc a4ff c6bc
00000290: 7d16 8fbc afab 43bb 9df3 943c 69d7 1f3c
000002a0: a249 013d 2241 0dbd ea44 a4bc 892a 053d
000002b0: 1a1b ccbc 2808 bc3c fd07 9e3a 7053 79bb
000002c0: 81a6 ce3c c29f e03c 4cde 6abc 1e7b f2ba
000002d0: 8270 083d de0f f33c a129 6b3c 8721 aebc
000002e0: b4e2 c1bc a631 d23c 0ca3 a83c f30c 78bb
000002f0: 4590 0c3d ec6b cc3c b6cf f6bb b110 803c
00000300: ca56 0d3d 180d a93c f235 8bbc 6511 08bd
00000310: ded3 323c 5887 5a3c 9031 0ebd 044e b13b
00000320: b99c 46bc dcb6 353c 17d4 c1bc 2a7a 8dbc
00000330: 7a17 383d 73c4 953c 0bda 7dbc 496e 1bbd
00000340: b436 5e3c 9b13 e8bb fc74 76bc 22d5 663b
00000350: ac20 0f3d 9a33 51bc 8ae2 323c 81d0 d4bc
00000360: 03d5 4f3d dc18 1e3d fcc2 e9bc 22bd d8bc
00000370: 6e63 223c 07c9 6cbc f341 de3c e8cb 863b
00000380: 0da7 66bc c5c1 0d3d 4f19 4fbc 807c 7a3c
00000390: 0ee5 b73c f1a0 3f3c e243 0b3d 792f c5bc
000003a0: 75cf 7e3b 302e 22ba c134 8e3c 4fef 72bc
000003b0: b45a abbc 4c4d e0bc dc87 c73c c2a5 283c
000003c0: 9b57 07bd 2a0f 10bb f4ff f0bc 9c83 f2bc
000003d0: 2c09 b53c 1792 91bc 2f50 ad3c fd1f 073d
000003e0: 0054 a83b 79a6 7c3c ffff fcbc f739 77bc
000003f0: fe27 ffba 7788 f73b e52c 6a3c 6724 9c3c
