Lecture8_Image restoration (HuStar_4)/outputs/x3/epoch_66.pth (torch, 231589 bytes, 5 tensors)

conv1.weight f4 [64, 1, 9, 9]
0	0x3b77305d	0.0037718036
1	0x3d2fe3a1	0.042941693
2	0xbd058beb	-0.03260414
3	0x3d99c6c1	0.075086124
4	0xbd78af54	-0.06071408
5	0x3dc7ca53	0.09755387
6	0xbd724b04	-0.05915357
7	0xbd82170b	-0.06352051
8	0xbb1056db	-0.0022024426
9	0x3d8944b7	0.067025594
10	0xbd1ad26f	-0.03779834
11	0x3cf7bbb5	0.030240873
12	0xbdd9c836	-0.1063389
13	0xbda722a1	-0.08160902
14	0xbd8accd0	-0.06777346
15	0xbd315772	-0.043296285
16	0xbdf511ea	-0.119663075
17	0x3d9229e1	0.07136894
18	0xbc4ca6f0	-0.012490973
19	0x3d0926d0	0.03348428
20	0x3d8b4f04	0.068021804
21	0x3c9f062e	0.019412126
22	0x3d31e897	0.043434706
23	0x3de21918	0.110399425
24	0xbd639c3f	-0.05556893
25	0xbabf60c8	-0.0014600987
26	0xbd9a7292	-0.07541384
27	0x3d2a1ec4	0.041533247
28	0x3d0002da	0.03125272
29	0xbe13c775	-0.14431556
30	0x3ddd5c45	0.10808615
31	0x3de1e017	0.1102907
32	0x3dc20bcb	0.094749056
33	0x3d8e7608	0.069561064
34	0x3d8e923b	0.06961485
35	0xbd37e94e	-0.04490023
36	0xbe071c8d	-0.13194485
37	0xbd9e8803	-0.07740786
38	0xbdb29c49	-0.08721215
39	0x3da4007a	0.080079034
40	0x3da70dda	0.08156939
41	0xba304144	-0.00067235925
42	0x3c181c93	0.009284156
43	0x3db13685	0.08652977
44	0xbd044578	-0.032292813
45	0xbc295ab3	-0.010336566
46	0xbd21bc0d	-0.03948598
47	0x3cd3603a	0.02580272
48	0x3e298662	0.16555169
49	0x3e05d340	0.13068867
50	0x3d42842b	0.047489326
51	0x3c31f5c9	0.010861822
52	0x3bf283b6	0.007400955
53	0x3cc062cc	0.02348461
54	0xbb4002b4	-0.0029298486
55	0xbe088308	-0.13331234
56	0xbdb6bf4c	-0.08923206
57	0x3dcfad87	0.101405196
58	0xba176038	-0.00057745306
59	0xbe0a67cc	-0.13516158
60	0xbc376f6b	-0.011195998
61	0x3dc21a78	0.09477705
62	0xbdccb2e5	-0.09995059
63	0xbc780969	-0.015138962
64	0xbd85b884	-0.06529334
65	0xbd2d51c3	-0.042314302
66	0xbd837e6c	-0.064205974
67	0xbd51b608	-0.05119899
68	0xbe262460	-0.16224813
69	0x3d2d2c18	0.04227838
70	0x3e0443db	0.1291651
71	0x3db131cd	0.08652077
72	0x3d7721ba	0.0603349
73	0xbd76b31f	-0.060229417
74	0x3bd01336	0.0063499464
75	0xbd21fbf1	-0.03954691
76	0x3ce10b14	0.027471103
77	0xbe00dd1a	-0.12584344
78	0x3bcea3d2	0.00630615
79	0x3dd8a067	0.10577469
80	0x3d2967e0	0.04135883
81	0x3c996d50	0.018728882
82	0x3cf046e7	0.029330684
83	0x3cd02bcd	0.02541151
84	0xbd805efc	-0.06268117
85	0xbd98e3e6	-0.07465343
86	0xbdf97dad	-0.12182174
87	0x3d8f2926	0.0699027
88	0x3d029263	0.031877887
89	0x3c1db011	0.009624497
90	0xbdb07be0	-0.08617377
91	0x3da4892a	0.080339745
92	0x3d5d2394	0.053989008
93	0x3d7c2b82	0.06156493
94	0xbdb2acf3	-0.08724394
95	0xbcea2b5e	-0.028585132
96	0x3de57f1e	0.11205886
97	0x3db863f9	0.09003443
98	0x3dd4ff1f	0.10400223
99	0xbd1bd7bf	-0.03804755
100	0x3d81b64d	0.06333599
101	0xbda16a26	-0.07881574
102	0xbaaa6aca	-0.0013001796
103	0xbdc218ac	-0.09477362
104	0xbd85a822	-0.065262094
105	0xbc564a2b	-0.013079206
106	0x3d0d4182	0.0344863
107	0x3deba08c	0.11505231
108	0x3ce38067	0.027771188
109	0xbcf77439	-0.030206786
110	0x3db6e899	0.08931083
111	0xbd5ad6d9	-0.05342755
112	0x3d192735	0.037390906
113	0xbd7213a9	-0.05910078
114	0xbc9a3c55	-0.018827597
115	0x3ca7fc1b	0.020505955
116	0xbdc71d3d	-0.09722374
117	0xbb26ac55	-0.0025432308
118	0x3cb7d8f6	0.022442322
119	0x3e03baae	0.12864181
120	0xbb85ba3a	-0.004081038
121	0x3d1efb3e	0.038813822
122	0x3d881111	0.0664388
123	0xbd4d391b	-0.05010329
124	0x3de994ed	0.114053585
125	0xbd84d387	-0.06485658
126	0x3cef6f7d	0.029227966
127	0x3c91fe99	0.017821597
128	0x3d6b5e5f	0.057463046
129	0x3dda435e	0.106573805
130	0xbd70b37d	-0.058764923
131	0xbcf8525e	-0.030312713
132	0xbc55fa9c	-0.013060238
133	0xbd92abac	-0.0716165
134	0xbce40259	-0.02783315
135	0xbdcd8f99	-0.10037155
136	0x3c1d99dc	0.009619202
137	0x3cb65f52	0.02226225
138	0x3c5901a3	0.013245019
139	0xbd828f1b	-0.063749515
140	0xbd92f76a	-0.07176097
141	0xbd4da918	-0.05021009
142	0x3d5da45c	0.054111823
143	0x3dee1b2d	0.11626277
144	0x3bcb9640	0.0062129796
145	0xbd9e444d	-0.07727871
146	0xbd5882d6	-0.05285915
147	0x3c50421a	0.012711072
148	0xbdd496e9	-0.10380346
149	0xbe0ea000	-0.13928223
150	0xbd9ec82b	-0.07753023
151	0xbc092cb2	-0.008372473
152	0x3c8abda1	0.016936125
153	0x3db6579f	0.08903431
154	0x3d0f92f1	0.035052244
155	0x3df1516d	0.11783109
156	0xbd28da51	-0.041223828
157	0x3ccd7421	0.025079789
158	0xbdd6354f	-0.104593866
159	0x3dd1cf07	0.102445655
160	0x3da5f885	0.08104042
161	0x3e08a9f7	0.13346086
162	0xbd3af6a3	-0.045645367
163	0x3e02d466	0.12776336
164	0x3e0e1d7d	0.13878436
165	0x3e2461c3	0.16052918
166	0x3df36649	0.11884744
167	0x3e4028cb	0.18765561
168	0x3df52576	0.11970036
169	0x3d9b2ba3	0.075766824
170	0xbd213ed3	-0.039366554
171	0xbdd00367	-0.10156899
172	0xbd2931d0	-0.04130727
173	0xbd52f8e1	-0.05150688
174	0xbe217744	-0.15768152
175	0xbdee1ab3	-0.11626186
176	0xbe194e3e	-0.14971253
177	0xbda85183	-0.08218672
178	0x3ce1fb9b	0.027585795
179	0xbd73d520	-0.059529424
180	0x3bf09e6f	0.0073431055
181	0xbb001db3	-0.0019548952
182	0x3cfbb090	0.03072384
183	0xbe197875	-0.14987357
184	0xbde5ede7	-0.11227017
185	0xbd6d9adc	-0.058009014
186	0xbda6eeea	-0.08151038
187	0x3cea79e6	0.028622579
188	0x3d5dd07e	0.05415391
189	0xbd806203	-0.06268694
190	0xbd529952	-0.05141575
191	0xbda057d7	-0.07829254
192	0x3d8b6c20	0.068077326
193	0x3e0bbbd2	0.13645867
194	0xbd420190	-0.04736477
195	0xbcac1ef9	-0.021010863
196	0x3d812006	0.06304936
197	0xbd021194	-0.031755045
198	0x3deb8e0f	0.11501705
199	0x3d533551	0.05156452
200	0xb946f198	-0.00018972752
201	0x3d4c9b21	0.04995263
202	0x3db61d41	0.088922985
203	0xbc17c3c4	-0.009262983
204	0xbd95e052	-0.07318176
205	0x3c866a97	0.016408248
206	0x3cffa063	0.031204408
207	0x3c89c4e9	0.016817527
208	0xbb600a4c	-0.0034185825
209	0x3dbd2d57	0.092371635
210	0x3b2132a4	0.0024596835
211	0x3cfc8316	0.030824225
212	0x3d8c0639	0.068371244
213	0xbd85ed25	-0.06539372
214	0x3d2b9997	0.04189452
215	0xbba87d4b	-0.005141889
216	0x3d6460c3	0.05575634
217	0xbda54652	-0.08070053
218	0xbc76ea2b	-0.015070478
219	0xbbac2fca	-0.0052547203
220	0xbdcf1734	-0.101118475
221	0xbdcb750b	-0.099344335
222	0x3cbbeeff	0.02294111
223	0xbd180fa4	-0.03712429
224	0x3d850cc1	0.06496573
225	0xbd3f509f	-0.046707746
226	0xbcd25a6d	-0.025677884
227	0xbd9575bd	-0.072978474
228	0x3d6ed8f6	0.05831238
229	0x3ce53819	0.027980851
230	0x3c028d55	0.0079682665
231	0x3b98d43a	0.0046639713
232	0xbd837deb	-0.06420501
233	0x3d6162b3	0.055025768
234	0x3d469536	0.048482142
235	0xbd73a279	-0.059481118
236	0x3d4a3226	0.04936423
237	0xbab0fcfc	-0.001350313
238	0xbda09f25	-0.078428544
239	0x3d9fe203	0.0780678
240	0x3d83fcf0	0.064447284
241	0xbcfb756a	-0.030695636
242	0xbd9b7680	-0.075909615
243	0x3c613d06	0.013747459
244	0x3d9c1970	0.07622039
245	0x3da11935	0.07866136
246	0xbdcc3f96	-0.099730656
247	0xbd806408	-0.062690794
248	0x3da178a2	0.07884337
249	0x3d485961	0.048913363
250	0x3d5be2da	0.05368314
251	0xbd900f49	-0.070341654
252	0x3dd13251	0.10214675
253	0xbdc5da3e	-0.09660767
254	0xbca0900e	-0.01959994
255	0xbb588c94	-0.0033042775

conv1.bias f4 [64]
0	0x3c8bb560	0.01705426
1	0xbdd49d92	-0.10381617
2	0x3ccfd752	0.025371227
3	0xbd28a279	-0.04117057
4	0x3d89519b	0.06705018
5	0x3c91fefc	0.017821781
6	0x3d48e80b	0.04904942
7	0xbc99902d	-0.018745506
8	0x3de560c3	0.112000965
9	0xbd1a61a6	-0.03769078
10	0x3b8271d9	0.003980857
11	0x3ca446b9	0.020053254
12	0xbe0c5582	-0.13704494
13	0x3e443d04	0.191639
14	0x3d7a2493	0.061070036
15	0x3c87c170	0.01657173
16	0xbcd1b4c0	-0.025598884
17	0xbd571d55	-0.052518208
18	0x3d99b618	0.07505435
19	0x3ccffa4e	0.02538791
20	0x3cc551a3	0.024086779
21	0xbc6a0ba4	-0.014285002
22	0xbd5e5286	-0.05427792
23	0x3d94d406	0.07267003
24	0xbdc3cb26	-0.09560232
25	0x3d2ce19b	0.04220734
26	0xbc1a3fe6	-0.009414649
27	0x3c604b95	0.013689895
28	0x3caf4927	0.021397186
29	0x3d2e505c	0.042557105
30	0x3dd4ffbe	0.104003415
31	0xbbf6f0e4	-0.0075360406
32	0x3d17630b	0.03695969
33	0x3d8e42d0	0.06946337
34	0x3ab6ca91	0.0013945868
35	0xbd839c43	-0.06426289
36	0xbc13d526	-0.0090229865
37	0x3d8e55ce	0.0694996
38	0xbd391625	-0.045187134
39	0x3d294e43	0.0413344
40	0x3c90936b	0.01764842
41	0xbcdea4e1	-0.02717823
42	0x3dc4d262	0.0961044
43	0xbc8fe1eb	-0.01756378
44	0x3d04e2ee	0.03244298
45	0xbc8085aa	-0.015688736
46	0xbc931532	-0.017954443
47	0xbca3b147	-0.019981993
48	0x3c1ff631	0.009763286
49	0xbd67b5a2	-0.056569703
50	0xbc87cdb1	-0.016577573
51	0x3da779cb	0.08177527
52	0x3c4c2589	0.012460121
53	0x3c306e0e	0.010768427
54	0x3c8f002c	0.017456137
55	0x3ccf2b82	0.0252893
56	0x3da6285b	0.08113166
57	0xbc95ca04	-0.018284805
58	0xbc1d786e	-0.009611232
59	0x3d835880	0.064133644
60	0x3ca7024f	0.020386843
61	0xbbcdafcf	-0.0062770615
62	0xbd2e64e6	-0.042576693
63	0xbdbfc579	-0.09363837

conv2.weight f4 [32, 64, 5, 5]
0	0x3baa6929	0.0052005243
1	0x3a7b6c17	0.0009590997
2	0x3d27c9d7	0.040963974
3	0x3d931908	0.07182509
4	0xbde8dc08	-0.11370093
5	0x3d1aaee9	0.037764464
6	0xbce9e656	-0.028552216
7	0xbc6109e6	-0.01373527
8	0x3d3a5cfe	0.04549884
9	0xbc671ae8	-0.014105536
10	0x3cede6e9	0.02904077
11	0xbc2a4c66	-0.010394191
12	0xbc6e6caa	-0.014552275
13	0x3bb38966	0.0054790257
14	0x3d33767f	0.04381418
15	0xbc8560b6	-0.016281467
16	0x3ca74659	0.020419287
17	0x3cc7e734	0.024402238
18	0x3cf89f94	0.03034953
19	0x3d4a106c	0.049332067
20	0xbcbfc332	-0.023408506
21	0xbc9596c9	-0.018260377
22	0xbd1e6801	-0.038673405
23	0x3d2dd153	0.042435955
24	0xbb11ead9	-0.0022265224
25	0xb9faaf22	-0.000478142
26	0x3caca8bc	0.021076553
27	0xbd22f15a	-0.039780952
28	0xbcfe1b3f	-0.031018851
29	0xbcfa02cd	-0.030518914
30	0xbbc16b47	-0.005902681
31	0x39f77370	0.0004719752
32	0xbc9d94db	-0.019236019
33	0x3ba692b2	0.0050834054
34	0xbc404d9a	-0.011737252
35	0x3d96237e	0.07330988
36	0x3a8181b9	0.0009880579
37	0xbca05351	-0.019570978
38	0x3cdef154	0.027214684
39	0x3dab9a22	0.08379008
40	0x3d45d5b2	0.0482995
41	0x3c51b782	0.012800099
42	0xbd89afc4	-0.06722978
43	0xbc71cd1c	-0.014758375
44	0x3d35fd91	0.044431273
45	0xbdae99ac	-0.08525404
46	0xbc871ab1	-0.01649222
47	0xbd2b50c0	-0.041825056
48	0xbd18ea47	-0.0373328
49	0x3ba88721	0.0051430617
50	0xbe2fedd5	-0.1718057
51	0xbe3c9e4f	-0.18419765
52	0xbe7135a5	-0.2355562
53	0xbe448ccd	-0.19194336
54	0xbe86753c	-0.26261318
55	0xbe00aa40	-0.12564945
56	0xbe01bdec	-0.12670106
57	0xbda720db	-0.081605636
58	0xbd014081	-0.031555656
59	0xbdbf29e7	-0.09334164
60	0x3d2d417c	0.04229878
61	0x3cbba11d	0.022903973
62	0x3bda8eb2	0.0066698426
63	0x3d87d9ef	0.066333644
64	0x3cb66b49	0.022267954
65	0x3d574b00	0.05256176
66	0x3dc7a91d	0.09749053
67	0x3d89cd09	0.067285605
68	0x3db283b7	0.08716529
69	0x3d7a1245	0.06105258
70	0x3bf64777	0.0075158435
71	0x3be32e5a	0.006933016
72	0xbcf964ff	-0.030443667
73	0xbb576a6f	-0.0032869836
74	0x3cec31f6	0.028832417
75	0x3c920e3f	0.017829059
76	0xbb97993d	-0.0046264217
77	0x3b89c3c4	0.0042042453
78	0xbc4046e6	-0.0117356535
79	0xbd4f877e	-0.050666325
80	0x3cc6a3c5	0.024248013
81	0x3d095064	0.033523932
82	0xbb27afad	-0.0025586889
83	0x3c91eac3	0.017812138
84	0x3c0c3699	0.008557939
85	0x3bc4b783	0.0060033216
86	0xbc87a26a	-0.016556937
87	0xbd283c5a	-0.04107318
88	0x3d11d18a	0.035600223
89	0xbb8d5a44	-0.004313739
90	0xbbc7e38f	-0.006100125
91	0x3b9974fc	0.004683135
92	0xbcab7803	-0.02093125
93	0x3cadeea7	0.021231962
94	0xbb9330b0	-0.004491888
95	0x3cc66f20	0.02422291
96	0xbc243e5b	-0.010024632
97	0xbc08388a	-0.008314261
98	0xbcbede2d	-0.023299301
99	0xbaedc664	-0.001814079
100	0xbcb303b4	-0.021852352
101	0xbd7ccb7b	-0.06171749
102	0xbd04b5d0	-0.032399952
103	0xbbcedc07	-0.0063128504
104	0xbc692143	-0.014229122
105	0x3bafcaf9	0.0053647724
106	0xbbddc257	-0.006767552
107	0xbbfd9be8	-0.0077395327
108	0x390eb9b7	0.0001361136
109	0x3c8a948b	0.016916534
110	0x3c9090a9	0.017647104
111	0x3c2bdaf8	0.010489218
112	0x3d6d1ad2	0.057886906
113	0x3d063c53	0.032772373
114	0x39c9c812	0.00038486772
115	0xbc3c38f9	-0.011488193
116	0x3c25d8ce	0.010122491
117	0xbc9e1721	-0.019298138
118	0x3b080fc3	0.0020761348
119	0x3b299217	0.002587443
120	0xbd22b546	-0.039723657
121	0xbd2f26ca	-0.0427616
122	0xbd633196	-0.05546721
123	0xbd8b96b0	-0.06815851
124	0xbd2b1b45	-0.041774053
125	0x3db493b0	0.08817232
126	0xbc994a1b	-0.018712094
127	0x3d9cc556	0.07654826
128	0x3bde5319	0.0067848084
129	0x3db38b14	0.087667614
130	0xbd420532	-0.047368236
131	0xbd019185	-0.03163292
132	0xbd1dc55f	-0.038518306
133	0xbcd5eb79	-0.026113259
134	0xbb84ec10	-0.004056461
135	0xbc2e3b11	-0.0106342
136	0x3bcab73d	0.0061863945
137	0x3ce81c14	0.028333701
138	0x3b89d98d	0.0042068423
139	0x3a7d3c1a	0.000966014
140	0x3c8fdab8	0.017560348
141	0x3d0a9f6a	0.033843435
142	0x3d10a3c3	0.035312425
143	0x3c41e042	0.011833252
144	0x3b870a57	0.0041211057
145	0xbd80d676	-0.06290905
146	0xbd83e003	-0.06439211
147	0xbd03a150	-0.03213626
148	0xbd8f5a1f	-0.06999611
149	0xbdd33079	-0.1031198
150	0x3c2fc50a	0.01072813
151	0x3c98c266	0.018647384
152	0xbb2c93db	-0.0026333246
153	0x3c5fdd9a	0.013663674
154	0xbd125586	-0.035726093
155	0xba7753dc	-0.0009434798
156	0xbcc03013	-0.023460424
157	0xbd08cf45	-0.033400793
158	0xbd015f9b	-0.031585317
159	0xbbefd9c3	-0.0073196604
160	0xbd143b41	-0.03618932
161	0xbd584df6	-0.052808724
162	0x3b3157f1	0.0027060474
163	0x3a810d6f	0.0009845922
164	0xbd246d74	-0.040143445
165	0x390102ac	0.00012303394
166	0xbc13eb47	-0.009028262
167	0x3c9f56e1	0.019450607
168	0x3c788122	0.015167506
169	0x3c7a2859	0.015268409
170	0xbc17d0d7	-0.0092661
171	0xbb8e3c21	-0.004340664
172	0x3ccf7d20	0.025328219
173	0x3cafe93b	0.021473518
174	0xbab6e457	-0.0013953549
175	0x3d55dee4	0.05221452
176	0x3d9997ed	0.07499681
177	0x3d444ed3	0.047926735
178	0xbb7eef67	-0.003890002
179	0x3d3ac9ea	0.045602717
180	0x3c84679f	0.016162692
181	0xbccd71e4	-0.025078721
182	0x3d73fe1b	0.059568506
183	0x3cc99b22	0.024610106
184	0xbc89848b	-0.016786834
185	0x3c6c4d07	0.014422662
186	0xbc8f48e6	-0.017490815
187	0xbc7c7a19	-0.01540997
188	0x3d3c0271	0.045900766
189	0x3d6c286c	0.057655737
190	0x3cdc4e9a	0.026892949
191	0xbb601d96	-0.0034197322
192	0xbd961eef	-0.07330119
193	0x3b263017	0.0025358254
194	0x3d99ae2e	0.07503925
195	0x3d7924a5	0.060825963
196	0x3ddc7d9e	0.10766147
197	0xbc2c9e03	-0.01053572
198	0xbd4c5dd9	-0.049894188
199	0x3d5c88d7	0.05384144
200	0xbd7c7466	-0.061634444
201	0x3c64966c	0.013951879
202	0x3c1f9176	0.00973927
203	0xbc1895bf	-0.009313046
204	0xbd006dff	-0.0313549
205	0x3d7ff9a4	0.062493935
206	0x3d3e728c	0.04649596
207	0x3c4e0e25	0.0125766145
208	0xbd08dd88	-0.033414394
209	0xbc9eb352	-0.019372616
210	0x3dc7e70c	0.097608656
211	0xbb48d4cb	-0.0030644413
212	0xbcebc998	-0.02878265
213	0xbb90aafa	-0.0044149132
214	0xbd4948c2	-0.049141653
215	0x3d1c6830	0.0381853
216	0x3c9d5e76	0.019210082
217	0x3bd9fad5	0.006652216
218	0x3bbfe0df	0.005855664
219	0xbd3713a8	-0.04469648
220	0xbd592b61	-0.053019885
221	0x3d050f6c	0.03248541
222	0x3c8ea8b7	0.017414434
223	0x3a7e5d4e	0.00097032345
224	0xbb96a0b4	-0.004596794
225	0x3bf4e1d6	0.007473211
226	0x3c7f77e6	0.015592551
227	0x3c691b1d	0.014227656
228	0x3cac0a1c	0.021000914
229	0x3ca9bccb	0.020719906
230	0x3ca2c68a	0.019870061
231	0x3b67fa4a	0.0035396987
232	0x3d1f6ad2	0.03892023
233	0x3d1afb02	0.037837036
234	0xbb8f6418	-0.004375946
235	0xbce4acf9	-0.027914511
236	0xbcea4aac	-0.02860006
237	0xbc81621c	-0.015793853
238	0x3a9b5f88	0.0011854032
239	0xbc80dc67	-0.015730096
240	0xbd658963	-0.056039225
241	0xbd2248db	-0.03962026
242	0xbcf1a2f5	-0.02949665
243	0xbcca1682	-0.024668936
244	0xbc7356a5	-0.014852201
245	0xbd577a80	-0.05260706
246	0xbd4c2e2d	-0.049848724
247	0xbd4a5cb8	-0.04940483
248	0xbd028af6	-0.031870805
249	0xbc28ab57	-0.010294757
250	0xbcaff15f	-0.0214774
251	0xbd04e1a2	-0.032441743
252	0xbc9a4b1f	-0.018834649
253	0x3c87c649	0.016574042
254	0x3c864b33	0.01639328
255	0xbd078aaa	-0.033091225

conv2.bias f4 [32]
0	0xbcb0ef34	-0.021598436
1	0xbc888cae	-0.016668644
2	0xbb44c730	-0.0030025952
3	0xbc778f33	-0.015109825
4	0x3cde440b	0.027132055
5	0x3c8b0084	0.01696802
6	0xbbb103b7	-0.005402054
7	0x3c280da4	0.010257158
8	0x3c891256	0.016732376
9	0xbc299619	-0.0103507275
10	0xba8cd4e4	-0.0010744599
11	0xbc634662	-0.013871761
12	0x3cf014dd	0.029306823
13	0x3c0bf1f1	0.00854157
14	0x3d4b423f	0.049623724
15	0xbabb053d	-0.0014268529
16	0xbc643a77	-0.013929955
17	0xbc851f44	-0.01625026
18	0x3b90ed0b	0.004422789
19	0x3cc9cd5d	0.024634058
20	0x3cb5d450	0.022195965
21	0x3c5689c4	0.013094369
22	0xbc9b1403	-0.01893044
23	0xba265abf	-0.00063459197
24	0xbc0daa05	-0.008646493
25	0x3d0d11a5	0.034440655
26	0x3cd30adc	0.025762014
27	0x3ca4c80d	0.020114923
28	0x3c28bde5	0.010299181
29	0xb9dac477	-0.00041726578
30	0xbcb5e143	-0.02220214
31	0x3b338fd1	0.0027398954

conv3.weight f4 [1, 32, 5, 5]
0	0x3c95b0b6	0.018272739
1	0x3c9071c7	0.017632378
2	0x39a64a42	0.00031717314
3	0x3ce08afb	0.027410021
4	0x3d03d481	0.03218508
5	0xbcfb4f0b	-0.030677339
6	0xbadbdbea	-0.0016773914
7	0xbd217f3a	-0.039427973
8	0xbab72c40	-0.001397498
9	0x3c22b64a	0.009931156
10	0xbbed2410	-0.007236965
11	0x3cc15e01	0.023604395
12	0x3b233801	0.0024905207
13	0xbd250f6d	-0.040297914
14	0xbc0cc644	-0.008592192
15	0xbc969927	-0.018383576
16	0xbcf0e66b	-0.029406747
17	0xbb53790a	-0.003226819
18	0xbd0f4c06	-0.03498461
19	0x3c96e0a9	0.018417673
20	0x3b92db11	0.004481681
21	0x3c85edb3	0.016348695
22	0x3ccab4c1	0.024744393
23	0x3d0676d9	0.032828186
24	0xbc6730fb	-0.014110799
25	0x3ab970be	0.001414798
26	0xbd0b40a0	-0.033997178
27	0x3c0536e3	0.008130762
28	0x3cd69a03	0.026196485
29	0xbcbc51bb	-0.02298819
30	0x3ca29d6a	0.019850451
31	0xbc86e6fd	-0.016467566
32	0x3c29558c	0.010335337
33	0xbc82cc56	-0.015966576
34	0x3bcd02a6	0.0062564192
35	0xbd0be0a6	-0.03414979
36	0x3cd8a65b	0.026446512
37	0xbc015771	-0.007894383
38	0x3d03baac	0.032160446
39	0xbc54c97b	-0.01298749
40	0x3c740de1	0.014895887
41	0xbc8f2ece	-0.017478373
42	0xbc81a8e6	-0.015827607
43	0xbc26fb20	-0.010191709
44	0x3c888dbf	0.016669152
45	0x3c6a6ab0	0.014307663
46	0x3ca6075d	0.020267183
47	0xbbd477a3	-0.0064839884
48	0x3b61a1d6	0.0034428737
49	0x3cb13631	0.021632286
50	0xbc6267e7	-0.013818718
51	0xbc34daa8	-0.01103846
52	0x3cde0d7e	0.027106043
53	0xbcf5bb52	-0.029996548
54	0xbc8c6945	-0.01714004
55	0xbc9db45c	-0.019251041
56	0xbbe1fee6	-0.0068968413
57	0xbcd3a34a	-0.025834698
58	0x3c07fcb8	0.008299999
59	0xbcc7d19b	-0.02439194
60	0xbc79c215	-0.015244027
61	0xbd0b6c8b	-0.03403906
62	0x3cbf3c0d	0.023344064
63	0xbcb49dc3	-0.022047883
64	0xbb918dc9	-0.004441951
65	0xbca9c05b	-0.020721605
66	0xbb8faa83	-0.0043843403
67	0xbbeab97d	-0.007163225
68	0xbc3ff374	-0.011715759
69	0xba377fc5	-0.0006999935
70	0x3c780014	0.015136737
71	0x3cf01325	0.029306004
72	0x3cd36e42	0.025809411
73	0xbcd632fd	-0.02614736
74	0xbb88ddb8	-0.0041768216
75	0xbd6a2787	-0.057166602
76	0x3c6bfedc	0.014404025
77	0x3c628c71	0.013827429
78	0xbbe83b01	-0.007087112
79	0x3bb7f0ab	0.0056134067
80	0x3d1c11b6	0.038102828
81	0x3d512954	0.051064804
82	0x3ba03d91	0.004890152
83	0xbc377120	-0.011196405
84	0x3bfbd11f	0.0076848413
85	0x3d4fbbcc	0.050716206
86	0x3d26e170	0.040742338
87	0x3be58e26	0.007005471
88	0xbcc1af2b	-0.023643097
89	0xba9b4dd5	-0.0011848757
90	0x3bf0de25	0.0073507004
91	0xbc94f684	-0.018183954
92	0xbd951ff2	-0.07281484
93	0xbd314ecd	-0.04328804
94	0x3a32194a	0.00067939295
95	0xbbef59c8	-0.007304404
96	0xbccaf19f	-0.024773417
97	0xbcf81805	-0.03028489
98	0x3b1561a9	0.0022793806
99	0x3d3205ea	0.04346267
100	0x3bb37590	0.005476661
101	0x3becbb76	0.0072244955
102	0x3c6720e9	0.0141069675
103	0xbb490366	-0.0030672192
104	0x3b75f08d	0.0037527413
105	0xbc08cfa9	-0.008350291
106	0x3cffb93a	0.031216253
107	0xba0c02ab	-0.0005340974
108	0x3ccc7a7f	0.024960754
109	0xbca8225d	-0.020524198
110	0xbce731c2	-0.028221969
111	0x3b866621	0.00410153
112	0xbd04529a	-0.032305337
113	0x3ca5cd22	0.020239417
114	0x3ca739a7	0.020413233
115	0x3ce67bed	0.028135264
116	0x3cffa273	0.031205392
117	0x3c32d75c	0.0109156035
118	0x3c5419f8	0.012945645
119	0xbbc14d62	-0.0058991173
120	0x3d02aaca	0.03190116
121	0x3c69fcc4	0.014281455
122	0xbc150dc3	-0.009097519
123	0xbd097018	-0.033554167
124	0x3b55c670	0.0032619499
125	0x3ba77591	0.0051104506
126	0x3d1260bb	0.03573678
127	0x3cfb89ad	0.030705297
128	0x3d03ac51	0.032146756
129	0x3ace45c9	0.001573735
130	0x3c45598d	0.012045276
131	0xbcb8b791	-0.022548469
132	0x3c0f8dc2	0.008761825
133	0x3c3e91e0	0.011631459
134	0xbc5d2e10	-0.013499752
135	0xbca87db1	-0.020567747
136	0x3c01f016	0.007930776
137	0xbcedb8d8	-0.029018804
138	0xbc83eb83	-0.016103512
139	0x3cede5d5	0.029040257
140	0x3cabafbc	0.02095782
141	0xbd181e88	-0.037138492
142	0xbd1764fc	-0.03696154
143	0x3cbb9c39	0.022901641
144	0xbb239d46	-0.0024965568
145	0x3be8a7a9	0.007100065
146	0xbcabd1e9	-0.020974116
147	0xbc5252ec	-0.012837153
148	0x3cedf929	0.029049473
149	0xbc9a1776	-0.018810015
150	0x3c438072	0.011932479
151	0x3a6ff325	0.0009153358
152	0x3c35b173	0.0110896705
153	0x3abfbfb0	0.0014629271
154	0xbbe642fc	-0.007027028
155	0x3c4afdd8	0.012389623
156	0x3c184eab	0.0092961
157	0xbb572dff	-0.0032833812
158	0x3cc694ef	0.024240939
159	0x3d04b3d6	0.032398067
160	0x3c98964f	0.01862636
161	0xbc2c7cb2	-0.010527777
162	0xbcd7fee6	-0.026366662
163	0xbcc76e2b	-0.024344524
164	0xbc8deac9	-0.017323868
165	0xbb59dd32	-0.0033243415
166	0x3c91dd6f	0.017805783
167	0x3c1ddce2	0.009635182
168	0x3d015b62	0.03158129
169	0xbd109088	-0.035294086
170	0xbcaa82c0	-0.0208143
171	0x3d0351e5	0.032060523
172	0xbccc5e67	-0.024947358
173	0x3cbcf3ef	0.023065535
174	0x3a4a0812	0.0007706891
175	0xbb88e921	-0.0041781818
176	0x3ccd00bf	0.02502477
177	0x3ce158e8	0.027508214
178	0xbc69f3b6	-0.014279297
179	0xbafe2efe	-0.0019392667
180	0x3d070e4d	0.032972623
181	0x3cf0a073	0.029373383
182	0x3c6b369d	0.014356283
183	0xbcad48b4	-0.021152832
184	0xbcc1ee75	-0.023673275
185	0x3ccef686	0.025264036
186	0x3ca55a71	0.020184727
187	0xbb775072	-0.0037737158
188	0x3d0cfb11	0.034419123
189	0x3ccccfd9	0.025001453
190	0xbc01ebf5	-0.007929792
191	0x3c78fbdf	0.0151967695
192	0x3d0cba32	0.034357257
193	0x3ca90f7a	0.020637263
194	0xbc8b119b	-0.016976168
195	0xbd098985	-0.033578414
196	0x3c2d66a6	0.010583555
197	0x3c577b6d	0.013151986
198	0xbd0e6bd8	-0.034770817
199	0x3bac9718	0.005267035
200	0xbc6067e4	-0.013696644
201	0xbc03ec1b	-0.008051897
202	0xbce7a32e	-0.028276052
203	0xbcb7f125	-0.022453854
204	0x3ce9ce14	0.028540649
205	0x3ba6d8ab	0.005091747
206	0xbc624396	-0.013810059
207	0xbd3c007f	-0.04589891
208	0x3a43726f	0.00074557116
209	0x3a486e9b	0.0007645876
210	0xbc7fb658	-0.015607439
211	0x3d512b0e	0.05106645
212	0x3d76b872	0.060234495
213	0xbcbae976	-0.022816401
214	0xbbb457c8	-0.0055036284
215	0xbd83bcf4	-0.06432524
216	0x3d8e808d	0.06958113
217	0x3da3352c	0.07969126
218	0xbcc8b6c6	-0.024501216
219	0xbcedea2c	-0.029042326
220	0xbd14a14b	-0.036286633
221	0xbd065654	-0.032797173
222	0x3d148b21	0.036265496
223	0x3bcc1813	0.006228456
224	0xbceb330c	-0.028710864
225	0x3d0c310c	0.034226462
226	0xbc64a685	-0.013955717
227	0x3c5f692a	0.013635913
228	0x3cab626a	0.02092095
229	0x3c3174dd	0.010831085
230	0x3d066333	0.032809447
231	0xbcd0faf2	-0.025510285
232	0x3b3800fc	0.0028076759
233	0xbb0a06c5	-0.0021061164
234	0x3c8169b7	0.01579748
235	0xbc80827e	-0.015687224
236	0xbcb138a4	-0.021633454
237	0xbce2fbbf	-0.027707933
238	0x3cc526d8	0.024066374
239	0x3c2a00df	0.010376184
240	0xbd0bd247	-0.034136083
241	0xbb2e00e0	-0.0026550815
242	0xbcf66e69	-0.030081945
243	0xbcf9b377	-0.030481083
244	0x3cb471f6	0.022026997
245	0xbc972ea3	-0.018454855
246	0x3ca96f79	0.020683037
247	0x3d05c929	0.032662544
248	0x3b9af4e3	0.0047289
249	0x3c796410	0.015221611
250	0xbcfcfff0	-0.03088376
251	0xbc773a06	-0.015089517
252	0xbaff27af	-0.0019466783
253	0x3bf78856	0.0075540943
254	0x3c6a2cf3	0.014292943
255	0x3c9bf982	0.019039873
