Lecture8_Image restoration (HuStar_4)/outputs/x3/epoch_69.pth (torch, 231589 bytes, 5 tensors)

conv1.weight f4 [64, 1, 9, 9]
000000 91 99 91 3a 38 11 2f 3d 20 c4 05 bd 36 59 9c 3d
       0.0011108388 0.04274103 -0.032657743 0.07634203
000010 64 cf 72 bd 3a 16 c8 3d 99 aa 6f bd 52 28 81 bd
       -0.059279814 0.097698644 -0.058512304 -0.063065186
000020 6b 06 1f 3a cf b8 88 3d 74 72 16 bd c2 bb f8 3c
       0.0006066325 0.066758744 -0.036730245 0.030362967
000030 aa c1 d8 bd 4d b2 a6 bd 4c df 8c bd 22 ee 32 bd
       -0.105838135 -0.08139477 -0.06878528 -0.043684132
000040 0b 7f f8 bd 32 f4 92 3d da e4 44 bc b8 bb 0c 3d
       -0.121336065 0.07175483 -0.012017453 0.03435871
000050 6b 1d 8a 3d ae ec 9c 3c 7d c3 31 3d 04 08 e1 3d
       0.06743892 0.019155826 0.043399323 0.10987857
000060 b4 35 63 bd 14 6b 61 bb d9 5f 9c bd 69 b1 23 3d
       -0.055471137 -0.00343961 -0.07635469 0.039964113
000070 6f 13 ee 3c 4b c7 16 be 2c 1c db 3d 8e 4c e2 3d
       0.029062001 -0.14724462 0.10698733 0.11049758
000080 ee 2c c2 3d f3 1d 90 3d 47 00 8c 3d c5 12 3b bd
       0.09481226 0.07036962 0.068359904 -0.045672197
000090 65 22 08 be 90 bb a0 bd 85 49 b4 bd ee a8 a7 3d
       -0.1329437 -0.07848275 -0.08803085 0.08186518
0000a0 72 98 ab 3d 8e aa 69 b7 1e d5 27 3c c3 a5 b0 3d
       0.08378686 -1.3927593e-05 0.010243682 0.086253665
0000b0 39 5c 03 bd 96 62 2e bc bc 40 21 bd 43 fb d4 3c
       -0.032070372 -0.010643622 -0.039368376 0.025998717
0000c0 11 5c 2b 3e 11 92 06 3e ea 2c 3d 3d 07 c1 2c 3c
       0.1673434 0.13141657 0.04618541 0.010544068
0000d0 10 ca e6 3b 30 65 be 3c 1f 4d 4b bb 61 ad 08 be
       0.0070431307 0.02324161 -0.003102131 -0.13347389
0000e0 22 60 b8 bd 4d b4 cf 3d bf 94 12 bb 4c 65 0d be
       -0.09002711 0.101418115 -0.0022366492 -0.13808173
0000f0 83 96 45 bc b5 0b c2 3d ce 92 cd bd 2b e0 75 bc
       -0.012059811 0.09474889 -0.100377664 -0.015007059
000100 05 7d 86 bd 2c 94 35 bd 53 24 86 bd ee 99 5a bd
       -0.06566814 -0.04433076 -0.06549897 -0.053369455
000110 93 bd 28 be f8 4f 2b 3d d5 30 04 3e 07 f4 ae 3d
       -0.16478567 0.04182431 0.12909253 0.08542638
000120 7c 07 80 3d b1 b6 6e bd 39 8c b8 3b 1f 1c 24 bd
       0.062514275 -0.058279697 0.00563195 -0.04006588
000130 ec 03 dd 3c e4 4d 01 be f3 d3 d8 3b 82 b2 d6 3d
       0.02697941 -0.12627369 0.006617063 0.104832664
000140 3b 5a 20 3d a8 44 93 3c 7d cf e8 3c 95 6d de 3c
       0.03914855 0.017977074 0.02841925 0.027151862
000150 13 0c 79 bd 26 87 96 bd f4 37 fa bd 3a 61 90 3d
       -0.06080253 -0.07349996 -0.122177035 0.070497945
000160 a0 f3 05 3d b9 d0 30 3c bf 09 b1 bd f3 58 a2 3d
       0.032703042 0.010791951 -0.08644437 0.07927122
000170 93 58 5f 3d 18 c9 7c 3d d3 24 b4 bd 77 36 f7 bc
       0.05452783 0.061715215 -0.08796086 -0.030177338
000180 bf 8b e6 3d f9 e9 bb 3d e0 35 da 3d 1c 7b 1c bd
       0.11257123 0.09175486 0.10654807 -0.038203344
000190 b0 71 7e 3d dd 99 a1 bd 2b 90 0b bb 57 da c5 bd
       0.06212014 -0.07890675 -0.0021295648 -0.09660786
0001a0 89 6b 8a bd 27 f6 50 bc 12 39 15 3d ed 35 f1 3d
       -0.06758792 -0.012754 0.03643138 0.11777864
0001b0 f0 8c e0 3c 3e 86 02 bd 6a 3c b5 3d c2 1f 61 bd
       0.027410954 -0.031866305 0.08849414 -0.054961927
0001c0 f2 be 0e 3d 68 e5 7e bd 6f 35 9c bc a3 f2 b1 3c
       0.03485007 -0.062230498 -0.019068448 0.021722144
0001d0 71 c6 c3 bd 8b 5c a6 ba 53 0b b9 3c 80 2d 05 3e
       -0.09559334 -0.0012692375 0.022588408 0.13005638
0001e0 32 1a 4e bb 3d 93 1e 3d e3 c6 85 3d 0e e2 47 bd
       -0.003144872 0.038714636 0.06532075 -0.048799567
0001f0 f4 d4 ed 3d 46 a5 80 bd 48 e5 f1 3c e0 ef 8d 3c
       0.11612883 -0.062815234 0.029528275 0.017326295
000200 40 c2 70 3d 0b 76 dc 3d c6 e3 6e bd 8b 4e ff bc
       0.058779 0.107647024 -0.05832269 -0.031165382
000210 c5 2d 43 bc 15 fc 8e bd f5 fe d4 bc 75 6e ce bd
       -0.011912768 -0.069816746 -0.02600048 -0.10079662
000220 01 d8 0f 3c a5 d3 bf 3c 48 87 68 3c 88 94 81 bd
       0.008779527 0.02341635 0.01419241 -0.06327158
000230 7d 5c 95 bd 9f c3 4a bd 2a 94 64 3d b2 44 f2 3d
       -0.07293031 -0.049502965 0.055805363 0.11829509
000240 e6 01 94 3b 69 1d a2 bd bb e3 56 bd 8d 8f 58 3c
       0.004516828 -0.07915766 -0.052463274 0.013217819
000250 f7 b4 d3 bd 1c 08 10 be 12 fb 9e bd 78 f7 fd bb
       -0.10337251 -0.14065593 -0.077627316 -0.007750448
000260 e7 2e 96 3c 63 04 b3 3d f6 53 08 3d 0c 7e f2 3d
       0.018332912 0.08741071 0.033283196 0.11840448
000270 0e 5d 24 bd 2e bf d8 3c fe 2a d7 bd 0d 19 d2 3d
       -0.040127806 0.02645835 -0.10506247 0.10258684
000280 97 17 a6 3d e0 17 09 3e d7 1d 2d bd 2c 15 05 3e
       0.08109968 0.13388014 -0.042264786 0.12996358
000290 94 c3 0f 3e 37 1b 26 3e fc 7a f7 3d 0d 2b 41 3e
       0.14039451 0.16221319 0.12084004 0.18864079
0002a0 66 90 f4 3d d8 0b 9b 3d d7 08 1b bd e0 00 cd bd
       0.11941604 0.075706184 -0.037850227 -0.100099325
0002b0 21 bd 2b bd 6f f8 5b bd b7 4e 24 be b1 b2 f2 bd
       -0.041928414 -0.05370372 -0.16045652 -0.11850489
0002c0 52 54 1b be 08 75 ab bd d9 9f dc 3c a7 cc 6d bd
       -0.15168884 -0.08371931 0.02693169 -0.0580565
0002d0 cf 10 10 3c a4 20 05 bb 9c 1b ef 3c 06 c4 1b be
       0.00879307 -0.0020313645 0.02918797 -0.15211496
0002e0 bc 9d e9 bd 1d 31 73 bd 54 1c a8 bd c5 ca ea 3c
       -0.114070386 -0.05937301 -0.08208528 0.028661141
0002f0 4c 12 64 3d 9c ef 7a bd 01 07 4e bd ec 49 9f bd
       0.05568151 -0.061263666 -0.05029965 -0.07777771
000300 24 1d 8c 3d 8e 4e 0c 3e fa b2 3f bd 1b c0 a4 bc
       0.06841496 0.13701841 -0.046801545 -0.020111134
000310 9b 56 83 3d bc 62 f6 bc 46 17 ea 3d e1 2f 52 3d
       0.06413003 -0.030076377 0.1143022 0.051315192
000320 5f fb 02 b9 30 95 4e 3d 83 8a b7 3d 0b 07 11 bc
       -0.00012491409 0.050435245 0.08961966 -0.008851777
000330 4c 1c 95 bd 46 32 88 3c ec d5 00 3d f9 45 81 3c
       -0.07280788 0.016625535 0.03145401 0.015780436
000340 48 9c 6e bb 63 c1 bd 3d d7 a0 5c 3b c9 61 02 3d
       -0.003640907 0.09265401 0.0033665204 0.031831536
000350 5a 41 8d 3d 68 3a 85 bd a2 c5 2b 3d 47 63 ab bb
       0.068972304 -0.06505281 0.041936524 -0.0052303406
000360 c2 39 5d 3d f7 fb a7 bd d6 9e 84 bc 5e e4 bf bb
       0.05401016 -0.08202355 -0.01618902 -0.005856081
000370 ef 52 d0 bd 56 79 cd bd 15 37 b3 3c 97 38 1e bd
       -0.10172068 -0.100329086 0.021876851 -0.038628187
000380 9e 07 82 3d 77 03 39 bd a4 b3 c6 bc 93 29 93 bd
       0.06349109 -0.04516932 -0.024255581 -0.07185664
000390 49 58 75 3d 24 74 f3 3c 9e 4b 1a 3c 71 a1 c7 3b
       0.05989865 0.029718466 0.009417443 0.0060922434
0003a0 f9 86 81 bd ff a7 67 3d 3c c0 47 3d 25 91 73 bd
       -0.06324572 0.056556698 0.048767313 -0.059464592
0003b0 63 01 48 3d f3 46 d5 ba 3d 64 a0 bd 44 8b 9e 3d
       0.048829447 -0.0016271755 -0.07831619 0.077414066
0003c0 28 b5 83 3d 01 7c ff bc 3b e3 98 bd ab ef 68 3c
       0.06431037 -0.03118706 -0.07465216 0.014217298
0003d0 e6 f4 98 3d a9 bf 9b 3d 5c 7d ce bd c6 f2 81 bd
       0.07468586 0.07604916 -0.10082504 -0.063451335
0003e0 d2 af 9e 3d 91 54 4b 3d 54 68 5b 3d 71 ee 90 bd
       0.07748379 0.049641196 0.053566292 -0.07076729
0003f0 47 e9 d1 3d bb 37 c8 bd a7 6f af bc 18 96 61 bb
       0.10249572 -0.09776255 -0.021415545 -0.0034421738

conv1.bias f4 [64]
000000 dc 02 8c 3c b3 10 d4 bd 5a 6f d1 3c 88 cd 21 bd
       0.017091207 -0.103547476 0.025565792 -0.03950265
000010 40 fe 87 3d e8 a4 9f 3c af f9 44 3d ba fd 8f bc
       0.06640291 0.019487813 0.04808968 -0.017577041
000020 21 ac e4 3d b9 2d 19 bd f2 9d 80 3b 76 cf a4 3c
       0.111656435 -0.03739712 0.0039250785 0.020118456
000030 17 b4 0e be c5 f4 48 3e ed a6 77 3d 3d 15 81 3c
       -0.13935886 0.19624622 0.060461927 0.015757198
000040 1f b7 cb bc ca 23 50 bd 9d 11 a1 3d b5 ee c1 3c
       -0.024867592 -0.05081538 0.078646876 0.023673395
000050 35 f9 c5 3c b2 b3 6d bc 83 56 5a bd 54 7e 94 3d
       0.024166683 -0.014508175 -0.05330516 0.07250658
000060 51 3c c6 bd 3c c2 28 3d 28 31 1d bc f0 ac 5f 3c
       -0.09679473 0.04120086 -0.009594239 0.013652071
000070 96 18 af 3c 8d 5d 2f 3d e8 d4 d9 3d 53 0d 03 bc
       0.021374028 0.042813826 0.10636312 -0.007998782
000080 26 77 16 3d 8a 17 8d 3d 74 59 11 3b d0 13 81 bd
       0.036734723 0.06889255 0.0022178562 -0.06302607
000090 63 66 0f bc a3 04 8e 3d 7e b4 3b bd 3a 78 27 3d
       -0.008752438 0.06934478 -0.045826428 0.04088614
0000a0 80 d2 8e 3c 48 6d dc bc 4e fa c4 3d a7 f0 93 bc
       0.017434359 -0.026907578 0.09618054 -0.018059088
0000b0 b9 79 03 3d d6 9f 7c bc 96 86 99 bc 87 fd 9f bc
       0.032098506 -0.015418967 -0.018740933 -0.019530071
0000c0 1a 07 1c 3c 42 4e 6a bd 8b 39 87 bc db b7 a8 3d
       0.0095231775 -0.05720354 -0.01650693 0.08238193
0000d0 0b 0b 42 3c 76 29 2a 3c 96 86 93 3c 90 2b d8 3c
       0.011843453 0.010385862 0.018008512 0.02638796
0000e0 49 98 a0 3d 3e da 87 bc c3 0d 04 bc 83 09 82 3d
       0.07841546 -0.016583558 -0.008059922 0.063494705
0000f0 62 b6 a1 3c 38 54 ba bb 39 f9 28 bd 2d a0 c1 bd
       0.019740287 -0.005686309 -0.041253302 -0.09454379

conv2.weight f4 [32, 64, 5, 5]
000000 a0 1d d4 3b 88 5b 15 b9 54 ef 19 3d a3 f6 8f 3d
       0.006473258 -0.00014243845 0.037581757 0.07029464
000010 79 7c ed bd b6 88 27 3d f1 78 dd bc e5 82 62 bc
       -0.11596007 0.040901862 -0.027035208 -0.013825153
000020 b5 f1 3b 3d 7d e5 61 bc 77 db e8 3c 5f 24 36 bc
       0.045884807 -0.013787624 0.028424961 -0.01111707
000030 46 26 7f bc 83 25 a4 3b 97 79 30 3d 03 e0 89 bc
       -0.01557309 0.0050093546 0.043084707 -0.01683045
000040 9f f4 a3 3c 65 f4 cc 3c 21 69 fb 3c 07 ee 44 3d
       0.020014105 0.02501888 0.030689778 0.048078563
000050 ba 4a be bc b0 61 9c bc 4a c9 1b bd d6 f8 34 3d
       -0.023228992 -0.01908955 -0.03803376 0.04418262
000060 2d 03 24 bb 41 89 4a bb 7d 7f 95 3c a7 14 2f bd
       -0.0025026307 -0.0030904564 0.018249268 -0.042744305
000070 98 7b f9 bc f6 ca fe bc e6 97 1b bc 5f fa 68 bb
       -0.030454442 -0.031102639 -0.009496665 -0.0035549623
000080 ec 87 b6 bc 24 13 76 3b 5f f2 81 bc db df 94 3d
       -0.02228161 0.003754803 -0.015862642 0.072692595
000090 ed 77 0f bb b8 36 c2 bc 14 6f d9 3c 81 ee a9 3d
       -0.002189155 -0.023707733 0.026542224 0.08297444
0000a0 d3 44 57 3d 62 a8 54 3c ac 34 90 bd 3d d3 69 bc
       0.05255587 0.012979599 -0.07041296 -0.014271555
0000b0 02 28 44 3d d5 80 ab bd 73 83 80 bc e2 4a 35 bd
       0.047889717 -0.08374182 -0.01568768 -0.044260867
0000c0 97 e0 1a bd 63 2f c7 3b 32 7c 31 be 4c 1c 3f be
       -0.03781184 0.006078647 -0.17332533 -0.18663138
0000d0 65 6d 74 be d6 cd 46 be 3b 2f 86 be 0f fb 05 be
       -0.23869856 -0.19414458 -0.2620791 -0.13084053
0000e0 fb a0 06 be 88 d8 ac bd 0d 3a 0d bd 3b 67 c2 bd
       -0.13147347 -0.084397376 -0.03447919 -0.09492346
0000f0 d6 10 38 3d b4 8e cc 3c 9a f9 2e 3c ca 14 8f 3d
       0.04493793 0.02497039 0.010679627 0.06986387
000100 ab 92 ce 3c 79 f0 65 3d 08 17 cd 3d df ab 8f 3d
       0.025216421 0.056137536 0.100141585 0.07015204
000110 fe 95 b9 3d 34 25 81 3d d9 e4 42 3c 25 08 16 3c
       0.09061812 0.06305924 0.011895382 0.009157215
000120 dc ee f3 bc 25 07 7e ba 76 a6 fc 3c 24 58 86 3c
       -0.029776983 -0.00096903957 0.030841094 0.01639945
000130 24 d1 ad bb c3 7c 6c 3b ce 61 4e bc 6e 7a 5c bd
       -0.0053044725 0.0036085106 -0.012596561 -0.053827696
000140 70 0d d0 3c 6a 6d 0f 3d 68 b3 64 ba cf 28 a5 3c
       0.025397032 0.035016455 -0.00087242434 0.02016106
000150 b7 ba 0d 3c 71 4b c4 3b cb 27 85 bc 4f 5b 29 bd
       0.008650473 0.0059904386 -0.016254326 -0.041346844
000160 9b 43 11 3d 94 00 c8 bb 9f 77 ec bb 8f f0 77 3b
       0.035464864 -0.0061035845 -0.0072164084 0.0037832593
000170 7b c8 b6 bc 22 48 aa 3c a1 52 bd bb 85 6d c6 3c
       -0.022312393 0.020786349 -0.0057776724 0.024222145
000180 08 e4 2a bc c6 f8 14 bc e0 23 c3 bc 6f aa 53 bb
       -0.010430343 -0.009092515 -0.023820817 -0.0032297631
000190 0e 6a 98 bc 37 b8 75 bd 3f f5 04 bd c7 da 8d bb
       -0.018605258 -0.059990134 -0.032460447 -0.004329059
0001a0 c6 65 44 bc f0 b7 bd 3b 2e 37 b9 bb 00 d5 06 bc
       -0.011987155 0.0057897493 -0.00565233 -0.008229494
0001b0 7a 9f 25 ba 81 a5 88 3c 9f 22 8e 3c a1 bc 2d 3c
       -0.00063180143 0.01668048 0.017350493 0.010604055
0001c0 7d 4b 6a 3d 39 25 00 3d b7 6a 2e ba 46 7e 35 bc
       0.057200897 0.0312855 -0.0006653475 -0.011077469
0001d0 42 d9 2e 3c eb 87 9a bc 83 49 17 3b a9 75 4a 3b
       0.0106719155 -0.018863639 0.0023084588 0.0030892885
0001e0 c4 b5 24 bd 8f bf 32 bd 23 c9 64 bd dc 43 8c bd
       -0.040212408 -0.043639716 -0.05585588 -0.06848881
0001f0 ba 77 29 bd a1 bb b9 3d 23 16 89 bc 2c 23 9d 3d
       -0.041373946 0.090689905 -0.016734188 0.07672724
000200 80 d9 b5 3b c1 5d b1 3d bf b5 40 bd 8d 53 04 bd
       0.0055496097 0.0866046 -0.047048327 -0.032306243
000210 61 28 25 bd c4 4a e6 bc 49 6a d1 bb 45 0f 32 bc
       -0.04032171 -0.028111823 -0.006390844 -0.010867898
000220 59 3b b2 3b f3 69 de 3c 63 bc 6b 3b 7f a2 c3 39
       0.0054392037 0.02715013 0.0035970442 0.00037314367
000230 e4 83 87 3c b0 dc 06 3d f1 7e 0e 3d e4 88 3d 3c
       0.016542383 0.032925308 0.03478903 0.011568282
000240 fa 5d 77 3b ae a5 84 bd c6 6e 87 bd bc 57 0a bd
       0.0037745223 -0.064769134 -0.06612925 -0.033775076
000250 65 ca 91 bd 6c d0 d5 bd bd 78 22 3c 1f 6a a1 3c
       -0.07118682 -0.10440144 0.009916482 0.019703923
000260 c6 eb c3 ba 71 8e 74 3c 8c 22 12 bd 41 cd 8a ba
       -0.0014947585 0.014926539 -0.035677478 -0.0010589735
000270 f8 49 c3 bc 79 b3 04 bd 8d 5e fd bc 65 87 21 bc
       -0.023838982 -0.03239772 -0.030928874 -0.009858941
000280 5e b6 0f bd 11 80 5b bd 37 0a 54 3b 15 11 04 3b
       -0.03508603 -0.05358893 0.0032354721 0.0020151783
000290 e7 f2 2c bd 67 12 d1 b9 b5 c5 0f bc b0 0b a9 3c
       -0.042223837 -0.00039877297 -0.008775164 0.020635456
0002a0 68 4e 91 3c c8 d7 8c 3c 30 bd 4c bc c1 70 df bb
       0.017737582 0.017192736 -0.012496278 -0.0068188612
0002b0 82 5d bc 3c 32 e5 a5 3c a2 d2 a9 ba 82 dd 5f 3d
       0.022993807 0.02025089 -0.001295645 0.054654606
0002c0 89 f2 9c 3d 56 98 4a 3d d9 b8 07 bb 8f f6 40 3d
       0.076634474 0.049461685 -0.0020709543 0.047110137
0002d0 2d b2 90 3c 93 c2 c3 bc 8c 28 77 3d 58 43 d5 3c
       0.017663086 -0.023896491 0.060341403 0.026033089
0002e0 75 c6 81 bc e4 4f 77 3c f6 9f 88 bc c4 c5 6c bc
       -0.015841702 0.015094731 -0.016677838 -0.014451448
0002f0 b2 34 3f 3d 8a f5 72 3d 45 85 f2 3c d3 b4 30 bb
       0.046681114 0.059316196 0.029604563 -0.0026963248
000300 48 65 90 bd c6 22 ab 3b 12 bc 9e 3d 37 9e 8b 3d
       -0.07050568 0.005222651 0.07750715 0.068172865
000310 5b 62 d9 3d c8 99 2a bc b9 18 3f bd c3 ce 69 3d
       0.10614463 -0.010412641 -0.046654437 0.05708195
000320 db bd 7e bd bc 00 5d 3c a5 57 19 3c 4b 0c 2a bc
       -0.06219278 0.013488945 0.009359275 -0.010378907
000330 a1 e0 11 bd 84 9d 87 3d 32 83 4a 3d b3 30 4e 3c
       -0.035614613 0.066218406 0.049441524 0.012584853
000340 85 5d 02 bd 22 07 83 bc ab 44 cb 3d d4 37 1b bb
       -0.03182747 -0.015994612 0.09925207 -0.00236844
000350 e0 db fc bc eb cc 8c bb a5 b8 46 bd 7f 12 1a 3d
       -0.030866563 -0.004296889 -0.048515934 0.037615295
000360 d8 d0 a0 3c c1 da c0 3b 81 9a 9a 3b dc 36 3f bd
       0.019630834 0.0058854525 0.0047181253 -0.046683177
000370 1e 3e 61 bd 1e 11 09 3d 0e ed 9a 3c 4f 3d 33 3b
       -0.05499088 0.03346359 0.018911865 0.0027349775
000380 fe 0e 86 bb 5e af 08 3c 91 dc 86 3c fd 56 86 3c
       -0.0040911427 0.008342592 0.016462596 0.016398901
000390 9b a8 bf 3c ac 91 be 3c d1 98 9d 3c c9 88 22 3b
       0.023395827 0.023262821 0.019237908 0.0024800769
0003a0 17 ef 1d 3d 02 f1 18 3d 57 02 9f bb ca 12 e9 bc
       0.038558092 0.037339218 -0.004852574 -0.028451342
0003b0 d8 26 f4 bc 56 02 8e bc 28 19 71 39 73 5c 89 bc
       -0.029803678 -0.017335098 0.00022992922 -0.016767716
0003c0 4a be 63 bd 4b f4 23 bd c6 e2 f6 bc f9 95 c5 bc
       -0.055601396 -0.040027898 -0.03013743 -0.024119364
0003d0 b7 b6 58 bc 6d 81 61 bd 4d 00 57 bd 4d d4 4f bd
       -0.013227156 -0.05505507 -0.05249052 -0.050739575
0003e0 a0 f7 07 bd 6d 3b 2a bc b8 06 ab bc 45 85 04 bd
       -0.033195138 -0.010390145 -0.020877227 -0.03235366
0003f0 68 2b 9f bc c7 db 83 3c 55 f1 86 3c 79 f8 08 bd
       -0.019429877 0.016096009 0.016472498 -0.033440087

conv2.bias f4 [32]
000000 dd d9 b6 bc d5 23 88 bc 30 c7 44 bb 3a 5d 84 bc
       -0.022320682 -0.016618649 -0.0030025952 -0.016157735
000010 2e e9 e0 3c 72 f7 91 3c 58 31 a8 bb 31 c4 2e 3c
       0.027454939 0.017818186 -0.0051328354 0.010666893
000020 12 55 85 3c 02 14 22 bc e4 d4 8c ba 47 34 7d bc
       0.016275916 -0.009892466 -0.0010744599 -0.015454358
000030 8b 9f f3 3c f7 5e 05 3c 67 c8 54 3d df f2 15 ba
       0.029739162 0.008140317 0.05194893 -0.00057200895
000040 3e ad 5e bc 59 1b 83 bc ef b0 76 3b 23 f3 cc 3c
       -0.013591109 -0.016004251 0.0037642082 0.02501828
000050 d8 7b b3 3c 37 d7 5c 3c da a2 9d bc c0 3c fc 39
       0.02190964 0.013479046 -0.019242693 0.00048110448
000060 ed 91 0c bc b6 de 0e 3d 33 b6 d6 3c ec 58 a4 3c
       -0.008579713 0.034880362 0.026209926 0.020061933
000070 68 79 2d 3c f9 8a 14 ba 6a 0f ba bc a2 77 51 3b
       0.010588028 -0.00056664605 -0.022712428 0.0031962176

conv3.weight f4 [1, 32, 5, 5]
000000 1a db 97 3c df e7 90 3c 83 6f f8 39 ed e5 e0 3c
       0.018537093 0.01768869 0.0004738533 0.027453387
000010 77 82 03 3d 7b 9e fb bc a5 56 f3 ba 32 f7 21 bd
       0.032106843 -0.030715218 -0.0018565251 -0.039542384
000020 fd f2 dd ba 7c b6 1f 3c bf 43 fb bb 84 10 be 3c
       -0.0016933378 0.0097480975 -0.007667988 0.023201235
000030 0e 06 00 3b 99 2b 27 bd a5 19 12 bc df 33 95 bc
       0.001953486 -0.040813062 -0.008917247 -0.01821321
000040 fc e1 ee bc af df 53 bb 0f 28 0f bd 3f 14 96 3c
       -0.029160492 -0.003232937 -0.034950312 0.018320201
000050 c4 5f 99 3b b8 fc 88 3c f8 52 cd 3c 23 a9 07 3d
       0.0046806056 0.016722068 0.025063977 0.033120286
000060 3f ad 61 bc 50 b8 b7 3a 85 4b 0b bd 0b aa 05 3c
       -0.013774215 0.0014016721 -0.034007568 0.008158217
000070 92 96 d6 3c da da bc bc 9b 5b a2 3c f4 a7 86 bc
       0.026194844 -0.023053575 0.019819072 -0.016437508
000080 58 d2 29 3c 04 43 83 bc 59 d1 ca 3b ca 2f 0c bd
       0.010365091 -0.016023166 0.006189507 -0.034225263
000090 1d c0 d8 3c 5c bb 00 bc b4 79 03 3d da df 55 bc
       0.026458794 -0.00785717 0.032098487 -0.013053859
0000a0 16 87 73 3c 26 98 8f bc 88 20 82 bc 71 35 28 bc
       0.01486375 -0.017528605 -0.015884653 -0.010266648
0000b0 8c 4e 88 3c 2d 35 6b 3c a8 d7 a5 3c 74 6b d6 bb
       0.016639017 0.01435594 0.020244434 -0.006543571
0000c0 2a ae 5e 3b 34 61 b1 3c e7 67 62 bc a8 da 34 bc
       0.0033978322 0.021652795 -0.013818718 -0.01103846
0000d0 7e 0d de 3c 52 bb f5 bc 45 69 8c bc 5c b4 9d bc
       0.027106043 -0.029996548 -0.01714004 -0.019251041
0000e0 e6 fe e1 bb 4a a3 d3 bc b8 fc 07 3c 9b d1 c7 bc
       -0.0068968413 -0.025834698 0.008299999 -0.02439194
0000f0 15 c2 79 bc 8b 6c 0b bd 0d 3c bf 3c c3 9d b4 bc
       -0.015244027 -0.03403906 0.023344064 -0.022047883
000100 c9 8d 91 bb 5b c0 a9 bc 83 aa 8f bb 7d b9 ea bb
       -0.004441951 -0.020721605 -0.0043843403 -0.007163225
000110 74 f3 3f bc c5 7f 37 ba 14 00 78 3c 25 13 f0 3c
       -0.011715759 -0.0006999935 0.015136737 0.029306004
000120 42 6e d3 3c fd 32 d6 bc b8 dd 88 bb 08 49 69 bd
       0.025809411 -0.02614736 -0.0041768216 -0.056954414
000130 f0 51 6a 3c 78 ea 54 3c 86 78 ed bb dd 8d b7 3b
       0.014301762 0.012995355 -0.0072470335 0.005601628
000140 30 6c 1a 3d e3 9b 54 3d 0f 61 b8 3b 0a 27 34 bc
       0.037700832 0.051906478 0.0056268047 -0.010995636
000150 28 f6 02 3c 90 93 53 3d 88 71 2a 3d aa 29 d0 3b
       0.007993259 0.0516544 0.041612178 0.006352623
000160 22 1e c9 bc c3 55 e0 b9 e6 1f f5 3b e3 ff 95 bc
       -0.024550501 -0.00042788507 0.007480609 -0.018310493
000170 4d d8 96 bd 85 cb 33 bd 4b ed a4 3a 44 04 f9 bb
       -0.07365475 -0.043895263 0.0012582926 -0.0075993855
000180 2d 11 ca bc 98 f0 fa bc d9 31 1e 3b bd 62 34 3d
       -0.024666393 -0.030632302 0.0024138598 0.044039477
000190 fd 92 b1 3b 83 14 eb 3b d6 d4 66 3c f9 86 49 bb
       0.0054191337 0.007174076 0.01408883 -0.0030750616
0001a0 74 22 76 3b 1c de 09 bc 70 47 ff 3c 43 f8 11 ba
       0.0037557157 -0.008414771 0.031161994 -0.0005568305
0001b0 83 6e cc 3c 40 0a a8 bc a6 8a e7 bc 96 29 85 3b
       0.02495504 -0.0205127 -0.028264355 0.0040637953
0001c0 6a 70 04 bd 8f c8 a5 3c c1 63 a7 3c 50 1c e6 3c
       -0.03233377 0.020237235 0.020433309 0.028089672
0001d0 ed 30 ff 3c bc 73 32 3c 7b 0e 54 3c 0d 42 c1 bb
       0.03115126 0.010891851 0.012942906 -0.0058977664
0001e0 51 a2 02 3d df 5b 69 3c ad 65 15 bc 25 78 09 bd
       0.03189308 0.014243095 -0.00911848 -0.033561844
0001f0 d5 84 54 3b d6 32 a5 3b 0a 19 13 3d 90 70 fd 3c
       0.0032427807 0.0050414605 0.03591255 0.030937463
000200 fa 7a 03 3d f8 e3 ba 3a 6c 45 48 3c 02 4e b6 bc
       0.0320997 0.0014258614 0.012223583 -0.022253994
000210 66 90 11 3c a5 a6 3f 3c 9a a9 57 bc c6 83 a9 bc
       0.008884525 0.011697446 -0.013162995 -0.020692717
000220 dd b4 f6 3b f4 c4 f1 bc c1 99 86 bc c5 c3 ed 3c
       0.007528885 -0.02951286 -0.016430737 0.029024014
000230 1a 82 a8 3c c2 4e 19 bd b1 51 18 bd ca 11 bb 3c
       0.02056985 -0.037428625 -0.037187282 0.02283563
000240 5f 57 08 bb ec a6 ec 3b ea 95 aa bc 45 df 51 bc
       -0.002080403 0.007222047 -0.020823438 -0.012809579
000250 ce b6 ef 3c a6 c2 94 bc 3a 58 42 3c 7a 2f 5e 3a
       0.029261973 -0.018159222 0.011861855 0.00084757025
000260 6d c4 34 3c e4 e4 ba 3a f2 68 e6 bb 82 66 4a 3c
       0.01103316 0.0014258889 -0.0070315534 0.012353541
000270 78 66 17 3c cd 54 5a bb b5 6d c6 3c 04 b4 04 3d
       0.009240739 -0.0033314705 0.024222234 0.03239824
000280 eb ad 98 3c d2 fd 2c bc 13 3a d8 bc 02 77 c7 bc
       0.018637618 -0.010558562 -0.02639488 -0.02434874
000290 6d fc 8d bc 62 ba 59 bb a5 be 91 3c 3f 1a 1e 3c
       -0.01733228 -0.0033222665 0.017791102 0.009649812
0002a0 97 7c 01 3d 6b b9 10 bd 13 b8 aa bc 42 41 03 3d
       0.03161296 -0.03533308 -0.020839727 0.032044657
0002b0 9a 32 cc bc f5 19 bd 3c b2 af 42 3a fe d3 89 bb
       -0.024926472 0.023083666 0.00074266933 -0.0042061796
0002c0 d2 dd cc 3c e2 6e e1 3c ff c4 69 bc 6a ae fd ba
       0.025008116 0.027518693 -0.014268159 -0.0019354348
0002d0 2e ec 06 3d 05 5e f0 3c dd 19 6b 3c e0 4b ad bc
       0.032940082 0.029341707 0.014349428 -0.021154344
0002e0 f6 fe c1 bc 2c bd ce 3c 85 03 a5 3c a0 15 78 bb
       -0.023681145 0.025236689 0.02014328 -0.0037854686
0002f0 6b fc 0c 3d b1 cb cc 3c f6 49 02 bc 0d 77 78 3c
       0.034420412 0.024999471 -0.007952204 0.015165103
000300 8a b0 0c 3d e3 23 a9 3c 35 fa 8a bc be 9e 09 bd
       0.03434805 0.020646995 -0.016965011 -0.033598654
000310 7a 2b 2d 3c 16 75 57 3c 82 5d 0e bd 33 fb ac 3b
       0.010569448 0.013150474 -0.034757145 0.0052789687
000320 93 5f 74 bc ff 4a 15 bc 94 c1 ea bc 8f 87 bb bc
       -0.014915365 -0.009112119 -0.028656758 -0.022891788
000330 45 17 e4 3c 41 21 60 3b f0 de 5c bc 8e d2 3b bd
       0.027843127 0.0034199508 -0.013480887 -0.045855097
000340 0d 2e 6a 3a bf fd fc 39 f1 c3 7f bc 0d 0d 59 3d
       0.00089332537 0.0004825424 -0.015610681 0.05299096
000350 ed 53 76 3d db 57 b8 bc c7 2d c9 bb ac 7f 85 bd
       0.06013863 -0.02250283 -0.0061394903 -0.06518492
000360 b3 27 8f 3d c1 06 a6 3d d5 14 bd bc 9f d9 ee bc
       0.06989994 0.08106757 -0.023081223 -0.029156504
000370 8c e8 1b bd ac 38 0a bd 62 e0 15 3d 2a 5f 0c 3c
       -0.03806357 -0.033745453 0.03659094 0.008567611
000380 92 94 f0 bc 46 01 0c 3d a7 75 66 bc 98 d6 5c 3c
       -0.029367719 0.034180902 -0.014066136 0.0134788975
000390 ac 54 aa 3c 42 c4 30 3c b9 2a 06 3d a6 5d d1 bc
       0.020792328 0.010788979 0.032755587 -0.02555735
0003a0 fa 62 33 3b 98 ea 0e bb e7 00 81 3c b8 c5 80 bc
       0.0027372227 -0.002180731 0.0157475 -0.01571928
0003b0 6a 5c b1 bc c2 e9 e2 bc 41 52 c5 3c 29 fc 29 3c
       -0.021650512 -0.027699355 0.024087073 0.010375061
0003c0 c5 0c 0c bd 82 3f 2e bb 50 3c f6 bc 13 6f f9 bc
       -0.034191865 -0.0026588147 -0.030058056 -0.030448472
0003d0 f9 9b b4 3c e8 01 97 bc f8 b1 a9 3c 3e 18 06 3d
       0.02204703 -0.018433526 0.020714745 0.032737963
0003e0 3e 8f 9d 3b 73 93 7a 3c f0 ff fc bc 06 3a 77 bc
       0.0048083356 0.015293944 -0.03088376 -0.015089517
0003f0 af 27 ff ba 56 88 f7 3b f3 2c 6a 3c 82 f9 9b 3c
       -0.0019466783 0.0075540943 0.014292943 0.019039873
